best_lstm_1step.pt (torch, 206149 bytes, 9 tensors)

lstm.weight_ih_l0 f4 [256, 1]
0	0xbc0d31a3	-0.008617791
1	0xbc9dad24	-0.019247599
2	0xbd42b1a7	-0.047532704
3	0x3dcd0f59	0.10012693
4	0xbda47509	-0.08030135
5	0x3e0d6b39	0.13810433
6	0x3e177190	0.14789414
7	0xbcffcb0a	-0.031224746
8	0x3d4d97d1	0.05019361
9	0x3dd634c0	0.1045928
10	0x3cd7d241	0.026345374
11	0xbbaa9877	-0.0052061635
12	0xbcefff23	-0.029296463
13	0xbd0f0a99	-0.034922216
14	0xbbdff7cf	-0.006834961
15	0x3b770d4c	0.0037697135
16	0x3d8f66f2	0.07002057
17	0x3e388a71	0.18021561
18	0x3d83084c	0.06398067
19	0x3d1104df	0.035405036
20	0x3d13b182	0.036057957
21	0x3decd6a5	0.11564378
22	0x3e17206c	0.14758462
23	0x3e00490c	0.12527865
24	0xbd95f18c	-0.07321462
25	0x3d1bf83b	0.038078528
26	0x3d3b5cb9	0.045742724
27	0x3e3122f8	0.17298496
28	0xbdadcfa5	-0.08486871
29	0x3c180649	0.009278842
30	0xbd39ee57	-0.045393314
31	0xbd2a2f08	-0.04154876
32	0xbd4a0ec1	-0.049330477
33	0xbe0edb12	-0.13950756
34	0x3dfece1e	0.124416575
35	0x3d6324d2	0.055455036
36	0x3e286a14	0.16446716
37	0x3d30242c	0.043003246
38	0xbca2546b	-0.019815644
39	0x3e13a13e	0.14416978
40	0x3d962007	0.073303275
41	0x3acff3c7	0.0015865498
42	0xbdcfa78a	-0.101393774
43	0xbd56b324	-0.052416936
44	0xbdf4eac3	-0.1195884
45	0x3cdeea6c	0.02721139
46	0x3de4994e	0.11162053
47	0xbd9ef26a	-0.077610806
48	0x3e382831	0.17984082
49	0x3d9db400	0.07700348
50	0xbd1ad298	-0.037798494
51	0x3dc6becd	0.09704361
52	0x3d86e9b0	0.06587541
53	0x3ddb40f2	0.10705747
54	0x3d43c337	0.047793593
55	0xbce18bdd	-0.027532512
56	0x3dd75563	0.10514333
57	0xbe4e726a	-0.20160833
58	0x3e261f76	0.16222939
59	0x3d672e2c	0.056440517
60	0x3c15ed97	0.009150884
61	0x3e031b8c	0.12803477
62	0x3dbeb815	0.093124546
63	0xbd86f2c6	-0.06589274
64	0x3dee24fc	0.11628148
65	0xbd10c433	-0.03534336
66	0xbdfad6b8	-0.122479856
67	0xbd297053	-0.041366886
68	0x3dfef5d2	0.1244923
69	0x3ce7e06a	0.028305251
70	0x3e04b9f7	0.12961565
71	0x3e031148	0.12799561
72	0xbd4f5f45	-0.050627965
73	0x3ba55af0	0.005046241
74	0x3c9de736	0.019275289
75	0xbce02bcd	-0.027364636
76	0xbc3d8e26	-0.011569535
77	0x3e25b83c	0.16183561
78	0x3abfcb7c	0.0014632787
79	0xbcffaab9	-0.031209337
80	0xbd5ca716	-0.053870283
81	0x3e059132	0.13043669
82	0x3dd19a30	0.10234487
83	0xbd9b0c4f	-0.07570707
84	0x3d396c15	0.04526909
85	0xbd6dae2a	-0.058027424
86	0x3d22219a	0.039582826
87	0xbc918784	-0.017764814
88	0x3db29860	0.087204695
89	0x3e0c1bc6	0.1368247
90	0xbcc64a55	-0.024205366
91	0x3c100e81	0.0087925205
92	0xbd514df9	-0.05109975
93	0x3b2ec2c2	0.0026666378
94	0xbdbef519	-0.093240924
95	0xbd8f6290	-0.07001221
96	0x3db956d4	0.09049764
97	0xbd8328e0	-0.06404281
98	0x3e115094	0.14190894
99	0xbcfe0dd5	-0.031012455
100	0xbd203c2d	-0.039119888
101	0xbd7f15eb	-0.062276762
102	0x3ca04a6a	0.019566733
103	0x3e34d317	0.1765865
104	0xbd3d9f89	-0.046294723
105	0xbceaa989	-0.028645294
106	0xbd51a4b5	-0.051182467
107	0x3c4d91ab	0.012546937
108	0xbcd6a5ab	-0.026202044
109	0xbd1aca1f	-0.037790414
110	0x3d53f3bf	0.051746126
111	0x3d680fa6	0.05665555
112	0x3cfbc840	0.030735135
113	0xbc0c3f28	-0.0085599795
114	0xbd0f09c2	-0.034921415
115	0x3e15f756	0.14645132
116	0x3e3a5624	0.18196923
117	0x3dbf213a	0.09332509
118	0x3e2843c3	0.16432099
119	0x3e05b5b4	0.13057595
120	0x3dacb787	0.084334426
121	0xbe39472a	-0.18093553
122	0x3e218fd6	0.15777525
123	0xbd86a41b	-0.065742694
124	0x3e158317	0.14600788
125	0x3b1a3357	0.0023529136
126	0x3df05670	0.11735237
127	0x3e09f2b0	0.13471484
128	0x3c1976ea	0.00936673
129	0xbdeb6e60	-0.11495662
130	0x3dc7dbb1	0.097587
131	0x3d8e07ab	0.06935056
132	0x3dd092e7	0.101842694
133	0xbe2fd7b9	-0.17172135
134	0x3e24da4e	0.16098902
135	0x3df6f634	0.12058678
136	0xbdf6f1cd	-0.120578386
137	0xbe11e6b7	-0.14248167
138	0x3dae7847	0.08519035
139	0x3e3e8a82	0.18607524
140	0x3e366f57	0.1781591
141	0x3e3a0c15	0.18168671
142	0xbd81937b	-0.06326958
143	0x3d62397e	0.05523061
144	0x3dfb51b9	0.12271447
145	0xbd206805	-0.0391617
146	0x3e4eb95e	0.201879
147	0xbcc76b57	-0.024343176
148	0x3e06d4cb	0.13167112
149	0xbd9534bf	-0.07285451
150	0x3db284af	0.08716714
151	0xbd93eefc	-0.07223317
152	0x3d9f1558	0.07767743
153	0xbe210be1	-0.15727188
154	0x3df0186e	0.117234096
155	0xbe3762ce	-0.17908785
156	0xbd9cc445	-0.07654623
157	0xbd7664e1	-0.0601548
158	0xbe29c2d5	-0.16578229
159	0xbce37fe7	-0.02777095
160	0x3e088def	0.13335393
161	0xbd26e89c	-0.040749177
162	0xbdecf11f	-0.11569428
163	0x3d827f26	0.06371908
164	0x3c542931	0.012949274
165	0xbe3ccd90	-0.18437791
166	0xbc4a79a8	-0.012358107
167	0x3df68b97	0.120383434
168	0x3c369054	0.011142809
169	0xbd230d1c	-0.039807424
170	0x3df2f978	0.11863989
171	0x3e3e7e05	0.1860276
172	0xbd2e31c1	-0.042527918
173	0xbd0d5889	-0.03450826
174	0xbe035394	-0.12824851
175	0x3d0d4f15	0.034499247
176	0x3e1be4ea	0.15224043
177	0x3e2c6c4f	0.16838191
178	0x3dee2d75	0.11629764
179	0xbe181e5a	-0.14855328
180	0x3e019b99	0.12657012
181	0x3c9fdfa8	0.019515827
182	0xba9298ca	-0.0011184451
183	0xbe133f9d	-0.14379735
184	0xbcebff74	-0.028808333
185	0x3da28780	0.07936001
186	0xbdb18eac	-0.086697906
187	0x3d9adc7a	0.07561584
188	0x3d878acf	0.066182725
189	0xbbe1cf06	-0.006891134
190	0x3dc66abb	0.09688326
191	0x3aa9f674	0.0012967126
192	0x3e1ce645	0.15322216
193	0xbe13eb9f	-0.14445351
194	0xbe0a96a6	-0.1353403
195	0xbb649d44	-0.0034883777
196	0xbdd55662	-0.10416867
197	0x3e182559	0.14857997
198	0x3e0ac204	0.13550574
199	0x3d735d03	0.059414875
200	0x3b60cfac	0.003430347
201	0x3df04bff	0.11733245
202	0x3d47978d	0.048728514
203	0x3d495df1	0.049161855
204	0x3d2718f0	0.040795267
205	0xbd479454	-0.04872544
206	0x3b7aff02	0.003829897
207	0xbe03a3a1	-0.12855388
208	0x3ce2f301	0.027703764
209	0x3e218a4c	0.15775412
210	0x3c068d5c	0.008212414
211	0x3dcfc301	0.10144616
212	0x3d4e1de9	0.050321493
213	0xbd35bfc1	-0.044372324
214	0x3d8eb16e	0.06967436
215	0x3a9095c6	0.0011030964
216	0xbe037836	-0.12838826
217	0xbd850098	-0.06494254
218	0x3ceed44d	0.029153967
219	0x3d1d3305	0.038378734
220	0xbca07bfb	-0.019590368
221	0xbd4b77e8	-0.0496749
222	0x3dbdab0c	0.0926114
223	0xbc9df399	-0.019281195
224	0x3d8812d3	0.066442154
225	0xbdff5c50	-0.12468779
226	0x3db2f8ea	0.08738883
227	0xbcc85b64	-0.024457641
228	0x3e315981	0.173193
229	0x3d15f208	0.036607772
230	0x3e08e002	0.13366702
231	0x3dbc5ce2	0.091974035
232	0x3e0f75c7	0.14009772
233	0x3c6e2108	0.014534242
234	0xbd30ffee	-0.043212824
235	0x3e360350	0.17774701
236	0xbdaf5400	-0.085609436
237	0x3e0f98f8	0.14023197
238	0x3c9f2c4a	0.019430298
239	0xbd32c7e9	-0.04364768
240	0xbd0506f8	-0.03247735
241	0xbd41c54d	-0.0473073
242	0xbd23874b	-0.039923947
243	0x3e0d7f6c	0.13818139
244	0x3e334370	0.17506194
245	0x3dc1c4cd	0.09461365
246	0x3e204ab0	0.15653491
247	0x3d865f43	0.065611385
248	0x3e30a19f	0.17249154
249	0xbe505f01	-0.20348741
250	0xbd5a18d2	-0.053246327
251	0x3bb3c7bf	0.005486458
252	0x3d9e2ce4	0.07723406
253	0x3cec34e9	0.028833823
254	0x3e07c48d	0.13258572
255	0xbc3ecf55	-0.0116461115

lstm.weight_hh_l0 f4 [256, 64]
0	0x3df63471	0.12021721
1	0xbe030fc8	-0.12798989
2	0xbce9a21d	-0.028519684
3	0x3c24848a	0.010041365
4	0xbd8bdb47	-0.06828933
5	0x3d4e1621	0.050314073
6	0x3c39a045	0.011329715
7	0xbd420584	-0.04736854
8	0x3d509055	0.050918896
9	0x3d93854a	0.07203157
10	0xbd70bfa2	-0.058776505
11	0x3d9aee5e	0.07564996
12	0x3d8d0be3	0.06887033
13	0xbd3dda90	-0.046351016
14	0x3bb0963c	0.005389003
15	0x3db0ed8e	0.0863906
16	0xbd048ede	-0.03236281
17	0xbcf9cd2f	-0.030493347
18	0x3de119b8	0.109912336
19	0x3db95ce9	0.09050924
20	0xbbeffce7	-0.0073238495
21	0x3d2a7e68	0.041624457
22	0x3d2a4a1e	0.04157459
23	0xbdd17f02	-0.10229303
24	0x3cced405	0.025247583
25	0x3d1a66b5	0.037695605
26	0xbdcb3d25	-0.09923772
27	0xbdd48cff	-0.10378455
28	0xbd9e0afb	-0.07716938
29	0xbdb9156d	-0.0903729
30	0xbdfcc6a6	-0.12342577
31	0xbd5f473b	-0.05451129
32	0x3dc7d8c1	0.097581394
33	0xbc5e807e	-0.01358044
34	0x3c43a9c2	0.011942329
35	0xbdd1f36c	-0.10251507
36	0x3ba9c70e	0.0051812
37	0xbd962c7d	-0.07332704
38	0xbdcf3b60	-0.10118747
39	0x3c0e2f21	0.008678229
40	0xbcbb7926	-0.022884917
41	0xbcec1418	-0.028818175
42	0xbd509424	-0.050922528
43	0x3d176c85	0.036968727
44	0x3d3786b2	0.04480619
45	0x3d0c33c5	0.03422906
46	0xbc91f845	-0.01781858
47	0xbd3d0a08	-0.046152145
48	0xbbacaf07	-0.0052698883
49	0x3db12410	0.086494565
50	0x3dc4cc11	0.09609235
51	0xbc5b4617	-0.01338341
52	0x3dfc4c64	0.12319258
53	0x3da01c70	0.07817924
54	0x3ccf5d49	0.025313037
55	0xbcb7b991	-0.022427352
56	0xbcf7352d	-0.030176723
57	0x3da64c21	0.08119989
58	0xbd1d3bc0	-0.03838706
59	0xbdc3336c	-0.09531292
60	0x3da188ae	0.07887398
61	0x3d93e2a3	0.07220962
62	0x3cf1d14e	0.02951875
63	0x3c0a223f	0.0084310165
64	0x3d3f843b	0.046756964
65	0xbd9c8a72	-0.07643594
66	0xbe012105	-0.12610252
67	0xbcbcd333	-0.023049926
68	0xbdbfe437	-0.093697004
69	0x3dd7ce52	0.10537399
70	0xbc7ecde7	-0.015552021
71	0x3d55481b	0.05207072
72	0x3da89c6d	0.08232961
73	0x3e15179e	0.1455979
74	0x3cd16e81	0.025565388
75	0x3cfeb563	0.031092351
76	0xbc6d21ce	-0.014473392
77	0xbd9e49db	-0.077289306
78	0x3c7b8ac6	0.01535291
79	0xbd865f6f	-0.06561171
80	0x3d4cd621	0.050008897
81	0xbdeee630	-0.116649985
82	0xbd3f3103	-0.0466776
83	0x3d91735f	0.071020834
84	0x3d9cdd05	0.07659344
85	0xbcb8c732	-0.022555921
86	0xbd75ee97	-0.06004199
87	0xbda5632e	-0.08075558
88	0xbe0c20ba	-0.13684359
89	0x3e0331e7	0.12812005
90	0x3d8aac8c	0.06771192
91	0xbdc70ab0	-0.09718835
92	0x3e136236	0.14392933
93	0xbda3d1bd	-0.07998989
94	0x3ddd2e42	0.107998386
95	0xbcce42be	-0.02517831
96	0xbe0eaa23	-0.1393209
97	0x3dfd086a	0.123551205
98	0xbc82df4a	-0.015975613
99	0xbd5366ff	-0.051611897
100	0xbd9ff5e2	-0.0781057
101	0xbc2015db	-0.009770836
102	0xbd8f424c	-0.06995067
103	0x3d81b691	0.0633365
104	0x3da2a6d9	0.0794198
105	0x3cf957ef	0.030437438
106	0xbe0e49c3	-0.13895325
107	0xbd8f8d40	-0.07009363
108	0xbd1c79ca	-0.038202085
109	0x3d91665b	0.07099601
110	0x3de53622	0.11191966
111	0x3d03626e	0.03207629
112	0x3d08d3ea	0.033405222
113	0xbdd4eb40	-0.10396433
114	0xbda53668	-0.08067018
115	0xbd03fb29	-0.032221947
116	0xbdf9b58e	-0.12192832
117	0xbcf28c33	-0.029607868
118	0x3d7647a9	0.060126934
119	0xbd3ba1e3	-0.045808684
120	0x3d608ce3	0.05482186
121	0xbdcb6f94	-0.09933391
122	0xbd9d05bb	-0.076671086
123	0x3d976c69	0.073937245
124	0xbd7defc0	-0.06199622
125	0x3d381a5f	0.044947024
126	0xbd75eb55	-0.060038883
127	0x3d5e60f3	0.054291677
128	0xbdcddbb4	-0.10051671
129	0x3d237c38	0.039913386
130	0x3cedd785	0.029033432
131	0x3e0cbe7c	0.13744539
132	0x3db9a471	0.09064568
133	0x3d023b87	0.03179505
134	0x39ad10ff	0.00033009794
135	0x3cb80ac4	0.022466071
136	0x3e19e31c	0.15028042
137	0x3bc42835	0.0059862384
138	0x3d9324fa	0.07184787
139	0xbbd0373e	-0.0063542416
140	0xbdac3547	-0.08408599
141	0xbca3deb6	-0.020003658
142	0x3d86a97c	0.06575295
143	0xbdd24d5f	-0.102686636
144	0xbd967110	-0.07345784
145	0x3cd3456d	0.02578994
146	0xbc95399c	-0.018215947
147	0x3c085338	0.008320622
148	0xbe171021	-0.14752246
149	0x3db6608d	0.08905134
150	0xbdeed7ae	-0.116622314
151	0x3de775ae	0.113017425
152	0xbdf75628	-0.1207698
153	0xbc0c0845	-0.0085468935
154	0xbe02b8d8	-0.12765825
155	0x3adf3936	0.00170306
156	0x3c8dc67d	0.01730656
157	0x3bc3e703	0.0059784665
158	0xbd8bdda1	-0.06829382
159	0xbd14cffa	-0.036331154
160	0x3ca8f00c	0.020622276
161	0x3de9bf16	0.114134
162	0xbd52facd	-0.051508714
163	0xbddbb327	-0.1072753
164	0xbdd4c490	-0.10389054
165	0xbdb6e631	-0.08930624
166	0xbdfdfe4e	-0.124020204
167	0xbd749de3	-0.059720885
168	0xbc57406a	-0.013137916
169	0xbc2396c7	-0.009984679
170	0xbd73fcc3	-0.059567224
171	0xbdafb207	-0.08578878
172	0x3d76655b	0.060155254
173	0xbd997515	-0.07493035
174	0x3d2e9221	0.042619828
175	0xbced6b4d	-0.028981829
176	0x3ccfc4aa	0.025362331
177	0xbdc49b85	-0.095999755
178	0x3d59c8a7	0.053169873
179	0x3e012567	0.12611924
180	0xbd96a30f	-0.0735532
181	0xbda8d71f	-0.08244156
182	0x3d4e1820	0.050315976
183	0x3e19c104	0.15015036
184	0x3d1615db	0.036641937
185	0xbe25e52a	-0.162007
186	0x3e2173bb	0.15766804
187	0xbe0390ff	-0.1284828
188	0xbd54ee75	-0.051985223
189	0xbe044ae5	-0.12919195
190	0xbc60fe98	-0.013732575
191	0x3dfd1646	0.12357764
192	0xbdc8bc7b	-0.09801575
193	0x3dc0b839	0.09410138
194	0x3dc2ec71	0.09517754
195	0xbdb23994	-0.087023884
196	0xbd8576e8	-0.0651682
197	0x3d867885	0.06565956
198	0x3cbcf56e	0.023066249
199	0x3d3d34be	0.046192877
200	0xbd8d3767	-0.06895333
201	0x3db0d72e	0.08634792
202	0xbd98c522	-0.07459475
203	0xbd88f8f2	-0.066881076
204	0x3e00c3f2	0.12574747
205	0xbde6039e	-0.11231159
206	0x3db9d80e	0.09074412
207	0xbd6a9e61	-0.05727995
208	0xbd14d648	-0.036337167
209	0x3dbd8fbb	0.0925593
210	0xbd9097a1	-0.07060171
211	0x3c717f4d	0.0147398235
212	0x3d55092b	0.052010696
213	0x3d53202e	0.05154436
214	0xbd8b60db	-0.06805583
215	0x3dcccf4d	0.10000477
216	0xbd68899c	-0.05677186
217	0xbda09c25	-0.07842282
218	0xbd385789	-0.045005355
219	0x3da48c3f	0.08034562
220	0xbc6687bc	-0.0140704475
221	0x3dd91230	0.10599172
222	0x3cc20915	0.023685971
223	0xbdee48d3	-0.11634984
224	0x3d6f534b	0.058429044
225	0xbd96caa2	-0.07362868
226	0xbd8304ed	-0.06397424
227	0x3dc1d6df	0.094648115
228	0x3d86a413	0.065742634
229	0xbd7d4179	-0.061830018
230	0xbdd65ae3	-0.10466554
231	0xbd795458	-0.060871452
232	0xbdcde01e	-0.100525126
233	0xbd321dd8	-0.043485492
234	0x3c8409b3	0.016117906
235	0x3dfbcf9b	0.12295457
236	0x3deedb88	0.11662966
237	0xbc7a4240	-0.015274584
238	0xbdb1890a	-0.08668716
239	0xbd1004f2	-0.035160966
240	0xb9e96089	-0.00044513147
241	0xbcc20256	-0.023682754
242	0xbdcd4618	-0.10023135
243	0xbd15e99a	-0.036599733
244	0x3c9d76cd	0.019221688
245	0x3dc884e7	0.09790974
246	0x3daed791	0.0853721
247	0xbc018b91	-0.00790681
248	0xbdf783fe	-0.120857224
249	0xbd13fe69	-0.036131296
250	0x3dbb029e	0.091313586
251	0x3c0ae768	0.008478023
252	0x3df1b39d	0.11801837
253	0xbd4057c7	-0.04695871
254	0x3c389481	0.011265875
255	0xbdef83a5	-0.11695031

lstm.bias_ih_l0 f4 [256]
0	0x3bf13025	0.0073604756
1	0x3cc576d5	0.024104515
2	0xbde7c754	-0.11317316
3	0xbdd5c464	-0.10437849
4	0xbdd49da2	-0.103816286
5	0x3d9cb51d	0.07651732
6	0xbcee8a55	-0.029118696
7	0x3c3f16b3	0.011663127
8	0x3e01385a	0.12619153
9	0xbd0ac86a	-0.033882536
10	0x3cdb513c	0.026772134
11	0x3d841eec	0.064512104
12	0xbd9e60f8	-0.07733339
13	0x3d02c0e2	0.03192223
14	0xbd7f1ea1	-0.06228507
15	0xbcfbaf7d	-0.030723328
16	0xbdb139aa	-0.08653577
17	0xbde9210d	-0.11383257
18	0x3cbcc940	0.023045182
19	0xbdb7ae01	-0.089687355
20	0x3c3b6a23	0.011438879
21	0x3d51ca61	0.051218394
22	0x3c6c433a	0.014420325
23	0x3df81eeb	0.12115272
24	0x3c78358b	0.015149484
25	0xbc8b5aaa	-0.017011005
26	0xbd9e66e0	-0.077344656
27	0x377b6074	1.4983223e-05
28	0xbdbf224b	-0.09332713
29	0xbd617b40	-0.05504918
30	0x3d10c1c7	0.03534105
31	0xbddb2c10	-0.10701764
32	0xbcb68ac6	-0.02228297
33	0xbc68354e	-0.014172865
34	0xbdd4f15a	-0.10397597
35	0x3c1356d8	0.008992873
36	0x3db33e19	0.087520786
37	0xbbc667be	-0.0060548475
38	0xbdd56a61	-0.10420681
39	0xbd9aeccd	-0.075646974
40	0xbd90df2f	-0.07073819
41	0x3d77cd87	0.06049874
42	0xbd99b8b3	-0.07505932
43	0xbd38ba72	-0.045099683
44	0x3dc93c35	0.09825937
45	0xbcad22ec	-0.021134816
46	0xbb0bab7a	-0.0021311925
47	0x3aca3de2	0.001542982
48	0x3c5a236e	0.013314111
49	0x3d6977ff	0.056999203
50	0x3d9ab7eb	0.07554611
51	0xbd07d1d8	-0.033159107
52	0x3d736f44	0.059432283
53	0xbbe02b1e	-0.0068410775
54	0x3d4fb31a	0.050707914
55	0x3dc0c141	0.0941186
56	0xbcc9298b	-0.024555942
57	0xbd7c2fe8	-0.061569124
58	0x3d95ed08	0.07320601
59	0xbd8fd7f9	-0.070236154
60	0x3d6c3f2b	0.05767743
61	0xbd82b2b2	-0.0638174
62	0x3dc3ccd8	0.09560555
63	0x3df2c84a	0.11854608
64	0xbdebb619	-0.11509342
65	0xbdca2768	-0.098707974
66	0x3d98eb5a	0.07466765
67	0xbdb7734b	-0.08957537
68	0x3d3fdaa6	0.04683938
69	0xbb88c404	-0.0041737575
70	0x3ddea758	0.10871762
71	0xbdb0e8e1	-0.08638168
72	0xbd4ba125	-0.049714226
73	0x3e1f7116	0.15570483
74	0x3debf4a0	0.11521268
75	0xbd885d8e	-0.06658469
76	0xbc767e2c	-0.01504473
77	0xbc4b1af5	-0.012396564
78	0x3dbcb0e4	0.09213427
79	0xbe0e9649	-0.13924517
80	0x3c79a3d8	0.015236817
81	0x3e01b36a	0.12666097
82	0x3bcff971	0.0063468744
83	0x3c25bc17	0.010115645
84	0xbdb27345	-0.08713392
85	0xbdd226b9	-0.10261292
86	0xbd869fc0	-0.06573439
87	0x3d87c8c0	0.06630087
88	0xbdd903f1	-0.10596455
89	0xbdcdb55c	-0.10044357
90	0xbd1eac4c	-0.038738534
91	0x3dacb2d7	0.084325485
92	0x3dcd2568	0.100169
93	0xbd589880	-0.05287981
94	0x3e2c582e	0.16830513
95	0x3dd10ad5	0.10207144
96	0xbde0c574	-0.10975161
97	0x3d42dc8e	0.04757362
98	0x3d14bd5c	0.0363134
99	0x3dc315a8	0.09525615
100	0xbdbb024c	-0.091312975
101	0xbd0817f1	-0.033225957
102	0xbd501e88	-0.050810367
103	0x3db3c9fd	0.087787606
104	0x3c78a4d9	0.0151760215
105	0x3d84efad	0.06491027
106	0xbe0db1a1	-0.13837291
107	0x3c94b88a	0.018154401
108	0xbda03f40	-0.07824564
109	0xbd6570f9	-0.056015942
110	0x3e02767b	0.12740509
111	0x3dc07b86	0.0939856
112	0xbd2b76b9	-0.04186127
113	0x3e1ad748	0.15121186
114	0x3ca2519a	0.019814301
115	0x3d89b6fa	0.06724353
116	0xbd92fd7a	-0.07177253
117	0xbdad1a50	-0.08452284
118	0x3b8782fd	0.004135488
119	0x3dfe4512	0.12415518
120	0x3b773722	0.003772207
121	0x3cfd1f23	0.030898636
122	0x3ddd4c33	0.108055495
123	0x3df2fb8d	0.11864386
124	0xb9edb77c	-0.0004534087
125	0xbd474029	-0.048645172
126	0x3d4948be	0.049141638
127	0x3da91d6f	0.08257567
128	0x3db6eb59	0.08931608
129	0x3d29c0d2	0.041443653
130	0xbdd93c69	-0.106072254
131	0xbd8ca2fb	-0.068670236
132	0xbc59671e	-0.013269214
133	0xbb9ca96b	-0.0047809384
134	0xbd8ccd6a	-0.06875117
135	0x3d2424ce	0.040074162
136	0xbdaae0e4	-0.08343676
137	0xbd73f945	-0.059563894
138	0xbcbf1efc	-0.023330204
139	0x3ba7dbca	0.0051226364
140	0xbb1baf6e	-0.0023755687
141	0x3db9734e	0.09055196
142	0x3cc32930	0.02382335
143	0xba90abe5	-0.0011037557
144	0x3d9b21cf	0.07574808
145	0x3dc95b8a	0.09831913
146	0xbd2eb079	-0.042648766
147	0xbb9346b7	-0.004494514
148	0x3dafe5bc	0.0858874
149	0x3b9b2155	0.004734198
150	0x3e01d605	0.12679298
151	0x3d2bffb6	0.04199191
152	0xbcb3ecc4	-0.021963485
153	0xbdb4ce6b	-0.088284336
154	0xbd682dfa	-0.05668447
155	0xbdc7cea9	-0.09756214
156	0x3ded62eb	0.11591133
157	0xbd842193	-0.06451716
158	0x3d272bf8	0.040813416
159	0xbde89c00	-0.1135788
160	0x3d928645	0.07154516
161	0xbc386683	-0.011254909
162	0xbda4b169	-0.08041651
163	0xbd330446	-0.043705247
164	0x3dd2f6ab	0.103009544
165	0x3cb3dcca	0.021955866
166	0x3d33abff	0.0438652
167	0xbc845511	-0.016153844
168	0x3db78329	0.08960564
169	0xbda68817	-0.08131426
170	0x3dafc389	0.08582217
171	0x3dc277fb	0.09495541
172	0x3d8a4925	0.067522325
173	0x3d5ffb91	0.05468327
174	0x3bc29840	0.00593856
175	0xbd907640	-0.070538044
176	0xbd636a9e	-0.0555216
177	0x3d43f4f5	0.04784103
178	0xbd358c3b	-0.044323187
179	0xbd3e6210	-0.04648024
180	0x3e01633b	0.1263551
181	0xbd314123	-0.04327501
182	0x3d703dc2	0.058652647
183	0xbdbfcd7c	-0.09365365
184	0x3b673256	0.0035277805
185	0xbb439989	-0.0029846153
186	0xbc7bff4e	-0.015380694
187	0x3db6ac33	0.08919563
188	0x3c946620	0.018115103
189	0x3db2b79d	0.08726428
190	0x3dc6a7e0	0.09699988
191	0xbdbb3253	-0.09140458
192	0x3c8ab7c1	0.016933324
193	0xbda7e74f	-0.081984155
194	0x3c579442	0.013157906
195	0x3d2d35ca	0.042287625
196	0x3dae7518	0.085184276
197	0x3d8012f3	0.06253614
198	0x3c3b78cd	0.011442375
199	0x3c37cf54	0.0112188645
200	0x3df6c042	0.12048389
201	0xbd00c99a	-0.031442262
202	0x3d74d8f0	0.0597772
203	0x3cf78413	0.030214345
204	0x3dd54bd8	0.10414857
205	0x3dfc6533	0.1232399
206	0xba72ea38	-0.00092664687
207	0x3dc8bb56	0.098013565
208	0x3d27c909	0.040963206
209	0x3d6328b8	0.055458754
210	0xbc054101	-0.008133174
211	0xbd6b9e57	-0.05752405
212	0x3ce84ce8	0.028356984
213	0xbd8234c9	-0.06357724
214	0x3deaa5e5	0.11457423
215	0x3e0e5d71	0.13902833
216	0xbe078ccf	-0.13237308
217	0xbde90f3d	-0.113798596
218	0x3dac8e15	0.084255375
219	0xbcb240ba	-0.02175938
220	0xbc8da4c3	-0.017290479
221	0x3df4cde2	0.119533315
222	0x3d0b55a8	0.034017235
223	0x3de66a1b	0.11250707
224	0x3ab243e0	0.0013600551
225	0x3dea6d4b	0.11446627
226	0x3d21799c	0.039422616
227	0xbccd74ee	-0.02508017
228	0x3d94a095	0.07257191
229	0x3d417089	0.047226463
230	0xbde0a640	-0.1096921
231	0xbdc0223d	-0.093815304
232	0xbd3fa114	-0.046784475
233	0xbd821719	-0.06352062
234	0xbdbb20f1	-0.091371424
235	0xbd97d76b	-0.074141346
236	0xbd532402	-0.05154801
237	0xbde4f85f	-0.111801855
238	0x3e055864	0.13022
239	0x3d61c232	0.05511684
240	0x3e283829	0.16427673
241	0xbd4e1463	-0.05031241
242	0x3d997878	0.07493681
243	0x3dde80a1	0.10864378
244	0x3d3da651	0.04630119
245	0x3da2ece4	0.079553396
246	0xbbc74e43	-0.0060823276
247	0x3d6a007c	0.05712937
248	0x3b62d6c3	0.0034612871
249	0xbd35b404	-0.04436113
250	0xbd9f5a4a	-0.07780893
251	0x3de7aeff	0.11312675
252	0x3d1f1a5a	0.03884349
253	0x3b95c82c	0.0045709815
254	0x3dff87e7	0.12477093
255	0x3dec4ca0	0.115380526

lstm.bias_hh_l0 f4 [256]
0	0x3d27ab15	0.04093464
1	0x3cfe220b	0.031022092
2	0xbdeefc43	-0.11669209
3	0xbda75220	-0.08169961
4	0xbda7f6ca	-0.08201368
5	0x3d6d51a6	0.057939194
6	0x3e2a3459	0.16621532
7	0xbd74c06b	-0.059753817
8	0x3e27395c	0.16330475
9	0x3df94472	0.12171258
10	0xbcaad1f4	-0.020852067
11	0x3dac566b	0.084149204
12	0x3d61e68a	0.0551515
13	0x3d38c6b2	0.045111366
14	0xbc57dff5	-0.013175954
15	0xbd8977fd	-0.06712339
16	0x3dbcb962	0.092150465
17	0x3b421b68	0.0029618386
18	0x3ca32f1c	0.019919924
19	0xbd0e5bc0	-0.03475547
20	0xbcb647c3	-0.022251016
21	0xbd4ab747	-0.049491193
22	0x3d783290	0.060595095
23	0x3dc751f5	0.09732429
24	0x3d3ee222	0.046602376
25	0x3d8b1b24	0.06792286
26	0x3dee4654	0.11634508
27	0x3e0cc522	0.13747075
28	0xbb918d3c	-0.0044418853
29	0xbd86e6eb	-0.06587013
30	0x3d5a3d80	0.053281307
31	0xbd8db2c1	-0.0691886
32	0x3d91d787	0.07121187
33	0xbc17fe7e	-0.009276984
34	0xbd2ace77	-0.041700806
35	0x3d2d898e	0.04236751
36	0x3d686585	0.05673744
37	0x3c970af5	0.018437842
38	0x3df413ff	0.119178765
39	0x3daee4cb	0.085397325
40	0xbdaffb69	-0.085928746
41	0xbd8db59d	-0.069194056
42	0x3ce6d90c	0.028179668
43	0xbcc99132	-0.024605367
44	0xbc47f280	-0.012203813
45	0xbb880425	-0.0041508847
46	0x3e1ef45f	0.15522908
47	0x3d6f3c60	0.058407187
48	0xbd8dc91f	-0.069231264
49	0x3e2a0363	0.16602854
50	0x3e0e00d8	0.1386751
51	0x3cc0011f	0.023438035
52	0xbcedd08d	-0.029030109
53	0xbc0a49c0	-0.008440435
54	0x3d54aada	0.05192075
55	0x3d999d80	0.07500744
56	0x3ddba920	0.107256174
57	0xbd76e67c	-0.0602784
58	0x3dc349f2	0.09535588
59	0xbcd51b95	-0.026014129
60	0x3de23685	0.11045555
61	0x3d7fe4a1	0.062473897
62	0xbdc4b990	-0.09605706
63	0xbd5e8233	-0.054323386
64	0xbc34d64f	-0.011037423
65	0x3c1c916c	0.009556156
66	0xb98dc38a	-0.00027039304
67	0x3cc15e22	0.023604456
68	0x3d3ad7ae	0.045615844
69	0x3d22ae55	0.039717037
70	0x3dccb41f	0.09995293
71	0x3d0bb033	0.034103584
72	0x3dc76190	0.097354054
73	0xbd0c270a	-0.034216918
74	0xbd4f0281	-0.050539497
75	0xbdc23ed0	-0.09484637
76	0xbd0c39c8	-0.034234792
77	0x3d3e3890	0.04644066
78	0x3c5b248f	0.0133754155
79	0x3d295c18	0.041347593
80	0x3d86300d	0.06552134
81	0xbd71d3b3	-0.059039783
82	0x3e27fee5	0.16405828
83	0xbdcecb06	-0.100973174
84	0xbd9657e3	-0.07340982
85	0xbd92f079	-0.07174773
86	0xbc7298dc	-0.014806952
87	0x3e00db4b	0.12583654
88	0xbd93809c	-0.07202265
89	0x3df642a6	0.12024431
90	0x3d1cf696	0.0383211
91	0x3bb13bb0	0.0054087266
92	0xbddbb8f8	-0.10728639
93	0xbdbbac81	-0.09163762
94	0xbc31b2b0	-0.010845825
95	0x3cf5ea9e	0.0300191
96	0xbd789ed6	-0.060698353
97	0x3d55ac86	0.052166484
98	0xbdb14053	-0.08654847
99	0x3dd89eac	0.10577139
100	0xbcab180a	-0.020885486
101	0xbbaa95e8	-0.0052058585
102	0xbd070c48	-0.032970697
103	0x3bb4f34a	0.0055221664
104	0xbd76094e	-0.060067467
105	0xbdd7eebd	-0.105435826
106	0x3ccfdc17	0.025373502
107	0xbc89ced7	-0.016822262
108	0xbbfdbfb4	-0.0077438
109	0xbdf261d0	-0.118350625
110	0xbdb7e822	-0.08979823
111	0x3c2d75d3	0.0105871735
112	0x3c92c13a	0.017914403
113	0x3c9b4660	0.018954456
114	0xbd479d73	-0.04873414
115	0x3e00705f	0.12542866
116	0x3d2bfab5	0.04198714
117	0x3b82c3f5	0.003990645
118	0xbd94df1f	-0.072691195
119	0x3d20fe8e	0.039305262
120	0x3de947fe	0.113906845
121	0x3c09e9a1	0.008417518
122	0x3dc2d5db	0.09513446
123	0xbd2bfbe5	-0.041988272
124	0x3db5b8b6	0.088731214
125	0x3de1c3fa	0.11023708
126	0xbd89a9c2	-0.06721832
127	0x3def727d	0.11691759
128	0x3c9bd412	0.019022021
129	0xbdad09bc	-0.08449122
130	0x3d840406	0.0644608
131	0xbde7da82	-0.11320974
132	0xbd5ba5fc	-0.053625092
133	0x3d6c400a	0.05767826
134	0x3c94ae38	0.01814948
135	0xbd2b7fe0	-0.041869998
136	0x3cee7998	0.029110715
137	0x3e01af68	0.12664568
138	0x3da2ee35	0.07955591
139	0xbd1576c9	-0.036490235
140	0x3db0b379	0.08627982
141	0xbd134b93	-0.035960745
142	0xbdc7b918	-0.09752101
143	0xbd86f998	-0.06590575
144	0xbca6d3d2	-0.020364676
145	0x3ce4e3b5	0.02794061
146	0x3da34070	0.07971275
147	0xbd8755ef	-0.066081874
148	0xbd58bddb	-0.052915435
149	0xbdfd0da6	-0.12356119
150	0x3d214925	0.039376397
151	0xbbfaa55c	-0.007649107
152	0xbd46a057	-0.048492756
153	0xbd7bb240	-0.06144929
154	0x3de00e92	0.10940279
155	0x3d8a7781	0.06761075
156	0xbd89fe57	-0.067379646
157	0x3df303de	0.11865972
158	0xbd011b58	-0.031520218
159	0xbdf680f5	-0.12036315
160	0xbd4d5b4d	-0.0501359
161	0x3e01037e	0.12598988
162	0x3d012650	0.03153068
163	0x3dcba17e	0.099429116
164	0x3d8694a7	0.06571322
165	0xbd6b4e3f	-0.05744767
166	0xbd24e4b9	-0.04025719
167	0x3de8dc66	0.11370163
168	0x3d846793	0.06465068
169	0xbdedabbc	-0.11605021
170	0xbc796267	-0.015221215
171	0xbda50645	-0.080578364
172	0x3d5626ef	0.052283224
173	0x3dc995b9	0.098430105
174	0x3d919b06	0.071096465
175	0x3d3c4cfb	0.04597185
176	0x3d601d20	0.054715276
177	0xbe050548	-0.12990296
178	0x3d37ef15	0.04490574
179	0x3dd89910	0.10576069
180	0xbc889b96	-0.016675752
181	0x3d907681	0.07053853
182	0x3dcaa204	0.09894183
183	0xbe006850	-0.12539792
184	0xbdbfe815	-0.09370438
185	0xbca42cdf	-0.020040927
186	0xbda3858b	-0.07984456
187	0xbc0199c8	-0.007910199
188	0x3d151e12	0.03640563
189	0x3d965f79	0.07342429
190	0x3d3c76f4	0.04601188
191	0xbdfbbde7	-0.122920804
192	0xbcb9656d	-0.022631371
193	0xbd4fdaae	-0.05074566
194	0xbd87c626	-0.06629591
195	0xbdbedeb3	-0.0931982
196	0x3d38b75a	0.045096733
197	0x3e1e7c13	0.15477018
198	0x3bf9bfc9	0.0076217395
199	0xbc543a0c	-0.012953293
200	0x3d39902d	0.045303512
201	0xbc161906	-0.0091612395
202	0xbdeaa669	-0.114575215
203	0x3d09757d	0.03355931
204	0x3db15dd4	0.086604744
205	0x3e10c190	0.14136338
206	0x3e0dc2fd	0.13843913
207	0xbd8f5fb0	-0.07000673
208	0xbd9063dc	-0.07050297
209	0x3cec8882	0.028873686
210	0x3e351967	0.17685471
211	0xbd4036cb	-0.046927255
212	0x3c37e6fb	0.011224504
213	0x3dace783	0.08442595
214	0xbda9278b	-0.08259495
215	0x3dd0f1dd	0.10202382
216	0x3d6d8043	0.057983648
217	0x3dbdc3bf	0.09265851
218	0xbc12b012	-0.008953111
219	0x3e0ed6f9	0.13949193
220	0xbcc06777	-0.023486836
221	0x3da10ca8	0.07863742
222	0x3c2093d0	0.009800866
223	0xbad9db0c	-0.0016621067
224	0x3dbb3ab3	0.09142055
225	0xbc9a2053	-0.018814242
226	0xbcd75732	-0.026286695
227	0xbdcd6ef8	-0.10030931
228	0x3d0e5485	0.034748573
229	0xba26a9f6	-0.00063577236
230	0xbdcac968	-0.099016964
231	0x3dc8b9a1	0.09801031
232	0xbcf24a77	-0.029576523
233	0x3dca807d	0.098877884
234	0xbcf09512	-0.029367957
235	0x3e0c5c46	0.13707075
236	0x3dca6f69	0.09884531
237	0x3bec8b82	0.007218779
238	0x3c901146	0.017586362
239	0x3b0749cc	0.0020643352
240	0xbda2446f	-0.07923209
241	0xbd69b0bf	-0.057053324
242	0xbcb83881	-0.02248788
243	0xbdb1317f	-0.08652019
244	0x3dd1d887	0.102463774
245	0x3db130b2	0.08651866
246	0xbbcba883	-0.0062151565
247	0x3ce0208e	0.027359273
248	0xbd5b6ddc	-0.053571567
249	0xbd415a9d	-0.047205556
250	0x3d97e867	0.07417374
251	0xbdca20bd	-0.098695256
252	0x3c5b9499	0.013402128
253	0xbb6d7906	-0.0036235466
254	0xbd9ddebb	-0.07708498
255	0x3d29a478	0.041416615

lstm.weight_ih_l1 f4 [256, 64]
0	0x3d0b5f16	0.034026228
1	0x3dbe79a6	0.09300546
2	0x3d7d60e9	0.06186
3	0xbd31dc01	-0.043422703
4	0x3d2b5da3	0.041837346
5	0xbddb3fb0	-0.10705507
6	0xbcb3982e	-0.02192315
7	0x3d245094	0.040115908
8	0xbd6c7891	-0.05773217
9	0xbe0f7989	-0.14011206
10	0xbd1527bf	-0.036414858
11	0x3e2c2b77	0.16813456
12	0x3dd998d5	0.106248535
13	0xbbd9a157	-0.0066415477
14	0xbd9e84b7	-0.07740157
15	0xbd04e550	-0.032445252
16	0x3dc92ad1	0.0982262
17	0x3dbe85ca	0.09302862
18	0x3d889546	0.06669097
19	0xbd16b114	-0.03678997
20	0x3ca67ae5	0.020322273
21	0xbda3c829	-0.07997162
22	0x3e046130	0.12927699
23	0x3da1955c	0.07889816
24	0xbcd664f3	-0.026171183
25	0xbe0a2b98	-0.13493192
26	0x3e161c94	0.14659339
27	0x3d2cb5fb	0.042165738
28	0x3d0efa25	0.034906525
29	0xbd0d6693	-0.03452165
30	0xbe4a04e6	-0.19728431
31	0x3da1ef5a	0.07906981
32	0x3d7b3fc8	0.061340123
33	0x3c8edde0	0.017439783
34	0xbdb49d36	-0.08819048
35	0xbd9f4f3a	-0.07778783
36	0xbdbd167e	-0.09232806
37	0xbde9cce0	-0.1141603
38	0xbdc07938	-0.09398121
39	0x3dfc2ebf	0.123136036
40	0xbdb4eb34	-0.08833924
41	0x3dd3e650	0.10346663
42	0xbdc1dda2	-0.09466101
43	0x3e0f0dc0	0.13970089
44	0xbbe94363	-0.007118629
45	0xbcc9da66	-0.024640273
46	0x3d24fda5	0.040280957
47	0xbd3f69b0	-0.04673165
48	0xbc923323	-0.01784665
49	0xbd1b8b4d	-0.037974644
50	0x3dbf67bd	0.093459584
51	0x3d593bc7	0.053035524
52	0x3d7aace7	0.06120005
53	0xbd8bcf4f	-0.0682665
54	0x3c35b58b	0.0110906465
55	0x3d97c230	0.07410085
56	0xbe01d3f0	-0.12678504
57	0x3e12ca3d	0.1433496
58	0x3d9c3164	0.07626608
59	0x3d4bf520	0.049794316
60	0xbd92ebf6	-0.07173912
61	0xbd7522df	-0.05984771
62	0x3dcb0335	0.09912721
63	0x3c205248	0.009785242
64	0x3cf861e9	0.030320125
65	0x3df9ed17	0.122034244
66	0x3dd8185b	0.105515204
67	0xbdf38d26	-0.11892156
68	0x3e0991bf	0.13434504
69	0xbe0c0284	-0.13672835
70	0x3d48f657	0.049063053
71	0xbd7f8841	-0.0623858
72	0x3d1eac9a	0.038738824
73	0x3c938a08	0.018010154
74	0x3d9d2c7b	0.076744996
75	0xbdb0f752	-0.086409226
76	0x3bb4b6f8	0.0055149756
77	0xbc37497b	-0.011186953
78	0xbd324e70	-0.043531835
79	0xbdaa5d8a	-0.083186224
80	0xbd823856	-0.063584015
81	0xbce40636	-0.027834993
82	0x3e0b5cfc	0.1360969
83	0xbdf26bc3	-0.1183696
84	0xbdb941cc	-0.09045753
85	0xbd5d57ec	-0.054038927
86	0x3c0ece8c	0.008716237
87	0xbdb6f5fa	-0.08933635
88	0x3e02f657	0.12789284
89	0x3c9e5af7	0.019330485
90	0x3c8c7079	0.017143475
91	0xbdfd5734	-0.12370148
92	0xbd8a3da3	-0.067500375
93	0x3c1b3ebe	0.009475408
94	0xbdd4bd02	-0.10387613
95	0x3d8ab88c	0.06773481
96	0xbd4d872d	-0.05017774
97	0xbd869ac9	-0.06572492
98	0x3cc81fa9	0.02442916
99	0x3de8b947	0.11363464
100	0x3cc79955	0.024365107
101	0xbd8d3afa	-0.068960145
102	0xbda47909	-0.08030898
103	0xbcb083b1	-0.02154717
104	0x3cf6bf98	0.030120656
105	0x3cd17794	0.025569715
106	0xbdefb55d	-0.11704514
107	0xbc88f586	-0.016718637
108	0x3d984c4f	0.0743643
109	0xbd24cb73	-0.040233087
110	0x3d9a86da	0.07545252
111	0xbd951747	-0.072798304
112	0x3e15b9a1	0.14621593
113	0x3dcc05c6	0.09962039
114	0x3c85d536	0.016337018
115	0xbc9653b8	-0.018350467
116	0xbdc0934d	-0.094030954
117	0xbb67b975	-0.0035358344
118	0x3c5b4c3b	0.013384874
119	0xbbc65047	-0.0060520503
120	0xbd5e6164	-0.054292098
121	0x3c212a3c	0.00983673
122	0x3c14c070	0.009079084
123	0xbcca07bb	-0.02466189
124	0xbdcbf469	-0.09958727
125	0x3de91213	0.113804005
126	0x3dd337a2	0.103133455
127	0x3d221a24	0.03957571
128	0x3ca89ff8	0.020584092
129	0xbd8ad77c	-0.06779382
130	0x3dc7ec73	0.09761896
131	0x3e0bcfa3	0.13653426
132	0xbdcb4e71	-0.09927071
133	0x3ce43c7c	0.027860872
134	0x3de6c1b3	0.11267414
135	0x3d4a6f76	0.049422704
136	0xbbb4c07d	-0.0055161105
137	0xbd8967d7	-0.06709259
138	0x3d0e1ee4	0.03469743
139	0x3d85314b	0.065035425
140	0x3da8a2ed	0.082342006
141	0x3d725d6a	0.059171118
142	0xbbf82d92	-0.007573792
143	0x3d231903	0.039818775
144	0xbd202330	-0.039096057
145	0x3dd0eb6d	0.10201154
146	0x3b16b29f	0.002299465
147	0x3c515d1d	0.012778548
148	0xbd7646ff	-0.0601263
149	0x3dfc4cb8	0.123193204
150	0xbcb50c6d	-0.022100652
151	0xbd88e116	-0.06683557
152	0xbd5552df	-0.052080985
153	0xbd48ddd9	-0.049039695
154	0xbded59c8	-0.1158939
155	0xbdb8e640	-0.09028292
156	0x3e00c39c	0.12574619
157	0x3d58a884	0.052895084
158	0xbd1760cb	-0.036957543
159	0x3de1de87	0.11028772
160	0xbd880fbc	-0.06643626
161	0x3d95f848	0.073227465
162	0x3dba637e	0.09101008
163	0xbdff0471	-0.12452019
164	0xbe03b210	-0.12860894
165	0x3db322fd	0.08746908
166	0xbde3b959	-0.11119337
167	0x3db5ca45	0.088764705
168	0xbd64555f	-0.05574548
169	0xbdb00849	-0.0859533
170	0xbdb8791b	-0.09007474
171	0x3d1427c0	0.03617072
172	0x3cf176b9	0.029475557
173	0xbe084f24	-0.1331144
174	0xbd17d77b	-0.037070733
175	0xbd1f3c85	-0.038876075
176	0xbdbacb41	-0.09120799
177	0xbc0644a2	-0.008195074
178	0xbd0fce0b	-0.035108607
179	0x3c63e6b6	0.013909986
180	0xbb88e265	-0.004177379
181	0x3d990d61	0.07473255
182	0xbd876c3d	-0.06612442
183	0xbda3106f	-0.07962119
184	0xbc42e5f0	-0.011895642
185	0x3c0df961	0.008665414
186	0xbd22986d	-0.039696146
187	0x3d941433	0.07230415
188	0x3deceeac	0.115689605
189	0xbcfa5c72	-0.03056166
190	0x3c96e322	0.018418852
191	0xbcabe820	-0.02098471
192	0x3b43f8ea	0.0029903003
193	0xbd89402c	-0.06701693
194	0xbd4b861b	-0.04968844
195	0xbd928c4e	-0.07155667
196	0xbdc44465	-0.09583358
197	0x3d0a2d99	0.03373489
198	0xbd1d4db1	-0.03840417
199	0xbdb9fa4f	-0.09080946
200	0xbe292835	-0.16519244
201	0xbd1f075f	-0.03882539
202	0x3de61f68	0.11236459
203	0x3d94c033	0.072632216
204	0x3d4a7467	0.049427416
205	0xbd0b3480	-0.033985615
206	0x3d20f953	0.039300274
207	0x3d97cf2e	0.07412563
208	0xbdbe395c	-0.09288284
209	0x3d9cf4da	0.07663889
210	0x3d463038	0.04838583
211	0x3d2a93cb	0.041644853
212	0x3d8393fb	0.064247094
213	0x3deb2c2b	0.11483034
214	0x3df180ca	0.11792143
215	0xbe04d439	-0.12971582
216	0x3ce327ac	0.027728878
217	0xbdb2a04e	-0.08721982
218	0xbda5d4e3	-0.080972455
219	0xbcb6a59d	-0.022295767
220	0x3ce2e876	0.027698737
221	0xbcd77673	-0.026301598
222	0xbd24c4ac	-0.040226623
223	0x3d1e8c71	0.038708154
224	0xbd855fdc	-0.06512424
225	0x3d5f7c3a	0.05456183
226	0x3d94b4b8	0.07261032
227	0x3ce2736d	0.02764293
228	0xbcba49de	-0.0227403
229	0x3d516b3b	0.051127654
230	0x3b00cc7e	0.0019653137
231	0x3de6d73c	0.112715214
232	0xbd331eb8	-0.043730468
233	0xbda8c123	-0.08239963
234	0xbddfd150	-0.10928595
235	0xbd2576cf	-0.040396508
236	0x3d19117a	0.037370183
237	0x3d4bfcdf	0.049801704
238	0xbe04daf9	-0.12974156
239	0x3cf8d761	0.030376138
240	0x3deba3d6	0.115058586
241	0xbd4719f3	-0.04860873
242	0xbd24668a	-0.04013685
243	0xbdb69a9c	-0.08916208
244	0x3d2f77a2	0.0428387
245	0x3d8afeb4	0.06786862
246	0x3d291f20	0.04128945
247	0xba827286	-0.0009952344
248	0x3d846735	0.06464998
249	0xbdcfb7ca	-0.10142477
250	0x3dcc31e4	0.099704534
251	0xbde8cde6	-0.11367397
252	0xbd9034fd	-0.07041357
253	0x3da98125	0.082765855
254	0xbd8928f2	-0.06697263
255	0xbdcae7aa	-0.09907468

lstm.weight_hh_l1 f4 [256, 64]
0	0xbdcadea1	-0.09905744
1	0x3b083984	0.0020786235
2	0x3df26f22	0.11837603
3	0xbddb05d4	-0.10694471
4	0xbd1dd230	-0.03853053
5	0xbcf85965	-0.030316064
6	0xbdc5ee33	-0.096645735
7	0x3db16d77	0.08663457
8	0x3dc1ac23	0.094566606
9	0xbbabbb71	-0.0052408506
10	0xbcc0a32e	-0.02351531
11	0xbd0f85cd	-0.03503971
12	0xbdfd2091	-0.12359727
13	0x3d68e350	0.056857407
14	0x3d56d5d7	0.052450027
15	0x3c7cef27	0.015437878
16	0x3d6a711a	0.05723677
17	0x3cbd5f1f	0.023116646
18	0x3d9dfa5e	0.077137694
19	0x3d486bc4	0.0489309
20	0x3abbec91	0.001433747
21	0xbda13cb6	-0.07872908
22	0xbc8101c2	-0.015747909
23	0xbd1c67b1	-0.038184825
24	0x3da72eab	0.08163198
25	0xbc9ae5fe	-0.018908497
26	0xbd12c037	-0.03582784
27	0xbd99581e	-0.0748751
28	0xbd844fe5	-0.06460551
29	0x3d2b48ee	0.041817598
30	0x3d5124ad	0.051060367
31	0x3cc2072a	0.023685057
32	0x3de2aff8	0.110687196
33	0xbd250c33	-0.040294837
34	0xbe04c94e	-0.12967417
35	0xbb544a30	-0.0032392852
36	0x3d3180e7	0.04333582
37	0xbe056d66	-0.13030013
38	0xbd81315f	-0.06308245
39	0x3dc7203b	0.09722944
40	0xbdcc7d4e	-0.099848375
41	0x3d9d9255	0.07693926
42	0x3e01dd16	0.12681994
43	0x3dc09f6f	0.094054095
44	0xbd145b1e	-0.03621971
45	0x3d2ba25b	0.04190288
46	0xbc9fdd0c	-0.019514583
47	0x3db774f2	0.089578524
48	0xbd1552a7	-0.036455777
49	0x3dc7d6a4	0.09757736
50	0xbd2b7017	-0.041854944
51	0x3da059d6	0.07829635
52	0xbd026867	-0.031837847
53	0xbdbf7cb3	-0.09349956
54	0xbdbcb584	-0.09214309
55	0x389fdb38	7.6225435e-05
56	0xbd617fe0	-0.05505359
57	0x3d8cce8b	0.068753324
58	0x3d3b079b	0.04566155
59	0xbd934852	-0.071915284
60	0xbdbf14fc	-0.09330174
61	0x3c30059d	0.010743526
62	0x3d3fdf66	0.04684391
63	0xbde8a0d6	-0.11358802
64	0xbdc142ad	-0.094365455
65	0xbcb43a28	-0.022000387
66	0x3c6c41e8	0.01442001
67	0x3c8813b9	0.016610967
68	0x3b98ad36	0.00465932
69	0xbce5530c	-0.027993701
70	0x3d24223d	0.040071715
71	0xbdba7292	-0.09103884
72	0xbde8dae8	-0.11369878
73	0xbc3ac927	-0.0114004975
74	0x3bf5ffec	0.007507315
75	0xbd745098	-0.059647173
76	0xbc0f35ac	-0.008740824
77	0x3dbf8861	0.09352184
78	0x3d9fdd57	0.07805889
79	0xbe01d237	-0.12677847
80	0xbddefaec	-0.10887703
81	0xbd886af2	-0.06661023
82	0xbd8ed027	-0.06973296
83	0x3d94ad0d	0.07259569
84	0x3d23045e	0.039799087
85	0x3dcbf60e	0.099590406
86	0x3df3a101	0.118959434
87	0x3dced9c5	0.1010013
88	0xbdaa1a13	-0.083057545
89	0xbd3486c9	-0.044073854
90	0x3de163ba	0.110053495
91	0xbd1348be	-0.035958044
92	0x3d09aa16	0.033609472
93	0xbd81a6ef	-0.06330668
94	0x3ce7d886	0.028301489
95	0x3dfd503c	0.12368819
96	0x3d3ce6e4	0.046118632
97	0x3dc4c723	0.09608295
98	0x3c8a6149	0.016892092
99	0x3c5e739d	0.013577369
100	0xbdfd74db	-0.12375804
101	0x3de6fa4e	0.112782106
102	0x3e015ab6	0.1263226
103	0x3d7307eb	0.059333723
104	0xbdaf6091	-0.085633405
105	0x3c154f65	0.009113167
106	0x3c6a7bf0	0.014311776
107	0x3dd484ef	0.103769176
108	0xbdde04c2	-0.10840751
109	0xbdb90bae	-0.09035431
110	0x3de1942e	0.11014591
111	0x3d01f08c	0.031723544
112	0xbdd82b94	-0.10555187
113	0xbd87f039	-0.06637616
114	0x3cc857cc	0.024455927
115	0xbc4468eb	-0.011987905
116	0x3d8b562f	0.068035476
117	0x3d15452b	0.036442917
118	0x3d7f5eee	0.06234639
119	0x3c0cd440	0.008595526
120	0x3d9b6f31	0.075895675
121	0x3acaf3ce	0.0015484036
122	0xbcf0295f	-0.029316602
123	0xbd808648	-0.06275612
124	0x3cb1729e	0.021661099
125	0x3db00f84	0.08596709
126	0x3d6938f8	0.056939095
127	0xbc4defe6	-0.012569403
128	0xbce80fd0	-0.028327852
129	0x3d7305ce	0.059331708
130	0x3d5fcc60	0.054638267
131	0x3d980352	0.07422508
132	0x3d5a187f	0.053246018
133	0x3deff885	0.11717323
134	0xbc9c251c	-0.019060664
135	0xbdd44e7f	-0.103665344
136	0x3dd1ee78	0.102505624
137	0xbbf21413	-0.007387647
138	0x3cc0f330	0.02355346
139	0x3c34579f	0.011007219
140	0xbc93ec06	-0.01805688
141	0x3d5de78c	0.0541759
142	0xbdcf7c03	-0.10131075
143	0x3d632bb5	0.055461604
144	0x3de9e754	0.114210755
145	0x3d777ff0	0.060424745
146	0x3dac2463	0.08405378
147	0xbdf6793f	-0.120348446
148	0xbb42a089	-0.0029697737
149	0x3e021e16	0.1270679
150	0xbcab6e7e	-0.02092671
151	0xbcfef668	-0.031123355
152	0x3b7774de	0.0037758867
153	0x3d33cb98	0.043895334
154	0x3d4af932	0.049554057
155	0x3caec224	0.021332808
156	0xbe004c5d	-0.1252913
157	0xbd9244ea	-0.071420506
158	0xbc1ca79e	-0.009561447
159	0xbda00a5f	-0.07814478
160	0x38ccf82c	9.773704e-05
161	0x3d4ed71b	0.05049811
162	0x3d9b5a1c	0.075855464
163	0x3dff4347	0.12464004
164	0x3c5b6bd1	0.013392405
165	0x3d2e76c7	0.042593744
166	0x3dde8468	0.10865098
167	0x3d3d6f94	0.046248987
168	0xbd840366	-0.06445961
169	0xbd5284ff	-0.051396366
170	0x3dfa2a81	0.12215138
171	0x3e0bacbb	0.1364011
172	0x3db2d590	0.0873214
173	0xbdec9f5e	-0.115538344
174	0x3d585ee1	0.05282486
175	0xbcc128aa	-0.02357896
176	0x3d6e0532	0.058110423
177	0x3d91d271	0.07120217
178	0x3ca96b4b	0.020681044
179	0xbca60a1a	-0.020268489
180	0x3d901b51	0.0703646
181	0x3da32f0e	0.07967959
182	0x3d81c1a9	0.06335766
183	0xbda0438e	-0.07825385
184	0xbcbb9ccb	-0.022901913
185	0x3db10b22	0.086447015
186	0xbe0630d2	-0.13104561
187	0xbdfe368c	-0.12412748
188	0xbd01eac7	-0.03171804
189	0xbd9b6051	-0.0758673
190	0x3dda7f52	0.10668816
191	0xbd62779c	-0.05528985
192	0xbd91ba20	-0.07115579
193	0x3dad6e2c	0.08468279
194	0xbd49cf86	-0.049270175
195	0xbda698aa	-0.08134587
196	0xbdc37ca5	-0.095452584
197	0xbd18e5a7	-0.03732839
198	0xbdbb7769	-0.09153635
199	0xbcafcc46	-0.02145971
200	0xbdb96615	-0.09052674
201	0x3e00b0b8	0.12567413
202	0x3dae1156	0.084994
203	0xbce19b84	-0.027539976
204	0xbdd5bcc3	-0.10436394
205	0xbc90699d	-0.017628485
206	0x3daa5485	0.08316902
207	0x3dc46e4f	0.09591352
208	0x3d941b58	0.07231778
209	0xbb8a409e	-0.0042191288
210	0xbdfe7dfe	-0.12426375
211	0x3e0c5cbb	0.13707249
212	0xbcce8bae	-0.025213089
213	0xbb91dc52	-0.004451313
214	0x3d9eca43	0.07753422
215	0x3de0ee71	0.10982979
216	0x3c6dcb86	0.014513856
217	0x3b1124e2	0.0022147228
218	0xbdd6dc19	-0.10491199
219	0x3ce49253	0.027901804
220	0xbbddb0bc	-0.006765453
221	0x3d89fd0a	0.067377165
222	0x3dc9b275	0.09848491
223	0xbd2b72c2	-0.04185749
224	0x3d1c7a6e	0.038202696
225	0x3b9ab17d	0.0047208653
226	0xbd7249f9	-0.059152577
227	0xbdac622d	-0.08417163
228	0xbd596d67	-0.05308285
229	0xbdfa77bd	-0.122298695
230	0x3aaf5b59	0.0013378664
231	0x3d170283	0.03686763
232	0x3db0aa4e	0.08626233
233	0x3bbad10b	0.0057011894
234	0xbd207b7b	-0.03918026
235	0x3db57814	0.08860794
236	0xbdf75054	-0.12075868
237	0xbdd47d21	-0.10375429
238	0xbda72ce6	-0.081628606
239	0x3d0cdf4f	0.03439265
240	0x3dc2ebb7	0.09517615
241	0x3da7cbe6	0.081931874
242	0xbdd7f0bf	-0.105439655
243	0x3dfb6efb	0.12277027
244	0x3cb35cae	0.021894779
245	0xbc7f65ea	-0.015588263
246	0xbd7d2c06	-0.061809562
247	0xbde8abd8	-0.113609016
248	0xbbc3445c	-0.005959077
249	0xbdeebb58	-0.11656827
250	0x3df4aaa8	0.119466126
251	0x3c627e0e	0.013823999
252	0xbd04904e	-0.032364182
253	0xbc84fba8	-0.01623328
254	0xbcc4f0df	-0.024040638
255	0x3d24292e	0.040078335

lstm.bias_ih_l1 f4 [256]
0	0x3d906281	0.07050038
1	0x3dff909c	0.12478754
2	0x3dc48629	0.095959015
3	0xbd8698ef	-0.065721385
4	0x3dbba45a	0.09162207
5	0xbd174967	-0.036935236
6	0x3cfee63c	0.031115644
7	0x3d696386	0.05697968
8	0xbd36c355	-0.044619877
9	0xbdc55a8b	-0.0963641
10	0x3df7b53b	0.12095114
11	0xbd96bd74	-0.07360354
12	0x3d5937bc	0.053031668
13	0x3d38de76	0.04513403
14	0x3e06b425	0.13154657
15	0x3d8dda93	0.06926455
16	0x3d52c1df	0.05145442
17	0x3e00f046	0.12591657
18	0xbdb77a37	-0.089588575
19	0x3e1bf840	0.15231419
20	0x3dc24019	0.09484882
21	0x3d9deae0	0.077108145
22	0x3d2886e0	0.04114425
23	0xbdaee51c	-0.08539793
24	0xbd435d37	-0.04769632
25	0x3df852ee	0.121251926
26	0x3c902d0d	0.017599607
27	0x3d9d16b8	0.07670349
28	0x3d9c420e	0.076297864
29	0xbafe49a1	-0.0019400605
30	0xbdcc982f	-0.09989964
31	0xbca2a889	-0.019855754
32	0xbdb1be72	-0.08678903
33	0xbd30b3dc	-0.043140277
34	0x3df69070	0.12039268
35	0x3c971104	0.01844073
36	0xbcfae13a	-0.030624975
37	0xbce21872	-0.027599547
38	0x3dc0d356	0.09415309
39	0x3dde21b6	0.108462736
40	0xbd7f3096	-0.062302195
41	0x3dd7d2c8	0.1053825
42	0xbdb726c1	-0.089429386
43	0x3d84d085	0.064850844
44	0x3cd79afe	0.026319023
45	0x3d630e4f	0.055433568
46	0xbd41f0c4	-0.047348753
47	0x3d677287	0.056505706
48	0xb96ee468	-0.00022782537
49	0x3dff3bbd	0.12462566
50	0xbd929870	-0.071579814
51	0x3d606dd0	0.054792225
52	0x3d942e5a	0.07235403
53	0xbc1db006	-0.009624487
54	0x3c855148	0.01627411
55	0x3da33cbb	0.07970568
56	0xbca56824	-0.02019126
57	0x3d82ef7e	0.06393336
58	0xbd2e573e	-0.04256367
59	0x3b0238f4	0.0019870372
60	0x3d30c8a4	0.043160096
61	0x3d56a3ca	0.052402295
62	0x3deb5936	0.11491625
63	0xbd7c812b	-0.06164662
64	0x3c7f1666	0.015569305
65	0xbd60a9c9	-0.05484942
66	0x3d6067d9	0.054786537
67	0xbc2552c5	-0.010090535
68	0x3da31c3f	0.07964372
69	0xbd8f913a	-0.07010122
70	0xbd883c9a	-0.06652184
71	0xbd7391c0	-0.05946517
72	0xbd11a26a	-0.03555528
73	0xbba56e6a	-0.005048563
74	0x3d60eb44	0.054911867
75	0xbc821d5e	-0.015883144
76	0x3d8a043e	0.067390904
77	0x3dcb88d1	0.09938205
78	0xbd86a950	-0.065752625
79	0x3d108074	0.035278752
80	0xbd717ba2	-0.058955796
81	0x3ded4e32	0.1158718
82	0x3ca7c051	0.020477446
83	0xbd819e99	-0.06329078
84	0x3cf746c4	0.03018511
85	0xbd3484cd	-0.04407196
86	0x3db1503b	0.08657881
87	0x3d2c8677	0.042120423
88	0xbd852441	-0.065010555
89	0x3a0f1554	0.0005458195
90	0x3dbb0d43	0.09133389
91	0xbd8a0ff8	-0.06741327
92	0x3d61e463	0.055149447
93	0x3d96ba26	0.07359724
94	0x3cc6d820	0.024272978
95	0x3ddbd7e5	0.10734538
96	0xbd49c75d	-0.049262393
97	0xbe0421db	-0.1290354
98	0xbc8fd039	-0.017555343
99	0x3d4e4904	0.050362602
100	0xbdc0da15	-0.09416596
101	0xbbe89274	-0.0070975367
102	0x3ddc8ece	0.10769425
103	0x3cd17637	0.025569065
104	0x3d1c2d72	0.038129278
105	0xbdab4776	-0.083632395
106	0x3ceb7886	0.028743993
107	0x3de30d46	0.11086516
108	0xbc9e443a	-0.019319642
109	0x3b3ecf89	0.00291154
110	0x3dd622cc	0.10455856
111	0x3cb91837	0.022594554
112	0xbd8faf10	-0.070158124
113	0xbdbaa550	-0.09113562
114	0x3cc94f8e	0.024574067
115	0x3d4a38ae	0.04937046
116	0xbc6c1d10	-0.014411226
117	0x3d931a47	0.071827464
118	0xbd5716b6	-0.052511893
119	0x3c082d62	0.008311601
120	0xbde8cf03	-0.11367609
121	0x3df24434	0.11829415
122	0x3dcb3385	0.09921936
123	0xbd0c535e	-0.034259193
124	0xbde326ab	-0.1109136
125	0x3db2072d	0.08692775
126	0x3dd76e17	0.10519045
127	0xbd3b1d99	-0.045682523
128	0xbc723f4c	-0.014785599
129	0xbd9719ea	-0.073779896
130	0x3ccea62f	0.025225727
131	0xbdafa5a3	-0.085765146
132	0x3d7e89b1	0.06214303
133	0x3d58e14e	0.052949242
134	0xbc513574	-0.012769092
135	0x3da8e322	0.08246447
136	0xbdb57172	-0.088595286
137	0x3dd6fb6c	0.10497174
138	0x3d49816b	0.04919569
139	0xbd958efc	-0.07302663
140	0xbe0668a8	-0.1312586
141	0x3d4d22cd	0.050082017
142	0xbd609192	-0.054826327
143	0xbd8b0b00	-0.067892075
144	0xbdd45700	-0.103681564
145	0x3c97dc52	0.018537674
146	0xbc89ac6f	-0.016805856
147	0x3d264ee4	0.04060258
148	0xbdada2ec	-0.084783405
149	0xbcbc01ca	-0.022950072
150	0xbd9a7ec5	-0.075437106
151	0xba27722d	-0.0006387558
152	0xbc556108	-0.013023622
153	0xbd72b014	-0.059249952
154	0x3e00f209	0.12592329
155	0xbdd854f9	-0.10563082
156	0x3dfad68a	0.12247951
157	0xbd86ab37	-0.065756254
158	0x3dd94ec0	0.106107235
159	0x3dfbb92d	0.12291179
160	0x3e005da5	0.12535723
161	0xbd375841	-0.0447619
162	0x3e17dba8	0.14829886
163	0x3d0bcb2b	0.034129303
164	0xbd7f8d78	-0.062390774
165	0xbd26d0fa	-0.04072664
166	0x3bafb63c	0.0053623
167	0xbd52abb4	-0.05143328
168	0x3d8e324d	0.06943188
169	0x3ddd1e47	0.107967906
170	0x3c21bb38	0.009871297
171	0x3de06052	0.10955872
172	0xbc8cda50	-0.017193943
173	0x3c89982e	0.016796198
174	0xbd8310d6	-0.063996956
175	0xbde50e8f	-0.111844175
176	0x3df1a3db	0.11798831
177	0x3d139861	0.03603399
178	0x3d336240	0.04379487
179	0x3d84ec5b	0.06490394
180	0x3db73fc3	0.089477085
181	0x3d06719a	0.032823183
182	0xbcbb02e1	-0.022828521
183	0xbd99f75e	-0.07517885
184	0x3c4b2fd9	0.0124015445
185	0xbd23505d	-0.039871562
186	0x3d627b9e	0.05529367
187	0x3d85a502	0.06525613
188	0xbde04461	-0.10950542
189	0xbda0b166	-0.07846336
190	0x3c4f93ce	0.012669517
191	0xbda540fe	-0.08069037
192	0x3d989681	0.07450581
193	0xbdcbcc8c	-0.099511236
194	0x3c468dec	0.012118798
195	0x3d2c3cad	0.042050052
196	0xbe0369cc	-0.12833327
197	0x3d6658be	0.056236975
198	0xbd6d3b5e	-0.057917945
199	0xbd3bc00a	-0.04583744
200	0x3d15e448	0.03659466
201	0x3ddd3527	0.10801154
202	0xbdbce931	-0.09224165
203	0xbd4ebe95	-0.050474722
204	0x3e039f4c	0.12853736
205	0x3dba9e44	0.09112218
206	0x3db049f5	0.08607856
207	0xbc40ee3f	-0.011775552
208	0x3da5641a	0.080757335
209	0x3d7e9908	0.06215766
210	0xbd5d41e4	-0.054017916
211	0x3e2cf75e	0.16891238
212	0x3c8e19bd	0.017346257
213	0x3dfbf8ec	0.123033375
214	0xbc3e3c3a	-0.011611039
215	0xbdfb3030	-0.122650504
216	0x3d422fa6	0.047408722
217	0xbd99a5c4	-0.075023204
218	0xbde5b451	-0.11216033
219	0x3cbd3f5c	0.023101501
220	0xbd981424	-0.074257165
221	0xbd3b5362	-0.045733817
222	0x3c960c54	0.018316425
223	0xbd93c56b	-0.07215389
224	0xbd6ee59c	-0.05832444
225	0x3ceea551	0.029131563
226	0x3dbb3e25	0.091427125
227	0xbdcc6faf	-0.099822395
228	0xbc5edd73	-0.013602602
229	0xbd98d589	-0.074626036
230	0xbdafe9d7	-0.08589523
231	0xbd2e09fe	-0.042489998
232	0xbd7f984d	-0.062401105
233	0x3c9b798b	0.018978855
234	0x3d8f4743	0.06996014
235	0x3be65262	0.0070288638
236	0x3e03eb69	0.1288277
237	0x3e048df2	0.12944773
238	0x3d7362a7	0.059420254
239	0x3dc9e846	0.09858756
240	0x3c49d2e7	0.012318349
241	0x3de3e5aa	0.11127789
242	0xbd17652f	-0.03696173
243	0xbd696307	-0.056979205
244	0x3d68a212	0.056795187
245	0x3dabcc0e	0.0838853
246	0x3babd1d4	0.0052435193
247	0xbd3002c1	-0.042971376
248	0xbdf1fa47	-0.11815315
249	0xbdd74e7a	-0.10513015
250	0xbdf8265c	-0.121166915
251	0xbdb685c3	-0.08912232
252	0x3db955bc	0.09049556
253	0x3ba20531	0.0049444665
254	0xbc0df161	-0.008663506
255	0x3d87cc18	0.06630725
