best_lstm_1step_spx.pt (torch, 206277 bytes, 9 tensors)

lstm.weight_ih_l0 f4 [256, 1]
0	0xbd3d6ea2	-0.046248086
1	0x3e04600b	0.12927262
2	0xbd03e6a7	-0.03220239
3	0x3d85a7e4	0.06526163
4	0xbc99e77f	-0.018787144
5	0x3de470f0	0.111543536
6	0xbd6fcac4	-0.05854298
7	0x3cd8198c	0.02637937
8	0x3ce2048e	0.027590062
9	0x3db0dd33	0.086359404
10	0x3da19717	0.07890146
11	0x3d810269	0.06299288
12	0x3e13a0a4	0.14416748
13	0xbde05431	-0.10953558
14	0x3df16a9f	0.117879145
15	0x3e254e83	0.16143231
16	0xbdb170c3	-0.08664086
17	0xbd5b5906	-0.053551696
18	0xbd98d016	-0.07461564
19	0x3de86570	0.11347473
20	0x3d1f1e2f	0.038847145
21	0xbd406da5	-0.046979565
22	0xbdfcd25c	-0.1234481
23	0x3df430dd	0.119233824
24	0xbd0954a2	-0.033527978
25	0xbd53211f	-0.05154526
26	0xbbbf38ca	-0.005835627
27	0xbc0e50c1	-0.008686245
28	0x3e0f92b6	0.1402081
29	0xbd328d40	-0.043591738
30	0x3d222862	0.039589293
31	0x3cf42b30	0.02980575
32	0x3dff6d03	0.12471964
33	0x3b6424e8	0.0034812037
34	0xbdf16776	-0.11787312
35	0x3d3646e0	0.044501185
36	0x3df83402	0.12119295
37	0x3cf96fec	0.030448876
38	0x3c8956d0	0.016765028
39	0xbd0cff31	-0.034423057
40	0xbd45d23f	-0.04829621
41	0x3e35d16e	0.17755672
42	0xbd4394b4	-0.047749236
43	0xbd29dfba	-0.041473128
44	0x3d04cb84	0.03242065
45	0x3c6b4f08	0.014362104
46	0xbd4e0b6a	-0.050303854
47	0x3dc1757d	0.09446237
48	0x3d870fe6	0.06594829
49	0xbd76235f	-0.060092326
50	0x3e0b0f08	0.13579953
51	0xbd897157	-0.06711071
52	0x3e40bc21	0.18821765
53	0x3dbf5c1e	0.09343742
54	0xbc5868a5	-0.013208543
55	0x3c3f8381	0.011689068
56	0x3d0f207c	0.03494309
57	0x3d68b30c	0.056811377
58	0xbd46c5d6	-0.048528515
59	0xbcf2013d	-0.029541606
60	0xbc791889	-0.015203604
61	0x3e61f17e	0.22064778
62	0xbd036a33	-0.0320837
63	0xbd193f59	-0.03741393
64	0x3cd7dfc1	0.026351811
65	0x3ce4d9ba	0.027935851
66	0x3db35fcd	0.08758507
67	0x3e2f99f9	0.1714858
68	0x3d6f5c4b	0.058437627
69	0xbcb9fb8f	-0.02270296
70	0x3d20ac78	0.03922698
71	0x3e43756e	0.19087765
72	0xbdb222e1	-0.08698059
73	0x3d9e05bb	0.07715937
74	0x3de75d80	0.112971306
75	0x3e20b8ef	0.15695547
76	0xbdaa61ba	-0.08319421
77	0xbdb19065	-0.08670119
78	0x3b06a2fb	0.0020543921
79	0x3cf87b5e	0.030332264
80	0xbdb4d6ad	-0.08830009
81	0x3dd955ef	0.10612094
82	0xbd8e1117	-0.069368534
83	0x3df67155	0.12033335
84	0x3e12e692	0.14345768
85	0x3dfd86ce	0.123792276
86	0xbe3d698a	-0.18497291
87	0x3db5e32f	0.088812225
88	0x3d22b7d9	0.039726112
89	0x3dd0a244	0.101872
90	0x3da2c2d4	0.07947317
91	0x3d842605	0.06452564
92	0x3e5db7e7	0.21652184
93	0x3e1ebdf8	0.15502155
94	0x3e158d52	0.1460469
95	0x3d93bcd4	0.072137505
96	0xbd3fb3f7	-0.046802487
97	0x3c290540	0.010316193
98	0xbd95adf5	-0.0730857
99	0x38c5ceba	9.432198e-05
100	0xbd2f11f2	-0.042741723
101	0x3d8f32ad	0.069920875
102	0xbe1afb6c	-0.15134972
103	0x3e2c8cd2	0.16850594
104	0xbd3a298c	-0.04544978
105	0xbbbe1375	-0.0058006593
106	0xbe00e1bb	-0.1258611
107	0x3e2bb6b7	0.16768919
108	0xbd90405e	-0.07043527
109	0x3dac9d82	0.0842848
110	0xbcea0962	-0.028568927
111	0x3dcb87f7	0.099380426
112	0x3d65a374	0.056064084
113	0x3d055bb5	0.03255816
114	0x3e10a29e	0.14124534
115	0xbd710938	-0.058846682
116	0xbd223966	-0.03960552
117	0xbd037b34	-0.032099918
118	0xbe2cc9fb	-0.16873924
119	0xbccd607b	-0.02507042
120	0xbb8813ec	-0.0041527655
121	0x3c9463f0	0.01811406
122	0xbe29f274	-0.16596395
123	0xbd276523	-0.040867936
124	0xbd1364e8	-0.035984904
125	0x3df4c493	0.11951556
126	0xbcfdcd95	-0.030981818
127	0x3d98052a	0.0742286
128	0x3e0b6ebe	0.13616464
129	0xbd13eb71	-0.036113206
130	0xbe2bd4f1	-0.1678045
131	0xbe0e2188	-0.13879979
132	0x3d0889d4	0.03333457
133	0x3e016a69	0.12638249
134	0xbdbdb168	-0.09262353
135	0x3e0694bc	0.13142675
136	0xbe028471	-0.12745835
137	0x3d490f0e	0.049086623
138	0x3e0f0021	0.13964893
139	0x3e20523c	0.1565637
140	0xbc77c92a	-0.015123645
141	0x3e0d0d14	0.1377452
142	0xbe3c7e80	-0.18407631
143	0xbdaaa81c	-0.083328456
144	0xbe2e2535	-0.17006381
145	0xbc2f6678	-0.010705583
146	0xbd32bd5a	-0.04363761
147	0xbe092576	-0.13393196
148	0xbe3f5c3f	-0.18687533
149	0xbdb492e0	-0.08817077
150	0xbd8c1b84	-0.06841186
151	0xbe087c37	-0.13328634
152	0xbda2f442	-0.07956745
153	0xbda65f0a	-0.08123596
154	0xbe13b379	-0.14423932
155	0x3d8e0cb3	0.06936016
156	0xbd32fc04	-0.043697372
157	0x3df2f34b	0.11862811
158	0x3e1ec036	0.1550301
159	0xbb57d8ae	-0.0032935548
160	0xbe1f8eb2	-0.15581778
161	0xbe2ddef6	-0.16979584
162	0xbdd9ae6b	-0.10628971
163	0xbdd9b222	-0.10629679
164	0x3e2dc1f0	0.16968513
165	0xbd5951c7	-0.053056505
166	0x3da24147	0.07922607
167	0xbde3b23b	-0.11117979
168	0xbe299191	-0.16559435
169	0xbd0c81f2	-0.034303613
170	0x3e090f92	0.13384846
171	0x3ce3b6f6	0.027797204
172	0x3e390e2d	0.18071814
173	0x3e2c6b67	0.16837846
174	0xbe4bb32a	-0.19892564
175	0xbe0a4e39	-0.13506402
176	0x3e1cd8b1	0.15317036
177	0x3d45eec0	0.048323393
178	0xbd4f0649	-0.050543103
179	0xbe21814e	-0.15771982
180	0x3e4ce628	0.20009673
181	0x3e2379e4	0.15964466
182	0x3cbe761f	0.023249684
183	0xbcef9d40	-0.029249787
184	0x3d9dda57	0.07707661
185	0x3e12d70a	0.14339843
186	0xbe3e72e5	-0.18598516
187	0xbdbb0484	-0.09131721
188	0x3d31261d	0.04324924
189	0x3e43aa14	0.19107848
190	0xbe15620a	-0.1458818
191	0x3c0cd093	0.00859465
192	0x3e3760d0	0.17908025
193	0x3e398229	0.18116058
194	0x3e55f20d	0.20893116
195	0x3e2b1230	0.16706157
196	0x3d1fe5a3	0.039037358
197	0x3e05f733	0.1308258
198	0x3dd7d7d4	0.10539213
199	0x3e15709d	0.1459374
200	0x3e376e97	0.1791328
201	0xbd29bf7b	-0.041442376
202	0x3dc502f0	0.09619701
203	0x3da8b92a	0.08238442
204	0xbbe4c575	-0.0069815465
205	0x3d7fe7e6	0.062477015
206	0x3d9c83f8	0.076423585
207	0x3b6cd6f9	0.0036138876
208	0x3bb46d73	0.0055062114
209	0x3de9e308	0.11420256
210	0x3cb20e4d	0.021735335
211	0x3e294f85	0.1653424
212	0x3dcb35cf	0.099223725
213	0x3d716a5a	0.058939315
214	0xbe33cb7f	-0.17558096
215	0x3d55c1b9	0.0521867
216	0xbd1fe807	-0.039039638
217	0xbbec1b07	-0.0072053703
218	0x3e5bb846	0.21457013
219	0x3da714fe	0.08158301
220	0x3e25b314	0.16181594
221	0x3c847860	0.01617068
222	0x3e08b542	0.13350394
223	0x3c98971e	0.018626746
224	0x3d97f8f1	0.07420529
225	0x3d9ca8e8	0.07649404
226	0xbd9dc4f6	-0.07703583
227	0xb8c791fe	-9.5162526e-05
228	0x3d860073	0.065430544
229	0xbd075a32	-0.033045
230	0x3ce54ff9	0.027992235
231	0x3dfd78f1	0.12376583
232	0x3d2b3dc3	0.041806947
233	0x3cbd65a3	0.023119753
234	0xbdcc3057	-0.099701576
235	0x3e0c046c	0.13673562
236	0x3e13eed8	0.1444658
237	0x3e256c8b	0.16154687
238	0x3d575a03	0.052576076
239	0x3df1a580	0.11799145
240	0x3e262e60	0.16228628
241	0x3dba7520	0.09104371
242	0xbd026c07	-0.031841304
243	0x3da2fb42	0.0795808
244	0x3e469d1d	0.19395871
245	0xbdbffb61	-0.093741186
246	0xbd968e73	-0.07351389
247	0xbd602ff9	-0.05473325
248	0xbdd500bc	-0.10400531
249	0xbd1c9be0	-0.03823459
250	0xbe1d98d7	-0.15390335
251	0x3e351704	0.17684561
252	0xbceaf60c	-0.028681777
253	0x3de6a7a1	0.112624414
254	0x3e0708c6	0.1318694
255	0x3d7f952e	0.06239813

lstm.weight_hh_l0 f4 [256, 64]
0	0x3df31b2f	0.11870419
1	0x3dc58339	0.09644169
2	0xbbb5afc0	-0.0055446327
3	0xbdde82e9	-0.10864813
4	0x3da0a969	0.078448124
5	0x3db06ac7	0.08614116
6	0x3d7ca38b	0.061679404
7	0x3de69710	0.11259282
8	0x3db42cc9	0.087976046
9	0xbd974270	-0.07385719
10	0xbd1ddff4	-0.038543656
11	0x3d8cf5a1	0.068827875
12	0xbdbb1093	-0.09134021
13	0x3dc837c1	0.09776259
14	0xbdccc33f	-0.09998178
15	0x3d6d90da	0.05799947
16	0xbdcbfa3f	-0.0995984
17	0xbdee28ac	-0.11628851
18	0xbdad01d6	-0.08447616
19	0x3d67402e	0.05645769
20	0xbd36fc2f	-0.044674095
21	0x3dd05dca	0.10174139
22	0xbd684e57	-0.056715336
23	0xbba38cef	-0.004991166
24	0xbd63d37d	-0.055621613
25	0xbdaff4ec	-0.08591637
26	0x3d9a6b58	0.075400054
27	0x3dc914f0	0.09818447
28	0xbd5f2812	-0.054481573
29	0x3dd8f700	0.105939865
30	0x3d6a5cbb	0.05721734
31	0x3db89a4c	0.09013805
32	0xbc9c1492	-0.019052777
33	0xbd92c9c5	-0.07167391
34	0x3d43f376	0.047839604
35	0xbd6be998	-0.05759582
36	0xbdd9835f	-0.1062076
37	0xbcf9881e	-0.030460414
38	0xbd9c3539	-0.07627339
39	0x3c297857	0.010343633
40	0xbdcad367	-0.09903603
41	0xbc32c528	-0.0109112635
42	0xbca7f5ec	-0.020503007
43	0xbde38178	-0.111086786
44	0x3e003b9e	0.12522742
45	0x3d75de0b	0.06002621
46	0xbca84af0	-0.020543545
47	0xbdf66297	-0.12030523
48	0xbcbe717d	-0.023247475
49	0x3d21ac92	0.039471216
50	0xbe02fb9e	-0.12791297
51	0x3be14a85	0.0068753385
52	0xbd201f87	-0.039092567
53	0x3e179931	0.14804532
54	0xbd715183	-0.058915626
55	0xbcb5bdd2	-0.02218524
56	0x3df0604c	0.11737117
57	0x3e141e27	0.14464627
58	0xbd4f5db3	-0.050626468
59	0xbe0e05d2	-0.13869408
60	0xbd72f161	-0.059312228
61	0x3d3559c0	0.044275045
62	0xbd997085	-0.074921645
63	0x3c8abb00	0.016934872
64	0xbd21265d	-0.039343227
65	0xbe047c74	-0.129381
66	0x3db3a58c	0.0877181
67	0xbdc0f4ca	-0.0942169
68	0x3da7db8e	0.081961736
69	0x3da01a9e	0.07817577
70	0x3d22a807	0.039711025
71	0x3daf03c6	0.085456416
72	0xbdde754f	-0.108622186
73	0xbba6c008	-0.00508881
74	0x3e08a077	0.13342462
75	0xbbe29d10	-0.006915696
76	0xbd3ab95d	-0.045586932
77	0x3d113165	0.035447497
78	0xbe0750da	-0.13214436
79	0xbda8df6c	-0.08245739
80	0xbda041f6	-0.07825081
81	0xbdbf6523	-0.09345462
82	0xbcc740d0	-0.024322897
83	0x3d91d83f	0.07121324
84	0xbdaaa77c	-0.08332726
85	0x3c50a554	0.01273473
86	0xbd3e02fc	-0.046389565
87	0xbc169b79	-0.009192341
88	0x3c8b8ffd	0.017036432
89	0xbde7f63a	-0.11326261
90	0x3d902d8a	0.07039936
91	0xbdd9db91	-0.10637582
92	0x3e0288b4	0.1274746
93	0x3dd5a758	0.10432309
94	0xbd3aa6ab	-0.045569103
95	0xbd29ca55	-0.041452724
96	0xbd3dac5a	-0.046306945
97	0xbdbfd6c8	-0.09367138
98	0xbe0d8161	-0.13818885
99	0x3d932471	0.07184685
100	0x3db876fa	0.09007068
101	0x3d8edad6	0.069753334
102	0x3dcd2ca2	0.10018279
103	0x3dfa69f6	0.12227242
104	0xbd2ee12d	-0.042695213
105	0xbd03f473	-0.032215547
106	0xbd47643f	-0.048679586
107	0x3ca59b67	0.020215703
108	0x3e1ad3b2	0.15119818
109	0x3dd0c91b	0.10194608
110	0xbd15cf9f	-0.036574956
111	0xbdaabcae	-0.08336769
112	0x3def27f2	0.11677541
113	0xbd7e0b46	-0.06202247
114	0xbcdf3a65	-0.027249524
115	0x3c1cc472	0.009568321
116	0x3de15187	0.11001878
117	0x3dd5f498	0.10447043
118	0x3ddbed8c	0.10738668
119	0xbe081558	-0.13289392
120	0x3df9e5cb	0.12202033
121	0xbca32bf6	-0.019918423
122	0xbcb34bff	-0.021886824
123	0xbdbf8b1c	-0.09352705
124	0xbdd1bf05	-0.10241512
125	0x3ddebbed	0.10875688
126	0xbe0db4ff	-0.13838576
127	0x3ce1c18f	0.027558116
128	0x3bea9f36	0.0071600927
129	0xbc840add	-0.016118461
130	0xbe01ed1a	-0.12688103
131	0xbe21725d	-0.15766282
132	0x3e091c14	0.13389617
133	0xbd8b4c7c	-0.068016976
134	0x3c81c61b	0.015841534
135	0x3db4a357	0.08820217
136	0x3d6a0d1a	0.0571414
137	0x3d330f3f	0.04371571
138	0xbc56ef32	-0.013118552
139	0x3dfea30d	0.12433443
140	0xbdfed8e5	-0.12443713
141	0x3ddb9070	0.10720909
142	0xbb89154a	-0.004183446
143	0xbe20fc99	-0.15721358
144	0x3cdec3cd	0.027192974
145	0xbcb452b0	-0.022012085
146	0x3c97de5b	0.018538645
147	0x3d804851	0.06263793
148	0x3cb1d1ac	0.021706425
149	0xbd902ba5	-0.070395745
150	0xbdc4e73a	-0.096144155
151	0x3b8af9d0	0.0042412058
152	0xbe1a9c7b	-0.15098755
153	0xbd75be7c	-0.059996113
154	0xbce385c2	-0.027773742
155	0xbd318f10	-0.043349326
156	0xbdadc651	-0.084850915
157	0xbd4dc996	-0.050241075
158	0x3d06bc76	0.032894574
159	0x3dc5108a	0.09622295
160	0xbc2e2df7	-0.010631076
161	0x3d190bc4	0.037364736
162	0xbd94be38	-0.07262844
163	0x3c4bae3b	0.0124316765
164	0x3dc4663f	0.095898144
165	0x3c2fbdc0	0.010726392
166	0x3df2a0fd	0.11847112
167	0xbd57501c	-0.052566633
168	0xbe0dbaf6	-0.13840851
169	0xbdb21dba	-0.08697076
170	0xbd495091	-0.0491491
171	0x3e06872e	0.13137504
172	0x3dfe97d6	0.12431304
173	0x3ab46df4	0.0013765679
174	0x3d5ba03d	0.053619612
175	0x3cb01b5f	0.021497427
176	0xbbae07a8	-0.0053109713
177	0xbcc48718	-0.023990199
178	0xbcf8ede4	-0.030386873
179	0x3dae2492	0.08503069
180	0x3d88835a	0.06665678
181	0x3dc5f045	0.096649684
182	0x3d708c9a	0.058727838
183	0xbd01cd01	-0.031689648
184	0xbdb08b0a	-0.086202696
185	0xbd4f3ec2	-0.05059696
186	0x3df20b09	0.11818511
187	0xbdd67d8d	-0.10473166
188	0xbd453b24	-0.048152104
189	0x3e1c66f4	0.15273649
190	0x3c1ed6c7	0.009694762
191	0xbdb593b2	-0.08866061
192	0xbca6619c	-0.020310216
193	0xbd180e09	-0.03712276
194	0xbce4d731	-0.027934643
195	0xbdcda806	-0.100418136
196	0xbdef8114	-0.116945416
197	0x3e2e6b93	0.17033224
198	0xbd1693c7	-0.036762025
199	0xbd99cebb	-0.07510134
200	0xbe0ae448	-0.13563645
201	0x3d38d250	0.045122445
202	0x3df6daf7	0.12053483
203	0x3dd60950	0.10450995
204	0xbc240384	-0.010010604
205	0x3df38696	0.118909046
206	0xbd9029aa	-0.07039197
207	0xbd9e06d0	-0.07716143
208	0x3de9c81e	0.114151224
209	0xbcd09e93	-0.02546624
210	0xbda95e67	-0.08269959
211	0xbdbad040	-0.09121752
212	0x3d47deda	0.048796512
213	0x3c4e0c07	0.01257611
214	0x3d8e7f83	0.06957915
215	0x3d8b42f7	0.06799882
216	0xbd36241f	-0.04446804
217	0xbda0359d	-0.07822726
218	0x3b02cd28	0.0019958708
219	0x3e0e3930	0.13889003
220	0xbafb89f1	-0.001919089
221	0x3de4bed5	0.11169211
222	0x3dd2a6f6	0.102857515
223	0x3db320f9	0.087465234
224	0xbe2bbc5a	-0.16771069
225	0xbdeeff8a	-0.11669834
226	0x3c82c1d2	0.015961561
227	0xbcccbb45	-0.02499164
228	0x3d028a6d	0.031870294
229	0x3d9eb6ff	0.077497475
230	0x3dc213aa	0.09476407
231	0xbd90f451	-0.0707785
232	0xbd3101d0	-0.04321462
233	0x3d17e88e	0.037087016
234	0xbe3c92f7	-0.18415438
235	0x3e15a9f0	0.14615607
236	0x3e012a6f	0.12613843
237	0xbd2e6608	-0.042577773
238	0x3bf8c1a2	0.007591442
239	0xbe3b94dd	-0.18318506
240	0x3bcfa112	0.0063363397
241	0xbca87294	-0.020562448
242	0xbd6ada91	-0.057337347
243	0xbd293963	-0.041314494
244	0xbd928fd3	-0.071563385
245	0x3e622e8a	0.22088066
246	0xbce69ede	-0.028151926
247	0x3de19a41	0.1101575
248	0x3d2af9f1	0.04174227
249	0x3c2f5d37	0.0107033765
250	0xbd06ea0c	-0.03293805
251	0xbdaccfe0	-0.084380865
252	0xbdce5751	-0.10075248
253	0x3d100d36	0.03516885
254	0x3dc8d9ed	0.09807191
255	0x3c0e4025	0.008682285

lstm.bias_ih_l0 f4 [256]
0	0x3d4509d9	0.048105095
1	0x3d1ec1fd	0.03875922
2	0xbce5adeb	-0.028037032
3	0x3daf5f2c	0.085630745
4	0xbd7304f2	-0.059330888
5	0xbd36f112	-0.044663496
6	0x3d9322a0	0.071843386
7	0x3c9dd817	0.019268079
8	0xbc9e52e5	-0.019326637
9	0x3d4dfbfa	0.05028913
10	0x3d7c5237	0.061601844
11	0xbd5f7047	-0.054550435
12	0x3d1d25df	0.038366195
13	0x3dfaff1e	0.12255691
14	0x3d3fbf57	0.046813335
15	0xbd1159b2	-0.03548593
16	0xbda38c5b	-0.07985755
17	0xbce6bd10	-0.028166324
18	0xbe010c85	-0.12602432
19	0xbc8fee8c	-0.017569803
20	0xbd1fdd70	-0.03902954
21	0xbb271d30	-0.0025499575
22	0xbda5cb45	-0.08095411
23	0x3d2b3170	0.041795194
24	0xbdf6ae04	-0.120449096
25	0xbcbad9a2	-0.022808854
26	0x3e0643f4	0.1311186
27	0x3c6dd65e	0.014516441
28	0x3d0b3d0b	0.033993762
29	0xbd9b8d39	-0.075952955
30	0xbd4b4dd8	-0.049634784
31	0xbda8c013	-0.0823976
32	0x3dcdabfb	0.10042568
33	0x3d86fc76	0.06591122
34	0x3da349a7	0.079730324
35	0xbcacd3f5	-0.021097163
36	0xbd2f387f	-0.04277849
37	0xbdec68f3	-0.11543455
38	0x3db98855	0.090592064
39	0xbd914f48	-0.070952
40	0x3a6a3b7a	0.00089352543
41	0x3dcacc6f	0.09902274
42	0x3b935ced	0.0044971616
43	0xbc5d86ac	-0.013520878
44	0xbd589aee	-0.052882127
45	0x3e179f71	0.14806916
46	0xbca8e629	-0.020617561
47	0xbd335c2d	-0.043789078
48	0x3e20ba13	0.15695982
49	0xbd890b30	-0.06691587
50	0x3ced7734	0.028987505
51	0x3d93c508	0.07215315
52	0x3d382333	0.044955444
53	0xbd9a6af7	-0.07539933
54	0x3d840776	0.064467356
55	0xbdb83ff2	-0.089965716
56	0xbdf719f7	-0.12065499
57	0x3e0ff8a6	0.14059696
58	0x3cf4443a	0.02981769
59	0xbdaf9da0	-0.085749865
60	0xbda1a6db	-0.07893153
61	0xbd92a58a	-0.0716048
62	0x3e05d3c6	0.13069066
63	0xbd491f84	-0.04910232
64	0x3ddf0973	0.10890474
65	0xbd8576f5	-0.0651683
66	0x3e18154b	0.14851873
67	0x3c9b16e3	0.018931812
68	0xbe0ca6c4	-0.13735491
69	0xbd5d4843	-0.054023992
70	0xbd94bc7a	-0.072625116
71	0xbdcbb2ec	-0.09946236
72	0x3dcfbbab	0.10143217
73	0x3d817d92	0.06322779
74	0x3da22126	0.07916479
75	0xbd2aed74	-0.04173036
76	0xbc1f36d5	-0.009717663
77	0x3e189bc0	0.14903164
78	0xbd2bea49	-0.04197148
79	0xbb9010b3	-0.004396522
80	0x3db29b66	0.08721046
81	0xbd91eaf6	-0.07124893
82	0x3d9e858e	0.07740317
83	0x3d023318	0.031787008
84	0x3dd2f73f	0.10301065
85	0xbdd33aa9	-0.10313923
86	0xbb4a011e	-0.003082342
87	0x3db0434a	0.08606584
88	0x3db5d1ac	0.08877882
89	0x3dca33bf	0.09873151
90	0xbc62c3cd	-0.013840628
91	0xbdc03293	-0.09384646
92	0x3df7e04c	0.12103328
93	0x3de8ee3c	0.113735646
94	0xbccd1b71	-0.0250375
95	0xbe01f648	-0.12691605
96	0x3d830172	0.0639676
97	0x3e14b96a	0.14523855
98	0xbdcaa010	-0.09893811
99	0x3e0f107a	0.13971129
100	0x3de5fe14	0.11230102
101	0xbdc5f9ac	-0.09666762
102	0xbc7c9dba	-0.015418464
103	0xbbb9f2c4	-0.005674692
104	0xbdcaf111	-0.09909261
105	0xbd248f62	-0.040175803
106	0x3d24e4ac	0.04025714
107	0x3dc1e7f0	0.09468067
108	0xbd9ffe03	-0.07812121
109	0x3df52682	0.119702354
110	0x3d9ddfa1	0.077086695
111	0xbb0bf34c	-0.0021354733
112	0xbdb0f4c0	-0.08640432
113	0xbdb38a82	-0.08766653
114	0x3db0e1d9	0.08636827
115	0x3db4cc46	0.088280246
116	0x3d092f92	0.033492632
117	0xbd866ba1	-0.06563497
118	0x3d585664	0.052816764
119	0xbdd17331	-0.10227049
120	0xbe0137e0	-0.12618971
121	0xbbe5152e	-0.00699105
122	0xbb8be00e	-0.0042686528
123	0xbde39c66	-0.11113815
124	0x3d6c44a9	0.057682667
125	0xbd4ae4ef	-0.049534734
126	0x3dbc9369	0.09207804
127	0xbd896ad2	-0.067098275
128	0x3deda28d	0.1160327
129	0x3d2a6972	0.041604467
130	0xbdeb6ea9	-0.11495716
131	0xbda8d8c2	-0.08244468
132	0xbc774403	-0.015091899
133	0x3dd2d04a	0.10293634
134	0x3d193667	0.037405398
135	0x3db837ac	0.089949936
136	0xbbdc9f48	-0.006732855
137	0x3da65509	0.08121688
138	0xbdda6eb5	-0.10665647
139	0x3de90193	0.113772534
140	0xbd21963f	-0.039449926
141	0xbd24e4ba	-0.040257193
142	0xb99cb00a	-0.00029885798
143	0xbd703d3b	-0.058652144
144	0x3d55e5f0	0.05222124
145	0x3ddb0460	0.10694194
146	0x3b355b7a	0.0027672932
147	0xbd2b57f9	-0.041831944
148	0xbdc39858	-0.09550542
149	0xbdbfd4ce	-0.09366761
150	0x3d581ba8	0.05276075
151	0xbd0496e2	-0.032370456
152	0xbd456b0b	-0.048197787
153	0xbd31361a	-0.043264486
154	0xbd69b1d2	-0.05705435
155	0xbd85ebe6	-0.06539135
156	0xbd0c49b0	-0.03424996
157	0xbdab1298	-0.08353156
158	0x3d6f6b63	0.05845202
159	0x3d94e3e2	0.07270028
160	0xbcf62958	-0.030049011
161	0x3dd05b56	0.10173671
162	0x3dff74aa	0.12473424
163	0x3d838488	0.06421763
164	0xbdaafc19	-0.08348865
165	0x3dc824d0	0.097726464
166	0xbcfe6ffd	-0.03105926
167	0xbdc759af	-0.09733903
168	0xbda70e4f	-0.08157026
169	0x3a43ef5f	0.0007474329
170	0xbd6196a3	-0.0550753
171	0x3d1a59c7	0.037683275
172	0xbd917f58	-0.07104367
173	0xbd61eee0	-0.05515945
174	0x3d22ee4a	0.03977803
175	0x3c06217a	0.008186692
176	0x3d29b79c	0.04143487
177	0x3ca9ea38	0.020741567
178	0xbd9e6281	-0.07733632
179	0x3d7a74bf	0.061146494
180	0xbd3a6f7a	-0.04551647
181	0x3d0fff5c	0.03515564
182	0x3de98d52	0.11403908
183	0x3baf760c	0.0053546485
184	0x3db4d1d2	0.088290825
185	0xbd252c7d	-0.04032563
186	0xbd5b41a8	-0.05352941
187	0xbdc450a5	-0.09585694
188	0x3cc2d448	0.023782864
189	0xbd9d8342	-0.07691051
190	0xbd9ac0e9	-0.07556326
191	0xbe0088ea	-0.12552229
192	0xbdc5b3f2	-0.096534625
193	0xbd74885f	-0.059700366
194	0xbd8da279	-0.06915755
195	0x3e1d83d4	0.1538232
196	0x3d27423c	0.04083465
197	0x3cf2edb4	0.029654361
198	0xbdd5fd4c	-0.10448703
199	0xbda27911	-0.07933248
200	0x3c8df6ca	0.017329592
201	0x3d7281a2	0.05920566
202	0x3d94f9c6	0.07274203
203	0xbca122e7	-0.019669963
204	0xbd10fc02	-0.035396583
205	0x3dc5c696	0.09657018
206	0x3d90a631	0.070629485
207	0x3dd85356	0.1056277
208	0x3dbb1a32	0.09135856
209	0xbd48455d	-0.048894275
210	0xbdb1cc7f	-0.08681583
211	0x3dca7e56	0.09887378
212	0xbd7726fb	-0.06033991
213	0xbd9039f2	-0.07042302
214	0x3db41b3c	0.08794257
215	0xbd03ee07	-0.032209422
216	0x3d3080e8	0.043091685
217	0xbd51409d	-0.05108701
218	0x3df9e43f	0.122017376
219	0xbd67dc7e	-0.056606762
220	0x3c0f756a	0.008756021
221	0x3d2bb499	0.04192028
222	0xbdbec50c	-0.093149275
223	0xbd98a66b	-0.07453617
224	0xbd807bf9	-0.06273646
225	0x3e1486bf	0.14504527
226	0x3d6dcdc9	0.05805758
227	0xbc5f186f	-0.013616665
228	0x3bf9cd9d	0.007623388
229	0xbbedc25f	-0.007255837
230	0x3d09cfc3	0.033645403
231	0x3da432fa	0.080175355
232	0x3da7abd2	0.08187069
233	0xbdf31084	-0.118683845
234	0x3d2540b2	0.0403449
235	0xbdf40388	-0.11914736
236	0xbd6fef38	-0.058577746
237	0x3de301e6	0.110843465
238	0x3e3a9d3c	0.18224043
239	0x3de40674	0.11134043
240	0x3d9fa011	0.07794202
241	0xbda18d09	-0.078882284
242	0xbc7cfef2	-0.015441643
243	0x3d6b4735	0.057440955
244	0xbd109fc4	-0.035308614
245	0xbc9d85a3	-0.019228762
246	0xba5d4052	-0.00084400654
247	0x3d89cbd8	0.06728333
248	0xba04576f	-0.0005048429
249	0x3d683164	0.056687728
250	0x3d8e4cbb	0.06948229
251	0xbdce916b	-0.1008633
252	0x3da754d2	0.08170475
253	0xbd158718	-0.03650579
254	0xbd8199db	-0.06328174
255	0xbda3c0a9	-0.079957314

lstm.bias_hh_l0 f4 [256]
0	0xbde386ba	-0.111096814
1	0x3db579f3	0.088611506
2	0x3dedc218	0.11609286
3	0x3d4da46c	0.050205633
4	0xbd709aea	-0.058741488
5	0x3c6cc2d2	0.014450746
6	0xbdab55aa	-0.083659485
7	0x3de74728	0.11292869
8	0xbcc91495	-0.024545947
9	0xbc49ff73	-0.01232897
10	0x3dbf211a	0.093324855
11	0x3c18779f	0.009305864
12	0x3df7b2db	0.12094661
13	0x3e083c26	0.13304195
14	0x3dca6bd6	0.09883849
15	0xbdf33643	-0.11875584
16	0x3c8299d3	0.01594249
17	0xbd6f458d	-0.05841594
18	0xbe061041	-0.13092138
19	0x3d8018c2	0.06254722
20	0xbdb6b7d4	-0.08921781
21	0xbd280a05	-0.04102518
22	0x3d5a7df6	0.053342782
23	0xbda11838	-0.078659475
24	0xbc770b76	-0.015078416
25	0xbc90a419	-0.017656373
26	0x3d389b60	0.045070052
27	0x3d9fafe9	0.07797224
28	0x3d806190	0.062686086
29	0xbd724ab7	-0.059153285
30	0x3bfb0706	0.0076607494
31	0xbd8114b2	-0.063027754
32	0xbc882901	-0.016621115
33	0x3e06c28b	0.1316015
34	0x3c967b49	0.018369334
35	0x3d87851b	0.06617185
36	0xbbaae56a	-0.0052153366
37	0xbd7df48a	-0.06200079
38	0x3dbf9d99	0.09356231
39	0x3df78a9c	0.120869845
40	0xbdf30ca6	-0.11867647
41	0xbd99baab	-0.07506307
42	0xbd8a0958	-0.067400634
43	0x3ddfa6a7	0.10920458
44	0x3e4229f0	0.1896131
45	0xbd97cdfa	-0.07412334
46	0x3d608597	0.0548149
47	0x3e3f64e7	0.18690835
48	0x3df7c0b7	0.12097304
49	0xbd65fa3c	-0.056146845
50	0x3dabb9a0	0.083850145
51	0x3de6ac9c	0.112633914
52	0x3e16d946	0.1473132
53	0xba89c022	-0.001050953
54	0x3d56788f	0.052361067
55	0xbe0eef35	-0.13958438
56	0x3a85fa66	0.0010221719
57	0x3d93d711	0.07218755
58	0xbd10839f	-0.035281774
59	0x3c5e1072	0.013553726
60	0x3dc7eb57	0.097616844
61	0x3b53fd41	0.0032346996
62	0x3e35f35c	0.17768615
63	0x3dfc1a84	0.12309745
64	0x3d94f083	0.072724365
65	0xbc590294	-0.013245244
66	0x3e111655	0.14168675
67	0x3e28655c	0.16444916
68	0xbc846f93	-0.016166484
69	0x3ce994e0	0.028513372
70	0x3ab77bfe	0.0013998745
71	0x3da364c8	0.07978207
72	0xbc0ab308	-0.008465536
73	0xbd82c628	-0.063854516
74	0x3d497b95	0.049190123
75	0x3dfe5a81	0.12419606
76	0x3da7be02	0.08190538
77	0x3d65402d	0.055969406
78	0x3c9014dd	0.017588073
79	0xbd1a87bd	-0.037727106
80	0xbdabb6a4	-0.08384445
81	0xbde89a9a	-0.11357613
82	0x3d7142fb	0.05890177
83	0xbbdaec4c	-0.006681001
84	0xbdef0d1b	-0.116724215
85	0x3dde6a89	0.10860164
86	0xbda37104	-0.079805404
87	0xbd86beb2	-0.06579341
88	0x3d8055cb	0.06266364
89	0xbd8bb197	-0.06820982
90	0xbdc958ee	-0.09831415
91	0x3d9d819f	0.07690739
92	0xbd01f4ba	-0.03172753
93	0xbdbc6ebc	-0.092008084
94	0xbd045f63	-0.03231753
95	0xbd9baeb1	-0.07601679
96	0x3d529429	0.051410828
97	0x3dbd7104	0.09250072
98	0x3d093e7e	0.033506863
99	0xbd7a9467	-0.061176684
100	0x3df1c68e	0.118054494
101	0x3cd83d5c	0.026396446
102	0xbd5441e9	-0.05182067
103	0xbd6c61ae	-0.057710342
104	0xbd58f8d7	-0.052971687
105	0x3d8df8f6	0.06932251
106	0x3dd3004b	0.1030279
107	0x39f6e043	0.00047087864
108	0x3dba97ab	0.091109596
109	0xbd8ddab8	-0.06926483
110	0x3e2c5011	0.16827418
111	0x3d69bc31	0.05706424
112	0x3dc85998	0.09782714
113	0xbc668dbc	-0.014071878
114	0xbcfcd8ac	-0.030865036
115	0xbda2d34a	-0.079504564
116	0x3e02d41a	0.12776223
117	0x3cef7d94	0.029234685
118	0x3d11b5b4	0.035573676
119	0xbd14eafb	-0.036356907
120	0xbde3489b	-0.11097833
121	0x3dd56d4c	0.10421237
122	0x3d55f056	0.052231155
123	0x3de6d958	0.11271924
124	0xbd0d35f6	-0.03447529
125	0xbdba0244	-0.090824634
126	0x3ded7841	0.11595202
127	0xbd5f2ddc	-0.054487094
128	0x3d192cbf	0.03739619
129	0x3caf6721	0.02141148
130	0x3dd989db	0.10621997
131	0x3da482fc	0.08032796
132	0xbb327c28	-0.0027234647
133	0x3d0d3e9d	0.03448354
134	0x3d4ebac3	0.05047108
135	0x3d5b26c3	0.053503763
136	0xbd5318e3	-0.051537406
137	0xbd69fbdd	-0.05712496
138	0x3dea02ff	0.11426353
139	0xbd681261	-0.056658152
140	0xbd8413d4	-0.064490944
141	0x3d02b60c	0.031911895
142	0xbd43c283	-0.047792923
143	0x3b0c0128	0.0021362994
144	0x3da46c55	0.08028475
145	0xbbca83d3	-0.0061802655
146	0xbce67063	-0.028129762
147	0xbbfbbc2a	-0.007682343
148	0xbce9172b	-0.02845343
149	0xbd97569e	-0.07389568
150	0x3d4ae722	0.04953683
151	0xbc303b41	-0.010756315
152	0xbc95d9f6	-0.018292408
153	0xbd6d38fc	-0.057915673
154	0x3d102b39	0.03519747
155	0x3dc80884	0.09767249
156	0xbaaa866f	-0.0013010035
157	0x3d87597a	0.06608863
158	0x3d76daf9	0.060267422
159	0xbd58d6ca	-0.052939214
160	0xbdb3808a	-0.08764751
161	0xbd7aa588	-0.06119302
162	0xbca25d1f	-0.019819794
163	0xbd892db7	-0.066981725
164	0x3dd2c4d9	0.10291452
165	0x3dbe26a8	0.09284717
166	0x3db5456f	0.08851134
167	0xbdf6de73	-0.120541476
168	0xbd9e386b	-0.077256046
169	0x3d174045	0.036926527
170	0xbd94c5cf	-0.072642915
171	0xbbeae43d	-0.0071683214
172	0xbd009f0a	-0.03140167
173	0x3d3abe88	0.04559186
174	0xbb983ac0	-0.0046456754
175	0xbcd3db18	-0.025861308
176	0xbdb67505	-0.089090385
177	0xbd565b21	-0.052333
178	0xbd51cc15	-0.05122002
179	0x3b731ebc	0.0037097177
180	0x3d5b7e0e	0.053587012
181	0x3cd7d92f	0.026348678
182	0xbdd64b30	-0.1046356
183	0x3dc11c39	0.09429211
184	0xbca3c874	-0.019993044
185	0xbcd6a26c	-0.026200496
186	0x3e0808fe	0.1328468
187	0xbc9c0744	-0.019046433
188	0xbde6cb96	-0.112693
189	0x3df9fc26	0.122062966
190	0x3d536214	0.051607206
191	0xbdfc7267	-0.12326508
192	0x3dd6470e	0.10462771
193	0xbd303b80	-0.043025494
194	0x3e14c7d0	0.14529347
195	0xbd2265f3	-0.039648008
196	0xbd18a914	-0.03727062
197	0x3dd1963b	0.10233732
198	0xbbb5e2ce	-0.005550719
199	0xbd8c1d69	-0.06841547
200	0xbdcf2fb7	-0.10116523
201	0x3c77838b	0.015107046
202	0x3ca91250	0.020638615
203	0x3d837a62	0.06419827
204	0x3d78fe89	0.06078962
205	0x3d0149bb	0.031564455
206	0xbc3fcc63	-0.011706444
207	0x3d72dd00	0.059292793
208	0xbd0ddead	-0.03463619
209	0xbe182771	-0.14858796
210	0xbdcff27f	-0.10153674
211	0x3e11bd50	0.14232373
212	0x3d8460c5	0.0646377
213	0x3d533ff2	0.051574655
214	0x3d75cab7	0.060007777
215	0xbdd031ba	-0.101657346
216	0xbd92d123	-0.07168796
217	0x3ce843d1	0.02835265
218	0x3e010a4a	0.12601581
219	0xbdd7535d	-0.10513947
220	0xbda572e9	-0.08078558
221	0xbe0029ee	-0.12515995
222	0x3d352007	0.044219997
223	0x3d266797	0.040626135
224	0xbd0174ef	-0.031605657
225	0x3c665731	0.014058874
226	0x3d982845	0.07429556
227	0x3d8d9f64	0.06915167
228	0x3e13f4f2	0.14448908
229	0xbc56f840	-0.013120711
230	0x3d9159ad	0.070971824
231	0x3dfd19d1	0.1235844
232	0xbdb3bcce	-0.08776246
233	0xbdd86da6	-0.10567789
234	0x3c85a935	0.016316036
235	0x3db80db8	0.08986992
236	0x3a7ef5d6	0.00097259635
237	0x3d8c094f	0.06837713
238	0x3e021bea	0.12705961
239	0x3d49667d	0.049170006
240	0x3dd9a0a6	0.106263444
241	0xbdc1aea8	-0.09457141
242	0xbd753801	-0.059867863
243	0x3dbd0ff4	0.092315584
244	0xbd2fba68	-0.04290238
245	0x3d37992c	0.04482381
246	0xbc5c867e	-0.0134598
247	0xbd32cee8	-0.043654352
248	0xbd5fa5a5	-0.05460133
249	0xbdb70923	-0.089372896
250	0x3c7baf05	0.015361552
251	0x3cf0ef6c	0.02941104
252	0x3da6cc3c	0.08144423
253	0x3c8a45a6	0.016878914
254	0x3df59bbf	0.11992597
255	0xbdf00a21	-0.11720682

lstm.weight_ih_l1 f4 [256, 64]
0	0xbdbace3e	-0.09121369
1	0xbd315971	-0.04329819
2	0xbdabd4ad	-0.08390174
3	0x3ddb8d0e	0.107202634
4	0x3dd8b45e	0.10581277
5	0xbe10c6d1	-0.14138342
6	0x3d90a1d4	0.07062116
7	0x3dbb0d93	0.091334485
8	0xbde18365	-0.1101139
9	0xbc16b8d9	-0.009199345
10	0x3ce3529c	0.027749352
11	0xbd85ebc3	-0.065391086
12	0x3ce03681	0.02736974
13	0x3d83d195	0.06436459
14	0xbddd3365	-0.10800818
15	0x3e1a7f1e	0.15087554
16	0xbdf471b8	-0.11935753
17	0x3cd82694	0.026385583
18	0x3dc9aee4	0.09847811
19	0x3c834cae	0.016027775
20	0xbd4ad000	-0.04951477
21	0x3e121e11	0.14269282
22	0xbdbd55e1	-0.09244896
23	0xbdd4dfce	-0.1039425
24	0x3d894995	0.06703488
25	0x3e0edd5a	0.13951626
26	0x3df44da5	0.11928872
27	0xbbdff1ed	-0.0068342597
28	0xbd3a4aab	-0.045481365
29	0x3da279aa	0.07933362
30	0xbd15f546	-0.036610864
31	0x3c2d7c74	0.010588754
32	0xbd214761	-0.039374713
33	0x3db10a1f	0.086445086
34	0xbc61b4b3	-0.013775992
35	0xbcd0d594	-0.025492467
36	0xbdf4f4f3	-0.11960783
37	0x3d3f8535	0.046757895
38	0x3d2958a6	0.041344307
39	0x3ded50bb	0.11587664
40	0x3dd01bcc	0.10161552
41	0xbd9aecd3	-0.07564702
42	0x3e0b60c6	0.13611135
43	0x3d8f80ee	0.07007013
44	0x3e07334b	0.1320316
45	0x3d6dab5e	0.058024757
46	0x3dbb4f21	0.09145952
47	0x3d70ec97	0.05881938
48	0x3cda7cd3	0.026670849
49	0x3cd40a4d	0.025883818
50	0xbd9dafbe	-0.07699536
51	0xbd8db524	-0.069193155
52	0x3d801c96	0.06255452
53	0xbd26ee55	-0.040754635
54	0xbdd64af5	-0.10463516
55	0xbd1f5289	-0.03889707
56	0xbc83121c	-0.015999846
57	0x3d8c11de	0.068393454
58	0x3c83d012	0.016090427
59	0x3ca02f64	0.019553848
60	0x3d60b99d	0.054864515
61	0xbc0ce663	-0.00859985
62	0xbddb58e1	-0.10710312
63	0x3caff162	0.021477405
64	0x3dcab68e	0.09898101
65	0x3db96a97	0.090535335
66	0x3daec1de	0.08533071
67	0xbb3fa664	-0.0029243464
68	0xbbf8edbd	-0.0075967
69	0xbd824794	-0.06361309
70	0x3cd8e06f	0.026474206
71	0x3d986c8f	0.07442581
72	0x3b35a9a8	0.0027719531
73	0xbd40c731	-0.047064964
74	0xbc154cf7	-0.009112588
75	0x3db0f3a2	0.08640219
76	0xbd855802	-0.06510927
77	0x3e25094a	0.16116825
78	0xbd2f09cc	-0.042733952
79	0x3cd06150	0.025437027
80	0xbd21d398	-0.039508432
81	0xbc91c401	-0.017793657
82	0x3dd756ed	0.10514627
83	0x3c9d8fc6	0.019233596
84	0x3dd36d63	0.10323598
85	0x3ddcf45e	0.10788797
86	0x3d6936c6	0.056937
87	0xbd9ee97f	-0.077593796
88	0xbcb47c73	-0.022031998
89	0x3cb12d8f	0.02162817
90	0xbc73f27b	-0.014889355
91	0x3cfe63a4	0.031053372
92	0x3d0cdb21	0.034388665
93	0xbd200395	-0.039065916
94	0xbcc2b6d5	-0.023768822
95	0x3d130b51	0.035899464
96	0x3bc69d40	0.006061226
97	0xbde4f8dc	-0.11180279
98	0xbdec506b	-0.11538776
99	0xbd433cc1	-0.04766536
100	0x3d8259d5	0.0636479
101	0xbd281a89	-0.04104093
102	0x3d54f5bf	0.051992174
103	0xbd064f0a	-0.03279022
104	0xbd75fd28	-0.06005588
105	0xbb7ac1f9	-0.003826259
106	0x3c22fecd	0.009948445
107	0x3d409e96	0.04702624
108	0x3d85108d	0.064972974
109	0xbda50486	-0.080575034
110	0xbe3ac151	-0.18237807
111	0xbdf06d26	-0.117395684
112	0xbaf51865	-0.0018699287
113	0xbc1d0874	-0.009584535
114	0x3da1a088	0.07891947
115	0xbde27f95	-0.110594906
116	0xbb684d51	-0.0035446475
117	0x3a8b5b32	0.0010632037
118	0xbd732cd4	-0.059368923
119	0xbcbd7d76	-0.023131113
120	0xbc5e0aab	-0.013552348
121	0x3e104c4e	0.14091608
122	0xbdf7daa9	-0.12102253
123	0xbddec9ab	-0.10878309
124	0xbde2861d	-0.11060736
125	0x3c49a0b7	0.012306384
126	0x3d819ac1	0.06328345
127	0x3de7e704	0.113233596
128	0xbbd96ca1	-0.006635264
129	0x3d6cd85b	0.05782352
130	0x3dc221de	0.09479116
131	0x3d1f3b93	0.038875174
132	0xbdb3d8a9	-0.08781559
133	0xbd0664b9	-0.0328109
134	0xbdb7b60f	-0.08970272
135	0xbdb7887c	-0.08961579
136	0xbd4a0ad2	-0.049326725
137	0x3d990ff8	0.07473749
138	0x3d81da07	0.063404135
139	0xbe0b79bb	-0.13620655
140	0xbc9ccb38	-0.019139871
141	0x3dd65162	0.10464741
142	0x3d0dd3dc	0.034625873
143	0x3da54f5e	0.08071779
144	0x3d7108f5	0.058846433
145	0xbdbae610	-0.09125912
146	0x3d111fb8	0.03543064
147	0xbd0e8334	-0.034793094
148	0x3d523aaf	0.051325496
149	0xbdc85006	-0.09780888
150	0xbdbb4ff1	-0.09146107
151	0x3c8463ac	0.016160809
152	0xbdd849a3	-0.1056092
153	0x3d370255	0.04467996
154	0x3d455abd	0.048182238
155	0xbd1d6023	-0.03842176
156	0x3d5ccc74	0.05390592
157	0x3dd3389c	0.10313532
158	0xbdb757f6	-0.08952324
159	0x3db39da9	0.08770306
160	0xbdcbe99a	-0.09956665
161	0x3d8f1b8d	0.06987677
162	0xbd5c6c58	-0.053814262
163	0xb8372f51	-4.3674667e-05
164	0x3caf88e9	0.021427589
165	0xbb61839e	-0.0034410725
166	0xbd972a41	-0.07381106
167	0xbde1010a	-0.10986526
168	0xbd35ba75	-0.044367272
169	0xbd929dc8	-0.07159001
170	0xbdbb8687	-0.091565184
171	0x3d876f94	0.06613079
172	0xbd8aabb9	-0.06771035
173	0xbdce3eda	-0.10070582
174	0x3d086a45	0.03330447
175	0xbd8fd8ae	-0.0702375
176	0x3d7b5727	0.06136241
177	0xbda701d7	-0.08154648
178	0x3ddd78e9	0.108140774
179	0xbde1a503	-0.110178016
180	0xbd35abaa	-0.044353165
181	0x3ddf0954	0.10890451
182	0xbdc20bdc	-0.09474918
183	0x3d853d38	0.06505817
184	0xbdc17017	-0.094452076
185	0x3d9529ac	0.07283339
186	0xbdd79764	-0.10526922
187	0x3d30b300	0.043139458
188	0x3cad81b1	0.021180006
189	0x3d357ca8	0.044308335
190	0xbb46d3d2	-0.0030338657
191	0xbc348121	-0.011017115
192	0xbdbf4ec3	-0.093411945
193	0xbdf298d1	-0.11845554
194	0x3d9618e6	0.07328968
195	0x3c81acef	0.015829531
196	0x3de7c932	0.11317672
197	0x3dc5e6ea	0.09663184
198	0xbd9a2909	-0.07527358
199	0xbd6ae1ed	-0.057344366
200	0xbdf8b48b	-0.12143811
201	0x3d0a27d7	0.0337294
202	0x3d8ba1ed	0.06817994
203	0x3d678306	0.056521438
204	0x3d08fa07	0.03344157
205	0x3d8f0356	0.06983058
206	0xbc1b04dd	-0.009461609
207	0xbdb63a69	-0.088978596
208	0xbd86213f	-0.0654931
209	0x3df3df58	0.11907834
210	0x3d8a109e	0.06741451
211	0xbd532c6b	-0.051556032
212	0xbdee198f	-0.11625969
213	0xbca80468	-0.020509914
214	0x3c4b2bd4	0.012400586
215	0x3de12e7d	0.10995195
216	0xbdba854c	-0.091074556
217	0x3c387512	0.0112583805
218	0xbcc902d9	-0.02453749
219	0xbc17b995	-0.009260555
220	0x3daeb447	0.08530479
221	0x3cf8f12d	0.03038844
222	0xbac53e92	-0.0015048555
223	0x3d26ec39	0.040752623
224	0x3d9c7919	0.07640285
225	0xbd72c722	-0.05927194
226	0x3dbe30ec	0.09286675
227	0xbe07956e	-0.13240597
228	0x3d3652cd	0.04451256
229	0x3da8792d	0.082262374
230	0x3cc1560f	0.023600606
231	0x3bed477d	0.007241188
232	0xbdad3519	-0.08457393
233	0x3cc0db98	0.02354221
234	0x3dbea288	0.09308344
235	0x3b6dbc02	0.0036275391
236	0x3e288425	0.16456659
237	0xbd9e3432	-0.07724799
238	0x3b45a5cc	0.0030158637
239	0x3ae41723	0.0017401915
240	0xbc7bc3b2	-0.015366482
241	0xbdec93c4	-0.115516216
242	0x3d58aa35	0.052896697
243	0x3c350ac8	0.011049934
244	0x3d2b536a	0.041827597
245	0x3e1c133f	0.15241717
246	0x3def9a35	0.116993345
247	0xbd6f9cfc	-0.05849932
248	0xbcfef2fa	-0.03112172
249	0xbdb9ef59	-0.09078855
250	0xbd4486dc	-0.047980174
251	0x3c9ac338	0.018891916
252	0xbc87fcd3	-0.016600048
253	0x3cb63b08	0.022244945
254	0xbdd4171f	-0.103559725
255	0xbd7cba54	-0.061701134

lstm.weight_hh_l1 f4 [256, 64]
0	0x3d8fa572	0.07013978
1	0x3de1e5dc	0.1103017
2	0x3d8f7d8b	0.07006367
3	0x3d8baab7	0.06819671
4	0xbcc5bc7a	-0.024137724
5	0xbd548ce9	-0.051892195
6	0x3c104b86	0.008807069
7	0x3db802c4	0.089849025
8	0x3b293a17	0.0025821978
9	0x3d077b41	0.03307653
10	0xbd4cf96c	-0.050042555
11	0x3dd20bbc	0.102561444
12	0x3e081dfd	0.1329269
13	0x3c12e6b7	0.0089661395
14	0xbdda9977	-0.10673802
15	0xbbb42896	-0.0054980023
16	0xbd8d90dc	-0.06912395
17	0x3affaa42	0.0019505697
18	0xbe032abf	-0.12809275
19	0xbd1d6752	-0.038428612
20	0x3cca0f29	0.024665432
21	0xbdade242	-0.08490421
22	0xbe047279	-0.12934293
23	0xbd8c0a13	-0.06837859
24	0x3dbc4417	0.091926746
25	0xbe096568	-0.1341759
26	0xbd11b883	-0.035576355
27	0x3d2184ac	0.039433166
28	0xbdb9cd7f	-0.090723984
29	0xbc00a5e1	-0.007852049
30	0xbda6940f	-0.08133709
31	0xbd35d958	-0.04439673
32	0x3d6138d6	0.054985844
33	0x3cef68e6	0.029224824
34	0xbd2dd14d	-0.042435933
35	0x3dd6db02	0.10490991
36	0xbe01dc4a	-0.1268169
37	0xbd546535	-0.05185433
38	0xbd2b36a9	-0.041800175
39	0xbde9a387	-0.114081435
40	0x3d455cb5	0.048184115
41	0x3dea76bc	0.11448428
42	0x3d210fc6	0.039321683
43	0xbd3c262c	-0.04593484
44	0xbe04ca31	-0.12967755
45	0x3d35fdc9	0.04443148
46	0x3d188f21	0.037245873
47	0x3d8be2ca	0.06830366
48	0xbcc1417b	-0.023590794
49	0xbd34a523	-0.0441028
50	0x3e1118d5	0.14169629
51	0xbca4d239	-0.020119773
52	0xbd10b1d4	-0.03532584
53	0xbdd9e1a6	-0.10638742
54	0xbd6a8aae	-0.05726116
55	0x3d4331ae	0.0476548
56	0x3dadfa8d	0.084950544
57	0x3dd3c2dc	0.10339901
58	0xbccf0385	-0.025270233
59	0x3c4fc028	0.012680091
60	0x3d2d383b	0.042289954
61	0x3d8fcc39	0.07021374
62	0xbe03037a	-0.12794295
63	0x3e0ae3df	0.13563488
64	0x3db93ed0	0.09045184
65	0xbd954f53	-0.072905205
66	0xbd3d86ac	-0.04627101
67	0x3d2f7236	0.04283353
68	0xbdb2cdf3	-0.08730688
69	0x3de591c6	0.11209445
70	0x3de7a6f6	0.11311142
71	0xbd0ad015	-0.03388985
72	0xbddf70b4	-0.10910168
73	0xbd89b54f	-0.06724035
74	0xbdecc48b	-0.11560925
75	0x3ddf7275	0.10910503
76	0xbd0c508b	-0.0342565
77	0xbddcb293	-0.10776248
78	0xbbc5790e	-0.0060263937
79	0xbd9731d2	-0.07382549
80	0x3c1dcfb2	0.009632038
81	0xbc757c59	-0.01498326
82	0xbdbaf39e	-0.091284975
83	0x3dacf0de	0.08444379
84	0xbca231e3	-0.019799178
85	0xbd84b396	-0.06479566
86	0xbda3b033	-0.07992592
87	0x3c3840cd	0.011245918
88	0xbe0693d2	-0.13142326
89	0x3cb8067e	0.022464033
90	0x3de900d5	0.11377112
91	0x3d06a63d	0.03287338
92	0x3d76e5b1	0.060277645
93	0xbd08fb92	-0.03344304
94	0x3d6896b6	0.056784354
95	0xbde650e8	-0.112459004
96	0xbd5e21f6	-0.054231606
97	0x3dd5553b	0.10416647
98	0xbd989a0c	-0.07451257
99	0x3de31521	0.110880144
100	0x3cbeed8c	0.02330663
101	0x3da23db3	0.079219244
102	0x3a2aca20	0.00065151043
103	0x3cd762f0	0.026292294
104	0xbdd77fc4	-0.10522416
105	0xbd4ff9b0	-0.05077523
106	0x3de0e02d	0.10980258
107	0x3dabc349	0.08386857
108	0x3c3f249f	0.011666446
109	0xbd2144a5	-0.039372105
110	0xbe035584	-0.1282559
111	0xbcadd6d2	-0.021220598
112	0x3c76c4ac	0.015061539
113	0xbd365f28	-0.04452434
114	0x3cde6f40	0.027152658
115	0x3dc77507	0.09739118
116	0x3d4fbd3b	0.050717574
117	0x37669c28	1.3745426e-05
118	0xbd5faf36	-0.054610454
119	0x3dcba8a7	0.09944277
120	0xbdc43384	-0.09580138
121	0xbdc11b85	-0.09429077
122	0xbd3b11ba	-0.045671202
123	0x3bd0ab90	0.006368108
124	0x3df64cbf	0.12026357
125	0x3dbcb36b	0.09213909
126	0xba84e6f6	-0.0010139633
127	0x3e057507	0.13032924
128	0xbe012b7a	-0.12614241
129	0xbe00214f	-0.12512706
130	0x3c2a3cc1	0.010390461
131	0x3d306416	0.0430642
132	0xbc8dd27d	-0.017312283
133	0x3d5d2916	0.05399426
134	0x3c8f81a5	0.017517874
135	0x3cb70ec1	0.022345902
136	0xbd91ee80	-0.071255684
137	0xbcf26685	-0.0295899
138	0x3d0806eb	0.033209722
139	0xbd319cf5	-0.043362577
140	0x3d6f4e4d	0.058424283
141	0x3ca8c93b	0.020603767
142	0x3d9b95fe	0.07596968
143	0x3d61efcb	0.055160325
144	0xbdae4edb	-0.08511134
145	0xbd502e32	-0.050825305
146	0x3c6f2874	0.014597047
147	0x3d9c7343	0.07639172
148	0xbce456eb	-0.027873477
149	0xbd931818	-0.0718233
150	0x3d159698	0.03652057
151	0x3db3f798	0.08787459
152	0x3c8a5778	0.016887411
153	0xbe010184	-0.12598234
154	0x3deb9b88	0.115042746
155	0x3ce92c5f	0.02846354
156	0xbd97d7cd	-0.074142076
157	0x3dbf1740	0.093306065
158	0xbc358fda	-0.01108166
159	0x3e065e7d	0.13121982
160	0x3bcffa04	0.006346943
161	0x3dadc122	0.08484103
162	0xbd24e3d6	-0.040256344
163	0x3e08f7e4	0.13375813
164	0x3d8fd575	0.070231356
165	0xbcc71503	-0.024302011
166	0x3d89af91	0.0672294
167	0x3d8d3fae	0.068969116
168	0x3cdddc15	0.027082482
169	0xbe055b12	-0.13023022
170	0xbd58b1fd	-0.052904118
171	0x3d9e00fb	0.07715031
172	0x3ce6536f	0.028115956
173	0x3d412ebd	0.047163714
174	0xbdc1984a	-0.09452875
175	0x3da612f5	0.081090845
176	0x3e14e1be	0.14539239
177	0xbdb87fd4	-0.09008756
178	0xbd80a3c2	-0.06281234
179	0x3d572178	0.052522153
180	0x3e0462e3	0.12928347
181	0x3dd6ae6f	0.10482489
182	0x3d40ba11	0.047052447
183	0xbd2fbe96	-0.042906366
184	0x3d5b3a89	0.05352262
185	0x3d2793ff	0.040912624
186	0x3d07e569	0.033177767
187	0xbd737dfd	-0.059446324
188	0xbdbc8e98	-0.09206885
189	0xbd8e2ca8	-0.06942111
190	0xbd064966	-0.032784842
191	0x3d058923	0.032601487
192	0xbdaf94d3	-0.08573308
193	0x3dc0db21	0.094167955
194	0x3e023727	0.12716351
195	0xbca68ce0	-0.020330846
196	0xbe1073de	-0.141067
197	0x3db81f26	0.08990316
198	0x3cce92a4	0.025216408
199	0x3ccd5e41	0.025069358
200	0xbcdc6244	-0.026902325
201	0x3ca065fa	0.019579876
202	0xbcedcdae	-0.02902874
203	0xbcce3086	-0.025169622
204	0x3df733cb	0.120704256
205	0xbd495cc9	-0.049160752
206	0xbb516f18	-0.0031957086
207	0x3dd78c88	0.10524851
208	0x3d0a17ff	0.03371429
209	0x3ae01e39	0.0017098851
210	0xbdc47fea	-0.0959471
211	0x3d5dd1d3	0.054155182
212	0x3c80b1be	0.015709754
213	0xbce56294	-0.028001107
214	0x3c8c2479	0.017107235
215	0xbd9c1e86	-0.076230094
216	0xbcc93265	-0.024560163
217	0xbd9ada5c	-0.0756118
218	0xbd8115b8	-0.06302971
219	0x3c8764ce	0.01652756
220	0x3d449e3b	0.048002463
221	0x3cb0bd2c	0.02157458
222	0x3ce80501	0.028322699
223	0xbc8152c8	-0.015786543
224	0x3cd14d3e	0.025549527
225	0xbe0d164f	-0.13778041
226	0xbdb4899d	-0.0881531
227	0xbd92bf06	-0.07165341
228	0xbc323f7e	-0.0108793955
229	0xbdda5d45	-0.10662321
230	0x3dad7ac2	0.0847068
231	0xbdcd5f7e	-0.10027979
232	0xbd4c0195	-0.049806196
233	0x3dca5c23	0.09880855
234	0x3dbe967f	0.093060486
235	0x3dd1af43	0.10238507
236	0xbd5e0967	-0.054208186
237	0xbda622f1	-0.08112133
238	0xba92d0d5	-0.0011201153
239	0xbc57b467	-0.01316557
240	0x3c81a285	0.015824566
241	0xbccf5374	-0.025308348
242	0xbc8e76aa	-0.017390568
243	0xbd8a9970	-0.06767547
244	0x3da4c074	0.0804452
245	0x3df9b6df	0.12193083
246	0x3db83278	0.08994001
247	0x3d94f275	0.072728075
248	0xbc28b6c7	-0.010297484
249	0x3d0c5f59	0.034270618
250	0x3d6e3c15	0.058162767
251	0x3d8acb5d	0.0677707
252	0xbde842b6	-0.11340849
253	0x3daa7fc3	0.0832515
254	0x3c3a1d42	0.011359515
255	0x3d447430	0.047962368

lstm.bias_ih_l1 f4 [256]
0	0x3daff2df	0.08591246
1	0xbdd779fb	-0.10521313
2	0xbdc86794	-0.09785381
3	0x3d2af828	0.041740566
4	0xbd3e9b0d	-0.046534587
5	0x3c89672b	0.016772827
6	0xbdc1b5de	-0.094585165
7	0x3db6722a	0.08908494
8	0x3dcfc548	0.1014505
9	0x3c9a68c6	0.018848788
10	0x3d5c2c1f	0.053753015
11	0x3dd5fb5d	0.10448334
12	0x3dc07fda	0.09399386
13	0xbc93e1d4	-0.01805202
14	0xbdeb5afb	-0.114919625
15	0xbd4c537e	-0.04988431
16	0x3d82bb88	0.06383425
17	0x3dbee8b1	0.09321726
18	0x3ccd3eed	0.02505442
19	0x3caaa56a	0.020830829
20	0xbda41c0d	-0.08013163
21	0x3ccf1f59	0.025283502
22	0x3c9d08a6	0.019169163
23	0x3deaa433	0.114571
24	0x3d8f1035	0.06985513
25	0xbde41450	-0.11136687
26	0xbd661df1	-0.056180898
27	0xbd8602f6	-0.065435335
28	0xbd495553	-0.049153637
29	0xbcceba3c	-0.025235288
30	0x3dd77084	0.105195075
31	0x3b1f7a7a	0.0024334476
32	0x3d22ee71	0.039778177
33	0xbd88efe8	-0.066863835
34	0x3d5b2139	0.05349848
35	0x3dac1e91	0.084042676
36	0x3e065def	0.1312177
37	0xbc0f176f	-0.008733614
38	0x3d82c202	0.0638466
39	0x3d94b2a2	0.07260634
40	0xbd4ccdcd	-0.050000954
41	0xbe0020a2	-0.12512448
42	0x3df08e3e	0.117458805
43	0x3db3365f	0.08750605
44	0xbde80956	-0.11329906
45	0x3e0d2c9a	0.13786545
46	0x3ce9b589	0.028528946
47	0xbd2f6696	-0.042822443
48	0xbd1461e3	-0.036226165
49	0x3dd53578	0.10410589
50	0x3dcff06f	0.10153281
51	0x3ba8cb00	0.0051511526
52	0x3dd27e07	0.10277944
53	0xbc82d02e	-0.015968408
54	0xbdc3bff6	-0.09558098
55	0x3d74e355	0.059787113
56	0x3d12e568	0.03586331
57	0x3da6f293	0.08151736
58	0xbc961c85	-0.018324146
59	0xbd95e263	-0.073185705
60	0xbd63e40a	-0.055637397
61	0x3da1f5f7	0.07908242
62	0x3dccff55	0.10009638
63	0x3c7ab241	0.015301288
64	0x3d9c641a	0.0763628
65	0x3b719971	0.003686514
66	0xbd105ff8	-0.035247773
67	0xbd21133b	-0.03932498
68	0xbd1b7955	-0.037957508
69	0xbd9a7165	-0.075411595
70	0xbde17fa1	-0.110106714
71	0x3ca50e67	0.02014847
72	0x3c5476a1	0.012967736
73	0xbd28777b	-0.04112957
74	0x3d8c141a	0.068397716
75	0xbdd7522c	-0.1051372
76	0xbdaa440a	-0.08313759
77	0x3dd18cc4	0.10231927
78	0xbd50ee6f	-0.051008638
79	0xbdc3c88c	-0.09559736
80	0x3d583ec2	0.052794226
81	0x3d661d8d	0.056180526
82	0xbd56f818	-0.052482694
83	0xbdb61dcd	-0.08892403
84	0x3d372ab0	0.044718444
85	0x3c5d3837	0.013502172
86	0xbd8751d7	-0.066074066
87	0x3d022f90	0.03178364
88	0x3df5de45	0.12005285
89	0x3d88b6cb	0.0667549
90	0xbd8af4bf	-0.06784963
91	0x3dc08384	0.094000846
92	0x3dd56216	0.10419099
93	0x3da83039	0.08212323
94	0xbccc8c18	-0.024969146
95	0xbdeb47e3	-0.11488321
96	0x3d063598	0.032765955
97	0x3cbeb544	0.023279794
98	0x3d617968	0.055047423
99	0xbd25ab19	-0.040446375
100	0xbd3b0477	-0.045658555
101	0x3d78358a	0.060597934
102	0x3d217ac0	0.039423704
103	0xbaea458d	-0.0017873511
104	0x3d4409cf	0.047860917
105	0x3b1e18da	0.00241237
106	0x3da4e1bb	0.08050867
107	0x3c20832d	0.0097969
108	0xbda7fd96	-0.082026646
109	0xbbdc2cda	-0.006719214
110	0xbd101421	-0.035175446
111	0x3d2c7d4b	0.042111676
112	0x3dc06f74	0.09396258
113	0xbda44666	-0.0802124
114	0x3d98fc8c	0.074700445
115	0xbd455212	-0.04817397
116	0xbdb04d9b	-0.08608552
117	0x3dc06f04	0.093961746
118	0xbde43b6a	-0.11144145
119	0x3cbdf73f	0.023189185
120	0xbde32a26	-0.110920236
121	0xbe08d5dc	-0.13362831
122	0xbce7c3ad	-0.028291548
123	0xbd9b7692	-0.07590975
124	0xbdff6496	-0.12470357
125	0x3d519f37	0.05117723
126	0x3dbe309f	0.092866175
127	0x3dbb93af	0.09159028
128	0xbd42061d	-0.04736911
129	0xbd33b912	-0.04387767
130	0x3d440e00	0.047864914
131	0x3df151cd	0.117831804
132	0xbdd7ea0d	-0.105426885
133	0xbd8ef1b0	-0.06979692
134	0x3be01450	0.006838359
135	0x3b193ab2	0.0023380932
136	0x3b38cee1	0.0028199481
137	0x3cdd42db	0.027009418
138	0xbdb90484	-0.090340644
139	0x3d015a45	0.03158023
140	0xbdf39d8c	-0.11895284
141	0x3dd7579b	0.10514756
142	0x3d574ab4	0.052561477
143	0xbdcdca5c	-0.100483626
144	0x3bdd135a	0.0067466917
145	0x3dca24d7	0.09870308
146	0x3db42b10	0.08797276
147	0x3ddf3fa5	0.10900811
148	0xbd98b1de	-0.074558005
149	0xbd4ae0e9	-0.049530897
150	0x3dcd4951	0.100237496
151	0xbcd956c1	-0.026530625
152	0x3dd258f1	0.102708705
153	0x3dd7a683	0.105298065
154	0xbdbf28ff	-0.09333991
155	0xbd681ebc	-0.056669936
156	0xbe016006	-0.12634286
157	0xbdaa849b	-0.08326074
158	0x3d9f4b33	0.07778015
159	0xbdb67226	-0.08908491
160	0x3d8d856e	0.06910215
161	0xbd78a5b6	-0.06070491
162	0xbd9a89c5	-0.07545809
163	0x3d41e36c	0.047336027
164	0xbd50faaf	-0.05102032
165	0xbd39a868	-0.04532662
166	0x3b5f4e55	0.003407379
167	0x3de971ce	0.1139866
168	0x3ddec125	0.10876683
169	0x3c744207	0.01490832
170	0x3dd720b0	0.105042815
171	0xbdfe4e94	-0.12417331
172	0xbd781106	-0.06056311
173	0x3dc9b2d0	0.09848559
174	0x3ddf0a07	0.108905844
175	0x3d55f1a4	0.0522324
176	0x3db91c0f	0.09038555
177	0xbd876f66	-0.066130444
178	0x3da086c2	0.07838203
179	0x3d49c9f7	0.049264874
180	0xbcc14710	-0.023593456
181	0xbddd9f84	-0.10821441
182	0x3d3172a9	0.04332224
183	0xbd4f1dfc	-0.050565705
184	0x3d9ad11e	0.07559417
185	0xbbdf9a75	-0.0068238326
186	0x3d1cdd1d	0.038296808
187	0x3cac898e	0.021061685
188	0x3dd76425	0.10517148
189	0x3dcc277f	0.09968471
190	0x3d479680	0.048727512
191	0x3d7b2001	0.06130982
192	0xbd857e11	-0.06518186
193	0xbdd6535d	-0.10465119
194	0x3cf03e2c	0.02932652
195	0xbdec4863	-0.11537244
196	0x3d01a477	0.031650987
197	0xbcadd43c	-0.021219365
198	0x3d1ab7ae	0.037772827
199	0x3dd204fc	0.10254857
200	0x3d0e43ee	0.03473275
201	0x3d6a291a	0.057168104
202	0xbd8d4bfe	-0.0689926
203	0x3c9dd961	0.019268693
204	0x3da21e8a	0.07915981
205	0x3da031ce	0.078219995
206	0xbdf1e785	-0.11811737
207	0xbbbd768d	-0.0057819546
208	0x3d60b1a0	0.054856896
209	0xbb602259	-0.003420016
210	0x3d374f2d	0.044753242
211	0xbd98fdd3	-0.07470288
212	0xbb9ae28e	-0.0047267145
213	0xbc861f01	-0.016372206
214	0xbd910298	-0.07080573
215	0xbd17ab22	-0.03702844
216	0x3c55c012	0.013046281
217	0x3d8d3893	0.06895556
218	0xbdb53ec5	-0.08849863
219	0x3dac30df	0.08407759
220	0xbdc8ee22	-0.09811045
221	0xbd421b39	-0.047389243
222	0x3dcdf113	0.10055747
223	0xbd28ee19	-0.041242693
224	0xbd2c5848	-0.04207638
225	0x3d357d68	0.04430905
226	0x3d45836f	0.048221048
227	0x3d5ec191	0.054383818
228	0xbdaba9aa	-0.0838197
229	0xbdef0ecb	-0.116727434
230	0xbd5c888d	-0.053841162
231	0x3d5f1acc	0.054468915
232	0xbc37d1dc	-0.011219468
233	0xbdea45c7	-0.1143909
234	0x3dd2bb32	0.10289611
235	0x3ca5305d	0.020164663
236	0x3d351079	0.044205163
237	0x3db8f7fc	0.09031674
238	0x3dbb8540	0.09156275
239	0x3d4a5934	0.049401477
240	0x3c63a41a	0.013894105
241	0xbcdcafea	-0.026939351
242	0xbd6060a5	-0.054779667
243	0x3ca7f633	0.02050314
244	0xbdf6f20b	-0.12057885
245	0x3e00a95d	0.12564607
246	0xbbbc3f65	-0.005744862
247	0x3b5d4fd1	0.0033769498
248	0xbd46e26a	-0.04855577
249	0xbd2d5bb1	-0.042323772
250	0xbd525ea2	-0.05135978
251	0xbcc77a17	-0.02435021
252	0xbdc2b3cb	-0.09506949
253	0x3d9c7d8f	0.07641136
254	0xbdc95be6	-0.09831981
255	0x3df6f0dc	0.12057659
