best_lstm_window200_h30.pt (torch, 213957 bytes, 10 tensors)

lstm.weight_ih_l0 f4 [256, 1]
0	0x3caf7a37	0.021420581
1	0x3e1f2828	0.15542662
2	0x388df803	6.7696e-05
3	0x3e106a12	0.14102963
4	0xbc657916	-0.01400592
5	0xbca9146b	-0.020639619
6	0xbd4e6cfc	-0.050396904
7	0x3e036da0	0.12834787
8	0x3ddc2539	0.10749287
9	0x3de56e0d	0.11202631
10	0x3cd47037	0.025932414
11	0x3d9903db	0.074714385
12	0xbd1cef5f	-0.03831422
13	0x3de14642	0.10999729
14	0x3d99e3b6	0.075141355
15	0xbdaf3fe8	-0.08557111
16	0x3e100b58	0.14066827
17	0x3da98667	0.08277588
18	0x3c9a7023	0.0188523
19	0x3c459f05	0.012061839
20	0x3db433a0	0.08798909
21	0x3cd5382e	0.026027765
22	0xbb0c0ae8	-0.0021368805
23	0x3d5141b4	0.05108805
24	0xbd770dd5	-0.060315926
25	0x3d6a8a5a	0.05726085
26	0x3d813225	0.063083924
27	0x3d23179c	0.039817438
28	0x3e145584	0.14485747
29	0xbdacdb8d	-0.084403135
30	0xbc2b9cbd	-0.010474381
31	0x3b751954	0.003739913
32	0xbd509f9b	-0.05093346
33	0x3d5f15cf	0.054464158
34	0x3abfeb2b	0.0014642229
35	0xbd6ac353	-0.057315182
36	0x3e1030cb	0.14081113
37	0xbd495103	-0.049149524
38	0x3e02b149	0.12762941
39	0xbe1ec5bd	-0.15505119
40	0x3d61cc2f	0.055126365
41	0xbd4c4bbc	-0.049876913
42	0x3e277db8	0.16356552
43	0x3dab78f4	0.08372679
44	0xbc0e3c2b	-0.008681337
45	0x3d60b9da	0.05486474
46	0x3d2ab80e	0.041679434
47	0x3d43fa11	0.047845904
48	0xbc9bc358	-0.019014046
49	0xbd92d3c4	-0.07169297
50	0x3d949a44	0.07255986
51	0x3da9bfa4	0.08288506
52	0x3bef5940	0.0073043406
53	0x3dbe9130	0.09305036
54	0x3d504edb	0.050856452
55	0xbd81d079	-0.06338591
56	0xbd8dea6c	-0.06929478
57	0xbd102185	-0.035188217
58	0xbda8bab2	-0.08238734
59	0x3e2d5a79	0.16929044
60	0x3ddfe330	0.109320045
61	0x3e1a169a	0.15047684
62	0xbd4cbda6	-0.04998555
63	0xbcaf1486	-0.021372091
64	0x3dfd11d8	0.12356919
65	0x3e1d245f	0.15345906
66	0x3be108de	0.006867512
67	0xbd7b79cb	-0.061395448
68	0x3dda2e8f	0.106534116
69	0x3e0c1602	0.1368027
70	0x3ccd2d07	0.025045885
71	0x3e2a01fb	0.16602318
72	0xbc140efa	-0.009036774
73	0x3c79bcba	0.01524275
74	0xbca6ae6f	-0.020346848
75	0x3e0c0e47	0.13677321
76	0xbd392349	-0.045199666
77	0x3c145230	0.009052798
78	0xbda50730	-0.080580115
79	0xbb1e9f73	-0.0024203926
80	0x3d61c97f	0.055123802
81	0xbc8674ab	-0.016413053
82	0xbcf6991e	-0.030102309
83	0xbd1fe76f	-0.03903907
84	0xbd6fa973	-0.05851121
85	0x3da4efb8	0.08053535
86	0x3d3fdcf8	0.04684159
87	0x3e0aa836	0.1354073
88	0x3d8e2707	0.069410376
89	0xbc2e1d3f	-0.01062709
90	0xbc9984aa	-0.018740017
91	0x3cdf1508	0.027231708
92	0x3e22fe70	0.15917373
93	0x3c8055ce	0.015665915
94	0xbd8dd2a9	-0.06924946
95	0x3e2ee72e	0.17080376
96	0x3e044d90	0.12920213
97	0xbc6a5ae3	-0.014303896
98	0x3de7631a	0.11298199
99	0xbc135dbb	-0.008994515
100	0xbd8bb8f4	-0.068223864
101	0x3e1109ef	0.14163946
102	0x3dcfd147	0.10147338
103	0xbd090b2d	-0.033457924
104	0x3e10c5a0	0.14137888
105	0x3ceca9f1	0.028889628
106	0x3d04b1f6	0.03239628
107	0x3e030eb9	0.12798585
108	0x3e31f476	0.1737841
109	0x3e235fc3	0.15954499
110	0x3d9ca2a6	0.0764821
111	0xbd152097	-0.036408033
112	0xbcfd58c7	-0.030926121
113	0x3d56f72a	0.052481808
114	0x3dba86c5	0.091077365
115	0x3e069dd3	0.13146143
116	0xbcee605b	-0.02909868
117	0xbc92581b	-0.017864278
118	0x3d165f00	0.036711693
119	0x3d8b0ae0	0.067891836
120	0x3e071041	0.13189794
121	0x3c87bb33	0.016568756
122	0x3c6d5154	0.014484722
123	0x3d1aed00	0.037823677
124	0xbcc71bb1	-0.024305196
125	0x3d9c4a31	0.076313384
126	0x3e1f4dc0	0.15557003
127	0x3e1c52b1	0.1526592
128	0x3e0121bd	0.12610526
129	0x3d75237e	0.0598483
130	0xbe0edd30	-0.13951564
131	0x3d08d0f3	0.033402395
132	0xbcf51280	-0.029916048
133	0x3de639e9	0.11241514
134	0xbd71ba8c	-0.059015796
135	0xbd521ef9	-0.05129907
136	0xbb9b753d	-0.0047442005
137	0x3df86fc9	0.12130696
138	0x3ddb7e2d	0.107174255
139	0xbdb9b54d	-0.090677835
140	0xbe1004b6	-0.14064297
141	0x3e1a6f15	0.15081437
142	0x3b775366	0.0037738918
143	0xbe1d79a7	-0.15378438
144	0xbd74ee64	-0.05979766
145	0xbd65a03e	-0.056061022
146	0x3ca7a0b7	0.020462377
147	0x3e1876f7	0.14889131
148	0xbe2e0fac	-0.16998166
149	0xbd01802a	-0.031616367
150	0x3d325a28	0.04354301
151	0x3e19b2fb	0.15009682
152	0x3c8259b8	0.015911922
153	0xbd6a2e63	-0.057173144
154	0x3e2b0837	0.16702352
155	0xbdbb62d2	-0.09149708
156	0x3e202ff2	0.1564329
157	0x3dce1ecb	0.10064467
158	0x3e06253c	0.13100141
159	0x3dd0fd13	0.1020452
160	0xbdc8ea4f	-0.09810316
161	0x3ce756ab	0.028239569
162	0xbe19acd0	-0.15007329
163	0xbbc35417	-0.005960952
164	0xbe219cc7	-0.15782462
165	0x3e32e0ea	0.1746861
166	0xbc9667f2	-0.018360112
167	0x3d10a015	0.035308916
168	0xbd1d303d	-0.03837608
169	0x3dc4d4b4	0.096108824
170	0xbe260e28	-0.16216338
171	0x3de7b03a	0.113129094
172	0xbe0d2ea9	-0.1378733
173	0x3dc77c36	0.09740488
174	0xbd332308	-0.04373458
175	0xba864e8c	-0.0010246797
176	0x3ced489e	0.02896529
177	0xbcb4b9de	-0.022061285
178	0xbc4b75c2	-0.012418212
179	0xbd4f1aff	-0.050562855
180	0x3ddab659	0.10679311
181	0x3d2dce55	0.0424331
182	0x3dff0e2b	0.12453874
183	0xbcbeab2b	-0.023274979
184	0xbdd70fbb	-0.10501047
185	0xbe2f30d9	-0.17108478
186	0x3d2f8732	0.04285354
187	0x3da103e1	0.07862068
188	0xbd9c74f5	-0.07639495
189	0xbdf247ae	-0.11830078
190	0xbe2d01de	-0.16895244
191	0x3ba330f6	0.004980202
192	0x3d6bec44	0.057598367
193	0x3d918e9e	0.0710728
194	0x3da77ba7	0.08177882
195	0xbdb67944	-0.08909848
196	0x3c9a3c05	0.018827448
197	0xbda5da6c	-0.08098301
198	0xbe1fa2b0	-0.15589404
199	0x3d46b4fa	0.048512436
200	0x3e1eb401	0.15498354
201	0x3dd877ae	0.10569702
202	0x3d9a049c	0.075204104
203	0x3df19745	0.117964305
204	0x3dfb2246	0.122623965
205	0xbc1273e5	-0.008938764
206	0xbce0fe3f	-0.027464984
207	0x3db27aee	0.08714853
208	0x3df56d2e	0.11983715
209	0x3d3bff67	0.045897868
210	0x3a38e87a	0.00070536847
211	0x3a7804e6	0.0009461179
212	0x3da832a4	0.08212784
213	0x3e2ae95d	0.16690584
214	0x3e04838e	0.12940809
215	0x3e15d5cf	0.14632343
216	0x3df9ea7d	0.12202928
217	0x3b7925e9	0.003801698
218	0x3d1b9882	0.03798724
219	0x3c9c30f0	0.019066304
220	0xbd735b37	-0.05941316
221	0x3dbf9262	0.09354092
222	0xbb4fd82e	-0.0031714546
223	0xbd740d8c	-0.05958323
224	0x3e208ca3	0.15678649
225	0xbda536fb	-0.08067127
226	0xbd839ec8	-0.064267695
227	0x3db76221	0.089542635
228	0x3df50f39	0.11965794
229	0x3e016145	0.12634762
230	0xbd85aa77	-0.06526654
231	0xbe12b407	-0.14326487
232	0xbd5b2ac1	-0.05350757
233	0x3dba3fa1	0.090941675
234	0x3dd4dcb2	0.10393657
235	0x3ddaace8	0.106775105
236	0x3e323b03	0.17405324
237	0x3da64aae	0.08119713
238	0x3bc871bf	0.006117075
239	0xbd6f6b4c	-0.058451936
240	0x3cc4567f	0.023967026
241	0xbd8449b5	-0.06459371
242	0x3d880c83	0.066430114
243	0xbc2da910	-0.01059939
244	0x3dbc9b4d	0.09209309
245	0x3c3dc2d6	0.011582097
246	0x3d8b3e37	0.06798976
247	0xbd826ab6	-0.0636801
248	0xbd98c663	-0.07459714
249	0x3db7bf92	0.08972086
250	0xbd52b52d	-0.051442314
251	0x3d15f7e6	0.036613367
252	0xbcbb3fca	-0.022857565
253	0x3e3cdbc7	0.18443213
254	0xbd5584d6	-0.052128635
255	0x3e00a93a	0.12564555

lstm.weight_hh_l0 f4 [256, 64]
0	0x3ba98d2e	0.0051743006
1	0x3be53b52	0.006995597
2	0x3d50392c	0.050835773
3	0x3d455a45	0.04818179
4	0x3d832cc9	0.064050265
5	0x3d1474e2	0.03624428
6	0x3dc7ea55	0.09761492
7	0xbd40ac15	-0.04703911
8	0x3d9071f2	0.07052983
9	0x3b4477b8	0.0029978584
10	0x3e010e96	0.1260322
11	0x3d97b683	0.07407858
12	0xbe0ac5eb	-0.13552062
13	0xbc7ea8be	-0.015543161
14	0x3cf91624	0.030406065
15	0x3ce8d62e	0.028422441
16	0xbe06aa87	-0.13150989
17	0xbc587fc9	-0.01321406
18	0xbdf2cba1	-0.118552454
19	0x3d3d51bd	0.04622053
20	0xbdecfff4	-0.11572257
21	0xbca8bab1	-0.020596834
22	0x3dc0c533	0.09412613
23	0xbbacaa0e	-0.0052692955
24	0xbdc0c651	-0.09412826
25	0x3d892697	0.066968136
26	0x3e07a978	0.13248241
27	0x3cfe5fb8	0.031051502
28	0x3e1a8278	0.15088832
29	0xbdd99f51	-0.1062609
30	0xbd962445	-0.073311366
31	0xbbef6ffa	-0.00730705
32	0xbbe942d3	-0.007118562
33	0x3dda11cd	0.106479265
34	0xbc2e4340	-0.010636151
35	0xbdcda8cd	-0.10041962
36	0x3cf18f09	0.02948715
37	0xbdb50981	-0.08839703
38	0xbd3e3934	-0.046441272
39	0xbd5b507d	-0.053543556
40	0xbd768cc3	-0.060192835
41	0xbdb3a03a	-0.08770795
42	0xbe14c25b	-0.14527266
43	0x3dc07f47	0.09399276
44	0x3da99a86	0.08281426
45	0xbc77b7d0	-0.015119508
46	0x3db8c210	0.090213895
47	0x3d161953	0.036645245
48	0xbb92e957	-0.0044833827
49	0x3caa4afd	0.02078771
50	0x3d94cc6e	0.07265554
51	0x3d84b55a	0.064799026
52	0x3e14d148	0.1453296
53	0xbd910c94	-0.07082477
54	0xbd4984e4	-0.049199
55	0x3d49c0b6	0.04925605
56	0xbc907c33	-0.017637348
57	0xbe0b98ea	-0.13632551
58	0x3d347ff1	0.044067327
59	0x3c964332	0.018342588
60	0x3d91886d	0.07106099
61	0xbdfc3115	-0.12314049
62	0xbe036f1f	-0.12835358
63	0x3dd518e0	0.10405135
64	0xbdb74854	-0.08949342
65	0x3972f243	0.00023169168
66	0xbd449199	-0.047990415
67	0xbde696a5	-0.11259202
68	0x3d6b0075	0.057373483
69	0x3db07e95	0.086178936
70	0x3d04daa6	0.032435082
71	0x3ddfa601	0.109203346
72	0x3cb9da88	0.022687212
73	0x3d0f5306	0.034991287
74	0x3bceaf23	0.006307499
75	0xbcd7d915	-0.02634863
76	0x3d47d901	0.048790935
77	0xbdec7a34	-0.11546746
78	0xbd386891	-0.045021597
79	0x3d40bf83	0.04705764
80	0xbd04289a	-0.032265283
81	0xbd35b512	-0.044362135
82	0x3dfe43f6	0.12415306
83	0xbd429585	-0.047505874
84	0x3bc6383b	0.0060491837
85	0xbda45d4c	-0.080256075
86	0x3d86d4e2	0.06583573
87	0x3ca5109d	0.020149523
88	0xbcfaa242	-0.030594949
89	0x3c95fb84	0.018308409
90	0x3d4bb2e8	0.049731165
91	0xbd620049	-0.055176053
92	0xbde94139	-0.11389393
93	0xbd2b4614	-0.04181488
94	0xbd77ccf0	-0.060498178
95	0x3d801c49	0.06255395
96	0xbd14f163	-0.036363017
97	0xbca83456	-0.020532768
98	0xbd50073d	-0.050788153
99	0x3df8ca78	0.12147993
100	0x3dadc2f0	0.08484447
101	0xbd94c708	-0.07264525
102	0xbdb89491	-0.09012712
103	0xbdd23651	-0.10264266
104	0xbd8bccf6	-0.068262026
105	0xbd059af1	-0.032618467
106	0xbd6fa80a	-0.058509864
107	0x3d477917	0.048699465
108	0x3d925cce	0.07146607
109	0x3d398d52	0.04530079
110	0xbd0e84fb	-0.03479479
111	0x3e06b230	0.1315391
112	0xbc5e4088	-0.01356519
113	0x3e093a83	0.13401227
114	0xbd69869a	-0.05701313
115	0x3d1cfa22	0.038324483
116	0x3dadfda3	0.08495643
117	0xbe001c6e	-0.12510845
118	0xbd87ce18	-0.06631106
119	0xbd865e09	-0.065609045
120	0x3d6cf553	0.057851147
121	0x3de4c52e	0.111704215
122	0x3c5114fa	0.012761349
123	0xbc08c0e1	-0.008346767
124	0xbd3ebe22	-0.046568044
125	0x3d36834f	0.04455882
126	0x3cb88815	0.022525826
127	0x3d4b9edf	0.04971206
128	0x3d85f331	0.06540526
129	0xbe0732d3	-0.13202982
130	0x3d951f97	0.07281416
131	0xbcf9611f	-0.030441819
132	0x3d2d2ad5	0.042277176
133	0xbd7cbf3b	-0.06170581
134	0x3caa5eac	0.020797096
135	0xbda812db	-0.082067214
136	0x3dcee763	0.10102727
137	0x3db94501	0.090463646
138	0xbd9b55f2	-0.07584752
139	0xbde78da9	-0.113063164
140	0xbc84fb81	-0.016233208
141	0xbd900b37	-0.07033389
142	0x3c01bd02	0.007918598
143	0x3bba48de	0.005684956
144	0xbd4afc9a	-0.049557306
145	0xbc74efbd	-0.014949736
146	0x3dd4000b	0.10351571
147	0x3e01844a	0.1264812
148	0x3ce60a3f	0.028081058
149	0x3ceb5c7c	0.028730623
150	0x3d0926f3	0.03348441
151	0x3ded393a	0.11583181
152	0x3c9bf12a	0.019035894
153	0xbc2fe61d	-0.010736016
154	0x3d83af78	0.064299524
155	0xbc61ebd2	-0.013789134
156	0xbd2165ce	-0.03940373
157	0x3d00a997	0.031411733
158	0x3e09e512	0.1346629
159	0x3dbe2b9c	0.092856616
160	0xbdf3f633	-0.11912193
161	0x3d1bd51a	0.038045026
162	0x3d489b77	0.048976388
163	0xbca90485	-0.020632038
164	0xbdf3b6b4	-0.11900082
165	0xbd5a1cb6	-0.053250037
166	0x3e0d68a8	0.13809454
167	0xbdf09909	-0.11747939
168	0x3ddf712c	0.10910258
169	0xbd4773bc	-0.048694357
170	0xbde08d4c	-0.1096445
171	0x3daf1e2e	0.08550678
172	0xbdc4b14b	-0.096041285
173	0x3c12d1fc	0.008961197
174	0xbcb9f779	-0.022701012
175	0x3d0c7b66	0.03429737
176	0xbc86f562	-0.01647443
177	0x3d97c637	0.07410853
178	0x3e048f82	0.12945369
179	0xbd286b1a	-0.041117765
180	0x3cacba4f	0.021084933
181	0x3db64683	0.08900168
182	0x3da41549	0.08011872
183	0xbd7b7ba6	-0.061397217
184	0xbbd7c5c2	-0.006584854
185	0xbd8bd144	-0.068270236
186	0xbdd75137	-0.105135374
187	0x3d23f212	0.040025778
188	0xbd15bb58	-0.036555618
189	0xbdf18d2a	-0.11794503
190	0x3dadf968	0.08494836
191	0x3e0e1ca1	0.13878109
192	0x3da51b3c	0.08061835
193	0xbd0a14fc	-0.03371142
194	0xbc991b6c	-0.018689834
195	0xbcf2e68f	-0.029650955
196	0x3d941f9a	0.0723259
197	0x3db72db3	0.08944263
198	0x3cea3809	0.028591173
199	0xbd80d217	-0.062900715
200	0x3dce6e09	0.10079581
201	0xbdf2d02b	-0.11856111
202	0xbded89ac	-0.115985245
203	0x3c28ee20	0.01031068
204	0xbddbbccb	-0.10729369
205	0xbdf7164f	-0.12064802
206	0xbb5641a7	-0.003269294
207	0x3d4cdb87	0.050014045
208	0x390df9bf	0.00013539846
209	0xbdf80712	-0.121107236
210	0x3d9a57eb	0.075363
211	0x3d3c0f6f	0.045913156
212	0xbd76e663	-0.060278308
213	0xbb577790	-0.0032877661
214	0xbd992dd2	-0.07479443
215	0xbd6349c5	-0.055490274
216	0xbb81d090	-0.00396163
217	0x3d8709c8	0.065936625
218	0xbdbf5f81	-0.09344388
219	0xbd8c8521	-0.0686133
220	0xbc913072	-0.017723296
221	0x3c2667d8	0.010156594
222	0xbcf98693	-0.030459678
223	0xbd979baa	-0.074027374
224	0xbc0281c2	-0.007965507
225	0x3d9ad63b	0.075603925
226	0xbd41f73e	-0.04735493
227	0xbddbcdb8	-0.10732597
228	0xbb97a9db	-0.0046284026
229	0xbdbd0e33	-0.09231224
230	0xbdd8dc8c	-0.10588941
231	0xbd72a49c	-0.059239015
232	0xbd87bc8e	-0.06627761
233	0xbddf0f2a	-0.10891564
234	0x3deb19f9	0.11479563
235	0xbd04b67e	-0.0324006
236	0x3de07012	0.10958876
237	0xbd04183b	-0.03224967
238	0xbd897185	-0.06711105
239	0x3d24db4c	0.0402482
240	0xbd745887	-0.05965474
241	0xbd88d116	-0.06680505
242	0xbdbe2926	-0.09285192
243	0x3e0010e4	0.12506443
244	0xbd3dcc3e	-0.04633736
245	0x3d47c4e5	0.048771758
246	0x3db42a9f	0.08797192
247	0x3dd22f1f	0.10262894
248	0x3d8be915	0.06831566
249	0xbd136c0a	-0.035991706
250	0xbbac291f	-0.0052539255
251	0x3deb4720	0.114881754
252	0x3da16385	0.0788031
253	0xbdc6b0bd	-0.09701679
254	0x3dd52c9d	0.104089
255	0xbcd80bba	-0.02637278

lstm.bias_ih_l0 f4 [256]
0	0x3cbde4ec	0.023180448
1	0xbd870448	-0.065926135
2	0x3cbe1ea5	0.023207972
3	0xbdbed7d5	-0.093185104
4	0xbdf7c4f0	-0.1209811
5	0x3c7f8d84	0.015597705
6	0xbdce41ea	-0.10071166
7	0xbd20b872	-0.0392384
8	0xbd15c047	-0.036560323
9	0x3da4522c	0.080234855
10	0xbdb0456c	-0.08606991
11	0x3c00abb0	0.0078534335
12	0xbd3d2483	-0.0461774
13	0xbdcdd9fc	-0.10051343
14	0xbdabc76d	-0.08387647
15	0x3dedd192	0.11612238
16	0x3da55809	0.08073432
17	0x3dcd1f25	0.10015706
18	0x3db63cae	0.088982925
19	0xbdd4a747	-0.10383468
20	0x3cb5a940	0.022175431
21	0x3d2110c5	0.039322633
22	0xbdd84c6c	-0.10561451
23	0x3d94d4dd	0.07267163
24	0xbd29d782	-0.04146529
25	0xbd3e5a58	-0.046472877
26	0xbd80e39a	-0.062934116
27	0xbdad9ec5	-0.084775485
28	0xbb33c673	-0.0027431517
29	0x3e03b972	0.1286371
30	0x3acf233a	0.0015803345
31	0x3e0dd473	0.13850574
32	0x3e04d011	0.12969996
33	0x3db99c1b	0.09062978
34	0x3d9d9a49	0.07695443
35	0xbd89e6c6	-0.0673347
36	0x3d75a236	0.05996915
37	0xbd1eb4dd	-0.038746703
38	0x3da6dfe9	0.08148176
39	0x3dc3e79f	0.095656626
40	0xbde4d4c3	-0.111733936
41	0x3e0a48a4	0.13504273
42	0x3dcb9de5	0.09942225
43	0xbcda78be	-0.026668902
44	0x3daaf1a5	0.08346871
45	0x3e084964	0.13309246
46	0xbd5a9487	-0.053364303
47	0x3c99bf76	0.018768054
48	0x3d36e8f4	0.044655755
49	0xbdeb07c2	-0.11476089
50	0x3d452011	0.048126284
51	0xbdb8cbc2	-0.09023239
52	0xbda73b14	-0.08165565
53	0x3c988539	0.018618213
54	0x3c6f03c4	0.0145883
55	0xbdc809e1	-0.09767509
56	0x3d17bdcc	0.03704624
57	0xbc967d26	-0.018370222
58	0xbb30554b	-0.0026906307
59	0x3dc4721e	0.095920786
60	0xbdcee3c3	-0.10102036
61	0x3d24c461	0.040226344
62	0x3cf753f8	0.030191407
63	0x3b9b693f	0.004742771
64	0x3e03eee3	0.12884097
65	0xbcd37f89	-0.02581765
66	0xbdc0c6d9	-0.09412927
67	0xbdc077a3	-0.09397819
68	0x3cbb0dd4	0.022833742
69	0x3c0ae8f2	0.00847839
70	0xbca2202f	-0.019790737
71	0xbd9b721f	-0.07590126
72	0xbcf96ea6	-0.03044827
73	0x3d78199b	0.060571294
74	0x3c993921	0.018703999
75	0xbd7333d9	-0.059375618
76	0xbd8b4ae5	-0.068013944
77	0x3c28d1a6	0.01030389
78	0xbe039cb5	-0.12852748
79	0xbdb17eff	-0.08666801
80	0x3db2ebef	0.08736407
81	0xbc95ca40	-0.018284917
82	0xbd6c4782	-0.057685383
83	0xbb7d166f	-0.0038618108
84	0xbd9cca5f	-0.07655787
85	0x3d243466	0.040089034
86	0x3e017d09	0.12645353
87	0x3d96f5d5	0.073711075
88	0xbd0ff522	-0.035145886
89	0xbdc9d41e	-0.09854911
90	0x3b7c9d5b	0.003854594
91	0x3dba26f4	0.09089461
92	0x3e112da4	0.14177567
93	0x3c846765	0.016162584
94	0x3e1adf3f	0.15124224
95	0xbd08ebfa	-0.03342817
96	0x3da966ab	0.082715355
97	0xbc7ade40	-0.015311778
98	0xbd4d3208	-0.05009654
99	0xbcb3da86	-0.021954786
100	0x3dd2e402	0.10297395
101	0xbdc16970	-0.09443939
102	0x3dd279fb	0.10277172
103	0xbd0b25f8	-0.033971757
104	0xbb827e3c	-0.0039823335
105	0x3e073ffe	0.13208005
106	0x3ce19567	0.02753706
107	0x3def6c58	0.11690587
108	0x3e071443	0.13191323
109	0x3e0363ea	0.12831083
110	0xbd08c588	-0.033391505
111	0x3cf99f24	0.030471392
112	0xbcb98013	-0.022644078
113	0x3dabf0ac	0.08395514
114	0xbde4056c	-0.11133847
115	0x3c8e51dc	0.017373018
116	0x3cb6225a	0.022233177
117	0x3db6f63a	0.08933683
118	0xbc9e5086	-0.019325506
119	0x3df2fcb9	0.11864609
120	0xbd2369f8	-0.03989598
121	0x3dad31d6	0.08456771
122	0x3dc44d03	0.09585001
123	0xbc8daa1d	-0.01729303
124	0xbdc64989	-0.096819945
125	0x3e07ddc9	0.13268198
126	0xbdb136cd	-0.086530305
127	0xbccc8b99	-0.02496891
128	0xbd38847b	-0.04504822
129	0xbdaa999d	-0.08330081
130	0xbd40e264	-0.047090903
131	0xbdcc6c8a	-0.0998164
132	0xbd580141	-0.05273557
133	0x3d9e5934	0.07731858
134	0xbd02e283	-0.0319543
135	0xbda50e09	-0.080593176
136	0x3cfe015c	0.031006508
137	0xbce01962	-0.027355853
138	0xbd3510be	-0.04420542
139	0xbdb45afc	-0.088064164
140	0x3db68cfd	0.0891361
141	0xbcb1d968	-0.021710113
142	0x3dec3c04	0.115348846
143	0x3dd6357e	0.104594216
144	0xbdcc909f	-0.09988522
145	0xbaefd85c	-0.0018298733
146	0xbc965490	-0.01835087
147	0xbc1fb661	-0.009748072
148	0x3c1fecf4	0.009761084
149	0xbd134289	-0.035952125
150	0xbdff7c99	-0.12474937
151	0x3d3f9ce9	0.0467805
152	0xbdc3bb93	-0.09557261
153	0xbd56e8a5	-0.05246796
154	0x3ce9f901	0.028561117
155	0x3cfb1567	0.030649854
156	0x3bd38f88	0.0064563192
157	0xbddeae88	-0.10873133
158	0xbd144d7e	-0.036206715
159	0x3d661d3c	0.056180224
160	0x3d6922f3	0.056918096
161	0x3d529d80	0.051419735
162	0xbd1ef400	-0.038806915
163	0xbcc3e986	-0.023915064
164	0xbdae447d	-0.08509157
165	0x3df15990	0.11784661
166	0x3e02e8dd	0.12784143
167	0xbcc8f9b4	-0.02453313
168	0xbc4ca0ae	-0.012489481
169	0x3d23cb13	0.03998859
170	0xbd843c0f	-0.06456768
171	0x3dcd4921	0.10023714
172	0x3dd99f33	0.10626068
173	0x3d16682d	0.036720444
174	0x3dc5941d	0.09647391
175	0xbde19eba	-0.11016603
176	0x3d7ab9eb	0.06121246
177	0x3cabbe05	0.020964632
178	0x3d97ce2a	0.074123695
179	0xbd9dec47	-0.07711082
180	0xbda3b355	-0.07993189
181	0xbc1460a0	-0.00905624
182	0xbbc8ac3e	-0.0061240485
183	0xbdb3a56f	-0.08771788
184	0x3d1f60ee	0.0389108
185	0x3dde6f94	0.108611256
186	0xbd0fdf0c	-0.035124823
187	0xbd5f17ac	-0.054465935
188	0xbb11a669	-0.0022224432
189	0xbde898b1	-0.113572486
190	0xbd6aef6e	-0.057357244
191	0x3d7f8bdb	0.062389236
192	0x3ddff82a	0.109360054
193	0xbdb2a01d	-0.087219454
194	0xbd1d5583	-0.03841163
195	0xbdee7ca5	-0.11644868
196	0xbd02ebf7	-0.031963315
197	0x3d2c614e	0.042084984
198	0x3c876c96	0.01653127
199	0xbaca970c	-0.0015456392
200	0xbcb6b38f	-0.022302417
201	0x3dfa9917	0.12236231
202	0xbcbd41e7	-0.023102714
203	0xba8cfb71	-0.0010756088
204	0x3e09333f	0.13398455
205	0x3e03e218	0.12879217
206	0xbe1b2c3f	-0.15153597
207	0xbd1f6e57	-0.038923588
208	0xbd69fb1b	-0.05712424
209	0x3dacf0be	0.084443554
210	0xbd4fe201	-0.050752643
211	0x3d602ec1	0.054732088
212	0x3e08c976	0.13358101
213	0xbd718525	-0.058964867
214	0xbc21f514	-0.009885091
215	0x3dc6a8ff	0.09700202
216	0xbda6d6ae	-0.08146416
217	0xbb29aa86	-0.0025888993
218	0x3d1173bb	0.03551076
219	0x3dad6ec5	0.08468393
220	0x3e11af9a	0.14227143
221	0xbd86e6d2	-0.06586994
222	0x3ca7b85b	0.02047365
223	0x3dd3ec24	0.103477746
224	0x3d8ee117	0.06976526
225	0xbdb6c9e9	-0.0892523
226	0xbd010b3a	-0.031504847
227	0x3da2d718	0.07951182
228	0xbd0d1d75	-0.03445192
229	0xbd30a63c	-0.043127283
230	0xbdb2d4e5	-0.08732013
231	0xbdb2d246	-0.08731513
232	0xbc02336a	-0.007946828
233	0xbcac71a1	-0.021050276
234	0x3e054575	0.13014777
235	0x3d683541	0.056691412
236	0xbd8961ec	-0.0670813
237	0x3d647b7f	0.055781838
238	0x3dcc509a	0.09976311
239	0x3d3fa7b8	0.04679081
240	0xbdc3fa27	-0.09569197
241	0xbdcca897	-0.099930935
242	0x3df34e2e	0.11880146
243	0xbd1743f4	-0.03693004
244	0x3d715590	0.05891949
245	0xbd96cd44	-0.0736337
246	0x3d966f18	0.07345408
247	0xbc97fd13	-0.018553292
248	0x3d265df0	0.04061693
249	0xbdce0955	-0.10060374
250	0x3d8ac3e5	0.06775645
251	0xbddec360	-0.108771086
252	0xbdc2ccb8	-0.09511703
253	0xbca784f7	-0.020449145
254	0x3df628f3	0.12019529
255	0x3d82e1b6	0.06390707

lstm.bias_hh_l0 f4 [256]
0	0xbd01a65f	-0.031652804
1	0xbda7171f	-0.08158707
2	0xbc94e1fd	-0.018174166
3	0xbd99c6e0	-0.075086355
4	0x3de1c776	0.11024372
5	0xbd98a44a	-0.07453211
6	0xbc4ac2e1	-0.012375564
7	0xbdde32df	-0.10849547
8	0x3d8d6b6a	0.06905253
9	0x3e028d49	0.12749209
10	0xbd5b4d9d	-0.053540815
11	0x3e0ad0d3	0.13556223
12	0xbd15841a	-0.036502935
13	0xbda4f00c	-0.08053598
14	0xbdd9ab1f	-0.10628342
15	0xbd35383e	-0.04424309
16	0x3d6238e5	0.05523004
17	0xbcd29ebc	-0.025710456
18	0xbd4ceb37	-0.050029006
19	0x3ca49e13	0.020094907
20	0xbcd50132	-0.026001547
21	0x3d5e6945	0.05429961
22	0xbcf5b011	-0.029991182
23	0x3d200c60	0.0390743
24	0x3e009232	0.12555769
25	0xbdeffe0f	-0.1171838
26	0xbd598c5a	-0.053112365
27	0x3d35775f	0.044303294
28	0xbc9b0b12	-0.018926177
29	0x3d91e176	0.071230814
30	0x3df29713	0.11845221
31	0x3dc44641	0.09583712
32	0xbdaf7171	-0.08566559
33	0xbdda05c3	-0.1064563
34	0xbd0b46d0	-0.03400308
35	0x3d795a3d	0.060877074
36	0x3de63f76	0.11242573
37	0xbc963d23	-0.0183397
38	0xbc66de51	-0.01409109
39	0x3c447923	0.011991772
40	0x3c201099	0.009769582
41	0x3cab88f3	0.020939326
42	0xbc93ebac	-0.018056713
43	0xbcaabb18	-0.020841166
44	0x3c02e856	0.0079899635
45	0xbd0dbcaa	-0.034603752
46	0x3de3910d	0.111116506
47	0x3ddad485	0.10685066
48	0x3d9f0f1d	0.077665545
49	0xbd8db730	-0.06919706
50	0x3d2b40e5	0.041809935
51	0x3cc4cf43	0.024024611
52	0xbda2b268	-0.079441845
53	0x3d6c3389	0.057666335
54	0x3d7e13ac	0.06203048
55	0x3dd71085	0.10501198
56	0x3cc41399	0.023935126
57	0x3e025b18	0.12730062
58	0xbd198767	-0.037482645
59	0x3d2dce68	0.042433172
60	0xbac5ad6f	-0.0015081594
61	0x3dec24a8	0.11530429
62	0x3dfbcc11	0.12294782
63	0xbd899c83	-0.06719305
64	0xbd9b0022	-0.07568385
65	0x3d08aab7	0.03336593
66	0xbcd60e9c	-0.026130013
67	0xbd993ce7	-0.07482319
68	0x3dfc881a	0.12330647
69	0x3c7290b0	0.014805004
70	0xbdf7cf54	-0.121000916
71	0xbdcdad99	-0.10042877
72	0x3da31a70	0.07964027
73	0xbd507cea	-0.050900377
74	0xbdd2815a	-0.10278578
75	0xbd99d824	-0.07511929
76	0xbd1cbcd5	-0.03826602
77	0xbdd02260	-0.101628065
78	0xbd04e6bf	-0.03244662
79	0x3aa75e43	0.0012769181
80	0xbdbf92fd	-0.09354208
81	0x3d84da83	0.0648699
82	0x3dd647f7	0.10462945
83	0x3d548e92	0.05189378
84	0xbbb18f69	-0.005418707
85	0xbd06192d	-0.032738853
86	0x3e084dab	0.13310878
87	0x3d155c68	0.03646508
88	0xbde8155e	-0.113322005
89	0xbd122600	-0.03568077
90	0x3dcebafe	0.1009426
91	0xbbfc6fd9	-0.007703763
92	0xbd43f6b2	-0.04784269
93	0x3d1d2ed8	0.03837475
94	0x3ddedfd2	0.10882534
95	0xbda3d115	-0.079988636
96	0x3bda1f55	0.006656567
97	0xbda15bb7	-0.07878821
98	0x3e0a6006	0.13513193
99	0xbd96b80b	-0.07359322
100	0x3dcf845a	0.10132666
101	0xbd106591	-0.03525311
102	0xbd24b4fe	-0.04021167
103	0xbd624c4e	-0.05524855
104	0x3dc3070d	0.09522829
105	0x3dd4d946	0.10393004
106	0x3df34517	0.11878412
107	0x3d37b2ca	0.04484824
108	0x3d1943de	0.03741824
109	0x3dc21e5f	0.09478449
110	0xbdeb7575	-0.114970125
111	0xbd8856af	-0.066571586
112	0x3d8be6a7	0.06831103
113	0xbd08928c	-0.033342883
114	0x3a9c1eab	0.0011910995
115	0x3d65da7b	0.056116562
116	0xbd2716cc	-0.040793225
117	0xbcba1919	-0.022717046
118	0x3d8378b8	0.0641951
119	0xbdd158df	-0.10222029
120	0xbd42d6c8	-0.047568113
121	0xbd39a9a9	-0.045327816
122	0xbdaae45d	-0.08344338
123	0xbd0c286a	-0.03421823
124	0x3df56417	0.11981981
125	0xbd8eb509	-0.069681235
126	0x3dbadc89	0.09124095
127	0x3c021d1a	0.007941509
128	0x3dea310c	0.11435136
129	0xbde682fb	-0.11255451
130	0xbd317a4c	-0.043329522
131	0xbcbbbd1a	-0.02291732
132	0x3e005d61	0.12535621
133	0xbcedac04	-0.029012688
134	0x3c0a207a	0.008430595
135	0x3cfff7fd	0.03124618
136	0xbdfcda01	-0.123462684
137	0xbcfe16a0	-0.031016648
138	0xbddb39bc	-0.10704371
139	0x3cd5173a	0.026012052
140	0xbd834eec	-0.064115375
141	0x3db430e8	0.087983906
142	0xbdb7a75c	-0.08967468
143	0xbdcd2e50	-0.10018599
144	0x3d46dbfb	0.048549633
145	0xbdf0940f	-0.1174699
146	0xbdca8897	-0.09889334
147	0x3da0e864	0.07856825
148	0x3cbd849b	0.02313452
149	0xbd811fd3	-0.06304898
150	0xbd6735f2	-0.05644793
151	0x3b5f1c73	0.0034044057
152	0xbdd69689	-0.10477931
153	0x3d532889	0.05155233
154	0xbcc0bb6d	-0.023526872
155	0xbdb5d198	-0.088778675
156	0x3d801878	0.06254667
157	0x3d03b37d	0.032153595
158	0xbcb6bf15	-0.022307912
159	0xbc5bf90a	-0.013426075
160	0xbd919913	-0.07109275
161	0x3d653a14	0.05596359
162	0x3cfd20db	0.030899456
163	0xbd309456	-0.043110214
164	0x3d10bc04	0.035335556
165	0x3d60e976	0.054910146
166	0xbd55d6d2	-0.05220682
167	0xbdd4edb5	-0.103969015
168	0x3da5dcf1	0.08098782
169	0x3de4a3e6	0.11164074
170	0xbcae6825	-0.021289894
171	0xbc9d71d1	-0.019219311
172	0xbc5c8464	-0.013459299
173	0x3c11cd08	0.008898981
174	0x3d262a48	0.040567666
175	0xbdff65af	-0.124705665
176	0x3d4477c7	0.04796579
177	0xbdde0410	-0.108406186
178	0x3df421bb	0.11920496
179	0x3ac859f8	0.0015285602
180	0x3db7cebf	0.089749806
181	0xbc96c362	-0.018403713
182	0x3ce2b06e	0.027672019
183	0xbd599d2b	-0.053128403
184	0xbd8599b9	-0.06523461
185	0xbd4a7698	-0.049429506
186	0x3c122325	0.008919512
187	0x3deee60a	0.1166497
188	0x3d57c346	0.05267646
189	0x3d4d8313	0.05017383
190	0xbda31653	-0.079632424
191	0x3db5ee13	0.088833
192	0x3c955cc8	0.018232718
193	0xbd6ebf5f	-0.058287974
194	0xbd7dcfcf	-0.06196576
195	0xbdddd383	-0.10831358
196	0xbbdfca64	-0.0068295468
197	0xbce7daf3	-0.028302645
198	0xbd1a2c9d	-0.037640203
199	0xbde4c065	-0.11169509
200	0x3dbe19a5	0.09282235
201	0xbd474a86	-0.048655055
202	0x3dcb0ffb	0.099151574
203	0x3cc24245	0.02371324
204	0x3e03635f	0.12830876
205	0x3c94a4f0	0.018145055
206	0xba1fb9c2	-0.0006093049
207	0x3d8e9eb2	0.069638625
208	0xbdb0dca1	-0.086358316
209	0x3dca3850	0.09874022
210	0xbbd1b371	-0.006399565
211	0xbd3fc197	-0.04681548
212	0x3d54deee	0.051970415
213	0xbc01582e	-0.007894559
214	0x3d214751	0.039374653
215	0xbd02e701	-0.031958584
216	0x3d0bca46	0.03412845
217	0xbd51f8ab	-0.05126254
218	0xbc8038f4	-0.015652157
219	0xbda27f87	-0.0793448
220	0xbda187f6	-0.078872606
221	0x3dca3ccf	0.098748796
222	0xbd6293ba	-0.055316664
223	0x3dee97c8	0.11650044
224	0x3dee6b99	0.116416164
225	0x3da627c9	0.08113057
226	0xbd2a31c2	-0.04155136
227	0xbc20581d	-0.009786633
228	0x3d327f92	0.04357869
229	0xbdb2e438	-0.087349355
230	0x3dec1e6d	0.11529241
231	0x3c63d73e	0.013906298
232	0x3bdbdf68	0.0067099817
233	0x3d26a275	0.040682275
234	0xbd3e91e2	-0.046525843
235	0x3db925fa	0.090404466
236	0x3d827538	0.06370014
237	0xbc793889	-0.015211233
238	0x3deab110	0.11459553
239	0xbcebab07	-0.028768076
240	0xbde572f1	-0.11203564
241	0xbe011099	-0.12603988
242	0x3ceb32f0	0.028710812
243	0x3dbfa8b4	0.093583494
244	0xbdd7ef49	-0.10543687
245	0x3d814a5b	0.0631301
246	0x3d906244	0.07049993
247	0x3d9db506	0.07700543
248	0xbdd8f880	-0.105942726
249	0xbdabc41d	-0.08387015
250	0xbd7de10d	-0.061982203
251	0xbc845681	-0.01615453
252	0xbde30646	-0.11085181
253	0xbcc6ffa5	-0.024291823
254	0x3dc5e96b	0.096636616
255	0x3df56a74	0.11983195

lstm.weight_ih_l1 f4 [256, 64]
0	0x3d8a864b	0.067638956
1	0x3d731108	0.059342414
2	0xbc483267	-0.012219048
3	0x3ceff19c	0.029290013
4	0xbda0f207	-0.07858663
5	0xb8c127ab	-9.210346e-05
6	0xbdec25ee	-0.11530672
7	0xbe0e9832	-0.13925245
8	0xbdda8f61	-0.106718786
9	0x3de963c1	0.1139598
10	0xbd85a172	-0.06524934
11	0x3be3abed	0.0069479854
12	0xbc40fd3d	-0.011779127
13	0x3d5aa414	0.053379133
14	0xbd7c8ef6	-0.061659776
15	0xbe2d5e08	-0.16930401
16	0xbb6dcf0a	-0.0036286735
17	0x3b41a248	0.002954619
18	0xbd27d32e	-0.04097288
19	0x3cb67bb6	0.022275787
20	0xbde89f37	-0.11358493
21	0x3d9f6778	0.07783407
22	0x3de189f8	0.110126436
23	0xbd868d9a	-0.06569977
24	0xbd059056	-0.032608353
25	0x3d3292e4	0.043597117
26	0x3d94279f	0.072341196
27	0xbe0a3d41	-0.13499929
28	0x3ca5db04	0.020246036
29	0x3dcd19ac	0.10014662
30	0x3c6b582b	0.014364283
31	0xbc440d28	-0.011966027
32	0xbb300412	-0.0026857895
33	0x3d42c3bc	0.047549948
34	0x3d1a175a	0.037619926
35	0x3dbc7eb4	0.09203854
36	0x3d99fa90	0.07518494
37	0x3c9c4b1a	0.01907878
38	0xbd4bf472	-0.049793668
39	0xbd81dddc	-0.063411444
40	0x3dc8dcf1	0.09807766
41	0x3e0a814f	0.1352589
42	0x3d4b3288	0.049608737
43	0xbb685937	-0.0035453567
44	0xbe11f761	-0.14254524
45	0xbca646ce	-0.020297434
46	0x3c3a4ec8	0.011371322
47	0x3dda5fea	0.106628254
48	0x3cacc9d7	0.021092338
49	0xbdf8b2fe	-0.12143515
50	0xbdd4cbf1	-0.10390461
51	0x3d4085ff	0.04700279
52	0xbd73926a	-0.059465803
53	0x3c3147d1	0.010820345
54	0x3d41f076	0.047348462
55	0xbcb0158c	-0.02149465
56	0xbdfcf78e	-0.12351905
57	0xbdb1058c	-0.08643636
58	0x3d52a2c2	0.05142475
59	0x3d2added	0.04171555
60	0xbe08fd37	-0.13377844
61	0x3d335675	0.043783624
62	0x3dc484e9	0.09595663
63	0x3c8af906	0.016964447
64	0x3c45e4b4	0.012078453
65	0x3e047a60	0.12937307
66	0x3ded0073	0.11572351
67	0xbd56528f	-0.052324828
68	0xbe1dbcf9	-0.15404119
69	0x3cfcbe0e	0.030852344
70	0xbe006d13	-0.12541609
71	0xbd6cf583	-0.057851326
72	0x3ce88b2c	0.028386675
73	0xbd7c7ffe	-0.0616455
74	0x3d99c8fa	0.07509036
75	0x3ded885a	0.115982726
76	0x3e08b8a7	0.1335169
77	0xbd06e553	-0.032933544
78	0x3de91f18	0.11382884
79	0x3e099b86	0.13438234
80	0x3defe7cb	0.11714133
81	0x3df39a6b	0.11894687
82	0x3d63cf02	0.05561734
83	0x3d127d66	0.03576412
84	0x3dd4df9f	0.10394215
85	0x3d5be832	0.053688236
86	0x3e14e873	0.14541797
87	0xbde4f445	-0.11179403
88	0xbd617d72	-0.055051275
89	0xbdd19df5	-0.10235206
90	0xbc3a0dbb	-0.011355813
91	0x3df87df3	0.12133398
92	0xbdb1b65b	-0.0867736
93	0x3d35aa66	0.044351958
94	0x3d081acb	0.033228677
95	0xbe27d9d9	-0.16391696
96	0x3d8767ae	0.06611572
97	0xbc398939	-0.01132422
98	0x3c5baf82	0.013408544
99	0xbcaf1f9f	-0.021377383
100	0x3d8df1b3	0.06930866
101	0xbda9361c	-0.08262274
102	0xbccb9f37	-0.024856193
103	0x3d8fb231	0.07016409
104	0xbbcd6c14	-0.0062689874
105	0xbd8238eb	-0.063585125
106	0x3cd18508	0.02557613
107	0x3dae03f2	0.08496846
108	0x3dead2dd	0.11466
109	0x3d7202bc	0.05908464
110	0x3c7b90f2	0.015354382
111	0x3afbb554	0.001920382
112	0xbd833ee8	-0.06408483
113	0xbd7a8d5e	-0.061169975
114	0xbdb936ff	-0.09043693
115	0x3dc45316	0.0958616
116	0xbd8c1a78	-0.06840986
117	0xbe43806e	-0.19091961
118	0xbdaa25df	-0.083080046
119	0x3dbc8fa4	0.09207085
120	0x3e0a6b18	0.13517416
121	0x3d136264	0.035982504
122	0x3e1a0504	0.15040976
123	0xbd72d1b9	-0.05928204
124	0x3e1360ee	0.14392444
125	0xbd816dfb	-0.06319805
126	0x3d04b281	0.032396797
127	0xbe026773	-0.12734775
128	0xbdd150b6	-0.102204725
129	0x3d8a8a75	0.0676469
130	0xbd14a1ec	-0.036287233
131	0x3db611c7	0.088901095
132	0x3d3f5caf	0.04671925
133	0xbd2c3213	-0.042039942
134	0xbc95a5bc	-0.018267505
135	0x3d58ac6a	0.052898802
136	0x3c5b2376	0.013375154
137	0xbd7dfc08	-0.062007934
138	0x3d7b0dcc	0.061292455
139	0x3d6e681f	0.058204766
140	0x3cfe6db8	0.031058177
141	0x3d4d6859	0.05014834
142	0x3d926427	0.07148009
143	0x3c21dc65	0.009879206
144	0x3d290852	0.0412677
145	0x3d95463a	0.07288785
146	0x3b9669fc	0.004590271
147	0xbd28370e	-0.04106813
148	0x3af232d8	0.0018478287
149	0x3e0f3a46	0.13987073
150	0xbdca58e9	-0.098802395
151	0xbe027b61	-0.12742378
152	0x3d97031d	0.07373641
153	0x3d92fa5c	0.071766585
154	0xbd345316	-0.04402455
155	0xbd43bbb6	-0.047786437
156	0xbd1bc2e7	-0.03802767
157	0x3db91ad9	0.09038324
158	0x3d877d42	0.06615688
159	0xbe063033	-0.13104324
160	0x3c9fa540	0.019487977
161	0x3db3e2c4	0.087834865
162	0xbd0565f6	-0.03256794
163	0xbd29d7ef	-0.041465696
164	0xbd6b09a6	-0.05738225
165	0xbdac92d2	-0.08426441
166	0x3d144092	0.03619439
167	0x36246500	2.4496694e-06
168	0x3d9bfdba	0.07616754
169	0x3d8e27b7	0.06941169
170	0xbd52bc42	-0.051449068
171	0x3ca47809	0.020076768
172	0x3e13f449	0.14448656
173	0xbc859bc2	-0.016309623
174	0xbde9fe26	-0.11425428
175	0xbcce5e0a	-0.025191326
176	0x3db26ee3	0.08712556
177	0x3d85c869	0.06532366
178	0xbde6bbeb	-0.11266311
179	0xbda5f91e	-0.08104156
180	0x3ce7a529	0.028276997
181	0xbde0e0e8	-0.109803975
182	0xbda0e607	-0.07856374
183	0x3d13cd67	0.03608456
184	0xbd299340	-0.041400194
185	0x3c89cd61	0.016821565
186	0xbd02ff67	-0.031981852
187	0x3d9f577d	0.07780359
188	0xbda96b10	-0.08272374
189	0x3cfb8b4b	0.030706069
190	0x3da6a2ee	0.08136545
191	0xbd37d49f	-0.044880506
192	0xbd17fa18	-0.037103742
193	0x3dc750f6	0.09732239
194	0x3df27511	0.11838735
195	0x3cf0f275	0.029412488
196	0xbcb92800	-0.022602081
197	0x3c58b842	0.013227524
198	0x3d913495	0.07090107
199	0xbd59062a	-0.052984394
200	0xbd595528	-0.053059727
201	0xbd93f35b	-0.07224151
202	0xbe017a94	-0.12644416
203	0xbdb73440	-0.08945513
204	0x3deee7a2	0.11665274
205	0x3d081ca2	0.03323043
206	0x3cc1f316	0.023675483
207	0x3e2dd167	0.16974412
208	0x3cc18daa	0.023627121
209	0x3dd9be1d	0.10631964
210	0xbd8dc99a	-0.06923218
211	0xbdf0d3f9	-0.117591806
212	0xbd89aef7	-0.06722825
213	0x3e130961	0.14359047
214	0x3e07e0ee	0.13269398
215	0x3d0c14a0	0.034199357
216	0x3ddd94ee	0.10819422
217	0xbdbdfd3e	-0.09276818
218	0xbe22975c	-0.15878052
219	0x3d25d662	0.040487655
220	0xbdf9d2e0	-0.12198424
221	0x3dd0475f	0.10169863
222	0xbd1006d6	-0.03516277
223	0xbe120946	-0.1426135
224	0x3dcfbf37	0.10143893
225	0x3ca72021	0.020401062
226	0xbd6b7a02	-0.057489403
227	0x3d53cdd1	0.051709954
228	0x3d8b7942	0.068102375
229	0x3d0b166b	0.033956926
230	0xbc61e701	-0.013787986
231	0xbe36ace7	-0.17839395
232	0x3d16a879	0.03678176
233	0x3d858093	0.06518664
234	0x3e020d0b	0.12700288
235	0xbe139eb2	-0.14416006
236	0x3e2ca14c	0.16858405
237	0xbdc330f6	-0.09530823
238	0xbddd0b43	-0.107931636
239	0xbd675538	-0.056477755
240	0x3cdd5c83	0.027021652
241	0x3d548cad	0.05189197
242	0x3c63ebda	0.013911212
243	0x3dfe1652	0.12406601
244	0x3d516c35	0.051128585
245	0x3d8a1dd1	0.06743968
246	0x3db01818	0.085983455
247	0x3d10d83c	0.035362467
248	0x3bfd6305	0.0077327513
249	0x3bba4756	0.0056847734
250	0x3ccb67dd	0.0248298
251	0x3d2a784c	0.04161863
252	0x3d37da72	0.04488606
253	0x3d495ec3	0.049162637
254	0x3c811b4f	0.015760092
255	0x3d7c7002	0.061630256

lstm.weight_hh_l1 f4 [256, 64]
0	0x3deaa3c8	0.1145702
1	0x3d811f7e	0.06304835
2	0x3da47511	0.08030141
3	0xbabff260	-0.0014644377
4	0x3dbea401	0.09308625
5	0x3d01e97a	0.0317168
6	0x3d95b2c8	0.073094904
7	0x3db2f2f6	0.08737747
8	0x3b36df17	0.0027903968
9	0x3da1cf92	0.07900919
10	0xbd862a64	-0.06551054
11	0x3d665077	0.05622908
12	0xbd07f9a6	-0.033197068
13	0xbd4741d4	-0.048646763
14	0xbc9d1dfd	-0.019179339
15	0x3ca52680	0.02015996
16	0xbdd7b152	-0.10531868
17	0x3d5da95f	0.054116603
18	0xbd880655	-0.06641833
19	0x3bdb0c41	0.0066848104
20	0xbde79567	-0.11307793
21	0xbd1c4201	-0.038148884
22	0xbcaffd17	-0.021482987
23	0xbcdb116d	-0.026741708
24	0x3dffa684	0.12482932
25	0x3db802e8	0.08984929
26	0x3d72e0ca	0.059296407
27	0xbdb66ebb	-0.08907839
28	0xbcd45493	-0.025919234
29	0x3d1a408e	0.03765922
30	0x3dee8245	0.11645941
31	0x3d8e145b	0.06937476
32	0xbb0a9fde	-0.0021152417
33	0xbd718207	-0.058961894
34	0xbdfc1846	-0.12309317
35	0x3c956845	0.018238196
36	0x3d9fdb1a	0.07805462
37	0xbd9d894e	-0.076922044
38	0x3d880668	0.06641847
39	0x3d90ef57	0.070769005
40	0xbd233c53	-0.03985245
41	0xbc895c69	-0.016767697
42	0x3d65db06	0.05611708
43	0xbd19fa69	-0.037592325
44	0x3a765fcc	0.000939843
45	0xbd50955d	-0.050923694
46	0x3daf6a74	0.08565226
47	0x3dc86c2a	0.09786256
48	0x3e05c8a9	0.13064827
49	0xbdd7c52c	-0.105356544
50	0xbd882e9e	-0.066495165
51	0x3d05b43d	0.03264259
52	0xbd29534f	-0.041339215
53	0x3d6d9728	0.058005482
54	0xbdb36644	-0.0875974
55	0x3acae125	0.0015478475
56	0x3db40c7a	0.08791442
57	0xbe004e5d	-0.12529893
58	0xbd63ca1c	-0.05561267
59	0x3d844d08	0.06460005
60	0xbdb8c2d5	-0.09021536
61	0xbdb9f0d7	-0.0907914
62	0x3ddb6279	0.107121415
63	0xbddcfd40	-0.10790491
64	0xbc9a5201	-0.01883793
65	0x3d337420	0.043811917
66	0x3de79cb4	0.113091856
67	0x3dc04d7a	0.093897775
68	0xbd78b301	-0.060717586
69	0x3d4c96b8	0.049948424
70	0x3d88f33f	0.066870205
71	0xbc7b8008	-0.015350349
72	0xbd07fa61	-0.033197764
73	0xbd22d531	-0.039754096
74	0x3cbb77a7	0.022884203
75	0xbe092eb7	-0.13396727
76	0x3cc1a2de	0.023637231
77	0xbdecc9b3	-0.115619086
78	0xbdd95ff1	-0.106140025
79	0x3cff5c75	0.031172017
80	0xbd0a7f3d	-0.03381275
81	0xbce27ef5	-0.027648428
82	0x3c287251	0.010281161
83	0x3c3f673c	0.011682328
84	0xbd05032f	-0.03247374
85	0xbd9f77fa	-0.077865556
86	0xbdfdb0c4	-0.12387231
87	0xbe0e5ccf	-0.13902591
88	0xbc6609ab	-0.014040391
89	0xbe0f0aaf	-0.13968919
90	0xbd54ebd2	-0.05198271
91	0x3e1035a4	0.14082962
92	0xbbabc899	-0.005242419
93	0xbe1c47f3	-0.15261821
94	0x3dec18c8	0.11528164
95	0x3cba4f50	0.022742897
96	0xbd25f4ef	-0.04051679
97	0x3d810137	0.0629906
98	0x3cc05772	0.023479197
99	0xbd55d687	-0.052206542
100	0x3dd9f668	0.106427014
101	0xbc1d7257	-0.00960978
102	0xbdc36d59	-0.09542341
103	0xbd643c00	-0.055721283
104	0x3c9bd752	0.019023571
105	0xbd5cbdc1	-0.0538919
106	0xbd9a4624	-0.075329095
107	0xbdbf8c5a	-0.09352942
108	0x3b64aaab	0.0034891765
109	0xbdcbf74a	-0.09959276
110	0x3d57daa9	0.052698765
111	0x3d117043	0.03550745
112	0x3cbac143	0.022797232
113	0xbca8d460	-0.02060908
114	0xbccb738f	-0.024835376
115	0xbd63e83d	-0.0556414
116	0x3d82f075	0.0639352
117	0x3d802a33	0.06258049
118	0x3c1b052b	0.009461681
119	0xbd6e8155	-0.05822881
120	0xbd9b68d0	-0.07588351
121	0x3e128df2	0.1431196
122	0x3cc2040d	0.023683572
123	0x3c7fd327	0.0156143075
124	0xbd6978c5	-0.05699994
125	0x3d93a4d7	0.07209175
126	0xbdfa87cd	-0.12232933
127	0xbda15d3c	-0.07879111
128	0xbdd70c97	-0.10500448
129	0xbbe4c5f7	-0.006981607
130	0xbc383cc9	-0.011244961
131	0x3dac9b79	0.084280916
132	0x3d0ff74d	0.035147954
133	0x3d88cae6	0.06679325
134	0xbcffdec8	-0.03123416
135	0x3d851e74	0.06499949
136	0xbdd04beb	-0.1017073
137	0xbd1de65c	-0.038549766
138	0xbd2dd1a7	-0.04243627
139	0xbd6aa7a6	-0.05728879
140	0xbd3f26f7	-0.04666802
141	0x3d4e3a05	0.0503483
142	0x3c553d0b	0.013015042
143	0x3d9212fe	0.07132529
144	0x3c84a404	0.01619149
145	0xbda10d7f	-0.07863902
146	0x3de08cdd	0.109643675
147	0xbdbfc47b	-0.093636476
148	0x3d8223c5	0.06354479
149	0xbda37dcc	-0.07982978
150	0x3d160db1	0.03663415
151	0x3d39381f	0.045219537
152	0xbe00a0ee	-0.1256139
153	0x3db4ad83	0.08822157
154	0x3d3545ad	0.0442559
155	0xbdbd2acb	-0.09236678
156	0xbd9c0268	-0.076176465
157	0xbe045638	-0.12923515
158	0xbe0c9f9b	-0.1373276
159	0x3dd1f1b1	0.10251177
160	0x3d9ca567	0.076487355
161	0x3db901fe	0.09033583
162	0xbdb044ac	-0.08606848
163	0x3ce34066	0.027740669
164	0x3deb613a	0.11493154
165	0xbdcdf5f9	-0.10056681
166	0xbcf5be3c	-0.029997937
167	0x3d308610	0.043096602
168	0x3d8f70d1	0.0700394
169	0x3e004a71	0.12528397
170	0x3dc48c46	0.095970675
171	0x3cf3a991	0.029743942
172	0xbd6451b8	-0.055741996
173	0xbdc63b3f	-0.09679269
174	0xbd393004	-0.045211807
175	0xbd2433f7	-0.04008862
176	0x3d7a0c46	0.06104686
177	0xbd5648e0	-0.052315593
178	0x3dbe6f37	0.09298556
179	0x3e081a27	0.13291226
180	0x3e0659ad	0.13120146
181	0x3dba4263	0.090946935
182	0x3d71ed52	0.059064217
183	0xbc5d9330	-0.013523862
184	0xbd883e47	-0.066525035
185	0xbd46d61f	-0.048544046
186	0xbd94b4f4	-0.072610766
187	0x3ca109ca	0.019657988
188	0xbdd5d4fa	-0.10441013
189	0xbdf45978	-0.11931127
190	0x3dc5804c	0.09643611
191	0xbd6a559c	-0.05721055
192	0x3d987f70	0.07446182
193	0x3d8a32cc	0.0674797
194	0xbd1aa6c9	-0.037756715
195	0xbd37e1ff	-0.04489326
196	0x3b9ebb89	0.0048441333
197	0x3dc9dc31	0.09856451
198	0x3e10a8d0	0.14126897
199	0x3d412726	0.047156475
200	0xbc37029f	-0.0111700585
201	0x3db77d99	0.08959503
202	0xbc963bbd	-0.018339032
203	0xbd42d0f7	-0.047562566
204	0x3c8074be	0.015680667
205	0x3d3d6708	0.046240836
206	0xbd9e6eca	-0.07735975
207	0x3da234d2	0.07920231
208	0xbddc0c25	-0.10744504
209	0x3b0c61e0	0.0021420643
210	0xbd7d11e1	-0.06178463
211	0xbdd5c265	-0.104374684
212	0x3b6866af	0.0035461595
213	0xbc7007f4	-0.014650334
214	0xbdbba7d7	-0.09162872
215	0x3c6bc605	0.014390473
216	0x3db3045a	0.08741064
217	0xbdb6d7b3	-0.0892786
218	0xbc805eba	-0.01567017
219	0x3d424050	0.047424614
220	0xbe09d3c5	-0.1345969
221	0xbdda6d7e	-0.10665415
222	0xbdf4bc8d	-0.11950026
223	0xbde864f1	-0.11347378
224	0xbb099a62	-0.002099656
225	0x3e153d93	0.1457427
226	0x3db0907f	0.086213104
227	0xbd832cf8	-0.064050615
228	0x3d8ebd6d	0.06969724
229	0xbd5490df	-0.051895972
230	0xbdb099e3	-0.086231016
231	0x3d52be85	0.051451225
232	0xbcb4cd76	-0.022070628
233	0x3d9d99e4	0.07695368
234	0xbcf4e8e6	-0.02989621
235	0xbd5d78e0	-0.054070354
236	0x3dda1bf5	0.10649864
237	0x3dbd7dca	0.09252508
238	0xbd2d64c7	-0.042332437
239	0xbd3a42d6	-0.045473896
240	0xbde14e4a	-0.110012606
241	0x3dd5bcdb	0.10436412
242	0x3c4558f2	0.012045132
243	0x3d83acb6	0.06429426
244	0x3dff6955	0.12471262
245	0xbcd9fc2d	-0.026609505
246	0xbcb1a6a3	-0.021685904
247	0x3ddd2d68	0.10799676
248	0x3c27d296	0.010243079
249	0x3d958c0b	0.07302102
250	0x3bdd72b3	0.006758058
251	0xbd9075dd	-0.07053731
252	0xbe0e773a	-0.13912669
253	0xbd8e692c	-0.06953654
254	0x3d5f657d	0.054540146
255	0x3be27331	0.0069107045

lstm.bias_ih_l1 f4 [256]
0	0xbdc85a96	-0.09782903
1	0xbc259a53	-0.010107595
2	0xbd9f70cd	-0.07785187
3	0x3dd26ecf	0.10275041
4	0x3d5a51e7	0.053300764
5	0xbdd4bdb5	-0.10387746
6	0xbd9b0e79	-0.0757112
7	0x3db6ba3b	0.089222394
8	0x3df4432a	0.11926873
9	0xbdc9c203	-0.09851458
10	0xbe05d8ce	-0.13070986
11	0x3d45d34d	0.048297215
12	0x3cf0ea8f	0.029408721
13	0x3ddbf811	0.10740674
14	0xbd246495	-0.040134985
15	0x3dd4acfd	0.103845574
16	0x3e0bf771	0.1366861
17	0xbcd87e59	-0.026427435
18	0xbd4f5e29	-0.050626907
19	0x3d1cb8b4	0.038262084
20	0xbd7f57e8	-0.062339693
21	0xbca5b23f	-0.020226596
22	0x3d43c5eb	0.04779617
23	0x3cbcbf53	0.02304045
24	0x3e036c38	0.12834251
25	0x3c89b30d	0.01680901
26	0xbcd8f0c0	-0.026481986
27	0x3daf70fc	0.08566472
28	0x3c75ae1e	0.014995126
29	0xbda35b91	-0.07976449
30	0xbd9ab609	-0.07554252
31	0xbd0191f3	-0.03163333
32	0x3cad6342	0.021165494
33	0x3ba8677a	0.0051392885
34	0xbd7f1937	-0.062279906
35	0xbd28bbdd	-0.041194785
36	0x3c8a5476	0.016885977
37	0x3de43c8e	0.111443624
38	0xbde0a64c	-0.109692186
39	0xbbf39187	-0.0074331197
40	0xbd261e0b	-0.040555995
41	0x3da2fe35	0.079586424
42	0xbd3d0aa3	-0.046152722
43	0x3d9c6431	0.076362975
44	0x3cc5a46f	0.02412626
45	0x3dc0c164	0.09411886
46	0xbd1c93a0	-0.038226724
47	0x3e1b17c7	0.15145789
48	0x3dd655d7	0.104655914
49	0x3c0aae80	0.008464456
50	0xbdb09deb	-0.086238705
51	0x3e05910b	0.13043611
52	0xbac312b0	-0.0014882889
53	0xbc73293d	-0.014841375
54	0xbdc7ecb3	-0.09761944
55	0xbdf595eb	-0.11991485
56	0x3c280108	0.010254152
57	0xbd69a8d4	-0.057045773
58	0xbde8d4d5	-0.113687195
59	0x3ddbd0c9	0.10733182
60	0x3cf41a2e	0.02979764
61	0x3da70156	0.08154552
62	0xbd34df8a	-0.044158496
63	0xbda9e4dc	-0.082956046
64	0x3dfbd5d9	0.122966476
65	0xbc7a8e2c	-0.0152926855
66	0xbdbbfb20	-0.09178758
67	0x3d9ed063	0.0775459
68	0x3dc3d13c	0.09561393
69	0xbbcf40c3	-0.006324859
70	0x3def255f	0.1167705
71	0xbdba9030	-0.09109533
72	0x3cdd4151	0.027008684
73	0x3dad199a	0.08452149
74	0xbd56a505	-0.05240347
75	0xbde818f6	-0.11332886
76	0x3dc28ec3	0.09499886
77	0xbdae3d3f	-0.085077755
78	0x3e00c550	0.12575269
79	0x3dfdc6e5	0.12391452
80	0x3c23f188	0.010006316
81	0x3aff1a27	0.001946275
82	0x3d9296d8	0.071576774
83	0x3daaf613	0.08347716
84	0xbc8a0f2c	-0.016852938
85	0xbd5d3f0b	-0.0540152
86	0x3daf31cb	0.08554419
87	0xbdf7c7ce	-0.120986566
88	0x3d8c5cde	0.068536505
89	0xbdfb000d	-0.12255869
90	0x3d8b77c8	0.06809956
91	0x3dd41152	0.10354866
92	0x3d854784	0.06507781
93	0xbd735ffc	-0.05941771
94	0xbdffe4c5	-0.12494806
95	0x3d1d73af	0.038440403
96	0x3d39c0e9	0.04534999
97	0xbb2c97e6	-0.0026335656
98	0x3c97969e	0.018504437
99	0x3d1412fc	0.036150917
100	0x3d565397	0.05232581
101	0x3b869f8b	0.0041083745
102	0x3dcfa83d	0.10139511
103	0xbd85e46c	-0.06537709
104	0xbd1b7e13	-0.03796203
105	0xbcf8ff26	-0.030395102
106	0xbdee696b	-0.11641201
107	0x3acb9a91	0.0015533735
108	0xbde3cbc5	-0.1112285
109	0x3d0c007d	0.034180153
110	0x3ca1e692	0.019763265
111	0x3e01cb7c	0.1267528
112	0x3d78c148	0.060731202
113	0x3d390432	0.045170017
114	0x3d0dceef	0.034621175
115	0x3d9de924	0.07710484
116	0xbd91a899	-0.071122356
117	0x3def76ab	0.11692556
118	0x3d5235dd	0.0513209
119	0xbdb577d7	-0.08860748
120	0xbd9478fb	-0.07249638
121	0x3d1b807e	0.037964337
122	0xbd8cfb38	-0.06883854
123	0x3cb960f4	0.022629239
124	0x3e06eadf	0.13175534
125	0x3daa6277	0.08319562
126	0x3d883ff4	0.06652823
127	0x3ddf659b	0.109080516
128	0x3dc42218	0.09576815
129	0xbca7b752	-0.020473156
130	0x3df7c04e	0.12097226
131	0xbd9745cb	-0.07386359
132	0xbd3297a5	-0.04360165
133	0xbcb3ebdc	-0.021963052
134	0xbd3e268a	-0.046423472
135	0xbb45b182	-0.0030165617
136	0x3c642a32	0.013926076
137	0xbbfb1952	-0.0076629305
138	0xbd302cae	-0.04301136
139	0xbd0598d1	-0.03261644
140	0xbd5edcb8	-0.054409713
141	0x3d25cd7d	0.040479172
142	0x3e08cc38	0.13359153
143	0x3e02f01e	0.1278691
144	0xbc35f7a8	-0.011106409
145	0xbd752b46	-0.059855722
146	0xbde3fbed	-0.111320354
147	0x3d78c7bf	0.060737368
148	0x3b9bd576	0.004755671
149	0xbd900aa1	-0.07033277
150	0x3d091cb1	0.033474628
151	0xbd743276	-0.059618436
152	0x3cb1a7d1	0.021686466
153	0x3dbb3801	0.09141541
154	0x3dd348d1	0.10316623
155	0xbe0342de	-0.12818477
156	0xbc434774	-0.011918891
157	0x3de73ecf	0.11291277
158	0x3c858f55	0.016303698
159	0xbd07e9fb	-0.033182126
160	0x3c0d0a9c	0.0086084865
161	0x3da4bb32	0.08043517
162	0xbd767036	-0.060165606
163	0xbd0a8bf9	-0.033824895
164	0xbdcd734b	-0.10031756
165	0x3c591250	0.013248995
166	0xbc20abed	-0.009806615
167	0x3d1e1c1e	0.038601033
168	0x3d9c7192	0.07638849
169	0xbd951f6b	-0.07281383
170	0xbdbeaea3	-0.09310653
171	0x3d6724cc	0.056431577
172	0x3aa2db2c	0.0012424937
173	0xbdc855fe	-0.09782027
174	0xbdc70b6a	-0.09718974
175	0xbc0a9bd7	-0.008460007
176	0xbd51e57c	-0.051244244
177	0xbdf76016	-0.12078874
178	0x3dd69acb	0.10478743
179	0x3c4a4341	0.012345136
180	0x3cdb5884	0.026775606
181	0xbc772997	-0.015085599
182	0x3deb512a	0.1149009
183	0x3d77973b	0.06044696
184	0xbda3f53d	-0.0800576
185	0x3c9202e1	0.017823638
186	0xbcac39a5	-0.02102358
187	0xbddbcbd0	-0.107322335
188	0xbd3fe8ca	-0.046852864
189	0x3d9fa0a3	0.07794311
190	0x3de05968	0.10954553
191	0x3ce7c0a3	0.028290099
192	0x3db12182	0.08648969
193	0xbdb02363	-0.086004995
194	0xbc77f4e1	-0.015134067
195	0xbd15a10a	-0.036530532
196	0xbb9c8c7a	-0.0047774883
197	0x3d188812	0.03723914
198	0x3d501470	0.05080074
199	0x3df91928	0.12163001
200	0xbd372ee0	-0.044722438
201	0x3df07214	0.11740509
202	0xbe03fad0	-0.12888646
203	0x3d493844	0.049125925
204	0x3c1a2741	0.009408773
205	0x3d0253db	0.031818252
206	0xb9cab4e8	-0.00038663228
207	0x3d6de14e	0.058076195
208	0x3db91975	0.09038059
209	0x3d96f68a	0.07371242
210	0xbdcbc620	-0.09949899
211	0x3d9a05ac	0.07520613
212	0x3d0d3d3b	0.034482222
213	0x3df0446a	0.11731799
214	0x3d7e0e64	0.062025443
215	0x3d5951b4	0.053056434
216	0x3e074d21	0.13213016
217	0x3d85a6ef	0.06525981
218	0x3ce704bc	0.0282005
219	0x3dfc039f	0.12305378
220	0x3e1e7a5e	0.15476367
221	0xbd5fd482	-0.054646023
222	0xbd679e73	-0.056547593
223	0xbe0f4271	-0.13990189
224	0xbddebdec	-0.108760685
225	0xbda4893e	-0.08033989
226	0x3d91b934	0.07115403
227	0x3de4a92f	0.11165082
228	0x3da212ce	0.07913743
229	0xbdad1d64	-0.084528714
230	0xbe01e35d	-0.12684388
231	0x3d1fb825	0.038993973
232	0xbda99e37	-0.0828213
233	0x3d96d555	0.073649086
234	0x3d00c2b1	0.031435672
235	0x3d0a70ab	0.033798855
236	0xbc845602	-0.016154293
237	0xbc954152	-0.018219624
238	0xbd5cd0a7	-0.053909924
239	0x3d5227a7	0.051307347
240	0x3d775d44	0.06039168
241	0xbc98e3b6	-0.018663269
242	0xbd038166	-0.032105826
243	0x3d48348d	0.04887824
244	0xbba02aaa	-0.0048878985
245	0x3c3678aa	0.011137167
246	0xbde6ba5a	-0.112660125
247	0xbcb309e1	-0.021855297
248	0x3d392a32	0.045206256
249	0x3da3a7d2	0.079909936
250	0x3c981cc1	0.018568398
251	0x3c89a26e	0.016801085
252	0x3c12ede6	0.008967852
253	0xbd8b6681	-0.068066604
254	0x3d2996be	0.041403525
255	0x3d50bd39	0.050961707
