best_lstm_1step_ohlc.pt (torch, 210133 bytes, 10 tensors)

lstm.weight_ih_l0 f4 [256, 4]
0	0xbd91256c	-0.07087216
1	0x3dffec7c	0.12496278
2	0x3c26ea0e	0.010187639
3	0xbcf37b19	-0.029721783
4	0x3cc54f71	0.024085732
5	0xbd9148ec	-0.07093987
6	0xbdcd6091	-0.10028184
7	0xbd128c07	-0.03577807
8	0x3e2ae8c3	0.16690354
9	0x3ddb9065	0.107209004
10	0x3dd94f4b	0.10610827
11	0x3d538511	0.051640574
12	0xbdea6b8d	-0.11446295
13	0xbda15193	-0.07876887
14	0x3dd37220	0.10324502
15	0xbc9944fd	-0.018709654
16	0x3dfa777b	0.1222982
17	0xbd5df999	-0.054193113
18	0x3e0eea6d	0.13956614
19	0x3cb0fe2a	0.02160557
20	0xbd2c0d18	-0.042004675
21	0xbd386b03	-0.04502393
22	0x3d1d8f01	0.038466457
23	0x3d8c0f89	0.068389006
24	0x3c0fca6c	0.0087762885
25	0x3e0c7032	0.13714674
26	0xbd3d3372	-0.04619164
27	0xbd845200	-0.06460953
28	0xbd7d05b5	-0.06177302
29	0xbd43dda4	-0.047818795
30	0x3d8f0261	0.069828756
31	0x3ddc48f2	0.10756101
32	0xbc02724d	-0.007961822
33	0xbcc69574	-0.024241187
34	0x3de0775d	0.10960267
35	0x3d397692	0.045279093
36	0x3dccfa43	0.10008671
37	0x3d717861	0.058952693
38	0x3e2324cd	0.15932007
39	0x3d7b3522	0.06132997
40	0x3d5d3bef	0.054012235
41	0xbd078c98	-0.033093065
42	0xbd1a24fe	-0.037632935
43	0x3db238b3	0.08702221
44	0xbb4dd3b7	-0.003140671
45	0x3da21a75	0.079152025
46	0x3d9be2fb	0.076116525
47	0x3e226067	0.15857087
48	0x3d60f2ca	0.05491904
49	0x3c4c7de9	0.012481191
50	0x3de3e603	0.11127856
51	0x3cac630b	0.021043321
52	0x3e0a0462	0.13478234
53	0xbd9f48eb	-0.0777758
54	0x3dcce2fd	0.10004232
55	0x3e1e6b71	0.15470673
56	0x3ce43e1b	0.027861645
57	0x3e25676d	0.16152735
58	0x3d0204e1	0.031742934
59	0x3d09d628	0.0336515
60	0x3cd969d2	0.026539717
61	0x3e2296c1	0.1587782
62	0x3d633c7d	0.055477608
63	0x3c8f48ca	0.017490763
64	0xbcd3e6f8	-0.02586697
65	0x3c71974a	0.014745543
66	0xbcecab86	-0.028890382
67	0xbd8e609f	-0.06952023
68	0xbc8ac066	-0.016937446
69	0x3c232cbe	0.009959398
70	0x3e143f8c	0.14477366
71	0xbceab114	-0.02864889
72	0x3b744902	0.0037274961
73	0x3dd6e051	0.10492004
74	0x3cbda556	0.023150127
75	0xbd62efa6	-0.055404328
76	0x3cd2968e	0.025706556
77	0x3c5ff020	0.01366809
78	0x3de1f489	0.110329695
79	0x3df5dd3d	0.120050885
80	0xbd98fd2e	-0.07470165
81	0x3d680280	0.05664301
82	0x3d77fe1c	0.060545072
83	0x3dd0c16d	0.10193143
84	0x3d8488b4	0.064713866
85	0xbd0c0360	-0.034182906
86	0x3d8082ec	0.06274971
87	0x3dc02751	0.09382499
88	0xbcba8770	-0.02276966
89	0x3e432f0e	0.19060919
90	0x3dc08482	0.09400274
91	0x3da813ff	0.08206939
92	0x3d695f5a	0.0569757
93	0x3e1a9568	0.15096056
94	0x3e1a158a	0.15047279
95	0x3e2a9a05	0.16660316
96	0x3d80a6d2	0.062818184
97	0x3c4d6723	0.012536797
98	0x3e1ac2f6	0.15113434
99	0xbc7e1ea1	-0.015510232
100	0x3ddf49d1	0.10902751
101	0xbcdf9e63	-0.027297204
102	0xbd1b2200	-0.03787422
103	0x3d9d0351	0.07666648
104	0x3e111885	0.1416951
105	0xbd511894	-0.05104883
106	0xbc062c96	-0.008189341
107	0xbb68cc42	-0.0035522138
108	0xbd0e2c7c	-0.034710392
109	0xbe074afd	-0.132122
110	0xbcbe808c	-0.023254655
111	0xbb92f74f	-0.004485048
112	0x3ddb87af	0.10719239
113	0x3e1f8ad7	0.15580307
114	0x3de9773d	0.11399696
115	0x3d25a7af	0.04044312
116	0x3d67e149	0.056611333
117	0xbdcd8fb7	-0.10037177
118	0xbd88df77	-0.066832475
119	0x3db09236	0.086216375
120	0x3c3497dc	0.011022534
121	0xbd2ed8fb	-0.042687397
122	0x3e18826a	0.14893499
123	0x3e14144d	0.14460869
124	0x3d9f023f	0.077641
125	0x3debf928	0.11522132
126	0x3c189b16	0.009314319
127	0x3dc53c1e	0.09630607
128	0xbd5dd1e9	-0.054155264
129	0x3e07db31	0.13267209
130	0x3ca84c3f	0.02054417
131	0x3d5d0cb8	0.053967208
132	0x3deda7e4	0.11604288
133	0xbcf46bc8	-0.02983655
134	0x3d99c06d	0.075074054
135	0x3d8f3c08	0.06993872
136	0x3a3aaeb2	0.00071213685
137	0x3ddbe4e3	0.10737016
138	0x3d51d844	0.051231638
139	0x3df73c0a	0.120719984
140	0xbdf042a9	-0.117314644
141	0xbd8c09e3	-0.06837823
142	0xbe004c03	-0.12528996
143	0xbe052b24	-0.13004738
144	0x3d9f957e	0.07792185
145	0xbc92d1e4	-0.01792235
146	0x3d9cf36e	0.07663618
147	0x3e264618	0.16237676
148	0x3c8f071b	0.017459443
149	0xbd29430a	-0.0413237
150	0x3d8cbc95	0.06871907
151	0xbd0216ad	-0.031759907
152	0x3b9c4254	0.004768649
153	0x3d3db42e	0.04631441
154	0xbd0f3114	-0.034958914
155	0xbda61267	-0.08108979
156	0x3c522700	0.012826681
157	0x3beb72a7	0.0071852985
158	0x3dcbb33f	0.09946298
159	0x3d1e86bc	0.03870271
160	0xbd1c5627	-0.0381681
161	0x3d143817	0.036186304
162	0xbc2127b8	-0.00983613
163	0x3d99b9e4	0.07506159
164	0xbce9f845	-0.028560767
165	0xbc4351af	-0.01192133
166	0xbc9c8910	-0.019108325
167	0x3d37c262	0.044863112
168	0xbdb55d25	-0.088556565
169	0x3ced957f	0.02900195
170	0xbd8b5f61	-0.068053015
171	0xbbeeff13	-0.007293591
172	0xbd1f885f	-0.038948413
173	0x3dbda0f8	0.09259218
174	0x3db497b5	0.08817998
175	0x3dc140f6	0.094362184
176	0xbd11132b	-0.03541867
177	0x3db40ec9	0.087918825
178	0x3be4121a	0.0069601657
179	0x3e092b14	0.13395339
180	0x3d929328	0.07156974
181	0xbcfb76c2	-0.030696277
182	0xbd771308	-0.060320884
183	0x3d7c88db	0.061653953
184	0x3d9bc80e	0.07606517
185	0xbd735f8b	-0.05941729
186	0xbd642563	-0.055699717
187	0x3e0024d1	0.12514044
188	0xbd4c8675	-0.049932916
189	0xbd6420e3	-0.055695426
190	0xbd830acb	-0.06398543
191	0x3d258882	0.040413387
192	0x3d9ee80c	0.07759103
193	0xbc219a7f	-0.009863495
194	0x3df0652d	0.11738048
195	0x3ccd48b1	0.025059076
196	0xbd126d95	-0.035749037
197	0x3d8936ee	0.0669993
198	0x3d25a000	0.04043579
199	0x3c793407	0.015210158
200	0x3e050c8c	0.12993068
201	0xbcbf8fba	-0.023383964
202	0x3c3b58d3	0.011434752
203	0xba5d5359	-0.0008442901
204	0x3de5ee8a	0.11227138
205	0xbc104a29	-0.008806744
206	0x3e2cf97e	0.16892049
207	0x3c4bcf60	0.012439579
208	0xbdd51dad	-0.10406051
209	0xbcd219f6	-0.025647145
210	0xbd5db3a1	-0.054126386
211	0x3d83bf3d	0.0643296
212	0xbde5c1c4	-0.112185985
213	0x3d0ed820	0.03487408
214	0xbdbdfe2b	-0.09276994
215	0x3d6100f8	0.054932564
216	0x3d8e7145	0.06955198
217	0xbc6b0456	-0.0143442955
218	0x3e01fc20	0.12693834
219	0xbd1aabd0	-0.03776151
220	0x3cc9c9e3	0.0246324
221	0x3db6fd2e	0.08935009
222	0x3d9c8b38	0.07643741
223	0x3d3685d2	0.044561215
224	0x3e1c2fc3	0.15252595
225	0xbcbf292e	-0.023335066
226	0xbd13df8d	-0.036101867
227	0xbbf72859	-0.0075426516
228	0xbd91107f	-0.070832245
229	0x3d3a2184	0.04544212
230	0x3e02e0d7	0.12781082
231	0x3db29449	0.087196894
232	0x3e27ecf4	0.16398984
233	0x3e1441b2	0.14478186
234	0x3e2ad134	0.16681367
235	0x3e22037a	0.15821639
236	0x3dc39ca7	0.095513634
237	0x3e004238	0.1252526
238	0xbda0a7c3	-0.07844498
239	0x3e0c9bde	0.13731334
240	0xb9ab012e	-0.0003261654
241	0x3d3721a4	0.044709817
242	0x3c34dc89	0.011038908
243	0x3e2063d5	0.15663083
244	0xbda14dd4	-0.07876173
245	0xbdb2b8b0	-0.087266326
246	0xbca3e7e9	-0.020008044
247	0x3d998104	0.07495311
248	0x3d8f47c6	0.069961116
249	0x3d842c26	0.06453733
250	0xbdefb203	-0.11703875
251	0x3d8ded52	0.06930031
252	0xbd3ccc77	-0.04609343
253	0x3bd68d11	0.006547578
254	0x3dcbef3c	0.0995774
255	0x3e259e4c	0.16173667

lstm.weight_hh_l0 f4 [256, 64]
0	0x3ddbc6ea	0.10731299
1	0x3decb3ea	0.115577534
2	0xbdd96178	-0.10614294
3	0xbb484ab1	-0.0030562098
4	0xbd04d04b	-0.032425206
5	0xbd326074	-0.043549016
6	0x3d79b5a6	0.06096425
7	0xbd5d43bd	-0.05401968
8	0xbda4d9dc	-0.08049366
9	0xbdfb6035	-0.122742094
10	0x3db43546	0.087992236
11	0xbbc2577b	-0.0059308386
12	0x3cbf61ab	0.023362001
13	0x3db21c40	0.086967945
14	0xbd99fb6e	-0.075186595
15	0x3d81a8a9	0.063309975
16	0x3cca1907	0.024670137
17	0xbda76012	-0.08172621
18	0xbc2057cb	-0.0097865565
19	0xbdb7f075	-0.089814104
20	0x3dc59dea	0.0964926
21	0x3de0d349	0.109777994
22	0x3db00b56	0.08595912
23	0xbe028147	-0.12744628
24	0x3d8d76d3	0.069074295
25	0xbdb6b65b	-0.089215
26	0xbe075bcc	-0.13218611
27	0xbd410bdf	-0.04713046
28	0xbc6e0ae6	-0.014528966
29	0x3d0bbfd7	0.0341185
30	0xbc068407	-0.008210189
31	0x3db5679f	0.08857655
32	0xbe0d11af	-0.13776277
33	0xbba2a665	-0.0049636834
34	0x3d596104	0.053071037
35	0x3df2e14b	0.118593775
36	0x3c727574	0.014798511
37	0xbde534fc	-0.111917466
38	0xbd2169b6	-0.039407454
39	0xbdcf97a4	-0.10136345
40	0x3cb6c41b	0.022310307
41	0xbdd43e8e	-0.10363494
42	0xbe22e991	-0.15909411
43	0xbc92fc28	-0.017942503
44	0x3d895f5b	0.06707641
45	0xbda8ba0e	-0.08238612
46	0x3dfc0bf3	0.12306967
47	0xbe120def	-0.14263128
48	0x3c8086af	0.015689222
49	0xbc72b25f	-0.014813035
50	0xbbd4a85b	-0.006489796
51	0x3c0ebb6a	0.008711675
52	0x3d271523	0.040791642
53	0x3e0b3b7d	0.13596912
54	0x3dab8dc8	0.08376652
55	0x3dacecce	0.084436044
56	0x3d9f0361	0.07764316
57	0xbdd3df7d	-0.103453614
58	0xbd2dfdb6	-0.042478286
59	0x3c196f2b	0.009364883
60	0x3d51aaf3	0.05118842
61	0xbd0ee9bc	-0.034890875
62	0xbd0f0eb1	-0.03492612
63	0xbb90d17c	-0.0044195037
64	0x3e72ebdd	0.23722787
65	0x3df5320c	0.11972436
66	0xbc798b14	-0.015230913
67	0xbe5ca054	-0.21545535
68	0xbd1b6668	-0.03793946
69	0x3c9bfbf0	0.019041032
70	0x3e47eaea	0.19523206
71	0xbd7da8af	-0.061928447
72	0xbe0b7f06	-0.13622674
73	0x3d058191	0.032594267
74	0x3e1f37fe	0.15548703
75	0x3df8ca0c	0.121479124
76	0x3e098396	0.13429102
77	0x3dffc3a7	0.124884896
78	0x3d8dbbb6	0.06920569
79	0x3d3243c5	0.04352166
80	0x3ce608fd	0.028080458
81	0x3dacddc0	0.08440733
82	0x3d0d5baf	0.034511264
83	0x3e0339df	0.12815045
84	0xbb173619	-0.0023073016
85	0xbcc95a6a	-0.024579246
86	0x3dd8eafb	0.10591694
87	0x3dd76228	0.10516769
88	0x3cf40c19	0.029790925
89	0xbe291d51	-0.1651509
90	0xbe40498d	-0.18778057
91	0xbd81467c	-0.06312272
92	0x3dc960de	0.09832929
93	0x3e2016a5	0.15633638
94	0xbe1871e3	-0.14887194
95	0xbdbbf665	-0.091778554
96	0xbceabb9d	-0.028653914
97	0xbe2a98f8	-0.16659915
98	0x3ccdac39	0.025106536
99	0xbd2b8337	-0.041873183
100	0x3cc6747b	0.024225464
101	0xbe2d76c5	-0.16939838
102	0xbdfbafce	-0.122893915
103	0x3ba9f34b	0.0051864735
104	0xbca3ae18	-0.019980475
105	0xbe039d87	-0.1285306
106	0xbe41d4c2	-0.18928817
107	0xbe229e03	-0.15880589
108	0x3e792816	0.24331698
109	0x3d615897	0.055016126
110	0xbd7b525a	-0.061357833
111	0x3dd735b8	0.10508293
112	0x3d5cf265	0.053942103
113	0x3e22e3b9	0.15907182
114	0xbd4d83e5	-0.050174613
115	0xbe305448	-0.17219651
116	0x3c90e887	0.017689003
117	0xbc25581d	-0.010091809
118	0xbe2c9096	-0.1685203
119	0x3ce04d9b	0.027380755
120	0x3d6fc81c	0.05854045
121	0xbddddb59	-0.10832853
122	0x3d2b0051	0.04174835
123	0xbdc2a399	-0.0950386
124	0xbde8b33a	-0.1136231
125	0x3c388572	0.011262285
126	0xbe0976b1	-0.13424183
127	0xbd61fda4	-0.05517353
128	0x3c83a1d9	0.016068386
129	0xbdd58256	-0.1042525
130	0x3e0c4fd0	0.13702321
131	0xbbef782e	-0.0073080277
132	0x3d88be88	0.06676966
133	0xbdd9b568	-0.106303036
134	0x3d972d30	0.07381666
135	0x3ccf6e40	0.025321126
136	0x3dd9205f	0.106018774
137	0xbd85d78f	-0.06535255
138	0xbbae83e9	-0.0053257835
139	0x3d8ab014	0.067718655
140	0x3da3c0cc	0.079957575
141	0x3ccfab80	0.025350332
142	0x3ddb3223	0.10702922
143	0xbd79dcf2	-0.061001725
144	0xbd96cc8a	-0.073632315
145	0xbd37db99	-0.04488716
146	0xbdadd58d	-0.08487997
147	0x3d937d53	0.07201638
148	0x3dcd6da8	0.10030681
149	0x3df7c5fd	0.1209831
150	0x3cfa22b5	0.030534128
151	0xbd49a6e9	-0.049231444
152	0xbca2b776	-0.019862872
153	0xbc59912b	-0.01327924
154	0xbb728d4d	-0.0037010491
155	0xbdc2e747	-0.09516769
156	0xbdd85293	-0.10562625
157	0x3d8b292e	0.06794964
158	0x3d853b68	0.065054715
159	0x3dab62ca	0.08368452
160	0xbd5b8fd6	-0.05360397
161	0x3de344de	0.1109712
162	0x3dddb0cb	0.10824736
163	0xbe0a6de9	-0.1351849
164	0x3d80b61e	0.06284736
165	0xbc864c04	-0.016393669
166	0x3e1485cf	0.14504169
167	0x3d243732	0.0400917
168	0x3e1107af	0.14163087
169	0x3d6f9cd3	0.05849917
170	0xbdb2fbf1	-0.0873946
171	0xbc67377c	-0.01411235
172	0xbb8e314a	-0.004339372
173	0x3d3f10d1	0.046646897
174	0x3dcda9aa	0.100421265
175	0x3db113e6	0.086463735
176	0xbd0d0cca	-0.034436025
177	0xbd1e6460	-0.038669944
178	0xbd637ca4	-0.05553879
179	0x3d7e683b	0.06211112
180	0xbd278359	-0.040896747
181	0xbd5e962b	-0.05434243
182	0xbd9263fd	-0.071479775
183	0xbc296c23	-0.010340723
184	0xbd9f6683	-0.077832244
185	0x3cb59b68	0.02216883
186	0x3d1f754d	0.038930226
187	0xbd814cff	-0.06313514
188	0x3dbf2895	0.09333912
189	0xbc867a82	-0.016415838
190	0x3cdfe552	0.027331028
191	0xbda954fd	-0.08268163
192	0xbd497e15	-0.049192507
193	0x3dfd7a1f	0.123768084
194	0x3ddba296	0.1072437
195	0x3d051d16	0.03249844
196	0x3dde3943	0.108507656
197	0x3dd6faaf	0.10497033
198	0xbe036d96	-0.12834772
199	0x3de3f771	0.1113118
200	0x3b79e2ef	0.0038129648
201	0xbbbee1dd	-0.005825265
202	0xbd9124f8	-0.07087129
203	0x3dc6d340	0.097082615
204	0x3d78d5fd	0.06075095
205	0xbdd34746	-0.10316329
206	0x3d2f0dda	0.04273782
207	0xbd245e2d	-0.040128876
208	0x3e1bf03a	0.15228358
209	0xbdddab01	-0.10823632
210	0xbd9eb4f9	-0.077493615
211	0xbd102426	-0.035190724
212	0x3dc6f2ff	0.097143166
213	0xbd177202	-0.03697396
214	0x3d1e0540	0.038579226
215	0xbd5224d4	-0.051304653
216	0x3d9b93b4	0.075965315
217	0x3df0c983	0.11757185
218	0xbdbff2f2	-0.0937251
219	0xbe135f7e	-0.14391896
220	0x3dd38582	0.10328199
221	0x3d514c21	0.051097993
222	0x3dcc9175	0.09988681
223	0x3dc7f16c	0.097628444
224	0x3d5b5290	0.053545535
225	0x3ce539ff	0.027981756
226	0x3d2e3db5	0.042539317
227	0x3e1fa4d5	0.15590222
228	0xbdc365e5	-0.09540919
229	0x3dd0375e	0.101668105
230	0xbdc9eeee	-0.09860025
231	0xbc9cb5b8	-0.019129619
232	0x3db30307	0.08740812
233	0xbdbc30ab	-0.0918897
234	0xbe3a3dec	-0.18187684
235	0xbd55a0c6	-0.05215528
236	0xbd8ec5a6	-0.06971292
237	0x3da857d7	0.08219879
238	0xbdd82aec	-0.10555062
239	0xbe04bc24	-0.12962395
240	0xbe03d7c3	-0.12875275
241	0x3d8bb46f	0.06821524
242	0xbdc43361	-0.09580112
243	0x3e061da8	0.1309725
244	0xbe64e988	-0.2235471
245	0xbd10476f	-0.035224374
246	0x3e05d706	0.13070306
247	0xbdd3b40c	-0.103370756
248	0xbd6edbee	-0.05831521
249	0x3d1dd8cd	0.038536835
250	0xbd9e34a5	-0.07724885
251	0xbd375c91	-0.044766013
252	0xbdef2f52	-0.116789475
253	0xbd95eb2c	-0.07320246
254	0xbdbf1959	-0.093310066
255	0x3d9f777c	0.07786462

lstm.bias_ih_l0 f4 [256]
0	0x3d712e21	0.058881883
1	0xba3b8218	-0.00071528694
2	0x3dfb0b4d	0.12258015
3	0x3e12fd5a	0.14354458
4	0xbd098da6	-0.033582352
5	0x3d170764	0.036872283
6	0x3df6b06e	0.1204537
7	0x3d10bd20	0.035336614
8	0x3e6a9ce2	0.22911409
9	0xbd2310b3	-0.039810847
10	0x3e048662	0.12941888
11	0x3dfa231d	0.122137286
12	0x3d7ca271	0.061678354
13	0x3da7689a	0.08174248
14	0x3c4a9f32	0.012367057
15	0xbd823f21	-0.06359697
16	0x3ce3fecb	0.027831456
17	0x3ca58d56	0.020208996
18	0x3d8bd3de	0.0682752
19	0xbdadc85e	-0.08485483
20	0x3c1e9105	0.00967813
21	0xbe02524f	-0.1272671
22	0x3dc588f0	0.096452594
23	0x3d018127	0.03161731
24	0xbde27691	-0.11057771
25	0xbd815524	-0.063150674
26	0x3c353b71	0.011061535
27	0x3cedc8c5	0.029026398
28	0xbc3d0cf7	-0.011538736
29	0xbda78a3c	-0.08180663
30	0x3d7b1278	0.06129691
31	0x3c4f4ac5	0.012652104
32	0x3bf4bdf7	0.0074689346
33	0x3d5fb688	0.054617435
34	0xbd54db37	-0.051966872
35	0xbdd30bf8	-0.10305017
36	0x3d91abc7	0.07112842
37	0x3d57101e	0.052505605
38	0x3e1580e0	0.14599943
39	0xbde346c0	-0.11097479
40	0x3cd66731	0.026172252
41	0x3c40ab93	0.0117596565
42	0x3e10b3fd	0.1413116
43	0xbb3a789a	-0.0028453232
44	0x3c0eb26f	0.008709534
45	0x3db892f4	0.09012404
46	0x3d577e5c	0.05261074
47	0x3d6ef25b	0.058336597
48	0x3e06468f	0.13112853
49	0xbced3da7	-0.028960062
50	0x3d78d083	0.060745727
51	0x3dbaefef	0.09127795
52	0xbdaea9b4	-0.08528462
53	0xbd449569	-0.04799405
54	0x3d2e388b	0.042534392
55	0xbc5ee53e	-0.01360446
56	0xbdeaaebf	-0.114591114
57	0x3de261e3	0.11053827
58	0xbd636761	-0.05551851
59	0xbd8e7409	-0.06955726
60	0x3d007be8	0.031368166
61	0xbd1230de	-0.035691135
62	0x3d2cfef7	0.04223534
63	0xbde3657e	-0.111033425
64	0x3c1eafee	0.0096855
65	0x3d9b2858	0.07576054
66	0xbda42b88	-0.080161154
67	0xbbe1887e	-0.006882726
68	0xbce6d214	-0.028176345
69	0xbd2fc21f	-0.042909738
70	0x3de422cd	0.1113945
71	0x3ac42b0f	0.0014966446
72	0xbcd04c23	-0.02542693
73	0xbb0cc321	-0.002147861
74	0x3dd5ae5d	0.10433648
75	0xbdd2fee8	-0.10302526
76	0x3d8d3376	0.06894581
77	0xbccbfaa8	-0.024899796
78	0x3d7d3bb7	0.061824527
79	0xbddf9e02	-0.109188095
80	0x3e178c69	0.14799656
81	0x3da6dead	0.08147941
82	0xbc8aec42	-0.01695836
83	0xbdb7cdf4	-0.08974829
84	0xbdf9996d	-0.12187467
85	0xba159dd2	-0.0005707416
86	0xbdbd90fc	-0.09256169
87	0x3b07fda4	0.0020750547
88	0xbdc202fd	-0.09473226
89	0xbb7bb2c6	-0.0038406118
90	0xbce5d318	-0.028054759
91	0x3b338fb3	0.0027398884
92	0x3daa3ed7	0.08312767
93	0x3cddb03a	0.02706157
94	0xbdaa4c05	-0.08315281
95	0xbde16986	-0.11006455
96	0x3da623aa	0.08112271
97	0x3c875775	0.016521195
98	0x3d9960ea	0.07489188
99	0xbdc9b5f6	-0.098491594
100	0x3c84b0d1	0.016197594
101	0x3dc5ef95	0.09664837
102	0x3defd30c	0.11710176
103	0x3ddb31a6	0.10702829
104	0x3dce9488	0.10086924
105	0x3dd9184c	0.106003374
106	0xbc5ee3b8	-0.013604097
107	0x3b28892e	0.002571653
108	0xbd57e34d	-0.052707005
109	0xbd30f93a	-0.04320643
110	0x3db48196	0.08813779
111	0x3d9ddc51	0.07708038
112	0xbc062822	-0.008188279
113	0xbd804980	-0.06264019
114	0xbc9d4ebd	-0.019202584
115	0x3c5724b4	0.013131309
116	0xbdc4c5f3	-0.09608068
117	0xbdb9b5c2	-0.09067871
118	0xbc3f4270	-0.011673555
119	0x3d4bf738	0.049796313
120	0x3d801510	0.06254017
121	0x3d6a028c	0.057131335
122	0xbcd35327	-0.025796486
123	0x3cd32ae1	0.025777282
124	0x3d31811e	0.043336026
125	0xbc5a2e6d	-0.013316733
126	0xbc98b47e	-0.018640753
127	0xbd1ffd78	-0.039060086
128	0xbc8336ee	-0.016017403
129	0x3c2e7e7e	0.010650275
130	0x3d1fb50c	0.03899102
131	0x3cb99ded	0.022658313
132	0xbd2d989d	-0.04238187
133	0xbdd2ba71	-0.10289467
134	0x3df9d158	0.12198132
135	0xbc5444fb	-0.012955899
136	0x38284e85	4.012745e-05
137	0xbdd21f99	-0.10259933
138	0xbbdb761b	-0.006697429
139	0x3ddb59d5	0.107104935
140	0xbdbad84b	-0.09123286
141	0x3d97d89a	0.0741436
142	0x3c9ea667	0.019366456
143	0x3cbbb077	0.022911293
144	0x3de6c166	0.112673566
145	0xbc7b78da	-0.0153486375
146	0x3d7e1bff	0.062038418
147	0x3da41d1c	0.08013365
148	0x3d8cbea5	0.068723
149	0x3ba41d8e	0.005008406
150	0xbdad5991	-0.08464349
151	0x3cf2e351	0.029649409
152	0xbdb322b0	-0.087468505
153	0x3cc7ec72	0.024404738
154	0x3d472a4a	0.048624314
155	0xbbdd1d14	-0.006747851
156	0x3c3be576	0.011468282
157	0x3dd96527	0.106149964
158	0x3deeb770	0.11656082
159	0xbd526c24	-0.051372662
160	0xbd9b3d84	-0.075800925
161	0x390bd89f	0.0001333677
162	0x3d293589	0.04131082
163	0x3d7a6753	0.061133694
164	0xbd4ea171	-0.05044693
165	0xbd9b76d5	-0.07591025
166	0xbd041054	-0.032242134
167	0xbdb4f322	-0.088354364
168	0x3da31102	0.07962228
169	0x3d214036	0.039367877
170	0xbd58c22a	-0.052919544
171	0x3d1db55c	0.038503036
172	0xbdc8dd97	-0.0980789
173	0x3dda3bde	0.1065595
174	0x3cb4144b	0.021982333
175	0xbd0215b7	-0.03175899
176	0x3aa7f35c	0.0012813616
177	0x3d1d4934	0.03839989
178	0x3dc97fd8	0.098388374
179	0x3d2bcb31	0.041941825
180	0xbdd042c4	-0.101689845
181	0x3d6a6281	0.057222847
182	0x3d18f87b	0.037346344
183	0xbdb68a3b	-0.08913084
184	0x3dee2cf8	0.11629671
185	0xbcff2509	-0.03114559
186	0xbcaad2b1	-0.020852419
187	0x3de54223	0.11194255
188	0x3ce775b2	0.028254364
189	0x3d84ad18	0.064783275
190	0xbd847d8f	-0.06469261
191	0xbdbc24a2	-0.09186675
192	0x3e0d9b93	0.13828878
193	0xbd07bfc3	-0.033141863
194	0x3d0e5955	0.034753162
195	0x3e07036c	0.13184899
196	0x3cbbfb90	0.022947103
197	0x3d9695a1	0.07352758
198	0xbda0d95e	-0.078539595
199	0x3d4b2a5a	0.049600936
200	0x3d87ddc7	0.066340975
201	0xbb731981	-0.003709406
202	0xbd91d4f7	-0.07120698
203	0xbddb9ca4	-0.10723236
204	0xbcc70ab3	-0.024297094
205	0x3d679eb5	0.05654784
206	0xbd78a5f0	-0.060705125
207	0xbdf669b9	-0.12031884
208	0xbc6a504d	-0.014301372
209	0xbe07de65	-0.1326843
210	0x3dc6630d	0.09686861
211	0xbd93e9e2	-0.07222344
212	0xbb22a3c2	-0.0024816846
213	0x3d9ccf00	0.076566696
214	0xbcbbf3ab	-0.022943338
215	0xbd4639ca	-0.048394956
216	0xbd36c089	-0.04461721
217	0x3dc4a071	0.09600914
218	0x3de33092	0.110932484
219	0x3dbb35d9	0.0914113
220	0x3c4e658a	0.012597451
221	0x3c67958a	0.014134774
222	0xbcdc1560	-0.026865661
223	0xbd378eab	-0.044813793
224	0xbba71ad8	-0.0050996356
225	0xbdeb4b8f	-0.11489021
226	0xbd76a007	-0.060211208
227	0x3ccf9520	0.025339663
228	0x3dd024c1	0.1016326
229	0xbb6ad6c7	-0.0035833584
230	0xbd571d0c	-0.052517936
231	0xbae0e09e	-0.0017156785
232	0xbd93ed06	-0.07222943
233	0x3e112a1f	0.14176224
234	0xbcb86710	-0.022510082
235	0x3e04d207	0.12970744
236	0x3d181005	0.037124652
237	0xbcd3dad6	-0.025861185
238	0x3d44d435	0.04805394
239	0xbd21351d	-0.039357293
240	0xbdae5dee	-0.085140094
241	0x3de140ff	0.10998725
242	0xbd9f7419	-0.07785816
243	0xbdc8fe62	-0.09814145
244	0xbb9121c9	-0.0044290763
245	0xbcbe08ef	-0.02319762
246	0x3d511d18	0.051053137
247	0xbd82cd38	-0.063867986
248	0x3d72f04c	0.059311196
249	0xbda14bb9	-0.07875771
250	0xbc0d7d70	-0.008635864
251	0x3df4c20d	0.11951075
252	0xbd3ca5c3	-0.04605652
253	0xbd011a4d	-0.031519223
254	0x3c9bfc67	0.019041253
255	0x3de5aab4	0.112142

lstm.bias_hh_l0 f4 [256]
0	0x3d4e4e19	0.05036745
1	0xbd6d2bf4	-0.057903245
2	0xbd184928	-0.037179142
3	0xbdab18a6	-0.08354311
4	0x3df0f167	0.11764794
5	0x3d5e284d	0.054237653
6	0x3dadecea	0.084924534
7	0x3dd0dd0a	0.1019841
8	0x3e24d41a	0.16096535
9	0xbd7afa68	-0.061273962
10	0xbc4b5f8c	-0.012412917
11	0xbbd0989c	-0.0063658487
12	0xbddd9286	-0.10818963
13	0x3d8f7d7c	0.07006356
14	0x3e0865da	0.13320103
15	0x3dcc01d1	0.09961284
16	0xbbe0bd36	-0.006858493
17	0xbd4b56f2	-0.049643464
18	0x3dcbf90c	0.09959611
19	0x3d54da9f	0.051966306
20	0x3dd3a2c8	0.103337824
21	0xbd6fae74	-0.05851598
22	0xbd11f66a	-0.03563539
23	0xbd899378	-0.067175806
24	0x3d9d4acf	0.07680284
25	0xbddda2ca	-0.10822065
26	0x3e162766	0.14663467
27	0xbd495bb4	-0.04915972
28	0x3dd1a604	0.10236743
29	0x3d2e7643	0.042593252
30	0x3e05e8ba	0.1307706
31	0x3de432bc	0.11142489
32	0xbd88f9f0	-0.06688297
33	0xbd8e3ba7	-0.069449715
34	0x3b662f34	0.003512335
35	0xbd526c1d	-0.051372636
36	0xbd9dffd3	-0.0771481
37	0xbd492236	-0.04910489
38	0x3d91fab5	0.07127897
39	0xbc90ab84	-0.01765991
40	0xbd7a1683	-0.061056625
41	0x3d91d089	0.07119853
42	0x3cfed441	0.03110707
43	0x3de5bad3	0.112172745
44	0x3d573e9c	0.052549943
45	0xbd99682a	-0.07490571
46	0xbd0deafe	-0.034647934
47	0xbb1074cb	-0.002204227
48	0x3de7e9f0	0.11323917
49	0xbcf4df60	-0.02989167
50	0x3d3ae177	0.045625176
51	0xbd5ef97e	-0.054437153
52	0x3dffed8c	0.1249648
53	0xbdc56ae2	-0.09639527
54	0xbdbcfbab	-0.09227689
55	0x3d8c275e	0.06843446
56	0xbd51b707	-0.05119994
57	0xbd5df4fa	-0.054188706
58	0xbda6e329	-0.08148796
59	0x3d4eacdc	0.05045782
60	0x3d888c87	0.066674285
61	0x3d60c2ad	0.054873157
62	0x3d6cc14b	0.057801526
63	0xbdc4ab32	-0.096029654
64	0x3daedfee	0.08538805
65	0xbd5883d2	-0.05286009
66	0xbc70c1f0	-0.014694676
67	0x3dc15bf0	0.09441364
68	0xbde121ec	-0.10992798
69	0xbd6cf9cb	-0.05785541
70	0xbd1d07f4	-0.038337663
71	0xbd47cf38	-0.048781604
72	0x3dbfd163	0.09366109
73	0x3de9f99a	0.11424561
74	0xbddc737d	-0.10764215
75	0xbbc2fdea	-0.005950679
76	0x3d76136a	0.06007711
77	0xbd0e71b5	-0.03477641
78	0x3d3428ae	0.043984108
79	0xbc8f7546	-0.017511975
80	0x3d39fd2d	0.045407463
81	0x3de845eb	0.11341461
82	0xbc91962e	-0.017771807
83	0x3d745069	0.059646998
84	0xbd30328a	-0.043016948
85	0xbd268002	-0.04064942
86	0x3e03573e	0.12826249
87	0xbd96831d	-0.073492266
88	0xbddae9e7	-0.106891446
89	0x3dd4212b	0.10357889
90	0xbd0d484e	-0.034492783
91	0xbcf6d4bb	-0.030130735
92	0x3d96ef85	0.073699035
93	0x3db1990d	0.0867177
94	0x3d6ae9d0	0.057351887
95	0x3d8b9e48	0.06817299
96	0x3c138315	0.00900342
97	0x3d2d59a4	0.042321816
98	0x3d4d275e	0.05008637
99	0xbdea8eda	-0.11453028
100	0x3d876472	0.06610955
101	0xbd983f5f	-0.07433962
102	0x3e089dc5	0.13341434
103	0xbb0bba9c	-0.0021320945
104	0x3d291bd8	0.04128632
105	0xbd10fdad	-0.035398174
106	0x3dc527f7	0.09626763
107	0xbca23103	-0.019798761
108	0x3bf64c56	0.007516424
109	0xbdc69dcc	-0.09698066
110	0xbc83e1d1	-0.016098889
111	0xbdd58f9d	-0.10427783
112	0x3d6e4d67	0.058179285
113	0xbc76c430	-0.015061423
114	0xbd8f27bf	-0.06990003
115	0x3ca03a79	0.019559132
116	0xbdad27d7	-0.084548645
117	0x3d8e34c6	0.069436595
118	0xbdf45362	-0.119299665
119	0x3da2fe23	0.07958629
120	0x3d8a584c	0.067551225
121	0x3d83742f	0.06418645
122	0x3ddba912	0.10725607
123	0x3dc7d439	0.09757275
124	0xbd909bd2	-0.0706097
125	0x3d822254	0.06354204
126	0x3db6bfc3	0.089232944
127	0xbdf312e3	-0.11868837
128	0x3d927039	0.07150311
129	0x3d8584b9	0.065194555
130	0x3d82b1de	0.06381582
131	0xbdffa14d	-0.124819376
132	0x3df1a454	0.11798921
133	0xbd963a3f	-0.07335328
134	0xbdc53916	-0.09630029
135	0xbc20ae91	-0.009807245
136	0xbd58877c	-0.052863583
137	0x3dc9f19f	0.09860539
138	0x3d9dcff3	0.07705679
139	0xbc7f7496	-0.015591761
140	0x3da82973	0.08211031
141	0xbd2b0590	-0.04175335
142	0xbd5b48bd	-0.053536166
143	0xbca52a91	-0.020161899
144	0xbd459805	-0.04824068
145	0x3db63ab1	0.08897913
146	0x3d8af51d	0.06785033
147	0xbd36c8a2	-0.044624932
148	0x3cf055fe	0.02933788
149	0x3da2ce64	0.07949522
150	0x3d8a0731	0.06739653
151	0xbd3e2d56	-0.046429954
152	0x3d90981b	0.07060262
153	0x3dcc09ad	0.09962783
154	0xbde3b6d0	-0.11118853
155	0x3d07e2fd	0.033175457
156	0x3d9c82bc	0.07642123
157	0x3d09b17e	0.033616535
158	0x3d99904a	0.07498224
159	0xbda5f36f	-0.08103072
160	0xbdc877d6	-0.09788482
161	0x3d9f5c68	0.07781297
162	0x3d9b52ea	0.07584174
163	0x3d61ade7	0.055097487
164	0xbd0ac0af	-0.033875164
165	0x3d0614d0	0.032734692
166	0x3d9cc2ed	0.07654367
167	0xbdda2de0	-0.10653281
168	0xbda909e8	-0.082538426
169	0xbcb664ca	-0.022264857
170	0x3d9a6f48	0.075407565
171	0x3d13d9e8	0.036096483
172	0x3e0731a0	0.13202524
173	0x3d8b520a	0.06802757
174	0xbd263571	-0.04057831
175	0xbdbd9976	-0.09257786
176	0xbde216ca	-0.11039503
177	0xbda54c1e	-0.08071159
178	0x3aeeee63	0.0018229004
179	0x3d64466d	0.055731226
180	0xbc899161	-0.016792955
181	0x3dc0e664	0.094189435
182	0x3c535167	0.012897826
183	0x3dd0cd6b	0.1019543
184	0xbd64f50e	-0.055897765
185	0x3db8ed55	0.090296425
186	0xbd3c18f5	-0.04592224
187	0xbd663981	-0.056207184
188	0x3c48ee78	0.012263887
189	0xbd635f7f	-0.055510994
190	0x3bc3d784	0.005976619
191	0xbd9f31c0	-0.07773161
192	0x3d92eb9e	0.07173847
193	0x3d9beeaf	0.07613885
194	0xbde26d9d	-0.11056063
195	0xbdac9291	-0.08426393
196	0x3deaecce	0.11470948
197	0x3db47471	0.08811272
198	0x3df39026	0.118927285
199	0xbd63621e	-0.055513494
200	0x3e18b3a6	0.1491228
201	0xbc7a6a8f	-0.015284195
202	0x3e0d9f66	0.13830337
203	0x3df99efa	0.121885255
204	0x3dd32b0c	0.10310945
205	0xbcb7c43a	-0.022432435
206	0x3d8c7fcf	0.06860315
207	0xbd76ab82	-0.060222156
208	0x3e329d46	0.17442808
209	0xbde824b4	-0.113351256
210	0xb9f7d7db	-0.00047272336
211	0xbdb563c0	-0.088569164
212	0xbceb9d3d	-0.0287615
213	0xbd4fd425	-0.050739426
214	0xbc8571b9	-0.016289579
215	0x3bf2a5e0	0.0074050277
216	0x3dfc4e16	0.12319581
217	0xbde5ff9b	-0.112303935
218	0xbd322291	-0.043489996
219	0x3b99eb1f	0.004697218
220	0x3e26d0d4	0.16290599
221	0x3c110cfc	0.008853193
222	0xbd4f290f	-0.050576266
223	0xbd9cb9ae	-0.07652603
224	0xbdebcbd8	-0.115134895
225	0x3de2e445	0.11078695
226	0xbdc22ea9	-0.09481556
227	0x3cdf3a44	0.027249463
228	0xbda483ed	-0.08032975
229	0xbd97071a	-0.073744014
230	0x3cadce51	0.021216543
231	0x3d21e4f2	0.03952498
232	0xbdc9766c	-0.0983704
233	0x3a83e09f	0.0010061449
234	0x3dea30a4	0.11435059
235	0xbd4bb258	-0.04973063
236	0x3e44a1d5	0.19202359
237	0x3dc2512b	0.09488138
238	0xbcf4241e	-0.029802378
239	0xbda83d78	-0.08214849
240	0xbdbe84b8	-0.09302658
241	0x3bee7201	0.007276774
242	0x3d943a97	0.072377376
243	0xbcdd6c23	-0.027029103
244	0x3da7fab0	0.08202112
245	0xbd18eed2	-0.03733713
246	0x3d506570	0.05087799
247	0xbd987ac4	-0.07445291
248	0xbda0645b	-0.07831641
249	0x3d24731e	0.040148847
250	0xbda55c8f	-0.08074295
251	0xbd8ef4c0	-0.06980276
252	0xbd90e818	-0.07075518
253	0xbd7dc5b3	-0.06195612
254	0x3d6d7359	0.057971332
255	0x3d26a60c	0.0406857

lstm.weight_ih_l1 f4 [256, 64]
0	0x3d4d5b6c	0.050136015
1	0xbd784c46	-0.060619615
2	0xbd91806f	-0.07104575
3	0x3dfe9fc4	0.124328166
4	0x3dd73391	0.105078824
5	0xbe0d40c6	-0.1379424
6	0xbdd7a9cb	-0.10530432
7	0xbdca55e8	-0.098796666
8	0xbc796389	-0.015221485
9	0x3d895e2f	0.06707417
10	0xbe1af73f	-0.1513338
11	0xbda8b27d	-0.08237169
12	0x3d9c07fb	0.0761871
13	0xbdc12ea6	-0.094327256
14	0xbc24772a	-0.010038177
15	0xbdba41a5	-0.09094552
16	0x3c74381d	0.014905957
17	0xbdc406a0	-0.09571576
18	0x3a5bfe16	0.0008392049
19	0x3d09c02a	0.033630528
20	0x3de99af0	0.11406505
21	0xbda145e3	-0.07874658
22	0xbd9f8cf5	-0.07790557
23	0xbb3c434b	-0.0028726633
24	0x3d90619a	0.07049866
25	0xbcad4a93	-0.021153724
26	0x3ce14b69	0.027501779
27	0x3db3d0ac	0.087800354
28	0x3cc28276	0.02374385
29	0xbdee7952	-0.11644234
30	0xbd8eba9e	-0.06969188
31	0x3d9fefb9	0.07809395
32	0xbb3347ef	-0.0027356108
33	0x3d850bab	0.06496366
34	0x3e0df9c5	0.13864811
35	0x3db4928b	0.08817013
36	0x3dc736d0	0.097272515
37	0x3def489e	0.116837725
38	0xbd270086	-0.040771984
39	0xbdab0f8a	-0.08352573
40	0x3e0b24c1	0.13588239
41	0x3e02a12f	0.12756799
42	0x3dd12e23	0.10213878
43	0x3dc76577	0.0973615
44	0xbd97f166	-0.0741909
45	0x3d8cb6f2	0.068708315
46	0x3d9ef10b	0.07760819
47	0xbcf1d90f	-0.029522447
48	0x3dbbc76d	0.09168897
49	0x3d9389b9	0.07204003
50	0x3d639517	0.055562105
51	0x3d83bcdf	0.06432509
52	0x3ca30ba8	0.01990302
53	0xbca73436	-0.020410638
54	0x3d1d37d5	0.038383324
55	0x3cd334ca	0.025782008
56	0xbd3f438f	-0.04669529
57	0x3de119d1	0.10991252
58	0xbe0e7611	-0.13912226
59	0x3d80feae	0.06298576
60	0xbd465136	-0.048417293
61	0x3d39f906	0.045403503
62	0x3d50dcec	0.050991938
63	0xbd90e280	-0.070744514
64	0xbda022f4	-0.07819167
65	0x3d8aeb25	0.067831315
66	0x3d8256fe	0.06364249
67	0x3dd1085d	0.10206673
68	0x3cfcc1d1	0.030854138
69	0x3d872d09	0.06600387
70	0xbd962fb2	-0.07333316
71	0x3c511934	0.012762357
72	0x3e0ff10e	0.14056799
73	0xbe191ad4	-0.1495164
74	0x3d23a61a	0.03995333
75	0xbd1b7856	-0.03795656
76	0xbb8d891c	-0.004319323
77	0x3cc2eb88	0.02379395
78	0xbdae32cc	-0.085057825
79	0xbdc56b3e	-0.096395954
80	0xbd1ed997	-0.03878173
81	0xbd7424ed	-0.059605528
82	0xbe2b0cf0	-0.16704154
83	0x3dc82c4c	0.09774074
84	0xbd7c473f	-0.061591383
85	0x3d443411	0.047901217
86	0xbc07a74f	-0.008279636
87	0xbe33fbf4	-0.17576581
88	0xbdd2a4c4	-0.10285333
89	0x3db6c1e0	0.089236975
90	0xbc27c4a7	-0.010239757
91	0xbe004315	-0.1252559
92	0xbe58e5fb	-0.2118148
93	0xbdf916bb	-0.121625386
94	0x3d52160a	0.05129055
95	0xbe009e39	-0.12560357
96	0xbcec5a64	-0.028851695
97	0xbbe01246	-0.006838116
98	0xbd483d29	-0.048886452
99	0x3d8665c2	0.065623775
100	0xbd55db76	-0.052211247
101	0x3e27f290	0.16401124
102	0x3e237044	0.15960795
103	0xbcc2d809	-0.023784654
104	0x3bf9c1c9	0.007621978
105	0x3d826030	0.063660026
106	0x3e1c3580	0.15254784
107	0x3baa87c7	0.005204174
108	0xbcbe6c74	-0.023245074
109	0xbc461ffb	-0.012092586
110	0x3bfd254a	0.0077253925
111	0xbd467104	-0.048447624
112	0xbdad300f	-0.08456432
113	0xbe14539b	-0.14485018
114	0x3d3b89c8	0.045785695
115	0x3d282979	0.041055176
116	0x3c4a2c66	0.012339687
117	0x3dd160d3	0.10223546
118	0x3d8a5470	0.067543864
119	0x3c55f7a8	0.013059534
120	0xbc47ef7e	-0.0122030955
121	0x3dfec4fa	0.12439914
122	0xbd2f3d4d	-0.04278307
123	0x3dda0d21	0.106470354
124	0x3aa64f1a	0.0012688369
125	0x3dbd4140	0.09240961
126	0x3c563c96	0.013075968
127	0xbc223a62	-0.009901615
128	0x3bc9547e	0.0061441055
129	0xbdbff738	-0.09373325
130	0x3d838f76	0.064238474
131	0xbd7ca756	-0.06168302
132	0xbcdbb31f	-0.02681881
133	0xbdb0026d	-0.08594213
134	0xbdd9a987	-0.10628038
135	0x3c1b3e30	0.009475276
136	0xbcf77497	-0.030206962
137	0xbd0b9fb8	-0.034087867
138	0x3cf65f5d	0.03007477
139	0xbdbce15b	-0.09222671
140	0xbd84c1e4	-0.06482294
141	0xbddb1a57	-0.10698383
142	0xbba59a1c	-0.0050537717
143	0xbd4ccabf	-0.04999804
144	0x3d916d3e	0.071009144
145	0x3d654a3c	0.055979
146	0xbd0e4578	-0.03473422
147	0x3b31af6f	0.0027112623
148	0xbd3e6930	-0.046487033
149	0x3cd2ab35	0.025716403
150	0x3cb00ed9	0.021491455
151	0xbd61bb6a	-0.055110373
152	0x3da17a3a	0.07884641
153	0x3cde2bfc	0.027120583
154	0x3e15e9af	0.14639924
155	0xbe02c384	-0.12769896
156	0xbdcef900	-0.10106087
157	0x3d4250d6	0.047440372
158	0xbd41415f	-0.047181483
159	0xbce513af	-0.027963487
160	0x3de99cc3	0.11406853
161	0xbcf66f23	-0.030082291
162	0x3dc9d295	0.098546185
163	0xbd166026	-0.036712788
164	0x3d7ed5ed	0.062215734
165	0x3d033fd2	0.032043286
166	0x3e054166	0.13013229
167	0xbd6057c5	-0.054771204
168	0xbd95235f	-0.07282137
169	0xbd958d6f	-0.07302367
170	0x3def5a37	0.11687129
171	0x3d2d7f6c	0.042357847
172	0xbe2ec8af	-0.17068742
173	0xbd1cf930	-0.03832358
174	0xbbbc93b3	-0.005754912
175	0x3dcca797	0.09992903
176	0x3df04476	0.11731808
177	0x3d2dcd82	0.042432316
178	0xbdbe1c29	-0.09282715
179	0xbc40bfbb	-0.011764462
180	0x3da3d788	0.08000094
181	0xbc97c301	-0.018525602
182	0x3c707e9a	0.014678622
183	0xbde6eb67	-0.11275368
184	0x3e0ba424	0.13636833
185	0x3cd44610	0.025912315
186	0x3d320098	0.043457597
187	0x3ce9b99b	0.028530886
188	0xbc374d31	-0.011187837
189	0xbdcb5214	-0.099277645
190	0x3c6cbf0e	0.014449848
191	0xbd01f211	-0.031724993
192	0xbda9f0e6	-0.08297901
193	0xbde3c1c7	-0.111209445
194	0x3cc691a0	0.024239361
195	0x3e16f42d	0.14741583
196	0x3e0ffe09	0.1406175
197	0xbe04f22b	-0.12983005
198	0xbcc8e9f6	-0.024525624
199	0xbdd44db9	-0.10366387
200	0xbd862a7e	-0.065510735
201	0xbdca8393	-0.09888377
202	0xbdf96a1d	-0.121784426
203	0xbceb72ee	-0.028741326
204	0xbd921045	-0.071320094
205	0x3d5e13b1	0.054217998
206	0xbdcc6d57	-0.099817924
207	0xbd3a95b5	-0.045552928
208	0xbdddf7d8	-0.10838288
209	0xbd46c772	-0.04853005
210	0x3d5a6b11	0.053324763
211	0xbd92a53b	-0.071604215
212	0xbdcc78fc	-0.099840134
213	0xbdcc0df7	-0.09963601
214	0xbd8af4bc	-0.06784961
215	0xbe27cd71	-0.16386963
216	0xbd723c20	-0.05913937
217	0x3cf756fd	0.030192846
218	0x3d876f56	0.066130325
219	0xbdbd1bee	-0.09233843
220	0x3c9d6e00	0.019217491
221	0x3dcc33ed	0.099708416
222	0xbc7968e7	-0.015222765
223	0x3d484f44	0.04890372
224	0x3db41bf2	0.08794393
225	0xbdb6abeb	-0.089195095
226	0x3d7e33b9	0.062061045
227	0xbd2be33f	-0.041964766
228	0xbd589c1a	-0.052883245
229	0x3db014fb	0.08597752
230	0xbd48925a	-0.048967697
231	0x3c952ef8	0.018210873
232	0xbd428824	-0.047493115
233	0x3dfeaaa1	0.12434889
234	0xbd0ec847	-0.034858968
235	0xbdc31d88	-0.09527117
236	0xbe36aa5b	-0.17838423
237	0x3dd1f2c5	0.10251383
238	0x3bf56fe8	0.007490147
239	0x3d088ba7	0.033336308
240	0x3d990753	0.074721
241	0x3d4389a3	0.047738682
242	0xbd2f13c5	-0.042743463
243	0x3cb3719e	0.021904763
244	0x3dea417e	0.11438273
245	0x3d257e4e	0.040403657
246	0x3de0a33d	0.10968635
247	0x3db06ab3	0.08614101
248	0x3d8beb20	0.06831956
249	0xbdc4265b	-0.09577628
250	0x3cede84e	0.029041436
251	0xbd96b123	-0.07358005
252	0x3dc317c1	0.09526015
253	0xbc877cc8	-0.016538993
254	0x3d0b5327	0.034014847
255	0x3c443884	0.011976365

lstm.weight_hh_l1 f4 [256, 64]
0	0xbdd85a1d	-0.10564063
1	0xbc5a1c66	-0.013312435
2	0x3d8dc650	0.06922591
3	0xbdd418a4	-0.10356262
4	0x3da8baf6	0.08238785
5	0x3a16a5f9	0.0005746778
6	0xbcde9a1a	-0.02717309
7	0xbe00d118	-0.12579763
8	0xbdb09a24	-0.0862315
9	0xbd9ecb86	-0.07753663
10	0x3dfff53b	0.12497946
11	0x3d9ba374	0.075995356
12	0x3e042231	0.12903668
13	0xbd078bdd	-0.03309237
14	0xbca11929	-0.019665318
15	0x3da561d5	0.080753006
16	0xbcde357b	-0.02712511
17	0xbdb82439	-0.08991284
18	0x3d923d76	0.07140629
19	0x3d9d0a03	0.07667925
20	0x3d583179	0.052781556
21	0x3d7de0d8	0.061982006
22	0x3bbf9102	0.0058461437
23	0x3dcbfdda	0.09960528
24	0x3df385fb	0.11890789
25	0xbd8aece3	-0.06783464
26	0x3d93f55c	0.07224533
27	0xbd3d9011	-0.04627997
28	0x3c466cec	0.01211093
29	0xbcc79f05	-0.024367819
30	0x3c7fbd79	0.015609139
31	0xbd1970be	-0.037461035
32	0x3c7fec08	0.015620239
33	0xbd8d08b1	-0.068864234
34	0xbd3399a0	-0.04384768
35	0xbdbf5dc1	-0.09344054
36	0xbb6206c9	-0.0034488908
37	0x3de149e2	0.1100042
38	0xbdce698c	-0.10078725
39	0xbc3e4af5	-0.011614551
40	0xbd2c3495	-0.042042334
41	0xbdc0db27	-0.094168
42	0x3ddef04b	0.10885676
43	0xbd659173	-0.056046914
44	0xbdc55b0f	-0.09636509
45	0x3b9dbc2e	0.0048136925
46	0x3dc09660	0.09403682
47	0xbdf32dba	-0.11873956
48	0xbcfcb12a	-0.030846197
49	0x3d1f66f5	0.038916547
50	0xbdba1f5f	-0.09088015
51	0xbda2c892	-0.07948412
52	0xbd9c9c72	-0.07647027
53	0xbd5167ae	-0.051124267
54	0x3d52ca42	0.05146242
55	0x3d743258	0.059618324
56	0xbc5a6855	-0.013330539
57	0xbdb732b8	-0.08945221
58	0x3dbd7249	0.09250314
59	0xbd6cb53e	-0.057790034
60	0xbc9b4b09	-0.018956678
61	0xbd6479bb	-0.055780154
62	0x3d101805	0.035179157
63	0x3d7156ba	0.0589206
64	0x3d5821e8	0.05276671
65	0xbc6ad491	-0.014332906
66	0x3c73a768	0.014871456
67	0x3d1955ce	0.037435345
68	0xbdcb3963	-0.09923055
69	0x3db30316	0.08740823
70	0x3dd27cbd	0.10277698
71	0x3d12715c	0.03575264
72	0x39e61be6	0.00043889805
73	0xbd62f7d4	-0.05541213
74	0x3dbfb8d4	0.09361425
75	0x3dcfa3ed	0.10138688
76	0x3c717a43	0.014738622
77	0x3e024115	0.1272014
78	0x3d7e3fa3	0.062072407
79	0x3dd388ed	0.10328851
80	0xbde7b783	-0.11314299
81	0xbd9cc2e1	-0.07654358
82	0xbc6eac08	-0.014567383
83	0xbe1c1c7d	-0.15245242
84	0xbcc89928	-0.024487093
85	0x3d892ba6	0.066977784
86	0xbb11d345	-0.002225117
87	0xbda73642	-0.08164646
88	0x3dab0353	0.083502434
89	0x3cc2322c	0.023705564
90	0x3c7f8274	0.015595067
91	0xbddc8381	-0.1076727
92	0x3d09ab04	0.03361036
93	0x3d925a0d	0.07146082
94	0x3dbf30cc	0.09335479
95	0x3c2a71e1	0.010403127
96	0x3c9b55dc	0.01896184
97	0xbdd98969	-0.10621912
98	0xbba9d7fa	-0.005183217
99	0xbd94559b	-0.072428904
100	0xbdcad458	-0.099037826
101	0xbda43c73	-0.08019342
102	0x3bef7746	0.0073079197
103	0xbde58b12	-0.11208166
104	0x3d23c314	0.039980963
105	0x3cdad02d	0.026710594
106	0xbda3c606	-0.07996754
107	0xbdb7ca3d	-0.08974121
108	0xbe033ea7	-0.12816869
109	0xbd913a09	-0.070911475
110	0xbdf1f571	-0.11814392
111	0x3d9e75fc	0.077373475
112	0x3d5dc53b	0.05414317
113	0xbd62f7eb	-0.055412214
114	0xbd9b95b4	-0.07596913
115	0x3c46f1e2	0.01214263
116	0x3dca4175	0.09875766
117	0x3b1c0504	0.00238067
118	0xbd41a553	-0.047276806
119	0x3d1a7ae2	0.037714846
120	0xbde02828	-0.10945159
121	0x3cc5d8c7	0.024151219
122	0x3c4919bb	0.012274201
123	0xbe08ef12	-0.13372448
124	0xbca3da0d	-0.020001436
125	0x3ddaa0b2	0.106751814
126	0x3e07a26f	0.13245557
127	0xbde5af47	-0.11215072
128	0xbd88ff8a	-0.06689365
129	0xbdba727c	-0.091038674
130	0xbd645e0b	-0.05575375
131	0x3de0d2d5	0.10977713
132	0x3daaea49	0.083454676
133	0xbd95f9de	-0.07323049
134	0x3db44311	0.088018544
135	0xbcff60cf	-0.031174092
136	0xbcdfa4b4	-0.027300216
137	0x3db974cb	0.090554796
138	0xbdffe2b4	-0.12494412
139	0x3ddd6914	0.10811058
140	0xbdd813ae	-0.105506286
141	0xbdb97527	-0.09055548
142	0xbdef4615	-0.11683289
143	0x3dbdf6fe	0.09275626
144	0x3b90c1bc	0.004417626
145	0xbd2361bb	-0.039888125
146	0x3ce8f78a	0.028438348
147	0xbd89ade8	-0.06722623
148	0xbd58b8d3	-0.052910637
149	0x3d92bb4c	0.0716463
150	0xbd103374	-0.03520532
151	0xbddbeb7a	-0.10738273
152	0xbdd7bc64	-0.105339795
153	0x3b6f4eee	0.0036515552
154	0xbd5e3a58	-0.05425486
155	0x3d903529	0.070413895
156	0x39b54c4d	0.0003457986
157	0x3dafc1d2	0.0858189
158	0x3d840b1a	0.0644743
159	0x3d862ca6	0.06551485
160	0x3ddb1511	0.106973775
161	0x3d060cc0	0.032727003
162	0xbd8e5f16	-0.0695173
163	0x3dbfe960	0.093706846
164	0x3ca89fe3	0.020584052
165	0x3d7ea4ab	0.06216876
166	0x3aab23de	0.0013056954
167	0xbe004110	-0.1252482
168	0x3dbf3268	0.09335786
169	0x3d49ccad	0.04926746
170	0xbdb5fafc	-0.08885762
171	0x3c3fd19c	0.01170769
172	0x3c72aeac	0.014812153
173	0x3cc32f4d	0.023826266
174	0x3e00da86	0.1258336
175	0x3d61782d	0.05504625
176	0xbca7a545	-0.020464549
177	0x3d5729c4	0.052530065
178	0xbdd49efd	-0.10381887
179	0x3db63876	0.08897488
180	0x3dccaf51	0.099943765
181	0xbd89e9c2	-0.06734039
182	0x3c935c79	0.01798843
183	0xbdcbcb4e	-0.09950887
184	0xbdc319cc	-0.09526405
185	0xbcf3cc60	-0.02976054
186	0xbcbd5006	-0.023109447
187	0x3c714e27	0.014728106
188	0xbd083c5d	-0.033260692
189	0x3c6fb97b	0.014631624
190	0xbdc07b22	-0.09398486
191	0xbd46751b	-0.048451524
192	0xbddf8328	-0.10913688
193	0xbd165351	-0.03670055
194	0xbdf74a97	-0.12074774
195	0xbd936ca2	-0.071984544
196	0x3d6c66b2	0.057715125
197	0xbd64fb4a	-0.05590371
198	0x3b41fe8f	0.0029601192
199	0x3d39821d	0.0452901
200	0x3d06f5e2	0.032949336
201	0xbdc11d8d	-0.094294645
202	0xbc7c32af	-0.015392943
203	0x3dee44c6	0.11634211
204	0x3de094e0	0.10965896
205	0xbdaea93c	-0.08528373
206	0xbd9fbea3	-0.07800033
207	0xbde848ad	-0.11341987
208	0xbc59148f	-0.01324953
209	0xbcb038f3	-0.02151153
210	0x3b7b1345	0.0038311046
211	0xbdb4833a	-0.08814092
212	0x3d9291cb	0.07156714
213	0x3dd37ac3	0.10326149
214	0xbcb34965	-0.021885583
215	0x3d5d2f44	0.054000154
216	0xbdcc0e2d	-0.09963641
217	0xbd8e7bc8	-0.06957203
218	0x3da04048	0.07824761
219	0xbd3da596	-0.046300493
220	0x3d649bac	0.055812523
221	0x3c85eb7e	0.016347643
222	0xbd8d7e47	-0.06908851
223	0x3db6125a	0.08890219
224	0x3cb2e8b5	0.021839479
225	0x3d8b9b05	0.06816677
226	0x3de1783c	0.11009261
227	0x3e155dbb	0.14586537
228	0xbd2bf7ec	-0.041984484
229	0x3c28bd96	0.010299107
230	0xbc853833	-0.01626215
231	0xbde61785	-0.11234955
232	0xbd3812be	-0.04493975
233	0xbcd1068a	-0.025515813
234	0xbdface16	-0.12246339
235	0xbe04b30e	-0.12958929
236	0x3bdd0f48	0.0067462064
237	0xbd7d993a	-0.061913706
238	0x3dc1a77c	0.09455773
239	0x3dbd4b60	0.09242892
240	0x3d7bccc1	0.061474565
241	0xba3f996c	-0.00073089334
242	0x3e0268d1	0.12735297
243	0x3c00f4f8	0.007870905
244	0xbceb61a3	-0.02873308
245	0x3dc49792	0.09599222
246	0xbdcc9c68	-0.099907696
247	0x3ca30c2f	0.01990327
248	0x3ccc02c1	0.024903657
249	0x3e004d57	0.12529503
250	0xbd3bec3c	-0.045879588
251	0x3d8f3474	0.069924265
252	0xbc023989	-0.007948288
253	0x3d24c772	0.04022927
254	0xbc39c0c5	-0.011337464
255	0xbd83f1a2	-0.06442572

lstm.bias_ih_l1 f4 [256]
0	0xbdb1bf98	-0.08679122
1	0x3c827953	0.015926993
2	0x3da0dc6d	0.07854543
3	0xbd4e201a	-0.050323583
4	0x3d3ad3fd	0.045612324
5	0x3c8889e0	0.016667306
6	0x3dbce23b	0.092228375
7	0xbc7ca227	-0.0154195195
8	0xbadf16c1	-0.0017020331
9	0x3deb9cc6	0.115045115
10	0xbda6a94d	-0.0813776
11	0x3ced4d02	0.028967384
12	0x3ba66634	0.0050781015
13	0xbe086d68	-0.13322985
14	0x3d8b761a	0.068096355
15	0xbdc4af5c	-0.0960376
16	0xbce61847	-0.028087748
17	0xbd917666	-0.07102661
18	0x3de024ff	0.109445564
19	0xbdd2ed34	-0.10299149
20	0xbdbdd403	-0.09268954
21	0x3d97d94f	0.07414495
22	0xbdef8611	-0.11695493
23	0xbd0513b8	-0.03248951
24	0xbd0ead2f	-0.03483313
25	0x3e0ba5a1	0.13637401
26	0xbcc47c39	-0.023985015
27	0xbdaffefd	-0.08593557
28	0xbdc3bbfd	-0.0955734
29	0x3d1034d2	0.035206623
30	0x3dc7a750	0.09748709
31	0x3e01a521	0.12660648
32	0x3d1debd2	0.038554974
33	0x3d38b045	0.04508998
34	0x3d8a18f6	0.06743042
35	0xbda8e9c0	-0.08247709
36	0xbd1616f9	-0.036643002
37	0x3d268805	0.040657062
38	0xbd2aba53	-0.0416816
39	0x3cee593c	0.029095285
40	0x3dccb5aa	0.09995587
41	0x3cd09cf7	0.025465472
42	0xbd312528	-0.043248326
43	0xbd0cb11a	-0.034348585
44	0xbd997bdc	-0.074943274
45	0x3d92f7f5	0.071762
46	0x3cebdeaa	0.028792698
47	0x3c19227b	0.0093466
48	0xbbcad957	-0.0061904597
49	0xbdc80c5a	-0.09767981
50	0xbde69b5e	-0.11260103
51	0x3d14b3a0	0.036304116
52	0xbdbe165d	-0.09281609
53	0xbdba1ee3	-0.090879224
54	0x3d10c374	0.03534265
55	0x3dc09612	0.09403624
56	0xbd766782	-0.060157306
57	0xbc341ca4	-0.010993157
58	0x3cc44274	0.023957469
59	0x3cdf1546	0.027231824
60	0xbdb54c47	-0.088524394
61	0x3d4103f5	0.047122914
62	0x3d6ab870	0.0573048
63	0x3d9770df	0.07394575
64	0x3d52683c	0.051368937
65	0x3d34fb9f	0.044185277
66	0x3c93cd78	0.018042311
67	0xbd10bdc1	-0.035337213
68	0xbdfeb394	-0.124365956
69	0x3d1b9dbf	0.037992235
70	0xbd82058d	-0.06348715
71	0x3d9c1b6b	0.07622417
72	0xbbcb05e9	-0.006195773
73	0xbd510fdf	-0.051040526
74	0xbbd2a024	-0.0064277817
75	0xbbe03e5c	-0.0068433713
76	0xbe0a7035	-0.13519366
77	0x3db5c42c	0.088753074
78	0x3d62884f	0.055305775
79	0x3db8fa6c	0.09032139
80	0xbd439550	-0.047749817
81	0xbdf0b6c8	-0.11753613
82	0xbdd97e01	-0.106197365
83	0x3db0cec7	0.0863319
84	0xbdce6ac8	-0.10078961
85	0xbda98bda	-0.08278628
86	0xbe095fc2	-0.13415435
87	0xbd6a37ac	-0.057182
88	0x3ca39d84	0.01997257
89	0xbdc8756a	-0.0978802
90	0x3dccc7b1	0.099990256
91	0x3d9763e7	0.07392102
92	0xbd95b2bc	-0.073094815
93	0x3db1cae7	0.08681279
94	0x3da9727a	0.08273788
95	0x3ddecff5	0.108795084
96	0xbdc40066	-0.095703885
97	0xbe08574d	-0.13314553
98	0xbdce6599	-0.10077972
99	0xbd5c36a4	-0.053763047
100	0x3bf7d587	0.0075632962
101	0xbb26df1c	-0.0025462573
102	0x3d4f29c3	0.050576936
103	0x3d313be6	0.043270014
104	0x3de94e3d	0.11391876
105	0x3cd175ce	0.025568869
106	0xbdb1911d	-0.08670256
107	0xbd7ef712	-0.062247343
108	0x3d9f423f	0.07776307
109	0x3c9e03dd	0.019288952
110	0x3da5d373	0.08096971
111	0xbdf1b05b	-0.11801215
112	0xbd29026c	-0.041262075
113	0x3b2138b1	0.002460044
114	0xbd9e195a	-0.07719679
115	0xbc2e9334	-0.010655213
116	0x3d86ab59	0.06575651
117	0xbdf6f768	-0.12058908
118	0xbddb5862	-0.10710217
119	0x3dad9f43	0.084776424
120	0x3caf4e21	0.02139956
121	0xbd799305	-0.060931224
122	0xbdbddbbd	-0.092704274
123	0xbcf0d100	-0.029396534
124	0xbd13d1d1	-0.03608877
125	0xbd701c54	-0.058620766
126	0xbcaefbda	-0.021360327
127	0xbe056cf7	-0.13029848
128	0xbdb75614	-0.08951965
129	0x3ccf7060	0.02532214
130	0xbdae66d0	-0.08515704
131	0xbc52567c	-0.012838002
132	0xbd884f54	-0.06655756
133	0x3dd45839	0.1036839
134	0x3d5d491e	0.054024808
135	0x3c19b04c	0.009380411
136	0x3a86c615	0.0010282422
137	0xbc73ecd6	-0.014888009
138	0x3dc4bebc	0.09606692
139	0x3cc35003	0.023841863
140	0x3d9da110	0.07696736
141	0x3d81c76b	0.06336864
142	0x3dceb535	0.10093156
143	0xbc19d69e	-0.009389548
144	0x3c98e706	0.018664848
145	0x3d8e3e0a	0.06945427
146	0xbddd3d56	-0.108027145
147	0xbdf9e285	-0.12201408
148	0xbde781ec	-0.113040775
149	0xbdb7ec30	-0.08980596
150	0xbd250cac	-0.040295288
151	0xbdaf3f0b	-0.08556946
152	0xbc9f16b0	-0.019419998
153	0x3cbdf5eb	0.023188552
154	0x3d362270	0.044466436
155	0x3d714f37	0.058913436
156	0x3dd2504f	0.10269224
157	0xbda7e4e3	-0.081979536
158	0x3de660d0	0.11248934
159	0x3dbeb405	0.0931168
160	0xbd34b086	-0.04411366
161	0x3c048f8c	0.008090865
162	0x3bff1ea8	0.007785637
163	0x3de1d674	0.11027232
164	0x3d91279b	0.07087632
165	0xbb66a572	-0.0035193828
166	0x3e00871f	0.12551545
167	0x3dea84bb	0.114510976
168	0xbde6da3e	-0.11272095
169	0xbd94f02e	-0.07272373
170	0x3d3fdb3b	0.046839934
171	0xbdb1107e	-0.08645724
172	0xbb39a3e4	-0.0028326446
173	0x3c37e7e4	0.011224721
174	0x3cb37979	0.021908509
175	0x3dda6d24	0.10665348
176	0x3c0e5063	0.008686158
177	0x3c1e2b05	0.009653811
178	0x3df4c7fe	0.11952208
179	0x3de28016	0.11059587
180	0xbd9c75e1	-0.07639671
181	0xbc37b07e	-0.011211513
182	0x3d87f5af	0.06638657
183	0x3bca2de4	0.0061700214
184	0x3cdfaef6	0.027305108
185	0x3d3a13da	0.04542909
186	0xbdb58d3f	-0.08864831
187	0x3d957bbc	0.07298991
188	0x3d964a24	0.0733836
189	0xbcc22f03	-0.023704058
190	0xbd270662	-0.04077757
191	0x3dbdb5b7	0.09263175
192	0xbcfceb83	-0.03087402
193	0x3dd08948	0.10182434
194	0x3daf8c1c	0.085716456
195	0x3d38a7c2	0.04508186
196	0x3d2bf4c0	0.04198146
197	0x3a8f69c9	0.0010941561
198	0x3dab97ae	0.0837854
199	0x3be4245c	0.006962342
200	0xbd8cd685	-0.06876854
201	0x3dc122b6	0.09430449
202	0x3d4f959e	0.050679795
203	0x3e0b43ad	0.13600035
204	0x3bb5114c	0.0055257436
205	0xbdb0b9b9	-0.08629174
206	0x3db5b13e	0.08871697
207	0x3c1d9c35	0.009619762
208	0x3d9eb8e9	0.077501126
209	0xbd5b536b	-0.05354635
210	0xbd96b10e	-0.07357989
211	0x3d88f994	0.06688228
212	0x3da1fd3e	0.0790963
213	0x3a8e4af4	0.0010856078
214	0xbda1b554	-0.07895914
215	0xbd7e12a6	-0.062029503
216	0xbc7f00f1	-0.015564189
217	0x3db4da3b	0.08830687
218	0x3d56c3c6	0.052432798
219	0xba2cd599	-0.0006593108
220	0x3d826878	0.06367582
221	0xbc852237	-0.016251666
222	0x3d1ddcc0	0.0385406
223	0x3d572a0d	0.052530337
224	0x3dea83df	0.11450934
225	0x3db893d8	0.09012574
226	0x3cd407c5	0.025882611
227	0x3d9fad37	0.0779671
228	0x3cc768c2	0.024341945
229	0x3d9b6937	0.075884275
230	0x3df19fca	0.117980555
231	0x3db2c16e	0.087283
232	0x3d733833	0.059379768
233	0xbdcc45b2	-0.09974231
234	0x3e03be04	0.12865454
235	0xbc8c8599	-0.017153548
236	0x3d3abdf7	0.04559132
237	0xbdb05b1e	-0.08611129
238	0xbca349f7	-0.01993273
239	0x3cff8577	0.03119157
240	0x3ddb820a	0.10718162
241	0xbd7c1390	-0.061542094
242	0x3d3ac893	0.04560144
243	0xbc91ee1d	-0.017813737
244	0xbda7cb82	-0.08193113
245	0xbd8d3f4f	-0.06896841
246	0x3dd6af9f	0.10482716
247	0x3dff118d	0.124545194
248	0x3dc000a2	0.09375121
249	0xbd8a5d6a	-0.067560986
250	0x3d542bf7	0.05179974
251	0x3dab7740	0.083723545
252	0x3e11f58b	0.14253823
253	0xbd94ec11	-0.072715886
254	0x3dc5850f	0.096445195
255	0xbdd72e9f	-0.10506939
