best_lstm_1step_spx.pt (torch, 206277 bytes, 9 tensors)

lstm.weight_ih_l0 f4 [256, 1]
0.092814796 -0.10088248 -0.0731917 -0.027271638 -0.006985938 -0.06343686 0.14914455 0.021334311
0.052753672 -0.037734386 0.08070231 -0.040886745 0.1275 0.011362233 0.09366993 0.14354461
0.19602585 0.105138645 -0.011797957 0.07472488 0.12755255 0.009376131 -0.033397853 0.120827675
0.08182373 -0.057921875 -0.077104256 0.12500168 -0.03540178 0.08714362 0.14355981 0.068055235
-0.14527325 0.14151637 0.08199128 -0.026481302 0.14331156 -0.009197292 0.13030529 0.04904287
0.1674456 0.002131734 0.0012124929 -0.03011277 0.08646315 -0.07191464 0.15871099 0.18803798
-0.07554923 -0.014269793 -0.065805554 -0.0048093237 -0.046145868 0.059487104 0.051598568 -0.18384461
-0.10457122 -0.11420884 0.15997641 -0.039252434 -0.022563066 0.094473235 -0.19569346 -0.11405604
0.09000777 -0.23104292 -0.07886751 0.01978754 -0.051358238 0.06398596 0.09109265 0.04303849
-0.043549813 0.023703959 -0.057914566 0.05284078 -0.005431943 -0.06487095 -0.00091924926 0.09049079
0.16723508 -0.05184698 0.066835456 0.038663767 0.105979316 -0.012345925 -0.13008402 0.011385334
0.026710313 0.13384484 0.056903526 0.09669718 0.12155598 -0.005014053 0.06881882 -0.14403076
-0.00020619384 0.035878263 0.011645366 -0.035993874 0.17418276 0.04542955 0.16976267 0.05804261
0.073475055 0.023928547 0.11435354 -0.06679324 -0.05105665 -0.07237339 -0.07059875 0.053590547
-0.0946844 0.060380798 0.051122967 0.005226425 0.08373134 0.063116506 -0.023374802 -0.008523461
-0.103127524 0.03473459 0.12017306 0.18509832 -0.103039704 0.03901204 -0.08394658 0.0149732
0.000958237 0.08172884 0.026305841 -0.09697562 0.14331979 -0.040285226 -0.101033255 -0.05126379
-0.18434213 0.081341036 -0.1877647 0.0147838695 0.16197829 0.106719695 0.19898444 0.16467196
-0.2106964 0.121065654 0.017667755 0.15044929 -0.11298388 -0.16515899 0.017259236 -0.014993939
-0.09329652 0.04917958 0.07443077 0.13380137 0.10059916 0.02896802 0.12168979 -0.1572364
0.15735535 -0.02350233 -0.12529856 -0.10766963 0.1678013 -0.14065921 0.15968764 -0.0058994032
0.10950976 0.14952852 0.12180234 -0.09547921 -0.09467617 -0.066017814 0.015868638 -0.1497043
-0.08939538 -0.029830856 0.12207259 -0.0716468 0.039689682 0.19639632 -0.10031776 0.15195708
-0.147134 -0.038871806 -0.05704405 0.17304428 0.030455913 0.18046705 -0.053347636 0.10518849
-0.066574045 -0.20713174 -0.026986556 -0.10468645 -0.02609605 0.054321066 0.036035348 0.061706558
0.117788374 0.047295872 0.08742574 0.006478659 0.0032640463 0.07926834 0.04050465 0.17365621
-0.022381099 0.07358484 0.12531194 0.022294585 0.024190916 -0.014876265 0.011960833 0.08978081
-0.004954282 0.12707137 0.025696818 0.026292874 -0.035180215 0.014717044 0.11272163 -0.08421674
-0.08516048 -0.05323369 -0.016602091 0.17415 0.17692566 0.06868269 0.015152327 0.031925004
-0.04405431 0.11265752 -0.043625627 -0.06194255 -0.1513833 0.13284001 0.05728669 0.017505508
-0.102123015 0.031495508 -0.031828046 -0.080788374 0.033009622 0.12256585 0.057506442 -0.20162849
-0.052799977 0.00079947786 -0.049260203 0.167187 0.11090347 0.17243116 -0.057677183 0.022119468
00000000: af15 be3d 799b cebd 88e5 95bd c568 dfbc
00000010: 4cea e4bb 2feb 81bd 59b9 183e 4bc5 ae3c
00000020: 3c14 583d 5f8f 1abd 4147 a53d dc78 27bd
00000030: 5c8f 023e a928 3a3c 05d6 bf3d 5cfd 123e
00000040: 00bb 483e ee52 d73d 384c 41bc 5c09 993d
00000050: 239d 023e 589e 193c 30cc 08bd 8074 f73d
00000060: 3393 a73d 7d3f 6dbd d6e8 9dbd 7100 003e
00000070: 7501 11bd 5b78 b23d 5801 133e 8b60 8b3d
00000080: 83c2 14be abe9 103e 0beb a73d 51ef d8bc
00000090: 44c0 123e 3db0 16bc c06e 053e 2de1 483d
000000a0: dc76 2b3e 90b4 0b3b 83ec 9e3a 0eaf f6bc
000000b0: 9813 b13d fc47 93bd 2285 223e 078d 403e
000000c0: 8eb9 9abd dacb 69bc 10c5 86bd 8897 9dbb
000000d0: 7303 3dbd c0a8 733d 0559 533d c341 3cbe
000000e0: 7029 d6bd 53e6 e9bd dbd0 233e 29c7 20bd
000000f0: 2ed6 b8bc 2f7b c13d de63 48be 3796 e9bd
00000100: fe55 b83d 8496 6cbe 4a85 a1bd 7b19 a23c
00000110: 045d 52bd 120b 833d c98e ba3d 2149 303d
00000120: 4a61 32bd ce2e c23c d337 6dbd 936f 583d
00000130: 71fe b1bb 10db 84bd c6f9 70ba 3c53 b93d
00000140: ac3f 2b3e 805d 54bd 07e1 883d e65d 1e3d
00000150: af0b d93d 9046 4abc bf34 05be 8d89 3a3c
00000160: 96cf da3c 9f0e 093e ac13 693d 2c09 c63d
00000170: 57f2 f83d ed4c a4bb e2f0 8c3d cd7c 13be
00000180: bd35 58b9 16f5 123d 35cc 3e3c 506e 13bd
00000190: f75c 323e 5614 3a3d 44d6 2d3e 16be 6d3d
000001a0: 177a 963d cd05 c43c 3032 ea3d e5ca 88bd
000001b0: c720 51bd 8038 94bd 1496 90bd c381 5b3d
000001c0: e5e9 c1bd db51 773d 5166 513d 6e42 ab3b
000001d0: 567b ab3d 3a43 813d 837c bfbc fda5 0bbc
000001e0: 8634 d3bd dc45 0e3d 4b1d f63d 6a8a 3d3e
000001f0: 7b06 d3bd 17cb 1f3d 2fec abbd 2752 753c
00000200: 3232 7b3a 7361 a73d 597f d73c 279b c6bd
00000210: 6cc2 123e 1f02 25bd 86ea cebd fbf9 51bd
00000220: 2fc4 3cbe 2196 a63d 6445 40be 0b38 723c
00000230: a3dd 253e db8f da3d 94c2 4b3e c49f 283e
00000240: ccc0 57be 45f1 f73d f8bb 903c 610f 1a3e
00000250: 1864 e7bd 701f 29be 3e63 8d3c 23a9 75bc
00000260: 3f12 bfbd 8770 493d 296f 983d 3a03 093e
00000270: ef06 ce3d 574e ed3c 7f38 f93d 9402 21be
00000280: c321 213e f587 c0bc 444e 00be e581 dcbd
00000290: 1bd4 2b3e f808 10be 2885 233e c84f c1bb
000002a0: a746 e03d 011e 193e 8173 f93d 9b8a c3bd
000002b0: 94e5 c1bd 5934 87bd f2fe 813c 164c 19be
000002c0: ed14 b7bd d75f f4bc 3201 fa3d 8fbb 92bd
000002d0: a691 223d 1e1c 493e 6673 cdbd a39a 1b3e
000002e0: 4caa 16be 0b38 1fbd 06a7 69bd 8532 313e
000002f0: ae7e f93c 5bcc 383e 0d83 5abd 106d d73d
00000300: f957 88bd 581a 54be e912 ddbc d965 d6bd
00000310: 62c7 d5bc c47f 5e3d cd99 133d 04c0 7c3d
00000320: 083b f13d 51b9 413d 440c b33d ee4a d43b
00000330: 9ce9 553b 7057 a23d 34e8 253d efd2 313e
00000340: 9158 b7bc a6b3 963d c651 003e 22a3 b63c
00000350: 072c c63c 94bb 73bc 5ff7 433c 00df b73d
00000360: 8857 a2bb ff1e 023e 2282 d23c 2764 d73c
00000370: 2119 10bd c21f 713c 99da e63d d479 acbd
00000380: 9e68 aebd 920b 5abd 1c01 88bc 6154 323e
00000390: 002c 353e 83a9 8c3d 7741 783c cbc3 023d
000003a0: 4b72 34bd fcb8 e63d c9b0 32bd 79b7 7dbd
000003b0: 3904 1bbe 3607 083e 73a5 6a3d b667 8f3c
000003c0: df25 d1bd 6f01 013d 205e 02bd 6074 a5bd
000003d0: 1935 073d ce03 fb3d e08b 6b3d b377 4ebe
000003e0: ca44 58bd 0d94 513a 11c5 49bd 1233 2b3e
000003f0: 5c21 e33d cb91 303e e93e 6cbd e333 b53c

lstm.weight_hh_l0 f4 [256, 64]
-0.032208536 0.13235575 0.07471078 -0.057808287 0.04092293 0.054069217 -0.06497434 -0.10277168
-0.095877595 -0.021747606 0.10279692 0.0327313 0.1214773 0.052381855 -0.018694215 0.031944547
-0.041738085 -0.01091154 -0.057119884 -0.06594184 0.11667415 0.08802127 0.008337398 -0.06005486
0.07405964 0.038984668 -0.013737435 -0.013044599 0.015898323 0.068430364 0.14429463 -0.101036064
-0.05296623 0.050893493 -0.06286168 -0.028821891 -0.06335453 0.023639701 -0.08114967 0.10048309
-0.013325525 0.07986689 0.10191206 -0.08796246 -0.10001505 -0.06923414 -0.041175943 -0.06758775
0.08577158 -0.10667543 0.045558073 0.047296185 -0.07188764 -0.066543244 -0.01789228 0.048794333
-0.14285776 0.059394114 0.102252 0.10797837 0.0016218886 -0.068809845 0.01661542 -0.09700981
-0.053281017 -0.34515148 0.04271795 0.11662815 -0.038521785 0.10230696 0.15303887 -0.060026057
-0.014535161 -0.03924715 -0.016174443 0.04916702 -0.004077077 -0.09828745 -0.055472862 -0.12772733
0.24522927 0.07651792 -0.049403567 -0.12831764 0.02752731 0.23945355 -0.016969861 0.019968987
-0.05499247 -0.008166072 -0.12629017 0.08658956 -0.15101542 0.10726146 -0.103634916 0.2858264
-0.15084344 0.12580603 0.12109008 0.08361276 -0.09988197 0.025881689 0.044983048 0.051462755
-0.010360745 -0.01788695 -0.097576104 -0.0033913637 0.047059048 -0.0800435 -0.07600848 0.04825932
0.05915084 0.0045694183 0.0072373236 0.16369621 -0.080106325 -0.18899575 -0.082651496 -0.10011119
0.152113 0.21257052 0.04255542 0.02688436 -0.013968701 -0.1308593 0.12785916 -0.12947598
0.12128797 0.089934714 0.046403967 0.0667784 0.1145388 -0.066878736 0.09221989 5.30189e-05
0.027905064 0.0049017416 -0.014711923 -0.10848973 -0.010704659 0.056699235 -0.09606138 -0.027998608
-0.084643036 0.13865592 -0.12167405 -0.023994721 -0.12659442 -0.09312356 -0.12558587 -0.10090216
0.07814896 -0.047465377 -0.10699938 0.05291353 0.0066280337 0.011298718 0.0488904 -0.04810937
0.074646115 -0.022814626 0.07526886 -0.0018253268 -0.06413788 0.030514302 0.023322875 -0.024591051
0.10569753 0.016818695 0.019496378 0.09738468 -0.051656604 0.02966822 -0.0061435685 0.034755588
-0.07459056 -0.0579058 -0.018545367 0.11933127 -0.120504096 -0.079151034 0.029761093 0.13191265
0.05242522 -0.04582216 0.111506835 -0.008140723 -0.048624728 -0.05034688 -0.06540097 0.061713636
0.037625883 -0.21399145 -0.044785544 -0.010952514 0.07341712 -0.02562683 -0.06983562 -0.07187432
-0.09814677 0.05648747 0.11337721 -0.0786253 -0.09196227 0.054393027 0.04205855 -0.08647608
-0.11539212 0.009588102 -0.00062303 -0.17336948 0.08548451 -0.04380683 -0.085178174 -0.13832046
0.06934036 -0.13892917 -0.018943325 -0.051842548 0.068336606 -0.020839354 -0.10106066 0.16267739
-0.11681343 0.10072775 -0.0923601 0.10167838 -0.0062692557 0.0026183992 0.095830366 -0.015218027
0.10471177 0.09958296 0.08406056 -0.055502832 0.055959564 -0.12204208 0.08096064 0.05590547
0.10063886 0.03258325 -0.011185805 -0.0115485815 -0.10065059 -0.053409982 0.044928156 -0.19609506
0.17824326 0.11481258 0.09503395 0.06894924 0.06287526 -0.053740572 -0.00592183 -0.021002255
00000000: 19ed 03bd 4488 073e f701 993d 62c8 6cbd
00000010: cd9e 273d af77 5d3d 4411 85bd f579 d2bd
00000020: 795b c4bd 0928 b2bc 3187 d23d 4111 063d
00000030: 17c9 f83d 5b8e 563d 9c24 99bc 49d8 023d
00000040: 8ef5 2abd 51c6 32bc 8af6 69bd 840c 87bd
00000050: dbf2 ee3d 7f44 b43d 9599 083c 16fc 75bd
00000060: 95ac 973d 63ae 1f3d fb12 61bc 04b9 55bc
00000070: 333d 823c 3825 8c3d f9c1 133e ffeb cebd
00000080: 1ef3 58bd b275 503d a0bd 80bd e31b ecbc
00000090: 05c0 81bd 0ca8 c13c cc31 a6bd 14ca cd3d
000000a0: 4e53 5abc 4191 a33d 45b7 d03d aa25 b4bd
000000b0: b1d4 ccbd a1ca 8dbd 1ba8 28bd 726b 8abd
000000c0: 03a9 af3d a678 dabd 1a9b 3a3d a5b9 413d
000000d0: d439 93bd d347 88bd d592 92bc 91dc 473d
000000e0: 4e49 12be 3e47 733d 7f69 d13d c323 dd3d
000000f0: 8d95 d43a 2dec 8cbd 101d 883c 14ad c6bd
00000100: 323d 5abd b2b7 b0be 04f9 2e3d bdda ee3d
00000110: 05c9 1dbd 5086 d13d 39b6 1c3e e2dd 75bd
00000120: e224 6ebc 9fc1 20bd 4480 84bc 5b63 493d
00000130: 0099 85bb ee4a c9bd 8337 63bd f4ca 02be
00000140: 621d 7b3e 6db5 9c3d 655b 4abd b365 03be
00000150: f480 e13c 5033 753e 6104 8bbc 0096 a33c
00000160: c93f 61bd fdca 05bc 3652 01be de55 b13d
00000170: c9a3 1abe e5ab db3d 8b3e d4bd d757 923e
00000180: b476 1abe 4cd3 003e 13fe f73d 2b3d ab3d
00000190: eb8e ccbd d605 d43c 2540 383d 9cca 523d
000001a0: 1dc0 29bc a787 92bc fbd5 c7bd a441 5ebb
000001b0: fdc0 403d d9ed a3bd 55aa 9bbd 91ab 453d
000001c0: 2748 723d 0fbb 953b 1227 ed3b fb9f 273e
000001d0: c90e a4bd 1a88 41be 3045 a9bd 1807 cdbd
000001e0: 83c3 1b3e 16ac 593e 984e 2e3d 973c dc3c
000001f0: fadc 64bc fbff 05be 83ed 023e 5a95 04be
00000200: d465 f83d b12f b83d 1612 3e3d 1dc3 883d
00000210: 5293 ea3d b8f7 88bd c8dd bc3d 9c60 5e38
00000220: 2999 e43c ca9e a03b 470a 71bc dd2f debd
00000230: 9862 2fbc 753d 683d d4bb c4bd 565d e5bc
00000240: 5459 adbd d1fb 0d3e 3f30 f9bd 9490 c4bc
00000250: f8a1 01be 91b7 bebd 9599 00be cba5 cebd
00000260: 900c a03d 0e6b 42bd 7e22 dbbd dcbb 583d
00000270: fa2f d93b 421e 393c 4d41 483d 550e 45bd
00000280: 10e0 983d bde5 babc 8f26 9a3d ce3f efba
00000290: b95a 83bd 21f9 f93c 9d0f bf3c 2c73 c9bc
000002a0: f277 d83d 5cc7 893c deb6 9f3c 9e71 c73d
000002b0: e095 53bd c40a f33c fd4f c9bb e05b 0e3d
000002c0: efc2 98bd a22e 6dbd 74ec 97bc f463 f43d
000002d0: daca f6bd f019 a2bd 89cd f33c 1c14 073e
000002e0: d4bb 563d 04b0 3bbd b25d e43d ab60 05bc
000002f0: b92a 47bd 8838 4ebd f2f0 85bd 70c7 7c3d
00000300: 991d 1a3d 9320 5bbe 0c71 37bd 2c72 33bc
00000310: b75b 963d 5cef d1bc fa05 8fbd d832 93bd
00000320: 2c01 c9bd 685f 673d 5032 e83d 4d06 a1bd
00000330: b756 bcbd 39cb 5e3d 9645 2c3d 5f1a b1bd
00000340: b452 ecbd 6a17 1d3c d652 23ba c587 31be
00000350: 8112 af3d ca6e 33bd e571 aebd e1a3 0dbe
00000360: 5202 8e3d 7343 0ebe 082f 9bbc da58 54bd
00000370: 10f4 8b3d 4bb7 aabc e4f8 cebd e794 263e
00000380: e13b efbd 5a4a ce3d 4b27 bdbd c13c d03d
00000390: 546e cdbb 7399 2b3b b642 c43d 0855 79bc
000003a0: 2073 d63d 27f2 cb3d f127 ac3d f056 63bd
000003b0: db35 653d 33f1 f9bd b1ce a53d 22fd 643d
000003c0: bf1b ce3d 0476 053d ab44 37bc 4336 3dbc
000003d0: e621 cebd 6dc4 5abd 9606 383d 25cd 48be
000003e0: 6785 363e dc22 eb3d 29a1 c23d 4235 8d3d
000003f0: bfc4 803d 131f 5cbd e90b c2bb ec0c acbc

lstm.bias_ih_l0 f4 [256]
-0.027328424 0.11940697 0.0059424927 -0.05596582 0.030020121 -0.055431597 0.083102256 -0.010640112
-0.0647607 -0.08887249 0.05993128 -0.11311171 0.051234305 0.04594163 0.12546684 -0.0758578
0.14406458 -0.09827741 0.0041958923 0.05063234 -0.11349308 -0.026791336 0.036983866 0.07239278
-0.027985679 0.09478013 0.03327585 0.07778429 0.023656538 0.034492806 -0.049942754 -0.04683969
0.070226714 -0.06864535 -0.06941929 -0.065630205 0.04219161 0.014373679 0.058419503 0.026663681
-0.026479632 0.0715728 0.12685715 0.11707756 0.06785918 -0.114262715 -0.043091364 -0.040783033
0.05919349 -0.041408785 0.14911339 -0.068849534 0.11339323 0.13744837 -0.06851665 -0.064261146
0.089977235 0.017916571 0.00027751504 0.14621766 0.11150047 0.053689145 -0.11552995 0.09073906
-0.046482857 -0.025332546 0.011697047 -0.029846951 -0.020942364 0.09320941 0.094561405 0.051805258
0.1356783 -0.095560975 0.046819385 -0.11788743 0.12256579 0.020155717 -0.035217963 -0.06979115
0.13483879 -0.04273676 -0.052162074 0.0077087665 -0.11370662 -0.05327511 -0.07882087 0.1154133
0.116009176 0.027639227 0.059503976 -0.07827218 0.0558683 -0.061958123 0.05132365 0.028747972
0.13936625 0.08503073 -0.0826537 -0.046099193 0.12398871 -0.04030398 0.1280733 -0.08304028
0.0038210233 -0.07873394 -0.02187895 -0.06839192 -0.021186767 0.046430066 0.0190715 -0.108505
-0.09894049 -0.03600103 0.10128759 0.105829075 0.048392463 -0.008114607 0.0030179413 -0.06357788
-0.0659745 -0.065073766 -0.099741004 -0.08465083 -0.10556082 0.04422259 0.071685545 -0.102935344
-0.05667495 -0.0632196 0.00038735374 -0.056647718 0.081306465 0.00423791 -0.052414663 -0.02838842
-0.10359842 0.03694658 0.02285045 0.12716916 0.08149386 0.040935483 0.042987626 -0.028314883
-0.040515542 0.103156395 -0.050059825 -0.1094449 -0.100466594 0.1071733 0.0018241046 -0.10678366
-0.04246738 -0.033122372 -0.09837556 0.009552899 0.10589986 0.084837385 -0.004382412 0.10284141
-0.0660992 0.08337527 0.061533988 -0.071570024 -0.02651057 0.035725124 0.004729277 0.02453704
-0.043517582 0.10687605 0.0053396956 0.051515 0.04823428 -0.045315057 0.029355347 -0.08141791
0.121270664 0.089629754 0.021484533 0.07458558 -0.07977082 0.08386872 -0.097367644 -0.017365867
-0.010860393 0.016523497 -0.118500404 -0.0031779623 -0.063361496 0.020017972 0.09048399 0.037881386
-0.07702749 0.08097576 -0.03436185 -0.016119132 0.015270623 0.11372321 -0.0677206 -0.0117796585
0.029407116 0.0394393 0.031326476 0.120543815 0.12014493 -0.041331675 0.107417546 0.09696084
0.0924226 0.097362585 0.036704652 0.009678847 -0.060264558 -0.05544119 -0.064003855 -0.07826707
0.035632785 0.022897316 -0.11903715 -0.075932816 0.044578046 0.07334361 0.049568612 -0.061503384
0.044423666 0.032473926 -0.030306073 0.120476425 0.02507854 0.09574755 0.042561337 -0.06673033
-0.009522595 0.07981029 -0.1014326 -0.02801336 -0.109775595 -0.022843026 -0.0036154967 -0.064147465
-0.066881046 -0.040885445 0.053329546 0.074362 -0.097266175 -0.053662457 0.0014478902 -0.04409002
0.067921735 0.042794652 -0.010007439 -0.022992652 -0.13650717 0.10171295 -0.00013332858 -0.10385144
00000000: dcdf dfbc a48b f43d 3eb9 c23b 6a3c 65bd
00000010: c2ec f53c 3e0c 63bd 8431 aa3d dd53 2ebc
00000020: 42a1 84bd c802 b6bd 807a 753d 1da7 e7bd
00000030: 10db 513d 4a2d 3c3d 617a 003e 565b 9bbd
00000040: aa85 133e ab45 c9bd b27d 893b db63 4f3d
00000050: 0f6f e8bd 8179 dbbc 657c 173d aa42 943d
00000060: 3942 e5bc 161c c23d 424c 083d 5f4d 9f3d
00000070: 5bcb c13c 5448 0d3d c690 4cbd fada 3fbd
00000080: 06d3 8f3d ef95 8cbd b32b 8ebd 2169 86bd
00000090: 1cd1 2c3d 947f 6b3c 4a49 6f3d cb6d da3c
000000a0: d0eb d8bc c394 923d d7e6 013e 5cc6 ef3d
000000b0: c1f9 8a3d 9202 eabd 9280 30bd 1c0c 27bd
000000c0: df74 723d 429c 29bd 2eb1 183e fc00 8dbd
000000d0: b63a e83d 44bf 0c3e 7552 8cbd 599b 83bd
000000e0: fc45 b83d c6c5 923c 707f 9139 15ba 153e
000000f0: 5c5a e43d 26e9 5b3d f79a ecbd 66d5 b93d
00000100: cf64 3ebd 3386 cfbc f9a4 3f3c 9881 f4bc
00000110: 528f abbc 93e4 be3d 69a9 c13d c031 543d
00000120: 41ef 0a3e 79b5 c3bd afc5 3f3d f76e f1bd
00000130: c603 fb3d 9a1d a53c b640 10bd aaee 8ebd
00000140: 2e13 0a3e be0c 2fbd e6a7 55bd d299 fc3b
00000150: 04df e8bd 0037 5abd d66c a1bd cf5d ec3d
00000160: 3896 ed3d a96b e23c 71ba 733d 2a4d a0bd
00000170: 29d6 643d cdc7 7dbd bf38 523d de80 eb3c
00000180: 07b6 0e3e 9724 ae3d 5846 a9bd 82d2 3cbd
00000190: cbed fd3d c915 25bd a625 033e 0611 aabd
000001a0: 226a 7a3b 433f a1bd 7c3b b3bc 1011 8cbd
000001b0: df8f adbc 742d 3e3d d63b 9c3c df37 debd
000001c0: 50a1 cabd d175 13bd de6f cf3d eabc d83d
000001d0: 2d37 463d 21f3 04bc a7c8 453b 1f35 82bd
000001e0: a31d 87bd 6545 85bd 0345 ccbd 6a5d adbd
000001f0: 4530 d8bd bf22 353d dfcf 923d c4cf d2bd
00000200: fe23 68bd 4779 81bd bd15 cb39 7007 68bd
00000210: 0184 a63d 2ade 8a3b c2b0 56bd d58e e8bc
00000220: 692b d4bd 4c55 173d de30 bb3c a238 023e
00000230: 41e6 a63d f7ab 273d cb13 303d 9df4 e7bc
00000240: a0f3 25bd a943 d33d 880b 4dbd a624 e0bd
00000250: 6ec1 cdbd ad7d db3d cb16 ef3a 64b1 dabd
00000260: 47f2 2dbd 53ab 07bd 2079 c9bd c383 1c3c
00000270: 07e2 d83d 39bf ad3d 569a 8fbb 849e d23d
00000280: 045f 87bd a7c0 aa3d 100b 7c3d 4e93 92bd
00000290: b22c d9bc 8254 123d 0df8 9a3b e701 c93c
000002a0: 7e3f 32bd d5e1 da3d 9df8 ae3b 6501 533d
000002b0: 4f91 453d 489c 39bd a07a f03c 6fbe a6bd
000002c0: c15c f83d ce8f b73d 5500 b03c 53c0 983d
000002d0: e25e a3bd 5dc3 ab3d b068 c7bd dd42 8ebc
000002e0: caef 31bc 495c 873c 57b0 f2bd 5c45 50bb
000002f0: acc3 81bd bbfc a33c ac4f b93d 8329 1b3d
00000300: 97c0 9dbd 9fd6 a53d 03bf 0cbd 450c 84bc
00000310: a331 7a3c b7e7 e83d 19b1 8abd 78ff 40bc
00000320: 31e7 f03c 1a8b 213d 3150 003d addf f63d
00000330: 8c0e f63d 674b 29bd bbfd db3d 6893 c63d
00000340: 0f48 bd3d 0966 c73d 9e57 163d 0794 1e3c
00000350: f8d7 76bd 4d16 63bd 7414 83bd 7c4a a0bd
00000360: aff3 113d 2793 bb3c c0c9 f3bd aa82 9bbd
00000370: 7897 363d 2d35 963d 7508 4b3d f9ea 7bbd
00000380: 97f5 353d 6103 053d 7144 f8bc 58bc f63d
00000390: 8371 cd3c 4b17 c43d cc54 2e3d e9a9 88bd
000003a0: a904 1cbc 9473 a33d e5bb cfbd 467c e5bc
000003b0: 07d2 e0bd 4c21 bbbc f8f1 6cbb bf5f 83bd
000003c0: eef8 88bd 7f77 27bd 1570 5a3d 1b4b 983d
000003d0: 7d33 c7bd 2acd 5bbd 22c7 bd3a bd97 34bd
000003e0: 8d1a 8b3d 7249 2f3d 3ef6 23bc 165b bcbc
000003f0: 89c8 0bbe e14e d03d 1ece 0bb9 10b0 d4bd

lstm.bias_hh_l0 f4 [256]
0.120753855 0.17602889 0.07897975 0.12836497 0.026819307 0.058693953 0.104286455 0.020231836
0.00496301 -0.045592453 0.16060534 -0.06387392 0.052998483 0.07138812 0.056449085 0.03138645
0.17628734 -0.016438842 0.039176665 0.11955278 0.12523355 0.009045716 0.0398573 -0.042769283
-0.088094704 0.018105304 0.015576337 -0.086257555 0.15577778 0.089591086 0.011244065 -0.0534679
0.079799764 -0.025056567 0.01621353 0.1308847 -0.094124235 -0.0998275 -0.079931036 0.07643864
-0.04665987 -0.03774686 0.08606798 0.115033925 -0.056956686 0.042518463 -0.08919697 0.0285761
-0.041300993 -0.13030842 0.12862122 0.060718402 -0.103627175 0.019512938 -0.023851924 0.14250082
0.004284032 0.05777784 0.12342038 0.1004582 -0.078242585 0.11972915 0.09655187 0.1027184
-0.04781815 0.06813007 -0.09514955 -0.05977908 0.050429754 0.016689219 0.018682644 -0.07943011
-0.104771 0.11679918 -0.02096352 -0.106117 -0.03275094 0.109593175 9.653312e-05 -0.06136807
0.14726113 -0.03730852 0.12824842 -0.052161977 0.09275676 -0.011566486 0.035418577 -0.086096086
0.024321089 0.11898758 -0.057971988 -0.0052663777 -0.08626503 0.09595604 0.14665747 -0.05871137
0.082951725 0.10914319 0.044447165 0.073054835 0.010765328 -0.011607356 0.13859051 -0.089369476
0.013160671 -0.03729436 0.0454553 -0.05931328 -0.042258147 0.09422577 0.033825 -0.109595396
-0.05264283 0.060039144 0.015540017 0.034624506 -0.07950654 0.15433057 -0.09222599 0.14264289
0.0077327043 -0.10674054 -0.11557918 0.010552109 0.10325592 -0.045539465 0.026230907 0.040636707
-0.0034027512 0.042650066 0.0010292527 0.09963985 -0.028618407 -0.013389835 0.034750108 -0.08065755
0.020742403 0.036225736 -0.036245186 0.10864013 0.0108831385 -0.014104994 0.06683556 0.106605835
0.09265769 -0.09348043 -0.046020985 0.004568832 -0.08184408 0.024229772 -0.08324482 -0.09165783
-0.12289472 -0.119538344 0.0021638495 0.076678164 -0.06691668 0.0681813 0.02605548 0.02884751
-0.001248164 0.09003315 -0.0689435 0.068058126 0.06725348 -0.081268236 0.031999815 -0.060432486
0.06807757 0.116718195 0.052737933 -0.061818898 0.06282078 -0.09336832 0.049594726 -0.0070865066
0.04184305 0.03372093 -0.05893369 -0.03749668 -0.035540123 -0.05157089 0.055862173 -0.070051424
-0.022238614 0.0019171028 -0.078623876 0.0072937594 0.011115031 -0.055825993 0.057345495 -0.014405497
0.046118643 -0.066337675 0.09307882 0.15779255 0.008665605 -0.010212015 -0.022875 -0.037946437
0.030830475 0.04741507 -0.042926483 -0.09416988 -0.07727492 0.118497506 0.0064535555 -0.0610484
0.082748644 0.11577427 -0.039372988 -0.0002976019 0.036602505 0.061428186 0.011390584 0.034084834
-0.041287914 0.12722199 -0.014987659 0.0034739594 0.04669956 0.09998978 0.0012928676 0.092711836
0.11673785 0.0018299114 0.04233101 0.100557745 0.026514268 -0.044022705 -0.045471177 -0.07827239
-0.05062352 0.04134828 -0.0066744965 -0.06834742 0.012653092 0.124056645 0.045097828 0.1174969
-0.08227299 0.032908693 0.10796692 -0.02310813 -0.11681373 -0.091583356 -0.071503 0.038540863
0.12503289 -0.060078185 -0.0056305053 -0.07818551 0.053842835 0.118608184 -0.079706825 0.12195328
00000000: cc4d f73d eb40 343e 23c0 a13d 1b72 033e
00000010: 2ab4 db3c 1269 703d 2394 d53d 3cbd a53c
00000020: bfa0 a23b 27bf 3abd ba75 243e 54d0 82bd
00000030: f014 593d ef33 923d 2837 673d 148f 003d
00000040: ab84 343e c0aa 86bc b677 203d 17d8 f43d
00000050: 393d 003e 7c34 143c 6941 233d d82e 2fbd
00000060: ff6a b4bd 9351 943c e533 7f3c cda7 b0bd
00000070: 3684 1f3e 887b b73d 0739 383c 2801 5bbd
00000080: 0f6e a33d 6e43 cdbc 3dd2 843c a406 063e
00000090: 35c4 c0bd 5c72 ccbd e2b2 a3bd dd8b 9c3d
000000a0: 6b1e 3fbd 749c 1abd 6944 b03d e896 eb3d
000000b0: 6a4b 69bd d727 2e3d e7ac b6bd 6d18 ea3c
000000c0: 3b2b 29bd 926f 05be 48b5 033e dcb3 783d
000000d0: 7c3a d4bd 99d9 9f3c 1c65 c3bc bceb 113e
000000e0: 1161 8c3b 75a8 6c3d d3c3 fc3d 07bd cd3d
000000f0: a63d a0bd 8e34 f53d fdbc c53d 065e d23d
00000100: f7dc 43bd c787 8b3d c4dd c2bd e9da 74bd
00000110: 6e8f 4e3d d4b7 883c 580c 993c 41ac a2bd
00000120: 2e92 d6bd 6934 ef3d b0bb abbc df53 d9bd
00000130: da25 06bd 6372 e03d d371 ca38 165d 7bbd
00000140: 9fcb 163e d2d0 18bd 8e53 033e cca7 55bd
00000150: 42f7 bd3d 5c81 3dbc 1213 113d 2553 b0bd
00000160: 053d c73c c3af f33d 0974 6dbd 9491 acbb
00000170: b8ab b0bd 9a84 c43d 602d 163e 557b 70bd
00000180: 98e2 a93d 7786 df3d 3b0e 363d c69d 953d
00000190: 0f61 303c c82c 3ebc acea 0d3e 5807 b7bd
000001a0: db9f 573c f9c1 18bd 562f 3a3d 7bf2 72bd
000001b0: e116 2dbd 71f9 c03d 158c 0a3d 8d73 e0bd
000001c0: 02a0 57bd 9beb 753d 8e9b 7e3c 6dd2 0d3d
000001d0: 53d4 a2bd d508 1e3e fbe0 bcbd fa10 123e
000001e0: a062 fd3b c99a dabd c7b4 ecbd c1e2 2c3c
000001f0: d777 d33d 9787 3abd 33e2 d63c ad72 263d
00000200: b100 5fbb d6b1 2e3d fde7 863a fa0f cc3d
00000210: 2671 eabc 0a61 5bbc 2156 0e3d c92f a5bd
00000220: f9eb a93c 7061 143d d575 14bd b77e de3d
00000230: 314f 323c a218 67bc 15e1 883d 2954 da3d
00000240: 51c3 bd3d ab72 bfbd 8080 3cbd 24b6 953b
00000250: de9d a7bd 847d c63c 437c aabd 1ab7 bbbd
00000260: 3ab0 fbbd 85d0 f4bd 5fcf 0d3b 7109 9d3d
00000270: 9d0b 89bd a3a2 8b3d 4d72 d53c 9d51 ec3c
00000280: 6f99 a3ba 4d63 b83d 4032 8dbd 0f62 8b3d
00000290: 31bc 893d f66f a6bd 3d12 033d 0e88 77bd
000002a0: 416c 8b3d f309 ef3d bb03 583d d035 7dbd
000002b0: 2ea8 803d e437 bfbd d723 4b3d ed35 e8bb
000002c0: 9e63 2b3d f51e 0a3d 7464 71bd 1e96 19bd
000002d0: 8592 11bd ff3b 53bd bccf 643d 1f77 8fbd
000002e0: c12d b6bc 4c47 fb3a 8e05 a1bd 7d00 ef3b
000002f0: d21b 363c cca9 64bd 1ce3 6a3d 0905 6cbc
00000300: e7e6 3c3d 0cdc 87bd 1ca0 be3d 5f94 213e
00000310: 2ffa 0d3c 4c50 27bc 5a64 bbbc b96d 1bbd
00000320: 3190 fc3c 4e36 423d aed3 2fbd 23dc c0bd
00000330: 5042 9ebd d2ae f23d 5978 d33b e30d 7abd
00000340: 1f78 a93d 0f1b ed3d 9245 21bd 7307 9cb9
00000350: 82ec 153d 1f9c 7b3d 929f 3a3c 8a9c 0b3d
00000360: 841d 29bd 7b46 023e cc8e 75bc 5eab 633b
00000370: 0a48 3f3d 71c7 cc3d 7075 a93a b4df bd3d
00000380: 4114 ef3d a3d9 ef3a 4863 2d3d 38f1 cd3d
00000390: 7334 d93c 2751 34bd fc3f 3abd 464d a0bd
000003a0: 9c5a 4fbd d05c 293d bcb5 dabb bbf9 8bbd
000003b0: ea4e 4f3c 6911 fe3d 80b8 383d 37a2 f03d
000003c0: be7e a8bd 44cb 063d c31d dd3d 434d bdbc
000003d0: 093c efbd 0e90 bbbd 2a70 92bd 06dd 1d3d
000003e0: 9f08 003e 8b14 76bd 1a80 b8bb ba1f a0bd
000003f0: 4e8a 5c3d d9e8 f23d 553d a3bd a4c2 f93d

lstm.weight_ih_l1 f4 [256, 64]
0.029885152 -0.084873796 -0.021577463 0.050723717 -0.013551734 -0.015618814 0.0015837157 0.03960715
0.060101468 -0.09418928 -0.0973092 -0.05034122 0.107763186 -0.020256747 -0.110821314 0.1022002
0.10294313 0.052678276 -0.0193329 0.13123891 0.06448749 -0.08300099 0.012800019 0.06083659
0.04383843 -0.059466574 -0.059022248 0.07655147 0.021731593 -0.068326466 -0.088592336 0.011361029
0.09365231 -0.011007705 -0.07734161 0.086393654 0.11527539 -0.059945755 -0.08666618 -0.00295313
0.0046753986 -0.009741998 0.056222204 -0.114171796 0.009317769 -0.07416989 -0.12485201 0.06410574
0.019500459 -0.06022646 -0.090043895 -0.093234524 -0.08949123 -0.035175744 -0.058323387 0.06704853
0.04746745 0.04634273 0.090315826 0.062725075 0.035730347 0.09003399 -0.018258031 0.08962559
0.06095303 -0.06647953 0.08367247 -0.12097034 -0.034443155 0.06471533 -0.061745618 -0.06315811
-0.019667508 0.0877235 -0.0794935 -0.03978227 0.022995902 -0.0906014 -0.010080131 -0.034947556
0.037119918 0.13728087 -0.018346123 0.010269668 0.11144344 -0.039557274 0.04413335 -0.045571525
-0.089376286 0.023461433 -0.021313401 -0.018956693 0.03182172 0.086783335 0.12749213 0.04408603
0.0967564 -0.07204677 0.09293144 0.09662499 0.10662459 0.0052822097 -0.045844562 -0.061008096
0.10983391 -0.11305845 -0.11444461 0.05893188 0.08510593 0.11661204 -0.017616902 -0.036270596
0.11275578 0.047166687 0.052451715 -0.10367156 0.042034 -0.027937675 -0.08346849 0.07252353
0.022742089 -0.005721983 -0.088210225 0.06996927 0.0736267 0.13588671 0.06724747 0.13366824
0.10836689 -0.0049245306 -0.01949766 0.035313427 -0.074280925 0.010695 0.04915697 0.08720507
-0.10696065 -0.08526469 -0.08045278 -0.022584619 0.10757281 0.116737574 0.11947548 -0.052627694
-0.03206976 0.054730706 -0.103235155 -0.07251885 0.056571975 -0.07510584 0.0070142723 -0.09794208
0.046295337 -0.10993863 0.07844514 -0.067495584 -0.08499638 0.11150987 0.08492583 -0.071551725
0.14539394 -0.09866069 0.075081296 -0.03885693 -0.024937518 -0.0861151 0.047494538 0.020114876
0.1455601 0.0629973 0.119329445 -0.14130113 0.08552165 0.0084056975 0.052737873 -0.02726389
0.008287353 0.03732502 0.059991192 0.041902654 -0.032896698 0.06255473 -0.044365887 0.05334102
-0.14238374 0.07668127 -0.10651809 -0.008554854 -0.058796998 0.110472105 -0.009409611 0.08630291
-0.0053103203 0.12293595 -0.08813159 -0.060772035 0.037116837 -0.09453366 -0.020481696 -0.06455191
0.027773455 0.13325681 -0.07428862 0.102290176 -0.0991526 0.034940485 -0.005494988 0.0527416
-0.03156147 0.071500994 -0.060662225 0.12965001 0.070655964 0.08418522 0.10827742 -0.04669175
0.05178993 0.08270913 -0.10169641 0.12183222 0.07655039 -0.009286459 0.04672966 -0.13943656
0.1503772 0.108075306 -0.0072085783 -0.13583717 0.1376203 -0.05126258 -0.020506896 0.09072535
0.01881374 0.002304362 -0.07568498 0.008443698 -0.096790016 -0.039860394 -0.059450317 -0.11700545
-0.07838357 -0.027666042 -0.018226912 -0.010142814 0.077648 0.0064284788 0.08053313 -0.003426591
0.011572165 -0.066286646 -0.0563435 -0.055985745 -0.0186736 0.054482285 0.071242996 0.032749895
00000000: b5d1 f43c 50d2 adbd 38c3 b0bc acc3 4f3d
00000010: 1808 5ebc 0ee6 7fbc ae94 cf3a 1b3b 223d
00000020: f52c 763d 4fe6 c0bd 0c4a c7bd 9832 4ebd
00000030: f2b2 dc3d 7af1 a5bc 49f6 e2bd 574e d13d
00000040: d9d3 d23d 2dc5 573d 0860 9ebc 7e63 063e
00000050: 0412 843d 6cfc a9bd 2cb7 513c ca2f 793d
00000060: ed8f 333d 3993 73bd 50c1 71bd 04c7 9c3d
00000070: 7406 b23c bfee 8bbd e66f b5bd 9c23 3a3c
00000080: c8cc bf3d a959 34bc 4765 9ebd 28ef b03d
00000090: 8115 ec3d ae89 75bd 0a7e b1bd 4d89 41bb
000000a0: 1634 993b e79c 1fbc 4149 663d e7d2 e9bd
000000b0: 8ea9 183c 62e6 97bd 69b2 ffbd df49 833d
000000c0: 6dbf 9f3c 05b0 76bd ef68 b8bd bef1 bebd
000000d0: 2e47 b7bd 7114 10bd 81e4 6ebd bd50 893d
000000e0: 3b6d 423d e0d1 3d3d 81f7 b83d 0176 803d
000000f0: fc59 123d be63 b83d de91 95bc 9f8d b73d
00000100: e2a9 793d 6b26 88bd 795c ab3d 4cbf f7bd
00000110: 4414 0dbd 7989 843d f9e8 7cbd 0a59 81bd
00000120: c11d a1bc 61a8 b33d 7dcd a2bd bcf2 22bd
00000130: e761 bc3c 3a8d b9bd 2227 25bc 2b25 0fbd
00000140: 0e0b 183d 5b93 0c3e 9c4a 96bc 1c42 283c
00000150: 753c e43d cf06 22bd 2cc5 343d 35a9 3abd
00000160: ea0a b7bd 3132 c03c 7199 aebc 114b 9bbc
00000170: 7e57 023d 76bb b13d 4c8d 023e 8e93 343d
00000180: 3828 c63d 428d 93bd d752 be3d 53e3 c53d
00000190: fe5d da3d 6316 ad3b 82c7 3bbd a0e3 79bd
000001a0: 9af0 e03d 308b e7bd f061 eabd 8e62 713d
000001b0: 054c ae3d 4bd2 ee3d 5251 90bc 7a90 14bd
000001c0: 81ec e63d db31 413d 9cd7 563d c151 d4bd
000001d0: d82b 2c3d 8ddd e4bc 87f1 aabd 3787 943d
000001e0: 9e4d ba3c 797f bbbb 90a7 b4bd 0c4c 8f3d
000001f0: 98c9 963d e325 0b3e 0bb9 893d 54e0 083e
00000200: 76ef dd3d f55d a1bb 8fb9 9fbc d0a4 103d
00000210: 9920 98bd 153a 2f3c d258 493d 9298 b23d
00000220: 2f0e dbbd 419f aebd 6dc4 a4bd 6103 b9bc
00000230: 224f dc3d 1c14 ef3d 8faf f43d 2390 57bd
00000240: 955b 03bd 4e2d 603d f46c d3bd c384 94bd
00000250: 04b8 673d 17d1 99bd fbd7 e53b db95 c8bd
00000260: 2ea0 3d3d 8127 e1bd d8a7 a03d 203b 8abd
00000270: 9512 aebd 495f e43d 98ed ad3d b689 92bd
00000280: 26e2 143e 9e0e cabd 39c4 993d 7228 1fbd
00000290: c449 ccbc 1d5d b0bd a289 423d f4c7 a43c
000002a0: b50d 153e ba04 813d ff62 f43d 3eb1 10be
000002b0: fa25 af3d 0db8 093c ab03 583d 8558 dfbc
000002c0: aec7 073c 1fe2 183d 53b9 753d 1ea2 2b3d
000002d0: b0be 06bd b21c 803d 01b9 35bd 1d7c 5a3d
000002e0: 0bcd 11be 120b 9d3d 2826 dabd a929 0cbc
000002f0: 1fd5 70bd 333f e23d c52a 1abc 94bf b03d
00000300: 3202 aebb d8c5 fb3d 567e b4bd 19ec 78bd
00000310: d307 183d dd9a c1bd 3bc9 a7bc cb33 84bd
00000320: 2885 e33c 7974 083e a224 98bd 837d d13d
00000330: 8510 cbbd c11d 0f3d 4d0f b4bb 9307 583d
00000340: 9a46 01bd 1d6f 923d f478 78bd f9c2 043e
00000350: 13b4 903d 4d69 ac3d 8dc0 dd3d d93f 3fbd
00000360: ad21 543d 6863 a93d 3546 d0bd 2c83 f93d
00000370: 73c6 9c3d 3b26 18bc 9a67 3f3d 75c8 0ebe
00000380: 7bfc 193e 9656 dd3d f035 ecbb e618 0bbe
00000390: 56ec 0c3e b6f8 51bd 14fe a7bc 36ce b93d
000003a0: 461f 9a3c c704 173b ba00 9bbd 7057 0a3c
000003b0: d839 c6bd a744 23bd 2d82 73bd 8ea0 efbd
000003c0: 9187 a0bd e5a3 e2bc 9b50 95bc 0c2e 26bc
000003d0: ea05 9f3d fda5 d23b 8eee a43d a890 60bb
000003e0: 2e99 3d3c 4bc1 87bd 71c8 66bd 4f51 65bd
000003f0: 61f9 98bc d128 5f3d d9e7 913d c124 063d

lstm.weight_hh_l1 f4 [256, 64]
0.13758989 -0.018237296 -0.07618598 0.051596567 -0.13838962 -0.044069353 0.03552915 -0.021738915
-0.080655806 0.05439283 -0.02305849 -0.055663466 0.08426994 0.046466697 0.014566861 0.011465907
-0.010162727 -0.13106205 -0.030053752 -0.015634514 0.024427624 0.011028211 -0.07354411 0.06471373
-0.008820133 0.00068964536 0.06520086 -0.11318999 0.10842896 0.07980548 -0.059322882 -0.021711895
0.012150633 -0.031603284 0.04172104 0.03152871 0.09982847 -0.10034767 -0.08691693 0.05905771
0.024365326 0.10159123 -0.020801375 -0.13119666 -0.012971747 -0.12671603 0.057276815 0.04942097
0.07424578 -0.08292265 0.089221455 0.069647655 0.050465316 -0.012396968 -0.028219717 0.11503
0.1013114 0.07955725 -0.07618939 -0.083148204 -0.12934622 0.08229489 0.10639572 -0.062231917
-0.12846912 -0.07949289 -0.013016035 0.040385302 -0.043562144 0.017184298 0.11025667 0.11057335
-0.10756206 0.12751435 0.073870145 0.060518656 -0.018325934 0.004265391 -0.07130965 -0.046282317
-0.115061715 0.08638402 0.021709882 0.072180964 -0.06768136 -0.10572074 0.074176975 -0.080384694
-0.014096947 0.024363095 -0.07024023 -0.08053946 0.047213685 -0.089550644 0.07907916 -0.10406409
0.00933983 0.04480393 -0.0727074 -0.013882527 0.08666655 -0.071855515 0.017391276 -0.10591158
0.10003377 0.014198813 -0.1170146 0.059572943 0.021863338 -0.02029758 -0.12784356 0.09296649
-0.073964365 -0.11979111 -0.010955633 0.03466907 0.038771104 0.087206826 -0.09449929 -0.035877634
-0.012599597 0.007977681 0.053992134 -0.02246687 -0.09302307 -0.0832816 -0.09992932 -0.1066624
0.055596173 0.017070662 0.017922621 0.06704618 -0.051299386 -0.06916071 0.11548355 0.005107537
-0.022051916 -0.02388988 -0.034273148 -0.026105542 -0.08245269 0.12836206 0.059332684 -0.008722689
0.059144445 0.03778318 0.085729405 -0.098269366 0.058130078 0.012245227 0.10187896 -0.12987666
-0.03735649 0.03579715 0.01032486 -0.005053408 -0.06386954 -0.1097255 0.09653715 -0.034411382
0.060510524 0.1267579 0.124631934 -0.036178477 0.0021098892 -0.051398136 -0.12062505 0.07684322
0.092580944 0.06779375 0.0089208605 -0.020615084 0.03941047 0.1080031 -0.07414097 0.027147243
-0.012177917 0.054693446 0.051318 0.045828156 0.0100819385 0.07260807 0.063535355 0.01949415
-0.08585976 -0.022353671 0.012960898 0.032474957 0.024331044 0.06247297 -0.028351236 0.045866527
0.021756172 -0.13031372 -0.11308793 -0.08142723 -0.052589398 0.10743691 -0.01614192 0.031121524
-0.0054627177 0.008295627 -0.030024847 -0.0780473 -0.035050336 0.031183176 0.008063974 0.007136528
-0.11555287 -0.0709211 -0.10089547 0.09496369 -0.007497182 0.023201875 -0.0043673064 -0.08448715
0.13116759 -0.0063062357 0.123446725 0.12911388 -0.08411847 -0.112609826 -0.02504203 0.050163638
-0.047313713 -0.08087687 -0.10578761 -0.09713989 -0.10844865 0.09258474 -0.053126637 0.07373205
-0.043642264 -0.021389093 0.10760448 0.04832224 -0.09238784 0.13408144 -0.114729695 -0.113470316
0.064915225 0.070599094 0.0668787 0.11217005 0.08454976 -0.048221115 0.08704674 -0.039428506
-0.101520464 -0.023950683 -0.07474855 -0.10051628 -0.08484985 -0.0825905 -0.08528699 -0.02986671
00000000: 5de4 0c3e 6266 95bc 6507 9cbd ec56 533d
00000010: 02b6 0dbe 1182 34bd 0487 113d cf15 b2bc
00000020: df2e a5bd 04cb 5e3d 29e5 bcbc 60ff 63bd
00000030: b895 ac3d dd53 3e3d d8a9 6e3c 80db 3b3c
00000040: 9181 26bc 2135 06be 4933 f6bc f413 80bc
00000050: 711c c83c abaf 343c 4b9e 96bd a288 843d
00000060: 5282 10bc 51c9 343a 0788 853d 27d0 e7bd
00000070: 0110 de3d 0e71 a33d 8dfc 72bd 25dd b1bc
00000080: 7313 473c 7272 01bd aee3 2a3d 4024 013d
00000090: de72 cc3d 1483 cdbd 8101 b2bd 7fe6 713d
000000a0: cb99 c73c 100f d03d a567 aabc 6b58 06be
000000b0: 7387 54bc d9c1 01be 189b 6a3d a56d 4a3d
000000c0: 2c0e 983d 5ad3 a9bd bdb9 b63d 6ea3 8e3d
000000d0: b8b4 4e3d a71c 4bbc 092d e7bc d994 eb3d
000000e0: 5a7c cf3d e9ee a23d 2f09 9cbd 9b49 aabd
000000f0: 5673 04be 398a a83d 00e6 d93d e5e6 7ebd
00000100: 698d 03be 2bcd a2bd 3541 55bc 0f6b 253d
00000110: 386e 32bd 16c6 8c3c 40ce e13d 4874 e23d
00000120: 7f49 dcbd 1f93 023e 3b49 973d 69e2 773d
00000130: 4520 96bc b1c4 8b3b cb0a 92bd 8792 3dbd
00000140: 7aa5 ebbd 1bea b03d ecd8 b13c 9dd3 933d
00000150: 869c 8abd 1e84 d8bd 19ea 973d bba0 a4bd
00000160: e2f6 66bc 1d95 c73c 1cda 8fbd dff1 a4bd
00000170: 2363 413d 5466 b7bd 41f4 a13d 8e1f d5bd
00000180: 1606 193c 5384 373d 9ee7 94bd 8a73 63bc
00000190: 3b7e b13d fc28 93bd 2678 8e3c 2ce8 d8bd
000001a0: 81de cc3d 23a2 683c 5aa5 efbd c202 743d
000001b0: be1a b33c 1c47 a6bc 6ce9 02be 3765 be3d
000001c0: a17a 97bd 0b55 f5bd 417f 33bc 2801 0e3d
000001d0: 73ce 1e3d 7e99 b23d d888 c1bd 6df4 12bd
000001e0: 8a6e 4ebc d2b4 023c db26 5d3d 710c b8bc
000001f0: e182 bebd 8b8f aabd bea7 ccbd d171 dabd
00000200: d0b8 633d c6d7 8b3c 76d2 923c 824f 893d
00000210: 4e1f 52bd 21a4 8dbd a482 ec3d 205d a73b
00000220: 38a6 b4bc b6b4 c3bc 0062 0cbd 4adb d5bc
00000230: f5dc a8bd 5871 033e d406 733d 9ce9 0ebc
00000240: 7241 723d 89c2 1a3d e692 af3d 7341 c9bd
00000250: ce19 6e3d 34a0 483c eba5 d03d 63fe 04be
00000260: 1e03 19bd 08a0 123d 9a29 293c 0f97 a5bb
00000270: 09ce 82bd c3b7 e0bd 45b5 c53d f3f2 0cbd
00000280: e2d9 773d d3cc 013e 073f ff3d e22f 14bd
00000290: 1146 0a3b da86 52bd 440a f7bd fa5f 9d3d
000002a0: 149b bd3d 73d7 8a3d cd28 123c f7e0 a8bc
000002b0: df6c 213d bb30 dd3d 39d7 97bd e563 de3c
000002c0: e385 47bc 3c06 603d d332 523d 4eb6 3b3d
000002d0: b72e 253c 8ab3 943d d31e 823d 32b2 9f3c
000002e0: 3ed7 afbd 0c1f b7bc f259 543c 7604 053d
000002f0: e651 c73c a8e3 7f3d da40 e8bc 8ade 3b3d
00000300: 003a b23c f670 05be a59a e7bd 52c3 a6bd
00000310: fb67 57bd e207 dc3d 0f3c 84bc 91f2 fe3c
00000320: 9900 b3bb 62ea 073c abf6 f5bc 43d7 9fbd
00000330: f190 0fbd dc73 ff3c c21e 043c 89d9 e93b
00000340: fca6 ecbd 153f 91bd 49a2 cebd 537c c23d
00000350: ecaa f5bb dc11 be3c 9f1b 8fbb 9907 adbd
00000360: cc50 063e 8aa4 cebb a3d1 fc3d 6e36 043e
00000370: 4e46 acbd fb9f e6bd f124 cdbc 6378 4d3d
00000380: 06cc 41bd c6a2 a5bd 2da7 d8bd 47f1 c6bd
00000390: 531a debd 119d bd3d 519b 59bd d400 973d
000003a0: 3bc2 32bd 2e38 afbc bd5f dc3d 8bed 453d
000003b0: d635 bdbd a54c 093e 67f7 eabd 2063 e8bd
000003c0: 46f2 843d 4296 903d b3f7 883d 69b9 e53d
000003d0: 6d28 ad3d 8183 45bd 9045 b23d c97f 21bd
000003e0: f6e9 cfbd 3934 c4bc c515 99bd 7bdb cdbd
000003f0: c2c5 adbd 3525 a9bd f2aa aebd 08ab f4bc

lstm.bias_ih_l1 f4 [256]
0.100657314 0.10214455 0.10706149 -0.052134544 -0.036173522 -0.07338479 -0.032357454 0.022732606
-0.048945054 0.079670414 -0.041480623 -0.11078299 -0.07923357 0.06780378 -0.08753391 -0.08362154
0.107605815 -0.09857425 0.10304079 -0.0719653 -0.016376078 0.022738535 -0.05042553 0.05386158
0.020760063 0.066779785 -0.052661497 -0.010735635 -0.074653976 0.1042077 0.031908914 0.10642736
-0.08674442 0.10323577 -0.08412128 0.05879488 -0.05894866 -0.055234533 -0.093494244 0.09869492
-0.109185435 0.07175083 0.0940976 0.13483293 -0.11212362 -0.09405896 0.045062605 -0.028471192
0.04239666 -0.07113101 0.05071575 0.049522787 0.11135731 -0.0971016 0.013168709 0.10659164
0.05318031 0.07628455 -0.05946699 0.07559361 0.120515555 -0.069479465 0.05699454 -0.029672066
-0.12238527 -0.087644376 -0.099936895 0.106987715 -0.06439313 0.0012749209 0.06857385 0.036044966
0.10161787 -0.0099456655 -0.039109927 -0.015543407 0.036123216 0.022523344 -0.030730149 0.01731094
0.1321381 0.10485793 -0.08181818 -0.011663497 -0.07592925 0.037641592 -0.067262456 0.10887419
-0.11568534 -0.08460007 -0.054665625 0.05060608 -0.034176946 -0.10255309 -0.051940646 0.099819556
-0.0045217765 0.05669901 -0.0037562808 -0.0023234694 0.032246746 -0.07873128 0.048393834 -0.031111876
-0.023057925 -0.09924665 -0.08547586 -0.03035882 -0.03303178 0.056765202 0.07001791 0.10302092
-0.06963763 0.09159235 0.050333932 -0.02959473 0.11532614 0.051139183 0.045746364 -0.100929454
0.081192 0.12787145 -0.111945175 0.06728727 -0.048799705 -0.07857048 -0.11064852 -0.018324293
0.029871682 0.023664158 0.0130910585 -9.137171e-05 -0.023576679 0.08279158 -0.0775657 -0.07510345
0.085102044 0.055841014 -0.024603669 0.10588093 0.056723952 -0.086583324 0.017517278 -0.08812923
-0.021227175 -0.035427608 0.0345045 -0.099556796 -0.066700384 0.1313205 -0.070712775 -0.0697795
0.0795758 0.1046861 0.04126208 0.04429725 -0.10509484 -0.01452137 -0.021948073 -0.09626142
0.10145018 -0.03469988 -0.011300376 0.10534701 0.046859458 -0.0030619027 -0.012677012 0.013918712
0.05649864 -0.0065822112 0.04010338 -0.048897658 0.01907627 0.07482407 0.004928231 0.06799623
0.07922405 0.042631038 0.04459443 0.024245912 -0.008048038 0.012205903 -0.04465093 -0.047231574
0.062267072 -0.08858695 -0.051161725 0.061247025 0.08672642 0.09707507 -0.014177956 -0.05053627
-0.06674508 0.11604467 -0.073476456 0.1262889 -0.08752167 -0.07588965 -0.03267801 0.11813126
-0.049226902 -0.07032756 0.1284493 0.11352035 -0.101678856 0.022163749 0.08316077 -0.049396448
0.008959946 0.1067141 0.08340382 -0.079590514 0.071586296 0.08043959 0.01873005 0.061239872
-0.07231872 -0.022745391 0.05321303 -0.019951794 -0.055032577 0.018711535 0.13288875 0.07246939
0.06417214 0.001022379 -0.1185236 0.0045363195 0.042764477 -0.064111315 0.11127917 0.024315896
-0.0931707 0.103484966 0.00841756 0.021081414 -0.10253249 0.10915564 -0.04386049 0.07961827
0.031675998 -0.047199097 0.04077287 -0.12310818 -0.01515802 -0.025485687 -0.11636681 -0.10941629
0.13011341 0.01679448 -0.14244635 0.07548235 -0.083898194 0.07508551 0.015425212 0.03383354
00000000: 6c25 ce3d 2931 d13d 0e43 db3d 088b 55bd
00000010: b02a 14bd c44a 96bd 4089 04bd bb39 ba3c
00000020: 9c7a 48bd 3e2a a33d 96e7 29bd 31e2 e2bd
00000030: 3645 a2bd b5dc 8a3d fb44 b3bd c541 abbd
00000040: 7060 dc3d 4ce1 c9bd 0d07 d33d 8b62 93bd
00000050: 2027 86bc 2a46 ba3c 008b 4ebd f69d 5c3d
00000060: 0211 aa3c d7c3 883d 95b3 57bd 84e4 2fbc
00000070: 2fe4 98bd d96a d53d ecb2 023d 96f6 d93d
00000080: 0fa7 b1bd 466d d33d c747 acbd e6d2 703d
00000090: 2674 71bd 9b3d 62bd e979 bfbd 9020 ca3d
000000a0: 9d9c dfbd 19f2 923d 3eb6 c03d a511 0a3e
000000b0: 12a1 e5bd fca1 c0bd 9193 383d 6b3c e9bc
000000c0: 1fa8 2d3d 23ad 91bd 51bb 4f3d 68d8 4a3d
000000d0: 4d0f e43d 34dd c6bd 92c1 573c b84c da3d
000000e0: 99d3 593d 133b 9c3d a993 73bd d3d0 9a3d
000000f0: dcd0 f63d 404b 8ebd 1b73 693d d512 f3bc
00000100: 21a5 fabd e57e b3bd b7ab ccbd 601c db3d
00000110: 8ce0 83bd 3f1b a73a 7270 8c3d e3a3 133d
00000120: 081d d03d 25f3 22bc bb31 20bd c6a9 7ebc
00000130: f0f5 133d e082 b83c cbbd fbbc accf 8d3c
00000140: 364f 073e c1bf d63d 4a90 a7bd 4118 3fbc
00000150: cb80 9bbd 122e 1a3d e6c0 89bd 6ef9 de3d
00000160: 6fec ecbd cd42 adbd 10e9 5fbd 5248 4f3d
00000170: 20fd 0bbd 5b07 d2bd b7bf 54bd 326e cc3d
00000180: 692b 94bb 393d 683d ef2b 76bb 5945 18bb
00000190: 2a15 043d de3d a1bd 9d38 463d 55de febc
000001a0: f9e3 bcbc d441 cbbd f80d afbd 0fb3 f8bc
000001b0: 554c 07bd a182 683d 8d65 8f3d a2fc d23d
000001c0: 2c9e 8ebd c594 bb3d f42a 4e3d a670 f2bc
000001d0: 1c30 ec3d 5277 513d 8a60 3b3d 1ab4 cebd
000001e0: fe47 a63d bcf0 023e 8343 e5bd e9cd 893d
000001f0: 33e2 47bd 8fe9 a0bd b19b e2bd d41c 96bc
00000200: 75b5 f43c 56db c13c e17b 563c d09e bfb8
00000210: e123 c1bc a28e a93d c4da 9ebd d6cf 99bd
00000220: fb49 ae3d 8cb9 643d a28d c9bc 1ad8 d83d
00000230: 6057 683d 9952 b1bd 6580 8f3c 197d b4bd
00000240: 9de4 adbc 8a1c 11bd 9754 0d3d 6fe4 cbbd
00000250: 369a 88bd e278 063e dcd1 90bd 8ee8 8ebd
00000260: a3f8 a23d aa65 d63d 6d02 293d 0971 353d
00000270: f73b d7bd 0aeb 6dbc 72cc b3bc b524 c5bd
00000280: 1dc5 cf3d 7621 0ebd 3625 39bc 2cc0 d73d
00000290: b4ef 3f3d 34aa 48bb 3eb3 4fbc 4f0b 643c
000002a0: 1e6b 673d 97af d7bb 7143 243d e948 48bd
000002b0: d645 9c3c 5d3d 993d ff7c a13b 9c41 8b3d
000002c0: 3840 a23d e29d 2e3d a6a8 363d 5d9f c63c
000002d0: ebdb 03bc 45fb 473c e5e3 36bd e575 41bd
000002e0: c20b 7f3d 136d b5bd f58e 51bd 29de 7a3d
000002f0: 9f9d b13d 4bcf c63d a84a 68bc 1fff 4ebd
00000300: a5b1 88bd d4a8 ed3d d37a 96bd e151 013e
00000310: 903e b3bd 086c 9bbd 61d9 05bd cdee f13d
00000320: 26a2 49bd e507 90bd 3788 033e 5b7d e83d
00000330: 013d d0bd c090 b53c 3250 aa3d ee53 4abd
00000340: bdcc 123c ec8c da3d 9fcf aa3d 5a00 a3bd
00000350: d69b 923d 83bd a43d c36f 993c a9d6 7a3d
00000360: d61b 94bd 8b54 babc e8f5 593d f271 a3bc
00000370: d769 61bd ef48 993c fd13 083e d56a 943d
00000380: af6c 833d 5901 863a 80bc f2bd 68a5 943b
00000390: ce29 2f3d cb4c 83bd 55e6 e33d 2132 c73c
000003a0: 48d0 bebd edef d33d cee9 093c eeb2 ac3c
000003b0: 8efc d1bd fe8c df3d 0fa7 33bd e70e a33d
000003c0: b1be 013d d753 41bd 7401 273d 2420 fcbd
000003d0: 5859 78bc 5cc7 d0bc b951 eebd a615 e0bd
000003e0: 733c 053e 9494 893c 75dd 11be 7e96 9a3d
000003f0: d1d2 abbd 6fc6 993d 07ba 7c3c 0a95 0a3d
