best_lstm_1step_spx.pt (torch, 206277 bytes, 9 tensors)

lstm.weight_ih_l0 f4 [256, 1]
00000000: cb1d 6b3d 64c4 493e 29f0 03be b633 093c
00000010: 553d 1bbd bb76 c13d 5176 5abd ba93 4a3d
00000020: 0c5a 99bc 447b 2f3e e6b6 93bd fe9a 143e
00000030: fdeb 103e 94fc 523e 1f5d 6b3e 4ed8 a9bc
00000040: bf4f eabc 7e4f 99bd aff7 1fbc 2a53 f7bb
00000050: c243 5cbd 5aa6 41bd 6772 543d f7a0 043e
00000060: 8260 b03d 9d32 2a3b 8f16 4b3d ddd7 87bd
00000070: 3644 3dbd b8e4 a4bd 5273 d13d 45af 503e
00000080: 56e1 823e e7cb 573d e71f 65bd d56c 173e
00000090: d540 02be 0e63 97bd 6e9f 373c 8d25 413d
000000a0: cf56 b73c 4997 0a3b e7ce f03c bd8c 0abc
000000b0: 7fd5 a33d 2f46 09be 295a 1c3e 9505 313e
000000c0: 83f0 263e 794e 1b3e 060a cf3d 2ea2 d5bc
000000d0: b3ea a73d cf4b 233e 6214 863d b59a 443e
000000e0: cd30 30be 1a6e de3c 760b 353c 5994 393e
000000f0: 1ef4 743e 03d2 963d 4f8f 9b3d 5c43 333d
00000100: 4aed 5c3d 6c8d 5dbd 7c68 3fbd a4af babd
00000110: b824 363e 5bcc a23d e03a 36be 7fda 58bc
00000120: 27e1 a13d 8d64 f13d 9fd1 1c3d 0927 f43c
00000130: 2c99 0d3e 5e53 a83c 0145 fa3d 2efb 52bb
00000140: e943 ccba 7b14 fcbd 5ee8 1f3e 649e 76bd
00000150: 4f11 5abd 51ab fd3d 35c4 1dbe 7d89 723d
00000160: 87c8 323d 4b23 563e 71bf 0abd 3030 91bc
00000170: ea46 9fbc 4526 693d e1aa 993d e6ad f13c
00000180: b171 133d b209 8f3c 656f cbbd 7504 33bc
00000190: a92a 7fbd cc87 0cbd b046 d03d a057 7d3d
000001a0: 37dc 433e 8bd2 10be bfe4 edbc 9e9c 8d3b
000001b0: 2092 06be 69e8 edbd 5aee e5bb a748 17bc
000001c0: 0798 143d 7b7f 18bb 5174 bc3d a1b3 693c
000001d0: c8ea c63d 34f1 323e a8ee 253e 030d 8dbd
000001e0: e1d1 68bd 3c06 403d b4c1 0abd 0861 ba3c
000001f0: 7d15 6a3d 9333 b73d 2abd 8d3d c07d d8bd
00000200: f3ab 113e df11 223d 1178 303d fa00 4d3d
00000210: eeb5 7ebd 2a0c a63d 050f 11be 8baa 2f3e
00000220: 7dee dfbd 7a98 f03d 3303 db3d 505d 2cbe
00000230: ef68 a63d 7c6b 343e da15 31be c40b 6b3d
00000240: 84a2 1bbe 61d8 c63d 2b50 f9bd aa10 8c3c
00000250: 69fa 2e3d e2ea 7cbc 0152 043e 9ef9 2bbe
00000260: 8b99 3cbe e218 633e f616 853d e2a0 2f3e
00000270: 6237 4fbe b12b fe3d 1fe4 c8bd 07db 31be
00000280: c242 6d3e ceab 8a3d 3a0b 1ebe be69 eebd
00000290: 7fde 333c 0b60 5ebe f2d8 8c3d 4a69 073e
000002a0: 6bd2 0dbe de2d 653d e9e1 403e e8d5 243e
000002b0: 96c3 2fbe 38d8 973d e33f 663e 5ca5 103e
000002c0: 6ec2 d8bd 780a 4f3a c02e e33c b785 3d3e
000002d0: 5664 273e e6fc b83d 43bc 0b3e 7699 69be
000002e0: 6cbf e6bd 4788 92bd ffd8 e6bc 94dc 79bd
000002f0: 4d48 4abe e3a4 7bbc 5fb5 60be 12bf e2bd
00000300: ba3e b33d 3c8b 483e f76d 3c3d e78a 57bd
00000310: 7ba9 163e fdbc f03d 66ed 09be 40aa 343e
00000320: 1e74 9ebd 0a90 573d ed44 ee3d 6d8c 883d
00000330: 444e a63d 7831 273d c96f 253d cf32 4f3e
00000340: 89d7 893c d5eb 313d d867 2f3e d9cc 8bbd
00000350: 6a3f e5bd 507a b1bd b7c7 203d dda3 c13d
00000360: 7cda 073e f303 453e a517 cf3d 391c e23c
00000370: 582b b8bd 21b8 75bd 10b2 f23d f3cc 3f3e
00000380: dd17 383e 180f b9bd 90e8 46be e7c2 2e3e
00000390: edc2 203d f8c0 813d 643d 2f3e 9c41 cc3d
000003a0: 2e99 8cbc d071 663d 6479 893d 97ac 2b3c
000003b0: c6a0 e33d e49b 053d 969a 953d 5051 1239
000003c0: fd65 8f3e eba4 b33b d204 123e 5ed3 9c3d
000003d0: 972c 42bd 0de6 af3d 6834 733d 9a76 04bd
000003e0: 129c adbc d5e7 453d b101 333e 903e 813d
000003f0: f37c 9c3e c7f8 c83c f1c2 1f3e 2156 063e
0.05740146 0.19703823 -0.12884583 0.008374145 -0.037900288 0.09446474 -0.05333549 0.04945729
-0.018719696 0.17136866 -0.072126195 0.1451225 0.14152522 0.20604163 0.22984742 -0.020733025
-0.028602479 -0.07485865 -0.009763642 -0.0075477557 -0.053775556 -0.047277786 0.051866915 0.12952028
0.086121574 0.002597011 0.04958206 -0.066329695 -0.04620763 -0.08051437 0.10227074 0.2037936
0.25562543 0.05268469 -0.055938628 0.1478761 -0.12720044 -0.0739194 0.011207445 0.04715495
0.02238026 0.0021147302 0.029395534 -0.008456406 0.079997055 -0.13405679 0.15268768 0.17287286
0.16302685 0.15166654 0.10109334 -0.02607831 0.08199062 0.15946887 0.065468565 0.19199641
-0.17206116 0.02715211 0.011050096 0.18122996 0.23921248 0.07364275 0.07595693 0.04376541
0.053937234 -0.05408995 -0.046730503 -0.09115532 0.17787445 0.07949134 -0.17795897 -0.013235687
0.079042725 0.11786757 0.038285848 0.02980377 0.13827962 0.020547565 0.12220193 -0.0032193172
-0.0015584204 -0.12308594 0.15615985 -0.060209647 -0.053239163 0.12386192 -0.15406878 0.05921315
0.04364827 0.209119 -0.03387398 -0.017723173 -0.019442994 0.056921262 0.07503296 0.029501867
0.035997096 0.017460678 -0.09933356 -0.010926356 -0.062296543 -0.034309193 0.101697326 0.061851144
0.19126974 -0.14142816 -0.029039739 0.0043216487 -0.1314168 -0.11616594 -0.007016939 -0.00923363
0.036277797 -0.0023269344 0.09201873 0.014264018 0.0971275 0.17474824 0.16204321 -0.068872474
-0.05684078 0.046880946 -0.033876136 0.022751346 0.0571494 0.08945384 0.06920846 -0.1057086
0.1422575 0.039567824 0.043083254 0.05004976 -0.06218522 0.08107789 -0.14165886 0.171549
-0.1093416 0.117478326 0.106939696 -0.16832471 0.08125483 0.17619127 -0.17293492 0.057384267
-0.15198714 0.0970924 -0.12173494 0.01709779 0.04271928 -0.01543686 0.12921907 -0.1679444
-0.18417947 0.22177461 0.0649852 0.17151216 -0.2023597 0.12410677 -0.09809136 -0.17368709
0.23169997 0.067710504 -0.1543397 -0.116412625 0.01097834 -0.21716325 0.068773165 0.13223758
-0.138498 0.055951945 0.18836178 0.16097224 -0.17164454 0.07414287 0.22485308 0.1412558
-0.105839595 0.00078979833 0.027732253 0.1850804 0.16346869 0.090326115 0.13646035 -0.22812447
-0.112669796 -0.07154899 -0.028179644 -0.061001375 -0.19754143 -0.015359136 -0.21944188 -0.110716
0.087521985 0.19584364 0.04600331 -0.052622702 0.14713089 0.11754797 -0.13469467 0.1764307
-0.07736991 0.0526276 0.1163424 0.06667409 0.08120397 0.04081866 0.04038981 0.20234226
0.016826408 0.043437798 0.17129457 -0.06826181 -0.11193736 -0.086659074 0.039252963 0.094550826
0.13266939 0.19239788 0.10111932 0.027601348 -0.08992642 -0.059990052 0.11850369 0.18730526
0.17977853 -0.09036082 -0.19424653 0.17066537 0.039248396 0.06335634 0.17113262 0.099734515
-0.017162886 0.056260884 0.067126065 0.01047816 0.111146495 0.032619372 0.073048756 0.00013953936
0.28007498 0.0054823062 0.14259651 0.076575026 -0.047405805 0.085888006 0.05937615 -0.03233967
-0.021192584 0.048316795 0.17481114 0.06310761 0.3056408 0.024532689 0.15601708 0.13118793

lstm.weight_hh_l0 f4 [256, 64]
00000000: 1d39 b7bc 3a53 343d 7295 443d 2842 82bc
00000010: 80e6 263d 438b a43d 48d1 a33c 1038 353d
00000020: b05d 02be 4be8 003d 8aa6 943d 9b04 acbd
00000030: a2f9 a5bd f620 af3c 0d31 ff3b f46d c83d
00000040: 565b 6c3d 3f39 5ebc 7d61 533d b4e9 a53c
00000050: fb77 0bbd afe0 883d 6dbf 103d fa62 19bd
00000060: 33f5 d1bd 3ae4 153e 22b6 e93d d317 ea3d
00000070: d521 91bd 91fc af3d 6ebf 0cbe b57a 2c3d
00000080: dc1b 66bd e340 413e 0cf2 8bba e0a2 70bd
00000090: db37 12be 7fa1 e23b 6ce1 7f3d d2d8 e83d
000000a0: cbb8 b63c 9a79 393e 02a5 f5bc fce8 773d
000000b0: 2264 66bc 877d b4bd 5b7a 173e 862d 493d
000000c0: 939d 81bd fa99 a3bd 8c28 273d 4dee 013e
000000d0: e696 093e 3295 2ebc 06b3 f03d d7f6 adbc
000000e0: dd43 823b 4eb4 7f3d 7c94 a7bd 9c1b 0abe
000000f0: 13c6 e0bc abd7 653d 0202 20bd 31e9 ff3c
00000100: 37df 823d 2330 49bd e2ec b6bd f775 6abd
00000110: aa71 e03b dcd5 5b3c a84f fbbd 4996 ed3d
00000120: 994c c83d 9ae6 a2bd 392a b7bd 0ced a83d
00000130: 6d7d a03c 5ab6 d7bc e53b 0cbe 26bb aabd
00000140: 8723 70bc 57d3 8d3d 9576 fdbc f249 e5bd
00000150: bcd9 3c3d e6b8 ffbc 2239 4f3d 73c2 d03d
00000160: c1a2 d73c 5a84 9f3d 22b7 64bd 7edb a3bd
00000170: 82de 043d 09ef a33c 385d 2bbc 3b43 563d
00000180: 82c4 c5bd 76a8 2b3c 070d d1bd 936d e93c
00000190: 24f3 1a3d 257a 2dbd 01dc a2bd 96ee 98bc
000001a0: c31a c43d cc1b 973d bee5 dcbc 2a4f 4c3c
000001b0: be6d 873d 2e3f 513d 2e2b 1c3d 7465 e23d
000001c0: c87a 7b3d 8ed8 05be 10f2 e3bc 7545 f1bd
000001d0: e639 09bd d7f3 64bd 061a bbbd 9902 4c3d
000001e0: 85db 8ebd c83a 40bd 43dd 28ba 4a2d 613d
000001f0: 13a3 bfbd 2aec 63bd a67e 623c 6401 b73d
00000200: 5fa3 aabc c139 33bc b9b0 a1bd d03a b9bd
00000210: 69cb adbd 2542 16be 62c2 d43d 93c1 b03d
00000220: d61f 6a3d c8ce bcbd 309c 993d 3090 b1bc
00000230: 6ba7 db3c a158 953d 1cea c43d c772 b43d
00000240: 8334 f43d 20db 65bd 9717 003d 85f6 ddbc
00000250: 7fd2 10bd f252 20be cd00 01be 60fa 953d
00000260: bcce 00bc 00cc ad3d 4f57 a9bb 8f5a 9f3c
00000270: 0eac b6bc 39d8 0abe ebcf 6a3d 49cb f5bc
00000280: 31e0 10be 48a7 b1bd 1f03 87bd bd19 223e
00000290: 95d2 763c 9441 6f3d 5308 13be 27e9 0dbe
000002a0: 9fae 17bb a3f3 b1bd e26c 1dbe ea03 153c
000002b0: 193e 043c b628 d8bd cd5a a63d 4ef8 0dbe
000002c0: 1b1c 683d 6706 c03d a867 dd3d 0a40 433d
000002d0: a0c3 83bd 41a1 e1bc b107 773d 7f2d 853d
000002e0: 07a9 f63d ed47 033e 0b8e 123e 0340 993d
000002f0: 1317 0d3e aaab ad3d 5394 82bb ed97 d33d
00000300: 1a11 803d 2300 cd3d 39c6 b2bd 1568 8d39
00000310: a66e b53b 32e3 3dbd 2aaf 40bd af37 debd
00000320: a4d1 cabd 9344 babc d97f 693d c1c8 7bbd
00000330: 5180 c239 cd4c da3d 2f32 bb3d 89b1 763d
00000340: b49b dc3d 8141 f23d 6f45 f83d 0069 883c
00000350: b561 ae3c d1e4 ccbc adc9 3d3d f0ba c43d
00000360: ff3d a53d ad8b cfbd 52fd b9bd 3a89 1b3c
00000370: a89a 683d 7b9e 93bd 0cdd 5c3d 9219 fa3d
00000380: d463 c23d 1ecd a6bd 4cd7 a73c 772b 1ebd
00000390: 045a ebbd 6645 093e c13c ab3d 20f1 2dbd
000003a0: 25c5 833d 6e40 953c 71b2 01be 580e 9bbd
000003b0: 7b82 61bb 3501 313c 428a b5bb 1125 b3bd
000003c0: e505 34bd 9895 90bd 484d ef3c ac91 aebd
000003d0: 5004 72bd 1828 b43c c770 cf3b 90d7 dabc
000003e0: 3227 a2bd f3ab acbb 26b5 093e 1bc8 aa3d
000003f0: a30d a9bd 121e 0a3d 0846 bc3d 74cc 833d
-0.0223661 0.044024684 0.047994085 -0.015900686 0.040747166 0.080343746 0.019997254 0.04424292
-0.12731051 0.03147153 0.07258327 -0.08399316 -0.08104254 0.021378022 0.0077878297 0.09786597
0.057704292 -0.013563453 0.051606644 0.02025304 -0.03404997 0.0668348 0.035338808 -0.037447907
-0.10251846 0.14637843 0.11411692 0.11430325 -0.07086531 0.08593095 -0.137449 0.04210921
-0.056178913 0.18872409 -0.0010676994 -0.05874908 -0.1427912 0.0069162245 0.06247084 0.1136948
0.022304913 0.18112794 -0.029985908 0.060524926 -0.014061959 -0.08813005 0.14792769 0.04911568
-0.06328883 -0.07988353 0.040810153 0.12688561 0.1343647 -0.010655688 0.11752896 -0.021235866
0.003975375 0.06242781 -0.08182618 -0.13487095 -0.0274382 0.05611388 -0.039064415 0.031239124
0.06390231 -0.049118172 -0.089319006 -0.057241406 0.0068494873 0.013417687 -0.122710526 0.1160093
0.09780235 -0.0795414 -0.089436 0.08248338 0.019591058 -0.02633207 -0.13694723 -0.08336477
-0.014656908 0.069250755 -0.030940333 -0.111957446 0.046106085 -0.031216096 0.050591595 0.10193338
0.026322724 0.07788916 -0.05583871 -0.08000849 0.032438762 0.020011442 -0.010459237 0.05231021
-0.096566215 0.010477176 -0.10207563 0.028494632 0.037829533 -0.042352814 -0.07952119 -0.018668454
0.09575417 0.07378349 -0.026965018 0.012470046 0.066127285 0.051085643 0.038127117 0.11054507
0.06139639 -0.1307089 -0.027825385 -0.11780826 -0.033502482 -0.055896606 -0.09135823 0.049807165
-0.06975464 -0.04693106 -0.0006441662 0.05497483 -0.09357276 -0.055645145 0.013824141 0.08935812
-0.020829855 -0.010939063 -0.07895035 -0.09044421 -0.08486063 -0.1467367 0.10388638 0.08630671
0.057159267 -0.09219128 0.075004935 -0.0216752 0.02681323 0.07292295 0.09614965 0.088109545
0.11924078 -0.056117177 0.031272497 -0.027095089 -0.035356995 -0.15656641 -0.12597962 0.07323146
-0.007861789 0.084861755 -0.0051678787 0.019452361 -0.022298839 -0.13559045 0.057327192 -0.03000416
-0.14148022 -0.086744845 -0.06592392 0.15830131 0.015064855 0.05841215 -0.14358644 -0.13858472
-0.0023144854 -0.08689048 -0.15373567 0.0090951715 0.008071446 -0.1055464 0.081227876 -0.13864252
0.05666743 0.09376221 0.108107865 0.047668494 -0.06433797 -0.027542712 0.06031007 0.06502818
0.12043958 0.12820406 0.14311998 0.074829124 0.13778333 0.08480008 -0.003984967 0.10331712
0.06253262 0.10009792 -0.08729214 0.00026971163 0.005536872 -0.04635925 -0.04704205 -0.108504646
-0.09903267 -0.022737777 0.05700669 -0.06147075 0.00037098167 0.1065918 0.09140431 0.060227904
0.107718855 0.118289 0.121226184 0.01665163 0.021286825 -0.025011452 0.04633491 0.09605968
0.080684654 -0.10134063 -0.0908152 0.009493167 0.056788117 -0.07207962 0.053921744 0.122119084
0.09491697 -0.08144592 0.020488404 -0.03861567 -0.114917785 0.1340538 0.08361197 -0.042466283
0.06434087 0.018219199 -0.12665726 -0.07571095 -0.0034410048 0.01080351 -0.0055401633 -0.08747304
-0.043950934 -0.07059783 0.029211655 -0.085238785 -0.059086144 0.021991774 0.006330583 -0.026714116
-0.07917632 -0.0052695214 0.13448009 0.08338948 -0.08254554 0.033720084 0.09193045 0.06435481

lstm.bias_ih_l0 f4 [256]
00000000: 1c17 8a3c 7297 bc3d 337b 143d 1d97 cfbd
00000010: b7ad b8bc ce20 79bc 95d0 4fbc 87ff be3d
00000020: 38d2 923a 0f25 b53d a1e4 c03c 5a30 4d3c
00000030: e7f3 3e3d 8b26 a1bd e526 ea3d bb62 a0bd
00000040: 2bb9 1cbc 9f59 d93c 3cb2 9cbd c55f a03d
00000050: 58af a93c c14e a0bd 1d85 533c a177 163e
00000060: cb15 1ebb f6dd 453e 35a6 a4bd e7cf 173e
00000070: 8c8e 223e 5c3e 9ebd aba6 9fbd b19a 32bc
00000080: 27d8 ff3b a511 b7bb deb7 843d 73e9 e73d
00000090: 1395 d63c db18 2d3e c101 18bc eb24 b63d
000000a0: 5d9e 14bc 63ea 23bd 6901 94bd ac8f ca3d
000000b0: f4c5 1b3e dca4 783d 61f8 be3c 62d3 34bd
000000c0: 5d1d 42bd 4f6b 813d 3ef4 343c 2cac 703d
000000d0: d03e dd3d 61b0 ddbd 23df 4bbb 60b1 66bc
000000e0: 30f3 18bb 24b0 dbbb 5b86 74bd 6264 123e
000000f0: 2aa9 4fbc ed4d 4abd 6c3a 8cbd 17f7 b4bd
00000100: 59ca 673d b2cd 923d 2216 c63d d96e 8a3b
00000110: 79a2 ba3d ea13 2fbd 72ce 1a3d e171 0fbd
00000120: a9ee bf3d 8fe4 ea3d 1f65 34bd 5516 0a3e
00000130: cbb0 e839 0abd 4f3d 3465 d23d 14f6 8c3d
00000140: 3dd6 0fbd 5350 b73d 9be6 aabd a65a 003d
00000150: 70f0 22bd 317d f0bc ecac a9bd acc6 f3bd
00000160: 8d14 bd3d 8543 79bd 7359 6bbd 5afe d1bd
00000170: e494 ce3d 7ae0 983d d029 8b3c 8de1 ec3d
00000180: b7ab 023e 76be bdbd 06ad b03c a9f4 a03d
00000190: 1d04 37bc 7f5b 3e3d 009c 0abe c3ee b73d
000001a0: 81f9 ab3d 63e7 d2bc f7f7 013e 165d f8bd
000001b0: 053c 813d 6521 08be a3d7 743d 1d95 4d3d
000001c0: 55e9 a93d 0b7f ee3d 26a8 553c 3bd7 b9bc
000001d0: e81a 8b3b dfcb b9bd 0628 c73d ca17 41bd
000001e0: cb44 ad3c 2ea6 ef3d ea4b cf3c 6a75 b43c
000001f0: 43f3 693c 415e 0bbc df3a 743d e547 613d
00000200: 9a26 39bd 0cec 033d 45e3 c3bd 7623 a2bd
00000210: 44a8 b9bd 4c28 cb3d e678 2fbc 3b8f a03d
00000220: 2215 84bc 48c9 a63c 9746 51bd b3e2 e33d
00000230: 7866 f6bd bf4e a13d 958b ae3d 3616 3f3d
00000240: 6c6f 6a3c a673 57bd e351 18bd 0804 a5bd
00000250: dc94 b7bd bd96 a0bd dc3e ad3d 945e da3b
00000260: 209e 083d ec6d e7bc 4b66 4d3d 1be2 3cbd
00000270: 0ec6 97bc f331 f2bd 82f6 693d e38e c9bd
00000280: c7bf c43d 6a6a 8f3d b867 9c3b 8502 8cbd
00000290: 5ddd 513d 5f2e d0bc 98e7 d83d 5972 ef3d
000002a0: 4b68 b7bd a96d d93d e441 9e3d 1e96 0dbd
000002b0: 6cc0 33bd da8e 003d b542 063d 1be6 a73d
000002c0: 25a0 f93c e555 bdbd 9ce9 56bc 2bca 753d
000002d0: 1fc0 4c3d 3c6f a83d 80c4 873d afbf 383c
000002e0: 08df 56bd 9bdc debd 57da c6bd cf06 6ebc
000002f0: 0ac5 aebd 63ca da3d 2a70 eebd 3455 a5bd
00000300: 6431 a2bd 0709 71bd f53d 2d3d 8ce3 5bbd
00000310: dbcd 723c 4b76 00be 3f34 a6bd 7b9e e3bd
00000320: 9cf1 af3d 4d1a 043d 9d27 d3bd 9a78 61bd
00000330: d27f f8bc 01b0 2fbc f45f a93d c897 e43d
00000340: 9a64 35bd 06c0 b33d 7eec 0e3d 3096 dabd
00000350: 36ac ab3d 4043 a03d 23ca dc3d 757e b93d
00000360: 8778 95bd 0120 ee3d 6b00 d2bd f951 e13c
00000370: f537 54bc d643 043e fa82 013e 2733 083e
00000380: ff87 93bd 5f20 9c3d 6785 f33b a9ce 9e3d
00000390: 5046 03bd ca1b 263e d59e e2bd b2f8 69bd
000003a0: 02db a4bd 1629 773d e9e5 03bb 2e65 c4bd
000003b0: 59e7 86bb d7c7 c3bc e90a 9e3d b2d4 babd
000003c0: 498b b73d 678f b6bd 33cd a53d 8ddc 433b
000003d0: 1885 b03d 8928 bebd 18e3 ef3d a82f 073e
000003e0: 923f 983b d520 86bc 1021 7d3d 43b4 b93c
000003f0: a884 373d 1a52 d6bc 38ab a33d 4fae 7abd
0.016856723 0.092085734 0.036250304 -0.101362444 -0.022543771 -0.015205575 -0.012684007 0.09326082
0.0011201566 0.08844959 0.023546519 0.012523735 0.046619322 -0.078686796 0.114332 -0.07831331
-0.009565632 0.026531992 -0.07651183 0.078307666 0.020713493 -0.07827521 0.012910155 0.14694072
-0.0024121876 0.19322953 -0.08039514 0.14825402 0.1587469 -0.07726738 -0.07795461 -0.010901139
0.00780775 -0.00558682 0.064803824 0.11323824 0.026194131 0.16904013 -0.009277762 0.0889376
-0.00907096 -0.04001845 -0.072268315 0.098906845 0.15212232 0.060704097 0.023311796 -0.044146903
-0.047391284 0.063192956 0.01104456 0.058757946 0.10802996 -0.10824657 -0.0031108342 -0.014080375
-0.002333831 -0.006704347 -0.059698444 0.14296106 -0.012674609 -0.049390722 -0.068470806 -0.08836191
0.05658946 0.071681395 0.0967219 0.00422464 0.091130204 -0.0427436 0.037794538 -0.035020713
0.09371693 0.11469375 -0.04404175 0.13485081 0.0004438221 0.05071739 0.10273209 0.06882873
-0.035116423 0.089508675 -0.08344766 0.03133645 -0.03978008 -0.02935657 -0.08284935 -0.11903128
0.092324354 -0.060855407 -0.057458352 -0.10253592 0.100869924 0.074646905 0.016987711 0.11566458
0.12760817 -0.09264843 0.021566879 0.07859165 -0.011170414 0.046473976 -0.13536072 0.08981087
0.083971985 -0.0257451 0.12692247 -0.1212713 0.06310276 -0.13293989 0.05977596 0.050191034
0.08296458 0.11645325 0.013040578 -0.022685638 0.004245151 -0.090720885 0.09724431 -0.047141828
0.021150967 0.11701618 0.025304753 0.022028644 0.0142791895 -0.008506359 0.059626456 0.055000205
-0.04520283 0.032207534 -0.095648326 -0.0791692 -0.09065297 0.099197954 -0.010709977 0.07839819
-0.016123358 0.02035965 -0.05109271 0.11127224 -0.12031263 0.07876348 0.08522717 0.04665204
0.014308792 -0.052600525 -0.03718747 -0.080574095 -0.089639395 -0.07841251 0.08459255 0.0066641066
0.033353925 -0.028250657 0.050146382 -0.04611407 -0.018527057 -0.11825933 0.057119854 -0.098417066
0.09606891 0.07002719 0.0047731064 -0.06836418 0.0512365 -0.025412736 0.10591048 0.11691732
-0.08955439 0.10616619 0.077274114 -0.03456699 -0.04388468 0.031386234 0.03277846 0.08198186
0.03047187 -0.09244899 -0.01311722 0.060007256 0.04998791 0.08224341 0.06629276 0.01127617
-0.052458793 -0.10881921 -0.09709614 -0.0145279905 -0.08533676 0.106831335 -0.11642487 -0.08072892
-0.07919577 -0.0588465 0.042295415 -0.053683802 0.014819588 -0.12545125 -0.08115434 -0.11114212
0.08591005 0.032251645 -0.1031029 -0.055046655 -0.030334387 -0.010723115 0.08270255 0.111617625
-0.044285394 0.0877686 0.034893505 -0.10673177 0.08382456 0.07825327 0.10780742 0.09057323
-0.072983794 0.11627198 -0.10253986 0.027504908 -0.012952794 0.12916502 0.1264762 0.13300763
-0.072036736 0.07623362 0.0074316743 0.07754261 -0.032049477 0.16221538 -0.11065451 -0.05712194
-0.08049585 0.060341917 -0.002012605 -0.09589611 -0.0041169343 -0.023899002 0.07716925 -0.091226
0.089621134 -0.089140706 0.08095779 0.0029886097 0.086191356 -0.09285075 0.117132366 0.13201773
0.00464625 -0.016373077 0.06179911 0.022668963 0.044804245 -0.026162196 0.07991642 -0.06120139

lstm.bias_hh_l0 f4 [256]
00000000: e874 f33d 4f08 bd3c 7f5d 03be b320 acbd
00000010: cf0a be3d 403a 863c e4d2 b13c 70c7 303d
00000020: f830 6abd c595 bcbd 963e d3bd 2fd5 6dbb
00000030: 344c c83c 8741 1ebc 774f f33d 7b2a dc3d
00000040: 93b2 2d3e 27c9 a63c 4327 8e3d aecd 333c
00000050: b168 7fbc 9855 09be 17c4 883d cdd7 e63d
00000060: 4624 a33d ab77 b53d affd 8ebd b185 a43d
00000070: 02c4 173e aa89 7cbd 3486 3bbd f3f4 fd3d
00000080: 4e4c f13d 3b85 4c3d b999 64bd 27c4 ba3c
00000090: 6559 fdbd 43f4 df3d 10c7 323d 4946 943d
000000a0: 17a3 d0bd e253 a53d 1950 333d 16a4 b33d
000000b0: 2d7d 1c3e 44f0 3b3d 011d 823d 8439 ee3d
000000c0: eab1 b33d e7a3 b3bc d8f2 54bd c45a 26bd
000000d0: 86e4 f73d b951 e63d d087 54bd dc4e 313e
000000e0: a3a1 dbbd 9ea4 59bd bd6d ae3d be87 1cbd
000000f0: 6d18 c3bd 0ebc d1bc 68d7 ce3c 7e12 24bd
00000100: d20d 0b3e 9b31 7a3d 21e3 00bd cf2c 423c
00000110: 8729 023d 677b ffbd dbe1 bdbc 2c1a 403c
00000120: f320 18bc ffdc f83d 5964 2b3d 12c1 093e
00000130: 8a74 d03d 60ce 783d 2141 66bb 20f6 e8bd
00000140: 7abf 553d 6ecd 56bd 8957 cdbd 4a52 48bd
00000150: 58b8 d9bd 86ce 3a3d 24d2 133d dbad 5b3c
00000160: 233e eb3d dc29 87bd 49bb 1cbd b471 aabd
00000170: 6450 a3bd 5e10 ce3d 31a5 68bd ceb4 cdba
00000180: 1238 3ebd ec66 dabd b95b e23d 15b6 dc3d
00000190: 2146 5c3d 152b 563d 1b12 793c 9de4 b33d
000001a0: cd06 51bd e908 123d 5bf0 193d 60f7 803d
000001b0: a4df d43d 1294 a9bd c330 1bbd f2a3 a1bb
000001c0: 5176 023e 8d32 82bd 970a 7f3d 69c0 da38
000001d0: 821e 183e b904 8a3d ea1f 1d3c 9ad0 db3d
000001e0: ca60 febd e336 513c 3c85 90bd 6e7c 6dbd
000001f0: b2f5 eabd 2bd5 073d 0935 073d 4a9e 01be
00000200: 9104 9c3d 4cc9 2b3d d3bb 24bd f13e 233d
00000210: 02c1 bf3d 1e50 f03c 9404 cd3d e392 a53d
00000220: 8e29 50bd d4f1 2f3d 2964 723d 5610 2bbc
00000230: 43e7 bcbc 7bea 9a3d 2b34 e0bd 3642 423d
00000240: d944 26bd 147a acbd d58e 133c 9a89 55bc
00000250: 0c99 abbd c1e6 d93d e61a 93bd a3dc a1bd
00000260: 023e 63bd ccc3 e8bc 437e aa3d 4a7a 9abd
00000270: 5137 2a3d d5a6 793d bd6c e7ba be86 63bc
00000280: a163 183d deeb a23d a120 5d3d 219d a8bd
00000290: 4617 6b3b 8626 78bc dde4 523c a7b9 b43d
000002a0: 8f69 4f3d 47f3 91bd 579e 0abd 4465 a0bc
000002b0: 0470 fb3d b18e c1bd bb24 0f3c 6de5 36bd
000002c0: e684 e0bd 594a db3d d0a0 b3bd bda6 ca3d
000002d0: d391 81bd 9ab4 283d 1755 3f3d f877 433d
000002e0: 4ecc e83d 213e e7bd 410f a2bd e1b6 1cbd
000002f0: 6244 8abd 3547 98bc 8329 5fbb e3ab 673d
00000300: 0693 dcbc 08f3 b6bc 0ab2 edbd fbb9 8dbc
00000310: e7f5 c73a 0a4d 84bd f565 e8bc 06dc 3abd
00000320: 60a7 b33d 7f3b d63c 67ff bd3d 3361 813d
00000330: bf38 d13d afb4 743d 60e4 243d 3cf4 b6bd
00000340: 957d 67bb 1c4c 30bd 5a86 623d e04f 913c
00000350: a6d3 95bd 63e3 f0bc 42ab 123b d619 78bc
00000360: 69a9 c03d 8455 1c3e 970b d5bc 1b49 b1bd
00000370: 0f40 24bb 3c94 083c 77a9 d73c a2d6 d4bd
00000380: 575e 0c3e bb9d c6bd 70ff c03d b377 c2bc
00000390: f2bc efbd 5d2c 383d b316 873d 76af 5f3d
000003a0: b846 423d 00b0 26bd 9366 b2bd 33fb 0339
000003b0: 7b97 123e a48d 03be c631 41bd 2e2f 26bd
000003c0: 3fd2 babd 7fdf 8c3d 07c9 c8ba 5586 debc
000003d0: 0244 5a3e 4b6b e2bd 026a 093e c5d1 bc3d
000003e0: 67f3 b83d 7682 85bd 3a79 f43b 1a8e 573d
000003f0: ee58 713b fcbb 89bd 70c2 e53d 27d9 70bd
0.118875325 0.02307525 -0.12828635 -0.084046744 0.09279405 0.016385198 0.021707006 0.04315895
-0.057175606 -0.09208254 -0.10314672 -0.0036290397 0.024450399 -0.009659178 0.11880391 0.1075029
0.16962652 0.020359589 0.06941082 0.010974331 -0.015588925 -0.13411558 0.06678026 0.112716295
0.07965903 0.088607155 -0.0698198 0.08033312 0.14820865 -0.061654724 -0.045782283 0.12400236
0.11782132 0.049931746 -0.055810664 0.02279861 -0.12370566 0.10935261 0.043646872 0.07239968
-0.10187357 0.0807264 0.04377756 0.08771531 0.15282126 0.045883432 0.06353188 0.11632064
0.08774169 -0.02192874 -0.051989406 -0.040613905 0.12104134 0.11246056 -0.051887333 0.17315239
-0.10724189 -0.053135507 0.08517025 -0.03821539 -0.09526143 -0.025602367 0.025249198 -0.040056698
0.13579491 0.061082464 -0.031466607 0.0118515035 0.031777885 -0.12474709 -0.023178985 0.01172499
-0.009285199 0.12151527 0.041843746 0.13452557 0.10178478 0.06074369 -0.0035134035 -0.113750696
0.05218456 -0.052442007 -0.10026462 -0.048906602 -0.10630864 0.045607112 0.036089078 0.01340815
0.11486461 -0.06599781 -0.038264547 -0.083224684 -0.07974318 0.100617155 -0.056798164 -0.0015694143
-0.04644019 -0.10664162 0.11052651 0.10776917 0.053777818 0.05228718 0.015202071 0.08783839
-0.051031876 0.03565303 0.037582736 0.06297183 0.103942186 -0.08280195 -0.0378883 -0.004932874
0.12740447 -0.06357298 0.06226596 0.00010430889 0.14855388 0.06739182 0.009590128 0.10733147
-0.12420805 0.012769434 -0.070566624 -0.057979994 -0.11472644 0.033162277 0.033009563 -0.12658039
0.076180585 0.04194002 -0.040218186 0.039854947 0.09362985 0.029335078 0.10010639 0.08084657
-0.05082088 0.042955235 0.05917755 -0.0104409065 -0.023059493 0.07564255 -0.1094745 0.047426425
-0.040593002 -0.08421722 0.009006222 -0.013033295 -0.08378801 0.10639716 -0.07182865 -0.07903411
-0.055479057 -0.028413676 0.08324864 -0.07542856 0.04155666 0.06095012 -0.0017656308 -0.0138871055
0.03720439 0.07955144 0.053986195 -0.08233095 0.0035872026 -0.015145903 0.012871948 0.08824473
0.050637778 -0.071264796 -0.03384241 -0.019579537 0.12277225 -0.09451044 0.008736785 -0.04465239
-0.10962848 0.1070754 -0.08770907 0.09895084 -0.06326642 0.04118786 0.046712007 0.047721833
0.11367093 -0.11291147 -0.07913066 -0.038260344 -0.06751324 -0.018588642 -0.0034051843 0.05656041
-0.026925575 -0.022332683 -0.11606224 -0.017300596 0.001525578 -0.064600065 -0.02836893 -0.045619987
0.087721586 0.026151417 0.0927723 0.063173674 0.102159016 0.059742626 0.040256858 -0.08933303
-0.0035322655 -0.043041334 0.05530391 0.017738283 -0.07315759 -0.029405301 0.002237991 -0.0151428785
0.094073124 0.15266997 -0.026006503 -0.08656522 -0.0025062596 0.008336123 0.026325924 -0.103925005
0.13707863 -0.096980534 0.09423721 -0.023738718 -0.1170596 0.044964183 0.065961264 0.054610692
0.047430724 -0.04069519 -0.08710971 0.00012586713 0.14315598 -0.12847 -0.04716661 -0.040572338
-0.091221325 0.06878566 -0.00153187 -0.027163664 0.21315005 -0.11055621 0.13419345 0.09219698
0.090308 -0.06519024 0.0074607404 0.052625753 0.0036826688 -0.06725308 0.11218727 -0.058800843

lstm.weight_ih_l1 f4 [256, 64]
00000000: d043 313e d38c 5bbd 4fd4 9ebd 65cc 8d3d
00000010: 8dd6 b93d 42f0 ad3d 8fa8 83bd f3f0 eabb
00000020: 96fc 4ebd 2d12 3f3d 75cd 2c3d a814 413c
00000030: 6822 e33d b093 c23d 701f 1dbe 486b c0bd
00000040: cc33 27bd b013 373d 8130 19bd 753a 8cbd
00000050: 31a6 82bd 159b 5f3d e959 233e 6f06 2cbe
00000060: faae e83c 6d56 403e 4f12 0bbd c32c a63d
00000070: 15d7 4cbd 2ba7 4c3d ff88 0dbe 1eff 383c
00000080: afb9 a1bd 5e02 d6bd 2c24 11be e789 c8bd
00000090: 1a55 b8bd 8e67 39bc a48f dcbb 4fdd 7d3d
000000a0: 4195 e6bc aa53 edbd 54f9 213e 4c82 663d
000000b0: ecd6 cdbd 5b7f 133e 715e 6bbd 6b2d 1a3d
000000c0: 8aa5 173d ee96 81bc a9ed 983c c729 933c
000000d0: 5b83 003e 6e91 693a ca0d 843d 9b1f 1dbd
000000e0: aa3a bc3c dcda e6bd 3771 863c 8969 bbbd
000000f0: bcff 473d f55e adbc 8820 f3bd ad14 02bd
00000100: f2a4 f03d d676 78bd fb1c 9bba 1aef 9f3d
00000110: 3103 17be 3551 98bd 4e34 293d 2f83 563d
00000120: b7bd b13d 645e 373d 4816 103d e01a b8bd
00000130: 789a e2bd 6fda ec3d 1486 353d a5e2 7f3d
00000140: babd 05bd d2f0 c13c a7a6 4bbd 7c54 fabd
00000150: 94e8 f1bd c8b5 d1bd 45f2 b13d ec1e 9d3c
00000160: 1803 22be 07a4 3fbc 924e 1bbd a301 d43d
00000170: 66b5 c4bc 6ff4 e03d 7ce9 c5bd ad37 34be
00000180: 859c 8c3d 7314 88bd a12c 1fbe 9832 1abe
00000190: b6ac 073e e1ae 87bd e94c bf3c 0bee f5bc
000001a0: b8f6 bfbc 9ef8 31bc a763 b6bc 4e9c 0fbd
000001b0: 7f99 33be d52d 653d f437 163d fbb1 363c
000001c0: 2f3c 8cbd 7dd7 c13c 2125 7bbd 99c5 1d3e
000001d0: 4378 3d3c b348 42bd bdee dabb 07c3 80bd
000001e0: ffc3 0cbd b340 05be df06 d9bd 3b8c 76bc
000001f0: c39f 5ebc 41c6 f43d 13c1 13be d696 3bbd
00000200: adc7 f53d 65f3 fe3d df4c d83d c424 5c3d
00000210: 8248 503d 913f babc 86db 08be 12bf 91bc
00000220: dbc4 fabd 5ce3 923c d632 9bbd b3da 73bd
00000230: c1a0 a8bd 73c1 cebc 0895 cfbc bd2e 283c
00000240: d6e0 d9bd e7bf 323c 271a 1abe 1b14 e03d
00000250: 2942 b8bd bbdf 26bd 0f4f 76bd f194 86bc
00000260: 0ee7 edbd 4666 4f3c 4c10 0f3e f6af 1e3e
00000270: 5fac 30be d3c1 5cbd d6d9 dcbd 787a 15be
00000280: e496 2ebd d86f 293d 6b64 1abd 229c 66bd
00000290: 7fc3 6e3d 58fc 2abe 9410 0f3e 01bd 843d
000002a0: 22c5 923d 573f a6bd 9d00 2f3e f777 033d
000002b0: 6154 72bd f3a8 c8bd 2480 f13d ee23 9ebd
000002c0: a824 8cbd 62f7 06bd a66c b2bd a289 d03d
000002d0: 6677 953c 27cb 053b 8cc6 903d 755e 50be
000002e0: 7432 04be d572 0d3d 4aaa c8bb f396 84bd
000002f0: fef3 6e3d 4455 54bd 3739 29bd c2e4 ccbd
00000300: 28d2 ec3d 8d0c 413c 0c69 c0bd 1b84 b93b
00000310: 7927 dcbd 95ba 593b 892e d63d dcf9 163e
00000320: 70eb 8f3d 8f8b d0bc 6e03 d53d 199d 63bd
00000330: 9088 a3bd 3cb1 0b3e ac87 41bd 048a 3fbb
00000340: 95ef 0bbe d3b4 583d 4faa 13be 847b 433d
00000350: 4c45 ce3d 0457 053e 3fd3 2e3e f330 5fbd
00000360: e595 95bd 45ff 2b3e 3983 423d 8379 4e3d
00000370: 3d8f 0bbe 0530 f63d 1ce3 943d 796b f6bb
00000380: ec83 a9bd 9662 6a3c 259b bbbd b685 0ebe
00000390: 4e7b d53d 9160 c4bd 40b4 5dbd a985 48bd
000003a0: 01a4 6d3b 717e 8d3d 0ad5 5ebd ff27 78bd
000003b0: cfb4 4ebb 5a14 f4bd cad0 653d 9839 9fbd
000003c0: f2a6 943d 27c0 47bd ab98 8d3d fc9d bebd
000003d0: 8c9b a23d 76e7 c83d b9e3 fa3d 6b44 04bd
000003e0: e1f5 f4bd 2a3f 92bc c666 92bd 3c42 0abe
000003f0: b8b2 58bd 8ea5 24bc 1795 343d e4fd d3bd
0.17311025 -0.053601097 -0.077553384 0.06923751 0.090741254 0.08493091 -0.064286344 -0.0071698367
-0.050533853 0.046648193 0.042188127 0.01178471 0.11090547 0.095008254 -0.15344024 -0.09395462
-0.04082088 0.04469651 -0.037399773 -0.06847087 -0.06379355 0.054591257 0.15952267 -0.16799329
0.028403748 0.18782969 -0.033953007 0.08114006 -0.050009806 0.04996411 -0.13821791 0.011291293
-0.078967445 -0.1044967 -0.14173955 -0.09791928 -0.09000607 -0.011316193 -0.0067309905 0.061978634
-0.028147342 -0.11588223 0.15817767 0.056276605 -0.10050759 0.14404051 -0.057463113 0.03764097
0.037023105 -0.01581904 0.018668013 0.017964257 0.12550108 0.00089099153 0.064479426 -0.03836022
0.022977192 -0.11272213 0.016411407 -0.091509886 0.04882787 -0.021163443 -0.11871439 -0.031758
0.11750211 -0.060660206 -0.0011834198 0.07809277 -0.14747311 -0.07437364 0.041309647 0.0523712
0.08678763 0.044767752 0.0351775 -0.08989501 -0.11064619 0.115651004 0.04431732 0.062472004
-0.03265164 0.023674402 -0.04971948 -0.12223145 -0.11811939 -0.1023975 0.08688787 0.019179784
-0.15821493 -0.011696822 -0.037916727 0.10351875 -0.024012279 0.10984122 -0.09663674 -0.17599364
0.06865791 -0.066445254 -0.15544368 -0.15058362 0.13249478 -0.066251524 0.023352103 -0.030020734
-0.023433074 -0.010862498 -0.022264315 -0.035061173 -0.17539023 0.055951912 0.036674455 0.011150832
-0.068474166 0.023662323 -0.061314706 0.15407409 0.011564317 -0.047432613 -0.006681292 -0.062871985
-0.034366604 -0.13012962 -0.10597014 -0.015048082 -0.013587895 0.119518764 -0.1442912 -0.045798145
0.12000976 0.124487676 0.10561537 0.053746 0.0508504 -0.022735389 -0.13364992 -0.017791305
-0.122445785 0.017930679 -0.075780556 -0.05953474 -0.082337864 -0.025238728 -0.025339618 0.0102650495
-0.10638587 0.010910011 -0.15049039 0.10941335 -0.08996994 -0.04074071 -0.06013399 -0.016428443
-0.11616336 0.012658661 0.1397106 0.15496811 -0.17253254 -0.053895783 -0.107837364 -0.145975
-0.04262437 0.041366428 -0.037693422 -0.056301244 0.05829191 -0.16697824 0.13971168 0.06481362
0.07166506 -0.0811755 0.17090078 0.03209683 -0.0591625 -0.097978495 0.11792019 -0.07721697
-0.06842929 -0.032950766 -0.08712129 0.101825014 0.01824541 0.0020415278 0.0706912 -0.20348532
-0.12909871 0.03453334 -0.0061238157 -0.06474104 0.058338158 -0.051839128 -0.04131433 -0.100045696
0.115635216 0.0117827775 -0.09395036 0.0056615 -0.10749716 0.0033222784 0.104580946 0.14743751
0.07027328 -0.025457172 0.10401045 -0.055569742 -0.079850316 0.13641828 -0.047248527 -0.002922655
-0.13665612 0.052906822 -0.14420436 0.047725216 0.10071811 0.13021475 0.17072771 -0.05449004
-0.07303981 0.16796596 0.047488425 0.05040885 -0.1362886 0.12020878 0.0726988 -0.007520136
-0.08277115 0.014305731 -0.09160451 -0.13918194 0.10423909 -0.09588731 -0.054126978 -0.048955593
0.0036261084 0.069088824 -0.05440239 -0.06058502 -0.0031540876 -0.11917944 0.05610732 -0.07774657
0.07258405 -0.048767235 0.06913885 -0.09307477 0.079398245 0.09809773 0.12250466 -0.03229181
-0.1196096 -0.017852385 -0.07148509 -0.13501829 -0.052904814 -0.010049237 0.044087496 -0.1035116

lstm.weight_hh_l1 f4 [256, 64]
00000000: 11ee e2bd 6e24 ebbc 5802 21bd e81e 93bd
00000010: 72d5 0b3b baa0 c2bd cb23 1ebd 82f0 e03d
00000020: 3892 e9bd 9b4e 3e3d 988a 5dbd 08a8 d5bb
00000030: 3be4 e13d 58dc 11bd aa29 853d 9d9d cdbc
00000040: 763a f93b 6650 253d edf9 40bd 488e 97bd
00000050: b976 13bc 0612 e03b e83b 8abd 2983 21bd
00000060: 3399 143d 0dd7 cb3a aa9a ecbd 010f 1fbc
00000070: 23e1 d5bd 4d13 9c3c 6a3c d73d 8ac0 b33c
00000080: 4f63 a73d 7e8d d6bd f1a7 c4bd 959a aabd
00000090: 12a7 ddbd 822f c93d d0d0 73bd 4680 a7bd
000000a0: e4e5 f53d 8db6 893d 237d d7bd 5e7a 6ebd
000000b0: 7b7e 9bbd 1a5d e23d 48a9 2f3d f922 e2bd
000000c0: 226f a93d 2cfc ad3d b2fa f13d 32f0 ed3d
000000d0: d480 1f3d b168 b9bd 7c9c d73d c04b 853d
000000e0: 7d52 4cbd d669 fa3c 74aa 163e 8ac6 e23c
000000f0: 43c5 b7bd e09d f3bd f095 20bd 9bfb 95bd
00000100: ef9b e53d fc12 203d a520 b93d 6269 f63d
00000110: b503 aabb b5e8 46bc 7b35 aabd b468 cbbd
00000120: 97ed 1cbd dd27 413d e234 febd 3aef 8e3d
00000130: 6330 f8bd 8d9f ee3d ada4 4f3d d6cb 94bd
00000140: f86b a53d ecee 7b3c 17e3 133e f099 043d
00000150: 9f28 0bbe bd80 a9bc abb3 0d3d e3f5 80bc
00000160: 14b4 37bd 43f7 2fbc 6a5d f4bc 9775 c7bc
00000170: 544b 5fbd 2d6f b6bd 8d65 a03d 32e9 7e3d
00000180: 9c4a 4dbd 63d2 bc3c dff9 543d 1063 a0bd
00000190: 32c5 8d3d 76ff 8a3d 715c b7ba b464 2cbd
000001a0: 7fda 5ebd 3787 e83d 16b9 973d 94e7 a3bd
000001b0: d34f cc3d 9300 523d 7ee8 8bbd d4ec fd3d
000001c0: 9a10 713d ff6c 373d 465f ff3d 56f7 d9bc
000001d0: 12f3 cc3d 8027 f9bc 7b3a 203d 1826 8dbd
000001e0: 8392 ed3c bb43 89bd 0f77 0e3d 62d4 acb9
000001f0: e574 0d3c 0018 3cbd c582 57bd 9c8d 9ebd
00000200: 2501 bc3d 7d40 0b3e d81d ab3c 93ab bcbd
00000210: 17d1 9a3d 8276 7c3d 3e01 d93c 1f0f b2bd
00000220: 740e c13d 4228 d53d fea4 75bc 300f d33d
00000230: 3416 b03d a73a 80bd 3b0d 08be d13d 473d
00000240: c910 c93d f2a5 873d 78bc f0bc b905 013e
00000250: 507c 7bbd 156c 413d 0f40 2dbd 2559 31bd
00000260: 71b3 9d3d 9541 59ba c96f 9d3d 6e40 0fbd
00000270: 4f25 c5bd 1df9 c33d 81db 763d 2901 3f3c
00000280: 3c91 42bd e7db 0fbe a4d5 7abd 203c 813d
00000290: 099f bfbd 4977 bcbd dfe3 f33d 2f4b 6a3c
000002a0: 9359 853d 5178 e43d 672e 74bd 1a00 873d
000002b0: bd41 a8bb ecca 883d 939b 2a3d f15b a53d
000002c0: eff9 f9bc 53ef d43b b5b0 00bd 88d7 ba3c
000002d0: 9359 edbd 0b24 603d 3fc4 f5bc 136c a6bd
000002e0: 839c d1bd 24a0 e6bc f083 e83d 6424 c13d
000002f0: cbe0 9fbd 4031 813c c9f1 9dbd a356 713d
00000300: 0cd2 2cbc a375 f13c c94b 2b3d 6bfd 25bd
00000310: 7e52 4e3d b3a9 e33b 0ff5 c73c 7915 e5bd
00000320: 8ca7 18bd 2b7a 6c3d 1381 f7bd 0fee 973d
00000330: 6471 0e3d 4541 df3d 7731 a8bd ba95 25bd
00000340: 3c74 5fbd 7832 98bd 323b 083d 0b82 213d
00000350: aa2a c8bd c57b f3bd daee 12bc 4d12 47bd
00000360: 3ada 7abd 16cf d03d 6ed3 ce3d c612 f83c
00000370: 4661 e9bd c6ae f1bc 18b7 b93d 1ee8 40bd
00000380: d28b 94bd 9e8c d53d ffbe a43d f091 753d
00000390: 0370 fe3c aa07 dcbc 38db cebd bea8 893d
000003a0: da02 99bd 54b3 863d fff4 4f3c 4655 afbd
000003b0: 0e7f a83b b70b d1bd f98f 09bd cd99 e2bd
000003c0: 8fbf fcbb cfa8 463d 923b a6bd e9ee 5b3d
000003d0: c1be fd3a 9626 7dbc bb68 f43d b062 553c
000003e0: 28d6 f9bd 9b10 873c fcbe ad3d 3a96 4dbd
000003f0: a402 bd3c 1f8d 37bd 5d2b 8bbb 698b abbd
-0.11080564 -0.028703894 -0.039308876 -0.07183629 0.002133694 -0.095033124 -0.038608354 0.10983373
-0.11404842 0.046461683 -0.05408725 -0.006520275 0.1102986 -0.035610527 0.065020874 -0.02509957
0.007605846 0.040359877 -0.047113348 -0.07400185 -0.009000474 0.006838086 -0.067497075 -0.039431725
0.036278915 0.0015551761 -0.11552937 -0.009708167 -0.10443332 0.019052172 0.1050957 0.021942396
0.081732385 -0.10476206 -0.09602345 -0.083302654 -0.10822882 0.098235145 -0.05952531 -0.08178763
0.12006739 0.06724272 -0.10521915 -0.058222167 -0.075924836 0.11052914 0.04288605 -0.11041827
0.0827315 0.084953636 0.118153945 0.11618079 0.03894122 -0.090531714 0.10527894 0.06508589
-0.049883354 0.030568045 0.1471346 0.027682561 -0.089731716 -0.11895347 -0.03920549 -0.073233806
0.112113826 0.039080605 0.090394296 0.12031819 -0.00518843 -0.012140443 -0.08310982 -0.0993208
-0.03831252 0.047157157 -0.1241243 0.069792226 -0.12118604 0.11651526 0.050694156 -0.07265441
0.08077234 0.015376788 0.14442097 0.03237337 -0.13589714 -0.02069127 0.034595173 -0.015742248
-0.04484947 -0.010740104 -0.0298297 -0.024348063 -0.054515198 -0.08907924 0.07831869 0.06223411
-0.05011998 0.023049539 0.05199611 -0.07831395 0.06922378 0.067870066 -0.0013989342 -0.042088225
-0.054407593 0.11353915 0.07408349 -0.080031544 0.09976163 0.05127008 -0.06831454 0.12398687
0.058853723 0.04478168 0.12469344 -0.026607197 0.100072995 -0.030414343 0.03911827 -0.068920314
0.029000526 -0.06702372 0.034781512 -0.00032964634 0.008633827 -0.045921326 -0.052614946 -0.077418536
0.09179906 0.13598819 0.020888254 -0.09212413 0.07559412 0.061636455 0.02648985 -0.0869429
0.09426585 0.10408069 -0.0149929505 0.10305631 0.08597985 -0.06261187 -0.13286297 0.048642937
0.09817655 0.066234484 -0.029386744 0.1259984 -0.06139785 0.047222216 -0.04229742 -0.043297905
0.07700241 -0.00082876656 0.07687337 -0.034973554 -0.09626257 0.09568999 0.06026793 0.011657991
-0.047501788 -0.1404873 -0.0612389 0.06310296 -0.093565054 -0.09202439 0.11908697 0.014300152
0.065112256 0.11155761 -0.059614565 0.06591816 -0.0051347897 0.06679329 0.041652273 0.08074177
-0.030514685 0.006498256 -0.03141852 0.022807851 -0.115893506 0.054721873 -0.030000804 -0.08126082
-0.1023493 -0.028152533 0.1135329 0.09430769 -0.07806548 0.015770555 -0.077121325 0.058920514
-0.010548126 0.029475039 0.04182032 -0.04052488 0.05037164 0.00694772 0.024408845 -0.11185736
-0.03726916 0.057733696 -0.12085166 0.07418453 0.034776106 0.10901121 -0.0821256 -0.040425994
-0.05455421 -0.07431501 0.033259578 0.03943066 -0.097737625 -0.118888415 -0.008968079 -0.048601437
-0.061243273 0.101957485 0.10098921 0.03028239 -0.113955066 -0.029502284 0.090681255 -0.047096364
-0.07253231 0.10427211 0.08044242 0.05995363 0.03105927 -0.026859123 -0.101004064 0.06721638
-0.07471247 0.06577173 0.012692689 -0.085611865 0.005142099 -0.102073126 -0.03358457 -0.110644914
-0.0077132653 0.048500832 -0.08116831 0.05369464 0.0019359217 -0.015451094 0.11934038 0.013024017
-0.1219905 0.01648741 0.08483693 -0.050192095 0.023072548 -0.044812318 -0.0042471127 -0.083762

lstm.bias_ih_l1 f4 [256]
00000000: 742c cbbc 0c0f 9d3c c683 30bd 8e5b 3e3d
00000010: 4de8 043c 9062 6abd 42c5 c9bd 46ff 61bc
00000020: acf9 bc3d 8c2e 9e3d ed76 fd3d de39 b53d
00000030: f2c8 a63c adbf cdbb b105 f23d c767 73bd
00000040: 4b4a c03d 56c3 d23d 4bfb 8cbd de89 083e
00000050: ba90 c43c e4bf 7e3d 9e95 d6bd d824 7e3d
00000060: 799f ca3d 4e6e ecbb 3a91 c83d da1e fabd
00000070: 3459 fabd 4f0d 9b3d 3312 cf3d cdd4 193e
00000080: 2789 91bc 7d39 c23a b741 5d3c 579f a53d
00000090: 4339 91bd 6d0e 14bd cf90 de3d c47a 833d
000000a0: 9320 13bd f9f2 ef3d 7788 d23d f7cb 2ebd
000000b0: f32c 96bd e448 7a3d 35e9 91bd e9fa d43d
000000c0: 9b11 da3d f5d0 2bbd 3bde 0d3d bdc3 edbd
000000d0: 1494 8cbc 6e51 f13d 1645 e73d b9d9 a8bd
000000e0: 5d2c cdbd 5fcb fb3c 33a2 343c 6e96 383d
000000f0: 6120 123c de6e 9cbc cdfe 9e3d 5202 6dbd
00000100: 36b4 a73d 0569 c03b 32ea 2a3d bb07 af3c
00000110: 16d7 a8ba 56ac 00bb 5312 ad3d 8b6b 31bd
00000120: dd14 c33d af79 e1ba 4456 96bc dbd3 afbd
00000130: 13d9 513d 1131 ecbc d227 b03b 39e1 6dbd
00000140: 1933 de3d ca48 e1bd 3a60 c4bd d9a4 bbbd
00000150: 5d83 bfbd f8e9 013e 5ec7 b73c e64d 08bd
00000160: 5746 303d cf70 d0bd 2ba6 b13c 1ddd ce3c
00000170: 9037 eebd 3765 debd 72b4 26bd 1dfd 95bc
00000180: b3f4 813d d8be 183d 6ec4 e3bd b65d 953d
00000190: 63c0 253d bfdc dcbd a890 b0bc 3db4 b73d
000001a0: 4324 483c 54e8 843d 42a6 cbbd 4b4c a7bc
000001b0: 3723 17bc c52c 4cbd b811 8a3d 0887 393d
000001c0: 5995 d93d fc54 32bd 7e2c db3c fe94 483c
000001d0: 5838 f6bc b47a c2bd 13e4 823d 6bb8 893d
000001e0: 171e 213c 8af0 473d b421 e33d 045a 27bd
000001f0: 57a2 7ebd 3c7b ee3d d6c3 553d 8f65 37bd
00000200: 0caa 5f3a 1dd9 a43c 0b65 a5bd 20d2 613d
00000210: 0828 d83c 5fcd babd 8d11 b3bd cfd9 ddbc
00000220: 1555 b53c 50f3 c93d a924 b63c 3225 bc3d
00000230: 8a23 f83c 8215 4d3d afb3 2a3d e590 97bd
00000240: 7a15 61bd 32cb 8f3d 5926 bd3d 85e7 42bd
00000250: 41b8 933d 92aa ccbd 2916 8c3d 15fd a63d
00000260: 27a4 20bd 1656 7b3b 24d0 d9bd b80e 8cbd
00000270: dd71 3cbd f7ab 3d3d e45c c13c 7f56 a1bd
00000280: 4658 a5bd f90a 05bc af2b 323d f7ad 123d
00000290: 0a08 df3d a69a 71bd 9e79 57bc 4b61 fbbd
000002a0: 0f35 a0bd 5de4 6abd c063 95bd c047 03be
000002b0: 5b6b a63d 706a 2fbd 0bfa 7a3d e5d8 dfbc
000002c0: 5923 b5bd 2632 22bd 0963 083d de28 c33d
000002d0: 6c4e 75bd fbad 64bd fe86 443d 3f31 ed3d
000002e0: aeb8 e0bc 1f46 233d d033 11bc a8cd d8bd
000002f0: b8f8 b3bd 8acf 123d a577 a03d 231d b73c
00000300: 0aea 64bd a441 1bbc 6fcd 0c3e 1b3e b63d
00000310: fd93 403e d3b1 c43c 9859 25bd 5c3c 9a3c
00000320: 89ce 95bb 93dc aebd 672d 0a3e 36e7 513c
00000330: 760c 903d d751 053e f8da 063e 38f6 c7bd
00000340: 5cc5 04bd 177e 65bd 4e0c c13d c3b9 1fbd
00000350: e79b 11bd b2e2 683d 28f9 e0bd aeae 9e3d
00000360: 131a afbd b840 373d 27d6 4c3d 14da 9fbc
00000370: bec2 c83d a669 fe3d 1ae3 81bd c469 1d3e
00000380: 7a5a d53c 75fa dcbd 4d0e 143d 0ff4 eb3c
00000390: d1ba b13c 94de cebd f61e d33d 2657 fc3d
000003a0: a34f ab3d 12cc d03d 381f 583d 421e 82bd
000003b0: c877 c1bd 5887 12bd f444 5e3d a1f8 88bd
000003c0: 90e5 3fbb 68a0 afbd 0a05 6e3d 5fff 9c3d
000003d0: cf87 5d3d 046d a83d 408f 853d 36d2 d3bc
000003e0: aa85 313d 6720 843d 79d1 b3bd 8dcc bd3d
000003f0: 0b86 d03d b25f 56bd 3ba5 e93d cf3d 9e3d
-0.02480147 0.019172214 -0.04309442 0.046474032 0.008112025 -0.057222903 -0.09852077 -0.013793772
0.09227309 0.07723722 0.12376199 0.08848928 0.02035949 -0.006278953 0.11817492 -0.05942514
0.0938917 0.102911636 -0.06883868 0.13333842 0.023994792 0.06219472 -0.10477756 0.062046856
0.09893698 -0.007215298 0.09793325 -0.12212916 -0.122240454 0.07570898 0.10110893 0.15022583
-0.017765595 0.0014818158 0.013504437 0.08087032 -0.07091 -0.03614657 0.10867464 0.064199
-0.035919737 0.11716265 0.10279935 -0.042674985 -0.07332792 0.06110467 -0.07124559 0.1039942
0.10647889 -0.041947324 0.034635764 -0.116096 -0.017160453 0.117831096 0.11292474 -0.08244652
-0.10018227 0.030736623 0.011024999 0.045065336 0.008918853 -0.019095834 0.07763443 -0.05786354
0.081886694 0.0058718943 0.041727252 0.02136599 -0.0012881483 -0.001963397 0.08450761 -0.04331545
0.09525464 -0.0017202402 -0.018351682 -0.0858533 0.05123241 -0.02883199 0.0053758407 -0.058076117
0.1084959 -0.110002115 -0.09588666 -0.091623016 -0.093512274 0.12686908 0.022433933 -0.033277415
0.04303583 -0.101777665 0.02168568 0.02525192 -0.116316915 -0.10859149 -0.04069943 -0.01830917
0.06345501 0.037291378 -0.1112145 0.072932646 0.040466677 -0.107842915 -0.021553352 0.089699246
0.012215677 0.064896256 -0.099438205 -0.020422122 -0.0092247045 -0.049847383 0.06741661 0.04529479
0.10624189 -0.04353808 0.026754614 0.012242554 -0.030056164 -0.0949606 0.06391158 0.06724628
0.009833834 0.04881338 0.11090413 -0.04085733 -0.062166538 0.11644599 0.052188717 -0.04477459
0.0008532114 0.020123059 -0.08075913 0.05513203 0.026386276 -0.09121203 -0.08743582 -0.027081398
0.022135297 0.09860861 0.022234278 0.09186782 0.030290384 0.05006934 0.041675266 -0.07400683
-0.054952122 0.07021178 0.0923583 -0.047584075 0.07212878 -0.09993471 0.06840164 0.0815374
-0.039219048 0.0038350872 -0.10635403 -0.06838745 -0.046007026 0.046306577 0.023603864 -0.07877826
-0.080734774 -0.008120292 0.04349869 0.035810437 0.10890205 -0.058985375 -0.013151554 -0.122744165
-0.0782262 -0.05734669 -0.072944164 -0.12820339 0.08125945 -0.042826116 0.061273616 -0.027325103
-0.08844633 -0.039598607 0.033297572 0.09529279 -0.059889242 -0.055829983 0.0479803 0.115816586
-0.027431812 0.039861795 -0.008862451 -0.10586101 -0.08787674 0.035842456 0.078353204 0.02235276
-0.05588726 -0.009476099 0.13750242 0.088985644 0.18806453 0.024010574 -0.040368646 0.01882761
-0.00457174 -0.08538165 0.13493882 0.012811473 0.07033627 0.130195 0.13169467 -0.097637594
-0.03241478 -0.05602845 0.09426175 -0.038995516 -0.03554907 0.05685682 -0.10985023 0.07748161
-0.08549895 0.044739455 0.05000892 -0.019513167 0.09802769 0.124224946 -0.06342144 0.15372378
0.02604412 -0.107899584 0.03614645 0.0288029 0.021695526 -0.10101047 0.1030864 0.1232131
0.08364799 0.10195173 0.052764148 -0.063534275 -0.094466746 -0.035773605 0.054264978 -0.06688047
-0.0029281117 -0.08575517 0.058110274 0.07665896 0.054084595 0.08223918 0.065214634 -0.025857072
0.043340363 0.06451493 -0.08780188 0.092675306 0.10181817 -0.052337356 0.11408468 0.07726633

lstm.bias_hh_l1 f4 [256]
00000000: 0aa5 b73c 00ed 0d3d 4a7a 393d 168d 9f3d
00000010: b01e b6bc 1b84 e33d 09c9 0f3c 8fd4 0cbe
00000020: 4817 c43c 9020 8a3d a5da aa3d c22c dfbd
00000030: 2723 05bd 6c03 093d f901 c3bd c1c0 963c
00000040: c32f 10bd b848 b43d 8bbc ae3d f45e 99bc
00000050: 38f8 fd3d 63f8 11bc 6e2e fb3c 51b1 d4bd
00000060: fb8f c2bd 3ea5 433d b663 88bc 8df1 58bd
00000070: 5c01 853c 41b0 e43d d458 e23b 8799 94bd
00000080: 9bfc fb3d bf9d cb3d 977f f63d b58c a53c
00000090: 97f5 e83c 8d20 d4bd 4729 bd3d 361d cd3c
000000a0: ace4 5e3d 375f b8bd 1747 ae3d b164 58bd
000000b0: 3b14 d03d 96d5 89bd 221b 803d 3fcb eb3d
000000c0: 0e5d 33bd 93be 7bbd d819 5cbd 09b0 053a
000000d0: c090 713c 18d9 2c3d 1a9b 093e 7db9 e5bc
000000e0: 7d5d ee3d 410f 5ebd 32c2 8a3d c472 aabd
000000f0: 9f19 a0bd 9408 ef3d 577a dfbd 706a c5bd
00000100: 8edd ddbd 4fa2 98bc b125 d33d 6d0f ccbd
00000110: 4b61 e53c f2c3 d5bd 9b78 b4bd 756e be3d
00000120: cd3a e5bd 9890 ecbc 2f98 9ebb 1feb 883d
00000130: 530f 19bd c692 98bd 8e19 e1bc e3cd 443d
00000140: 270f e6bd f5a3 22bb c633 15ba b9c2 843d
00000150: d0da 2bbd ecbc 933d 5ba4 af3d 7bbc 10be
00000160: 06f2 91bb b167 adbd 329f d03d 8a0d 993d
00000170: 54a1 69bd baf3 fcbc c82d 363c 8d10 b3bd
00000180: 9421 473d 97f2 243c 27ec d4bc fcd9 133d
00000190: 4bbf e5bd 0f3c d33d de5c 57b9 f1ed cd3d
000001a0: 9ed5 b6bd c66f b73d 7ef6 83bd 3961 143d
000001b0: 2f9d adbd 5253 bb3d aab7 a23d e00c 1fbd
000001c0: e1d9 04be 9453 6cbd ab16 063c fc1b 8f3d
000001d0: b761 d3bd 3c35 5f3d 4223 76bd 1c3a 7dbd
000001e0: 4231 c33d ed9c fb3d f1c6 3cbc f08f b1bc
000001f0: 3e62 ffbc a12d c6bd e9ce 4bbc 2bf2 32bc
00000200: 46ee 3a3d 1b3d 4e3d 0fd9 e5bc 4c80 3d3d
00000210: b1c0 e0bd e6a5 7abc 276d d5bd 85cb c9bc
00000220: d103 0b3d 23b5 503d b969 183d ea05 a93d
00000230: 60ec f9bd f8d1 4ebc 8fce f2bd b7ac 9e3d
00000240: 4170 9fbd 940b 303d e0f0 393c 0d2c d73c
00000250: a990 5bbd 3db0 6ebd d5f8 283d 703f 113a
00000260: 260e 33bc c337 963d 80fc 6cbc eccc e0bd
00000270: 0ece 9dbd 62ed 86bb 7021 213d 8afb 533d
00000280: e434 4d3d 52b8 c8bd f216 b2bc ca97 bcbc
00000290: ee7a 903d f769 b13d 81c6 ad3d 59ec 11bd
000002a0: 3e4f a2bc 81bd e83d f873 693b 1e20 403c
000002b0: 575a 453d e869 c5bd f84e 6abd 17c3 fa3d
000002c0: 730d 31bd f276 acbc d0fa d93d efe4 803b
000002d0: fab4 59bd bc15 bebd bf71 fa3d b69d 5c3b
000002e0: a1c9 17bd fe80 b1bd 54e8 78bd 3038 983d
000002f0: 8be4 4b3d c8d5 a4bc 93c6 cf3b 1132 d5bd
00000300: c910 c0bd e1e5 9d3d 45a4 783d c0bb 013d
00000310: 876b 263e 47e8 ae3d 08ab 683d 2ec0 0dbe
00000320: f8c4 ca3d b012 87bc 174b 043e 6d8e 223d
00000330: 722d fa3d 09d4 ef3d 70c3 913c 7476 afbd
00000340: 6ce9 793d 136c 523d 5304 8b3b 5cdc f33d
00000350: 7652 c93d ac9b 9f3b b8ca 073d b41c 843d
00000360: 3703 62bd 5bbe 11bd a510 093d dd30 36bc
00000370: aaff 843d a0f9 32bd 76c8 f5bb ae97 273e
00000380: 9a80 e63d ddf2 b3bd d824 da3c 0e30 4c3c
00000390: 0e9d de3d ba6a d43d ac08 163d 42b4 f23b
000003a0: 2798 b33d 8468 c7bd 5428 c9bc 5e42 80bd
000003b0: 2408 cbbc 6dfa 47bc 2ad2 8b3d 89c1 d33d
000003c0: 11b8 e6bb 5a16 e63d cc6f b63d 0962 edbd
000003d0: 9084 aabd 32cd acbc 7f3e 6fbd 2dd5 f13d
000003e0: 13ae 90bd 020d 0b3e c59c 593d 0335 40bc
000003f0: 29e7 113d c8e7 543d a347 afbd 2b7b c4bb
0.022417564 0.03464985 0.04528264 0.07790582 -0.02223143 0.111091815 0.008775958 -0.1375296
0.023936883 0.06744492 0.083424844 -0.10897209 -0.032504227 0.03345053 -0.09521861 0.01840246
-0.0352018 0.088029325 0.085320555 -0.018722035 0.124008596 -0.008909318 0.030661788 -0.10385383
-0.09500118 0.04776501 -0.016649108 -0.052964736 0.016236 0.1116643 0.006907562 -0.072558455
0.1230404 0.09942197 0.120360546 0.020208696 0.028437419 -0.10357771 0.09236389 0.025038343
0.054417297 -0.09002536 0.08509653 -0.0528304 0.10160109 -0.067301914 0.06255175 0.115133755
-0.043789916 -0.061461043 -0.053735584 0.00050997786 0.014743984 0.042199224 0.13438073 -0.02804255
0.11638925 -0.054213766 0.06775321 -0.08322671 -0.07817387 0.11671558 -0.10912006 -0.09639442
-0.10833274 -0.018632082 0.103099234 -0.0996388 0.028000494 -0.10437764 -0.08812066 0.09298412
-0.11192856 -0.028877541 -0.004839919 0.06685471 -0.03736813 -0.0744987 -0.027478006 0.04804791
-0.11233359 -0.0024816964 -0.0005691614 0.06482453 -0.041956723 0.07213768 0.0857627 -0.141344
-0.0044539003 -0.08467043 0.10186614 0.074732855 -0.05703862 -0.030877937 0.011119314 -0.08743391
0.048616007 0.010067604 -0.025991512 0.036096558 -0.11218127 0.1031419 -0.00020538594 0.10055149
-0.08927463 0.08956866 -0.06443499 0.03622553 -0.08477246 0.091467515 0.079451874 -0.038830638
-0.12973739 -0.057696894 0.008184115 0.069877595 -0.10321372 0.054494128 -0.06009222 -0.061822996
0.095308796 0.122857906 -0.011522041 -0.02167508 -0.031174775 -0.09676672 -0.012439468 -0.010921995
0.04563739 0.050351243 -0.028057603 0.04626493 -0.10974253 -0.015298342 -0.1042121 -0.024633178
0.033939186 0.050953995 0.0372102 0.08253081 -0.12203288 -0.012623303 -0.11855804 0.077477865
-0.077850826 0.04297979 0.011348933 0.026266122 -0.053604756 -0.058273543 0.04125293 0.0005540764
-0.010928666 0.073348545 -0.014464498 -0.10976586 -0.077053174 -0.0041176537 0.03933853 0.05175356
0.05009927 -0.09800781 -0.021739457 -0.023021597 0.07054697 0.08662789 0.08485127 -0.03562579
-0.019813176 0.1136427 0.0035622101 0.011726407 0.048181858 -0.09639341 -0.057204217 0.12244242
-0.043225717 -0.021052811 0.10643542 0.003933541 -0.05315111 -0.09281489 0.122287266 0.003366334
-0.037057523 -0.086671814 -0.06076844 0.07432592 0.049778502 -0.02012147 0.0063408106 -0.1040994
-0.093782015 0.077098615 0.060703535 0.031673193 0.16251956 0.08540397 0.056803733 -0.13842842
0.0990085 -0.016488403 0.1291927 0.03968661 0.12215699 0.11710364 0.017793387 -0.08567515
0.061013624 0.0513726 0.004242459 0.119072646 0.09830181 0.0048708525 0.033152312 0.06450787
-0.055178847 -0.035581928 0.03346314 -0.011120048 0.064940766 -0.043695092 -0.0075007034 0.16366455
0.112549976 -0.08786557 0.026628897 0.012462629 0.108697996 0.10371919 0.036629364 0.0074067423
0.08769255 -0.09736732 -0.024555363 -0.062626585 -0.024784155 -0.012205702 0.06827195 0.10339648
-0.0070409854 0.11234732 0.08908042 -0.11590964 -0.083260655 -0.021093938 -0.05840921 0.11808238
-0.07064452 0.13579181 0.053128023 -0.011731389 0.035620842 0.051978856 -0.085585855 -0.005996128
