best_lstm.pt (torch, 213541 bytes, 10 tensors)

lstm.weight_ih_l0 f4 [256, 1]
000000 bf ad 18 3e 3b 35 c0 3d b0 b9 9f 3d 96 88 a6 bb
       0.14910029 0.09385153 0.07799089 -0.0050822003
000010 09 70 ab 3d 7d 25 99 bd 1b 7e b9 3d ec 03 3a 3d
       0.083709784 -0.074778534 0.09057256 0.045413896
000020 14 d5 86 bd f6 62 a4 3d 51 21 5e bd b1 c9 e4 3d
       -0.0658361 0.08026688 -0.05423099 0.11171282
000030 3c d6 03 3e 11 14 1a 3e 67 00 56 bd b3 ee f2 3d
       0.12874693 0.15046717 -0.052246477 0.118619345
000040 2d 98 36 bc 42 9b 8c 3d 2a 73 9a bd bf 09 76 bd
       -0.01114468 0.068655506 -0.07541497 -0.06006789
000050 a5 e3 a6 3d a4 50 4a bc eb dd 70 3d 15 f4 b8 3d
       0.081488885 -0.012348328 0.058805387 0.0903093
000060 13 a9 01 3e 87 9c 83 bc ce 53 04 bd cf fb 0a 3c
       0.12662153 -0.016065849 -0.032306485 0.008482887
000070 2f a9 85 3d e7 3b 1c 3e 10 bc e0 3d df a5 ca 3c
       0.0652641 0.15257226 0.1097337 0.024737297
000080 73 78 dc 3d a2 76 9d 3c 1b b6 c9 bc 67 3d 19 3e
       0.10765161 0.019221608 -0.024622967 0.1496483
000090 a5 aa d0 3d 06 60 ee 3b 40 15 cc 3d c1 4b 73 3d
       0.10188798 0.0072746305 0.099649906 0.059398416
0000a0 f1 bf a9 bc 14 5d 32 bd ea f8 6b 3c d0 5b f3 bb
       -0.020721408 -0.043545797 0.014402607 -0.0074267164
0000b0 cc ee 7f 3d b4 87 be 3d 62 7c 88 bd 38 72 75 bd
       0.062483594 0.09303227 -0.06664349 -0.05992338
0000c0 6d f0 dd 3b d4 4a fb 3d 9a d7 c3 3c 9c e0 ab 3c
       0.0067730458 0.12270132 0.023906518 0.020981126
0000d0 78 4b 5f 3c 43 cf 30 3d 7a 4f 02 3e f0 b0 c7 3d
       0.013628833 0.04316641 0.1272563 0.09750545
0000e0 43 78 60 bd 7d e2 06 3e 54 f8 b2 bc be 13 ad 3d
       -0.05480219 0.13172336 -0.021846928 0.08451031
0000f0 a5 91 1f 3d 47 da 6b bd b5 b5 e8 bd 86 e2 2c 3e
       0.038957257 -0.057581212 -0.11362783 0.16883287
000100 d9 2b 36 3d 14 93 db 3d 08 14 e2 3d 5c 44 e3 bb
       0.04447541 0.10721412 0.11038977 -0.0069356393
000110 b5 db 2f 3e 76 2a 7f 3d 7c f6 4e bc 86 6f 22 3e
       0.17173655 0.062296353 -0.012632009 0.15862855
000120 98 e5 7f bc c3 14 89 3d 4b 1f 06 3b 3d cb 82 3d
       -0.015618704 0.06693413 0.002046543 0.06386421
000130 78 c9 1f 3e c6 42 93 bb ff d1 10 3d b1 c9 1c 3d
       0.15604198 -0.004494044 0.035356518 0.038278285
000140 27 ee 22 bd 2c 90 f4 bc 16 43 2c bd 87 b1 46 3d
       -0.0397779 -0.029853903 -0.042056166 0.048509147
000150 83 ad f6 3c f9 82 b8 bd b0 fa 34 bd d1 88 0e 3e
       0.030112034 -0.09009356 -0.044184387 0.13919379
000160 8e a0 aa 3d 68 b6 1c 3e 68 12 03 3e 58 0a 05 3e
       0.083314046 0.15303957 0.1279999 0.12992227
000170 cd 21 e4 3d 6f 46 2d 3e bf 46 29 bd 93 29 fa 3c
       0.111392595 0.169214 -0.041327234 0.030537402
000180 0c c8 08 3c b0 fa a8 3d 11 65 d2 3d 62 02 89 bd
       0.008348476 0.0825094 0.10273183 -0.066899076
000190 70 97 c8 bc 6b 24 ad 3d 80 c9 cf 3d cd 9b db 3d
       -0.024486274 0.08454212 0.10145855 0.10723076
0001a0 56 f7 f6 bc 1a ad 30 3e 7b 4c 18 3d 5d 29 09 bc
       -0.030147236 0.17253533 0.037182312 -0.008371678
0001b0 42 d0 93 bd 7f c4 cc 3d 07 0b d3 3d ef 58 a6 3d
       -0.072174564 0.09998416 0.10304838 0.081224315
0001c0 2d a9 f3 3d 39 9b 28 3e d4 f5 9d 3d ee 08 08 3e
       0.11897502 0.16465463 0.077129036 0.13284656
0001d0 b5 6c 20 bd 9c 74 ed 3d 31 07 06 3d 8f 84 bf 3d
       -0.03916617 0.11594507 0.032721702 0.093514554
0001e0 ca c4 89 bc 91 fa fe 3d bd 50 80 3d df d0 0d 3d
       -0.01681747 0.124501355 0.062653996 0.034623023
0001f0 d8 12 e3 3d 9a c7 f4 bd 66 9e a1 bd cc 36 17 3d
       0.110875785 -0.119521335 -0.0789154 0.036917493
000200 33 4a a9 3d 2c cd d9 bd e8 2d a7 bd 7d 33 dc bd
       0.082661055 -0.106348366 -0.08163053 -0.10752008
000210 27 06 2a 3e 28 74 17 bc ee 75 80 bd d3 d9 9a bd
       0.1660391 -0.009244002 -0.06272493 -0.07561078
000220 c0 1f ca 3b 1f ff 27 3d d6 05 1a 3e 46 df ac bb
       0.0061683357 0.041014787 0.15041289 -0.0052756397
000230 e2 c8 0c 3d f3 fd ed bd a3 b5 e7 3c 17 5e 6b bd
       0.034371264 -0.116207026 0.028284853 -0.057462778
000240 cd b0 8c 3d ad 17 db 3d c1 40 b8 bd 85 72 ff 3d
       0.068696596 0.10697875 -0.08996726 0.12473015
000250 d8 8b f0 3d f2 cd ba 3d e9 de c5 3c c4 d7 ee 3d
       0.11745423 0.09121312 0.024154143 0.11662248
000260 68 d1 89 bd 2d f1 13 be e9 ca 0d 3e 92 4b 2f 3d
       -0.06729394 -0.1444747 0.13846935 0.04279668
000270 11 2e 18 be c8 80 8a 3d a7 45 ef bd 30 ee 8b 3d
       -0.14861323 0.06762844 -0.11683207 0.0683254
000280 4b f7 22 3e ae af de bc fe 96 a2 bd e9 10 55 3d
       0.15914647 -0.02718338 -0.07938956 0.05201808
000290 5d 86 8c 3d 88 eb 62 3d de 0c 70 3c 42 3f c1 3d
       0.06861565 0.0554004 0.014651505 0.094358936
0002a0 59 99 d7 3d c7 88 c9 3d d3 9e 25 be da 54 d8 3d
       0.105272956 0.09840541 -0.16173868 0.10563059
0002b0 b4 f5 c4 3d b8 a9 0b bd 53 ea 31 be 68 fc df 3d
       0.09617177 -0.034097403 -0.17374544 0.109368145
0002c0 51 99 24 3e 9a 45 1e be 1e c3 08 3e 0e 1a 48 3d
       0.1607411 -0.15456238 0.13355681 0.048852973
0002d0 01 ea fa bd 99 76 97 bd 22 9b 33 be 74 9e bd bc
       -0.12251664 -0.073956676 -0.17539647 -0.023146845
0002e0 b7 96 10 be a2 41 92 bd 1e c5 02 3d 6a 55 97 bd
       -0.14119993 -0.07141425 0.031926267 -0.07389338
0002f0 62 4a 0e bd 22 35 da bd 9a fe 8b bb 0d 11 29 3e
       -0.034738906 -0.106546655 -0.004272294 0.1651041
000300 7e ce 7a bd a0 95 c6 3d 99 8c 6d bd c6 12 1c bd
       -0.061232083 0.096965075 -0.057995412 -0.03810384
000310 05 d9 f9 3d b3 8c 8d bc aa 85 5d 3d e1 63 35 3b
       0.12199596 -0.017279005 0.05408255 0.002767794
000320 7b 65 33 be c7 ab 94 3d 7a 3b 9c 3d 3c cc 1c bc
       -0.1751918 0.072593264 0.07628532 -0.009570178
000330 34 a3 64 bd 42 ff e3 3d ae 69 80 3d 16 93 cd bd
       -0.055819705 0.11132671 0.06270157 -0.1003782
000340 c7 ab 36 3e 55 e9 b5 3d 7f dd 8a bd c2 dd 84 bd
       0.17838965 0.08882395 -0.06780528 -0.064876094
000350 37 72 bd bc c6 c5 b4 bd 9f c3 d6 3c 64 10 aa 3d
       -0.023125751 -0.08826785 0.026216326 0.083039075
000360 e7 df 1e bc 02 31 af 3d 13 72 a0 3d a9 76 bb 3d
       -0.009696937 0.085542694 0.07834258 0.09153492
000370 89 f9 20 3e 20 ee c4 3d 9f 28 5c 3d 14 0a ea 3d
       0.1572019 0.09615731 0.053749677 0.114277035
000380 90 53 5e bd 4f f9 df 3d 64 98 4e 3d bf 1d 54 3d
       -0.05427891 0.10936224 0.0504383 0.05178618
000390 5d 90 8f 3d 8b ae 1c bd 0f e2 e6 3c 98 24 ef 3d
       0.07009957 -0.038252395 0.028183965 0.116769016
0003a0 85 9a 00 3e e1 0c ef 3d c8 9c 3c 3c 08 04 36 3e
       0.12558945 0.11672378 0.011511989 0.17774975
0003b0 b8 e7 2e 3d 5f e6 fb 3d 8d b8 2a 3e 9d f7 a1 3d
       0.042701453 0.12299799 0.16671963 0.079085566
0003c0 6a 73 e4 3d 0a 96 ee 3d 81 71 19 3e 3a f3 96 bc
       0.11154826 0.116497114 0.14984705 -0.018426526
0003d0 82 72 10 bd e1 7a 1e 3e b0 b9 87 3d 67 d3 88 bc
       -0.035265453 0.15476562 0.06627214 -0.016702367
0003e0 e6 33 fc 3d 8f d6 af 3d 6a 18 95 bc 8c d2 c8 3d
       0.12314586 0.08585846 -0.018200118 0.09805784
0003f0 60 27 3c 3d bd da 98 bd ba 6d 06 be 6f ee 1c 3e
       0.04593599 -0.07463596 -0.13127795 0.1532533

lstm.weight_hh_l0 f4 [256, 64]
000000 4a 72 bc bd 1d 8a c4 3d 66 96 24 3d cc 63 02 be
       -0.092014864 0.095966555 0.040182494 -0.12733382
000010 55 5f 0a 3e 30 3e 6f bc 1d 4b e9 bc 8b eb e6 bb
       0.13512929 -0.014602229 -0.0284782 -0.007047122
000020 07 20 80 3d b3 85 e6 bd b9 c2 34 bd 7c 45 06 be
       0.06256109 -0.1125597 -0.044131014 -0.13112444
000030 ac 20 18 3d 6f fc cb bd c3 da 8b bd 80 78 84 3d
       0.037140533 -0.09960257 -0.06828835 0.06468296
000040 50 e4 81 3d 92 00 2b 3d e3 52 15 3d 6d 63 59 bd
       0.06342375 0.04174859 0.036456 -0.053073335
000050 07 26 c6 bd 2d 07 95 bd 55 6a 09 3d 88 5c 38 bd
       -0.09675222 -0.07276759 0.03354867 -0.04501012
000060 ea 3c 61 bd c8 27 bd bc 00 c8 6f 3c 79 f4 d7 bc
       -0.054989733 -0.023090258 0.014635086 -0.02636169
000070 81 52 c9 3d af 23 b3 3d e6 59 a9 3d 2f 36 92 3d
       0.098301895 0.087470405 0.082691 0.07139241
000080 8d a6 2c 3d 51 6f cd 3c 68 eb d3 bd ab 23 0a 3e
       0.042151023 0.025077494 -0.103476346 0.13490169
000090 ef 71 83 3b a5 62 c3 bd 79 8b 08 3e f1 07 da 3d
       0.0040113847 -0.09540299 0.13334455 0.10646046
0000a0 fd 94 43 3c f0 68 a3 bd 04 fa c8 bd de 01 25 bc
       0.011937377 -0.079789996 -0.09813312 -0.010071246
0000b0 45 6a 90 bb 16 e9 1f bd 6c a5 1f bd 17 e3 00 3d
       -0.0044071996 -0.039040647 -0.038976118 0.03146657
0000c0 d6 4b 60 bc a7 6e a8 bc a7 9b 30 bd f2 48 72 bd
       -0.013689956 -0.020560576 -0.04311719 -0.059151597
0000d0 ad b9 3d 3d c1 29 f1 3a 5d d2 d4 bc d9 87 94 3c
       0.046319652 0.0018399284 -0.025979215 0.018131183
0000e0 c2 f9 c1 3d 5f ab a4 3d 3a 56 8f bd f8 bc 0e 3d
       0.09471466 0.08040499 -0.06998868 0.034848183
0000f0 0e 39 fa 39 51 26 c2 38 f9 4b 70 bd 8b 3a db bc
       0.00047726225 9.257778e-05 -0.058666203 -0.026761314
000100 68 da f6 bd fd 54 8e 3d 5e 6a b8 3d 91 76 0c 3e
       -0.120533764 0.06949804 0.09004663 0.13717104
000110 b6 2d cb bc 5b 73 a2 3d db 15 fc 3d 72 ba ae 3c
       -0.02480207 0.079321586 0.12308856 0.021329138
000120 2b 26 b1 3d c4 1d ec 3d 61 6f f0 bd 41 e2 a6 bd
       0.08649858 0.11529115 -0.11739994 -0.08148623
000130 34 29 7b bc 47 15 d8 3d 6d 5a 8f bd 7a c4 6b bd
       -0.015329648 0.10550933 -0.06999669 -0.05756042
000140 bf 3b 46 bc bc be b0 bd 5b 02 b5 bd f9 c0 7e 3d
       -0.0120992055 -0.0863013 -0.0883834 0.06219575
000150 fa 49 2f 3a 47 cd bf 3c 39 6f df 3d 17 a4 5d bd
       0.00066867436 0.023413314 0.10909886 -0.054111566
000160 d9 08 b6 bd 88 48 4c bd d3 e9 b5 bd 38 16 b8 bd
       -0.08888406 -0.04987386 -0.08882489 -0.08988613
000170 fb 97 21 3c 4d 75 21 bd 1a 5c 55 3d 3c 5e 36 bd
       0.009862895 -0.039418507 0.052089788 -0.044523463
000180 50 e5 99 bd f3 23 2f bb a8 84 1a bd aa 36 7e 3d
       -0.07514441 -0.0026724308 -0.037724167 0.06206385
000190 c5 37 90 bd 9b e1 f5 3c 43 75 52 3d 88 61 49 bd
       -0.07041887 0.030014804 0.05138136 -0.04916528
0001a0 15 08 9f 3d c1 1c 9b bc 3d 19 b8 bd 87 5c d4 3d
       0.077652134 -0.01893461 -0.08989189 0.10369211
0001b0 18 58 7f 3c c8 59 ba 3c 5e 84 8f bd 3c 94 38 bc
       0.015584968 0.02274789 -0.07007669 -0.011265811
0001c0 62 57 f0 bd ba ff ec bc 39 27 cb bd b1 09 ca 3c
       -0.11735417 -0.028930534 -0.099195905 0.024662824
0001d0 91 c7 df 3d 98 f0 09 3e ba b3 50 bd f8 7a b2 3d
       0.10926736 0.13470685 -0.05095265 0.08714861
0001e0 60 87 b8 bd 5e 6e d2 bd 2b 81 cd 3d 73 b7 08 3e
       -0.09010196 -0.10274957 0.100344025 0.1335123
0001f0 fd 30 fd 3d ab 21 fb bd a9 54 ad bc f8 dd 4f bd
       0.123628594 -0.12262281 -0.021158533 -0.050748795
000200 b7 16 85 3d 18 31 6f 3d 37 d3 42 bd 8f 6b a1 3d
       0.06498473 0.05839643 -0.04756471 0.07881843
000210 2c 17 1f bd 6b 32 ee bd 8a d2 89 bd 18 aa 18 be
       -0.038840458 -0.1163071 -0.0672961 -0.14908636
000220 30 56 e0 bd 38 0e 06 be 13 1e 76 bd fe a7 5b bd
       -0.10953939 -0.13091362 -0.060087275 -0.053627007
000230 8e e6 c0 3d 85 54 0f be e2 a2 6b 3c 1a a5 55 bd
       0.09418975 -0.13997085 0.014382096 -0.052159406
000240 4c d7 47 3d b5 3d 8a bd 64 37 77 3d 8a b9 d7 3d
       0.048789307 -0.06750051 0.06035556 0.10533436
000250 6e 37 87 3d 45 68 01 bd d5 64 89 3c db 20 ef 3c
       0.06602369 -0.03159358 0.016771713 0.029190471
000260 4f 0b 8f 3d 2e 43 06 be 14 d8 ca 3d f9 31 73 3d
       0.06984579 -0.13111565 0.09904495 0.05937383
000270 a3 d0 33 bc af 09 47 bc a9 56 73 bd 39 3c 9b bd
       -0.010975036 -0.012148305 -0.059408817 -0.07579846
000280 a0 d6 8d bd 11 18 01 bd 50 46 7a ba 70 10 4e 3d
       -0.06925702 -0.031517092 -0.00095472205 0.050308645
000290 ad bd c2 3b 54 57 d6 3d b7 20 9a bd 4b 87 f0 3d
       0.0059430213 0.10465875 -0.07525771 0.11744555
0002a0 96 c7 a3 bd d1 a7 c9 ba 15 03 02 be 08 72 b2 3d
       -0.07997052 -0.0015385096 -0.12696488 0.08713156
0002b0 aa be e8 3c cc e1 bb bd 55 6b f1 bd d2 bd 76 3d
       0.028411228 -0.09173927 -0.1178805 0.06023962
0002c0 87 f4 5a 3d ee 88 24 3c 9e 86 07 3e 86 0e d8 3d
       0.053455856 0.010042412 0.13234946 0.10549645
0002d0 4e 4e 8b 3d 25 cf 0d 3d be c7 9b 3d 62 fd df 3d
       0.06802045 0.034621377 0.07606457 0.10937001
0002e0 16 65 ad 3c 6f a9 05 3e ee 73 5b 3c 7f 60 16 be
       0.021166366 0.13052915 0.013394339 -0.14685248
0002f0 3b ce c2 bd 0b 28 0c 3c 43 9e df 3d d7 97 97 bd
       -0.095119916 0.008554469 0.10918858 -0.07402008
000300 45 00 b5 bd c9 19 f3 3c 7e 01 97 3d 23 25 a9 3d
       -0.08837942 0.029675381 0.073733315 0.082590364
000310 23 53 7f bd d2 ca 1c 3c db 72 cf bd d0 25 d2 3d
       -0.062335145 0.0095698405 -0.10129329 0.102611184
000320 e3 05 24 bd f6 d3 95 bd 9f f5 a5 3d 3c a4 a2 3b
       -0.040044677 -0.07315819 0.08103489 0.004963426
000330 df d8 10 bd e4 95 b4 bd e4 96 fd 3d d0 00 ec bd
       -0.035363074 -0.08817652 0.12382296 -0.115235925
000340 2a cb f2 3d b2 5e 07 3e 59 2b d0 bd 37 f2 02 bd
       0.11855157 0.13219717 -0.10164518 -0.031969275
000350 ba 74 35 3d b6 80 18 bd 79 ed 79 3d ac ba f8 bc
       0.044300772 -0.037232123 0.061017487 -0.03036245
000360 9f 0b 1d 3d 63 18 c7 3d 1c c2 70 3d 94 1b 0c 3e
       0.03834116 0.09721448 0.058778867 0.13682395
000370 92 ce 8b 3d d9 2f 95 bd ad 21 0d be 6c 58 a9 3d
       0.068265095 -0.07284517 -0.13782378 0.08268818
000380 03 c5 d1 3d 3f dd 16 be a0 b7 75 3b 6a 6c 53 3d
       0.10242655 -0.14732836 0.0037493482 0.051617064
000390 50 30 0a bd 30 27 82 3d 59 12 03 be 7f b8 c0 bc
       -0.03373748 0.06355131 -0.12799968 -0.023525475
0003a0 28 3a 47 ba e0 37 86 bd ec b2 ad 3d fe 69 0c 3e
       -0.00075999135 -0.06553626 0.08481392 0.13712308
0003b0 6d f1 02 3d d3 a8 88 3c 4c ed b5 bc 1b d1 b5 3b
       0.031968523 0.016682064 -0.022207879 0.005548609
0003c0 70 4f d1 3d 5e cd 31 3c 7f e1 c8 bc fb 33 81 3c
       0.102202296 0.010852186 -0.024521587 0.015771857
0003d0 0e 1d e1 bd 19 40 a0 3a a4 51 82 3d 18 35 61 3d
       -0.1099187 0.0012226134 0.06363228 0.054982275
0003e0 63 b3 45 bd b9 f2 bc bd 6d d5 02 be e9 b2 b8 3b
       -0.04826678 -0.09225983 -0.12776728 0.005636562
0003f0 0f a5 cf 3d ca 0d 17 3d a6 f1 ce bd 85 f0 e8 3c
       0.10138904 0.036878385 -0.101046845 0.028435001

lstm.bias_ih_l0 f4 [256]
000000 ae 2c b3 bd f9 45 7f bd 57 d1 39 3c 10 7d 00 3e
       -0.08748756 -0.06232259 0.011341414 0.12547708
000010 cb 0d 56 bd 99 b0 c3 bc c0 0c 4f bd 8f 71 6a 3d
       -0.052259248 -0.02388792 -0.05054927 0.057237204
000020 08 c9 98 bc 29 36 0b bc 87 3f 9a bc e8 4e 6d 3d
       -0.018650547 -0.0084967995 -0.01882912 0.05793658
000030 ec d6 87 bd cd 6a b8 bd 2f 2d 61 bd 01 09 4b bd
       -0.0663279 -0.09004746 -0.05497473 -0.049569134
000040 64 26 0b 3d 73 39 ba 3d 6f d2 a0 bd 1b 45 b9 bd
       0.03397216 0.09092989 -0.07852637 -0.09046384
000050 00 e6 9c 3d 4c 29 c1 3d 3c f4 2d 3d 60 3d 8f bd
       0.076610565 0.09431705 0.04246925 -0.06994128
000060 b3 b7 66 3d 95 b9 e7 3d b0 9f 12 3e 3c a9 95 3d
       0.056327533 0.11314694 0.14318728 0.073076695
000070 2c 33 a6 3d e5 02 ae 3d 5a 34 5b bb 42 b4 82 3d
       0.08115229 0.08496646 -0.0033447952 0.06382038
000080 c1 13 90 3d 25 5b c4 bd 83 b6 40 3d 43 fd 4a bd
       0.07035018 -0.09587697 0.047049057 -0.049557935
000090 4f 1c 1a 3d 4f 48 4b 3d 81 82 84 3d 41 63 62 3b
       0.037624653 0.049629506 0.06470204 0.0034544023
0000a0 41 78 f6 3d 7f a7 0e bb 4e 82 ce 3d fb 1a c8 3c
       0.12034655 -0.0021767316 0.100834474 0.024426928
0000b0 9d 80 3c bd 16 ff 45 3c f0 57 d5 bc 9b cb d7 bc
       -0.046021093 0.012084743 -0.026042908 -0.026342204
0000c0 9b ab b9 bd 51 ec fd 3d ad 24 c2 3d 6f 76 f2 3d
       -0.09065934 0.123985894 0.094796516 0.11838996
0000d0 77 72 e1 3d 70 74 a1 3d 54 c8 07 3e ac 1a d4 3d
       0.110081606 0.07883537 0.13260013 0.1035665
0000e0 da d3 cd bd fd ae 34 3d 5f 35 e3 3d 10 69 a4 bd
       -0.10050173 0.044112194 0.11094164 -0.080278516
0000f0 5c b6 f7 3c 74 f3 b8 bd 7c 37 00 be 65 74 90 3d
       0.030238323 -0.0903081 -0.12521166 0.070534505
000100 be d2 c8 3d f1 1b 6b 3d 32 92 82 3c 5b a5 4d bd
       0.09805821 0.057399694 0.015938852 -0.050206523
000110 81 f4 8a bd f3 c3 53 3d f8 49 81 bd bf 9d 9b 3c
       -0.06784917 0.051700544 -0.063129365 0.018996118
000120 77 ed f5 3c 8f bc f6 3d 89 05 02 3e 6f 41 a7 bd
       0.030020459 0.120476834 0.12697424 -0.08166777
000130 34 f1 7c 3d f1 4a 42 3d 51 55 02 bc 12 e4 da bd
       0.061753467 0.04743475 -0.007954911 -0.10688032
000140 08 cf 07 3e 41 73 95 3d 64 fc ba 3c 9f ac 74 3d
       0.1326257 0.072973736 0.022825427 0.059734937
000150 d9 f9 ef 3d 1c 0b ac bd ea 5b c2 bd 1d 68 00 3e
       0.117175765 -0.084005564 -0.094901875 0.12539716
000160 13 3f 08 bd f9 0c 30 3d 13 bc 8f bd 26 48 11 3d
       -0.033263277 0.04298112 -0.07018294 0.035469197
000170 e9 0e d2 bd 94 1b 7d bd d4 63 82 3d fc c7 35 3d
       -0.1025675 -0.06179388 0.06366697 0.044380173
000180 84 8c df bc 29 b9 4d bd b1 ea 98 3d 7f 6b 04 3d
       -0.027288683 -0.05022541 0.07466639 0.03232908
000190 e0 e8 54 3d 1e 34 83 bd 30 7e 62 bd 76 ca 50 bd
       0.0519799 -0.06406425 -0.055296123 -0.05097433
0001a0 6c 9a ce 3d 64 cd 95 bd ee 10 00 3e de 57 68 3d
       0.100880474 -0.07314566 0.12506458 0.05672442
0001b0 63 4b e9 bd 69 4c 8c 3d b3 8a 09 3d 17 22 d6 bc
       -0.11391332 0.068505116 0.03357954 -0.026139302
0001c0 a4 e1 86 3d f2 1a b9 bd 5c 93 dd 3d 9c 14 d4 3d
       0.06586006 -0.090383425 0.10819122 0.103554934
0001d0 b4 18 00 3e d9 47 03 be 0b 9a 0f 3e 8f 23 95 bd
       0.12509423 -0.12820376 0.14023606 -0.07282173
0001e0 60 0a 78 bd 68 4c 50 3d f3 1f 77 bd 7e 80 6d 3d
       -0.06055677 0.050854117 -0.060333204 0.057983868
0001f0 11 9d 20 3b c3 fc 94 bd 20 0f b4 3d d0 0e 82 bd
       0.0024507681 -0.07274773 0.08791947 -0.063504815
000200 9e 32 55 3c a9 7f ef 3d 3b c4 97 3d bd e5 84 3d
       0.013012556 0.11694271 0.07410475 0.064891316
000210 c6 28 bb bd eb d6 3d bd 55 79 5e bd 43 ca 81 bd
       -0.09138636 -0.04634754 -0.05431493 -0.063374065
000220 19 d7 21 3c b5 62 04 be 25 70 09 3d f2 21 cb bc
       0.009877943 -0.12928279 0.033554215 -0.02479646
000230 dc 21 5a 3c f6 03 8f 3c 66 07 ec 3d c9 b8 c9 3c
       0.013313737 0.017457943 0.11524849 0.024624245
000240 9d f8 c6 3d bb 88 ff 3d 8d 8b 8e bd f1 25 b9 bd
       0.09715388 0.12477251 -0.06960211 -0.0904044
000250 83 fe ee 3d 00 cd 3d 3d f2 6a 02 bd dd d4 80 3d
       0.11669638 0.04633808 -0.031840272 0.062906004
000260 e1 de 7c bd cc 61 99 bb af 80 af 3d 67 ee 53 bd
       -0.06173599 -0.0046808477 0.08569466 -0.05174103
000270 0a a4 d1 bd cd 54 8b 3d 4a 37 0b bd 38 85 b2 bc
       -0.10236366 0.06803284 -0.033988275 -0.02179204
000280 ba 4e 95 bc ab b3 fc bc 47 05 d9 3b bc ec af 3d
       -0.018226016 -0.030847391 0.0066229436 0.085900754
000290 74 5b b1 3d 65 5f 6d bd 0c 54 a0 bd a0 4b bb bd
       0.086600214 -0.057952303 -0.07828531 -0.09145284
0002a0 9c 78 4d 3d 93 ac 85 3d 1d 35 c0 bc 8f 3a 04 3c
       0.05016385 0.065270565 -0.023462826 0.008070602
0002b0 ee 07 ca bd e3 74 73 bd bf 29 b3 bd ce 5a d0 3d
       -0.09864794 -0.059437644 -0.08748197 0.101735696
0002c0 14 77 69 b9 fc 63 37 3b 55 55 0d 3d 2c 40 cf 3c
       -0.00022264972 0.002798318 0.034505207 0.025299154
0002d0 76 61 d5 bd 97 f0 ba bd 07 58 f5 bc 70 96 82 3d
       -0.1041898 -0.0912792 -0.029949201 0.0637635
0002e0 85 d5 40 bd db 2c 4c bd 8c 43 e2 bc 00 a8 dd bc
       -0.047078628 -0.049847465 -0.0276201 -0.027057648
0002f0 98 eb e8 bd 30 02 fb 3d f9 0f b5 bc 7a 7d f4 3c
       -0.11373061 0.122562766 -0.022102343 0.029844988
000300 06 59 68 bd 61 3e 88 3d f7 84 33 bd 12 88 39 3d
       -0.056725524 0.06652523 -0.043827977 0.045295782
000310 db e0 a2 3d 32 55 f5 bd c3 0d b0 bd 95 6f d2 3c
       0.07953044 -0.1197914 -0.08596375 0.025687972
000320 fe 89 2f 3c 07 6e 16 bd da 12 d0 3c 80 52 c2 bd
       0.010714052 -0.036726024 0.025399614 -0.09488392
000330 c6 0c cb 3d 28 79 a6 bd ec da c3 3c f2 9e 85 bd
       0.09914546 -0.081285775 0.023908101 -0.06524457
000340 31 41 e5 bd 8d 6c 15 bc 5a 65 c0 bc a5 69 8b bd
       -0.11194075 -0.009120119 -0.023485828 -0.068072595
000350 6e 97 d7 3c 99 d1 38 bc 2e 30 e7 bc 5d de 1b 3d
       0.026317324 -0.011280441 -0.028221216 0.03805386
000360 a3 eb 36 bc 10 59 8b 3d cc 3c d4 3d e7 53 0f 3d
       -0.011164579 0.06804097 0.103631586 0.034992125
000370 9e 0d 26 3c 60 36 4e b7 ea 9b 00 bd 1f 5b 95 3d
       0.0101350825 -1.2291217e-05 -0.03139869 0.072927706
000380 21 6a 86 3d 17 ff 34 bc 7b 94 e6 38 2f 68 b0 3c
       0.06563211 -0.011047146 0.00010994911 0.021534054
000390 b5 68 e8 3d 0e 66 d0 bd 68 d3 c3 3c 30 fc af bd
       0.11348096 -0.101757154 0.023904517 -0.08593023
0003a0 a2 eb b8 3d 8c 1a 98 bd bb 97 eb 3d 5f 37 ae bd
       0.090293184 -0.074269384 0.1150355 -0.08506655
0003b0 62 bb b8 bc e3 6f 8c bd f1 44 e7 3d 4d b1 59 bc
       -0.022550289 -0.06857278 0.112924464 -0.013286901
0003c0 70 d0 a4 bd 62 fb bc bd 5b 22 86 bd fc 6a aa 39
       -0.08047569 -0.09227635 -0.065495215 0.00032504636
0003d0 81 6b f1 bd b0 aa de bd bd 47 12 3e 1d 48 80 bd
       -0.11788083 -0.108724 0.14285178 -0.062637545
0003e0 3b ee ae bd d5 b1 a1 bd 27 b1 73 bd db d7 9c 3d
       -0.085415326 -0.07895247 -0.059495118 0.07658359
0003f0 59 97 b6 bd a5 eb e9 bd 92 b0 2f 3c a5 a3 51 bd
       -0.08915586 -0.11421899 0.01072325 -0.051181454

lstm.bias_hh_l0 f4 [256]
000000 28 22 2a 3d eb 2d 4c 3d 6d ed ca bc 82 fa a3 bd
       0.04153648 0.04984848 -0.024771417 -0.08006765
000010 45 8e 91 3d e8 7b 9e bb a2 0d 66 3c c9 96 bd bd
       0.07107214 -0.004836548 0.014041336 -0.092572756
000020 62 2f c6 bc 92 cf 82 3c 00 19 dd 3c 63 68 d4 3c
       -0.024192516 0.015968118 0.02698946 0.025928682
000030 c5 44 9a 3b b5 d5 cb 3d 5b 36 e1 bd c4 67 97 3b
       0.004707905 0.09952871 -0.109966956 0.004620524
000040 90 8a a7 bd 1a c2 71 3c 21 ff c2 bd 1e fe 09 3e
       -0.081807256 0.01475575 -0.09521318 0.13475844
000050 5f 96 df 3d 32 13 a6 bd f3 ad 07 3e d4 83 90 bd
       0.10917353 -0.0810913 0.1324995 -0.07056394
000060 01 bd d7 3d 84 12 72 3d 18 27 47 bd ce 92 b8 bd
       0.105340965 0.05909969 -0.048621267 -0.09012376
000070 76 8b 45 bc 35 d3 a0 bd 1c 10 ad bd 68 bd f3 3d
       -0.012057176 -0.078527845 -0.08450338 0.11901361
000080 b2 aa 6c bd 6a fa 94 3c 8e 63 75 bd bd 6e 7c 3d
       -0.057779975 0.018185813 -0.059909396 0.061629046
000090 19 21 aa bd 97 98 16 bd f3 1f 18 bc db cd cb 3c
       -0.08307094 -0.036766615 -0.009284961 0.024878433
0000a0 db 5b da 3d f9 68 af 3d dc 89 db bb ad 80 06 3e
       0.10662051 0.08564944 -0.0066997837 0.13135023
0000b0 43 d8 07 be 4b 3b ac bd 50 13 dd 3d bb 42 fb 3d
       -0.13266091 -0.08409747 0.10794699 0.12268587
0000c0 e9 e0 00 bd e6 2d a3 3d 45 28 eb 3d 31 66 e9 3d
       -0.03146449 0.07967739 0.1148229 0.113964446
0000d0 e1 8e d2 bd 21 09 a3 ba d4 c7 1b 3e ef 2a ee 3d
       -0.10281158 -0.0012438634 0.15212947 0.11629283
0000e0 dc 8f ba 3d ac 4a d2 3d b8 b0 9d bc 27 52 46 3d
       0.0910947 0.10268149 -0.019249305 0.04841819
0000f0 77 23 e0 3c c4 7e 9b 3d f1 f9 54 3d 83 b2 0a bd
       0.027360661 0.07592538 0.051996175 -0.03386165
000100 b4 1a fd 3d 90 96 f8 bd 10 2f e1 3d df a4 4f 3c
       0.12358609 -0.121380925 0.109953046 0.012673586
000110 90 ee 02 bd 75 26 6e bd cc 78 88 3d da 49 a2 bd
       -0.031965792 -0.058142144 0.06663665 -0.07924242
000120 e3 eb 55 3c c5 d4 7b bc c9 13 a8 3d 3a 06 33 bd
       0.013056728 -0.015370552 0.08206899 -0.04370711
000130 ac 1a f8 3b ac 77 e0 3d bd cc 53 bd 9e e5 a0 3d
       0.007571539 0.109603256 -0.051708926 0.07856296
000140 38 6b c8 bd 5c 9c 9e bd 5f 12 c5 bd 57 f9 01 3e
       -0.09786075 -0.07744667 -0.09622645 0.12692772
000150 3b 4a ad bd 86 b0 a1 3d b0 95 3f bc 52 20 9a bd
       -0.08461424 0.07894997 -0.011693403 -0.07525696
000160 70 8f d1 bd 27 e3 43 3d 55 0f e8 bb ed fb fe 3d
       -0.10232437 0.04782405 -0.007081906 0.12450395
000170 1f e7 ce 3d 2c 5e 83 bd 15 77 92 3d 16 b8 06 3d
       0.101026766 -0.06414446 0.07151619 0.0328904
000180 b2 05 f5 3d c3 ef 30 3d 6a ed 5d 3c 19 e5 6a bd
       0.11963977 0.043197405 0.013545373 -0.05734739
000190 a9 d1 b3 bc ea 61 cd bd 1d b2 b7 bc ca 33 c7 3d
       -0.02195056 -0.10028441 -0.022423798 0.09726675
0001a0 16 c5 f1 3d 34 7a 84 bd 12 cb ec 3c fb b9 0d 3e
       0.11805169 -0.06468621 0.028905425 0.13840477
0001b0 5d 99 ae 3d 4e 75 05 3c 5d b4 f8 3a 52 1d a2 3d
       0.085253455 0.008145643 0.0018974651 0.07915749
0001c0 33 f1 b1 3b bb 3b c1 3c ac c8 14 3e 0d 54 89 3d
       0.0054303645 0.023588052 0.14529675 0.067054845
0001d0 4b 89 ef 3d 1f 2f bd 3d a6 8a 93 3c 2a 09 2d bd
       0.116961084 0.09237503 0.018010449 -0.042245068
0001e0 7b 40 af bd 54 c6 9f bd 45 1b 9f 3d a8 d0 e0 bd
       -0.085572205 -0.078015 0.07768873 -0.10977298
0001f0 bc 39 04 3d db 19 93 bb 39 d8 95 bd 33 b5 7f bd
       0.032281622 -0.004489166 -0.07316632 -0.062428664
000200 8e 36 8a 3c 47 84 d8 3d 5c 58 08 be 62 bd 8b bd
       0.016871717 0.10572105 -0.13314956 -0.06823231
000210 f2 17 f5 3d 09 8b 96 bd 3d b7 a4 bd 07 30 af bd
       0.11967458 -0.073507376 -0.080427624 -0.08554082
000220 30 11 70 bd 1f 6c 3c bd c5 af 22 3d 0a ab 8b bd
       -0.05861014 -0.04600155 0.03971841 -0.068197325
000230 24 d7 71 3d db 89 c5 bd 8c 49 4d bd 24 91 d1 3d
       0.059043065 -0.096454345 -0.050118968 0.102327615
000240 65 e2 d3 3d 8e ff 47 3c 43 83 84 bc 0d f0 7f 3d
       0.10345916 0.012206925 -0.016175872 0.06248479
000250 44 0b bb bc 03 0f 0c be 6a 33 ff bd 46 c2 35 bd
       -0.02283252 -0.13677602 -0.12460978 -0.044374727
000260 b4 98 fb 3d 44 74 81 3d c1 bf fe bd db 98 03 3d
       0.12284985 0.06321004 -0.12438918 0.032128196
000270 86 85 9b bd 61 9e 00 be 08 5a 6b 3d a6 44 28 3c
       -0.07593827 -0.12560417 0.057458907 0.010270273
000280 85 02 4f bc 59 1c a3 3d 20 0c 46 3d 24 2e ba bd
       -0.012634878 0.07964391 0.048351407 -0.09090832
000290 90 e2 ba bc 19 cb 87 bd 96 57 2f 3d 76 15 c4 3d
       -0.022813112 -0.06630535 0.042808138 0.09574406
0002a0 1e 30 62 bd 33 f3 69 3d a2 1d fa bd 37 46 f6 3d
       -0.05522167 0.0571167 -0.12212683 0.12025111
0002b0 ee 8e c5 bd 58 05 4c 3c 24 fd 59 bd 20 c6 9a 3d
       -0.09646402 0.012452446 -0.05321993 0.075573206
0002c0 28 c6 ae 3c df c2 d8 bb 6b 65 b0 3c 56 e2 5c bd
       0.021334723 -0.0066150273 0.021532735 -0.05392679
0002d0 5e 80 fc bc fd e7 86 bd a1 9d db 3d ec 44 eb 3d
       -0.030822929 -0.06587217 0.10723425 0.11487755
0002e0 68 37 ab 3c 5d 4c 0d 3d c5 31 e2 bd 93 43 c3 bb
       0.020900443 0.034496654 -0.11044649 -0.005958983
0002f0 cb ca 17 bd 30 d4 80 3d fa b7 e0 bd da 55 04 bd
       -0.037058633 0.062904716 -0.10972591 -0.032308437
000300 7d c9 86 3d 00 26 13 be 5f d3 20 3d 96 22 a2 bd
       0.065813996 -0.14369965 0.03926408 -0.07916753
000310 1b a4 02 bd c4 e5 c1 bd 33 b0 0d bc 5e 55 8d 3d
       -0.031894784 -0.094676524 -0.008647966 0.06901048
000320 cc 22 3f bb c8 50 93 bd e3 b3 cb bd d5 93 42 bc
       -0.0029165028 -0.07193142 -0.0994642 -0.011876066
000330 a0 f3 1e bd 73 7a 71 3b 22 42 fc bc 25 fa ac bc
       -0.038806558 0.0036846667 -0.030793253 -0.021115372
000340 e9 7c b9 3d 5f 79 5f 3d 20 9b 8e 3c c7 0b 4e bc
       0.09057028 0.054559108 0.017407954 -0.01257605
000350 7b 64 a1 3d 7e a2 d0 bd 9e 66 92 3d 7c 6d a1 3b
       0.07880493 -0.10187243 0.07148479 0.0049263816
000360 10 be 81 bd 4c 0e 08 bc 5c 36 b5 bd 62 2f b4 bd
       -0.0633508 -0.00830419 -0.08848259 -0.087981
000370 bc 50 86 bb 25 f8 85 3b b3 2c fc 3d 55 2d 19 bd
       -0.0040989798 0.004088419 0.12313213 -0.037396748
000380 36 22 97 bd b5 37 1c 3d 85 3b a9 bd aa 21 e8 3d
       -0.07379572 0.038139064 -0.082633056 0.11334546
000390 03 e7 e9 3d 7e c9 a6 3d 3a bb b0 bc d0 3a 78 bd
       0.11421015 0.081439 -0.021573652 -0.060602963
0003a0 f0 3f 82 bd 82 36 5a bd e2 6b e6 bb 02 e9 00 3e
       -0.06359851 -0.05327464 -0.0070319036 0.12588885
0003b0 a6 ca 62 bc 15 bc dc 3d b1 62 96 bd 04 d5 9a 3b
       -0.01384226 0.10778061 -0.07343043 0.0047251005
0003c0 8a a9 75 3d bc 60 97 bd 08 c0 2b bd a8 4a 88 3d
       0.05997614 -0.073914975 -0.041931182 0.066548645
0003d0 e2 f3 63 bd 46 ff 63 3d b6 6e 88 3d 85 25 9b 3c
       -0.055652507 0.05566337 0.066617414 0.01893879
0003e0 a5 44 8a 3b 97 78 f0 bd 55 f6 a4 3d d3 7a f1 3d
       0.004219609 -0.11741751 0.080547966 0.11791005
0003f0 b5 3c 84 3d 75 21 f3 bc 5a 5b 9f 3d b6 f8 af 3d
       0.064568914 -0.02967904 0.07781096 0.0859236

lstm.weight_ih_l1 f4 [256, 64]
000000 62 c2 a8 bd de fa c9 bd dc 96 78 3d 93 c7 20 be
       -0.082402006 -0.09862302 0.060690746 -0.15701132
000010 17 46 91 bc f1 bf 9c 3d d0 44 3c bd fd e8 b2 bd
       -0.017733617 0.076537974 -0.045964062 -0.08735845
000020 f6 2c 79 ba da 22 61 bd 60 9a ac 3d 71 34 68 3c
       -0.0009505296 -0.054964878 0.08427882 0.014172659
000030 a9 c9 b0 3d dc 20 ce bd 7f 93 6a bd cb f6 e8 bd
       0.086322136 -0.10064861 -0.05726957 -0.11375197
000040 d0 22 9a 3d 54 3f 06 3d 15 80 b4 bd f2 20 61 bd
       0.07526171 0.03277524 -0.08813492 -0.05496306
000050 c7 4f c0 3d 2b dc 7d bd 0b e6 ae bd b2 8b ab bc
       0.09390216 -0.061977547 -0.08539971 -0.020940635
000060 e8 ef 08 3c b3 5f 46 bd b1 9d 1d bc 51 8e f5 bb
       0.008357979 -0.04843111 -0.009620116 -0.007493772
000070 cf cb 3b 3d 56 8d 15 3c 48 ea 7b bd 7d 3f 45 3c
       0.045848664 0.009127935 -0.061502725 0.012039063
000080 4f 39 b4 3c 5a 1e 17 be 28 d9 11 bd a1 76 02 bd
       0.021999983 -0.14757672 -0.035607487 -0.031851415
000090 ef 9a 10 3d f7 e9 3c 3d a9 f1 af 3d 65 c7 b8 3c
       0.035304006 0.046121564 0.08591015 0.022556016
0000a0 7b e6 1d 3e 64 1a e2 bc d1 b7 f0 bc f3 43 f1 3d
       0.15419953 -0.027600475 -0.029384525 0.117805384
0000b0 99 27 03 be ab 5f 2e 3c f8 3b 83 3d 4d 64 ec 3d
       -0.12808074 0.010642926 0.064079225 0.11542568
0000c0 18 2c e3 3d 17 3f 17 be 15 7e 45 3d 23 3c a7 bd
       0.110923946 -0.1477016 0.048215944 -0.08165767
0000d0 08 e0 93 3d bd f9 b7 3d 41 90 2a be 2d 3a 53 3d
       0.07220465 0.08983181 -0.16656591 0.051569153
0000e0 aa 7c f0 bd ae 15 19 bd b0 6c bf bd 30 a2 f5 bd
       -0.11742528 -0.03737419 -0.09346902 -0.119938254
0000f0 25 d6 f0 bd 86 aa e2 bd 1d a7 1b bc be 85 82 3d
       -0.11759595 -0.11067681 -0.009500292 0.063731655
000100 c1 75 d6 bd b3 e7 eb 3d d9 41 e0 3d 50 d3 17 3e
       -0.104716785 0.115188025 0.109500594 0.14826703
000110 f2 e1 ae bd fd 95 be 3d 2e e9 25 3d 25 84 a2 3d
       -0.085391894 0.09305952 0.04050558 0.07935361
000120 0d 23 a3 bd 30 95 34 3d 77 8f 82 3c a9 6b b1 3d
       -0.0796567 0.04408759 0.01593755 0.08663113
000130 1e fd 13 be 62 4f 0c 3e 53 c3 99 3d 7a bd 38 3c
       -0.14452025 0.13702157 0.07507958 0.0112756435
000140 63 ac 52 bd 6f f1 0b be 8a 47 96 bd 15 7a 60 3c
       -0.051433932 -0.13666318 -0.07337864 0.013700982
000150 a9 c8 cc bd 71 ce 85 3d a0 12 19 bc e6 e0 e5 bc
       -0.099992104 0.06533516 -0.009342819 -0.028061341
000160 14 fd be 3d 75 47 e8 3c 01 65 2f bc 50 0b ba bd
       0.093256146 0.028354386 -0.010705234 -0.09084189
000170 6a 4f 54 bd 51 2d cd 3c 5b c7 a6 bd 54 fd 06 be
       -0.051833548 0.025046023 -0.08143493 -0.13182575
000180 9b 2f b9 bd d3 23 4e 3d fb e2 b7 3d 24 6b 9b bd
       -0.09042283 0.050327133 0.0897884 -0.07588795
000190 84 fd c4 3d 6e 84 02 3e 57 7d 33 3c 64 cb e2 bd
       0.09618667 0.1274583 0.010955176 -0.1107395
0001a0 37 fe 80 bd 48 3e b1 3c a9 a6 04 bd 50 97 b0 bc
       -0.06298488 0.021636143 -0.032385502 -0.021556526
0001b0 f0 d5 8f bd 1a 0d 3e bd 87 32 df 3d 6f 2b f7 bd
       -0.07023227 -0.046399213 0.10898309 -0.12068831
0001c0 7d 01 97 3d 30 ee 06 3e 35 c1 1b 3d e0 57 bc bd
       0.07373331 0.13176799 0.038026053 -0.09196448
0001d0 a4 9c 05 bd 7e 20 e7 bc 1a bf cc 3d ea 3b a6 3b
       -0.032620087 -0.028213736 0.09997387 0.0050730603
0001e0 22 3a a3 3d a3 b7 3a 3d 84 49 d6 3d 14 8f fd bb
       0.07970072 0.045585286 0.10463241 -0.0077380035
0001f0 32 1a 90 3c cf e9 ea 3d f3 f7 12 bc 4a e4 c3 3d
       0.017590616 0.11470377 -0.0089702485 0.09565027
000200 e2 b1 08 bd e1 a5 7e 3d 37 bc 20 bd a3 29 cb bc
       -0.033372767 0.062169913 -0.039241996 -0.024800127
000210 b5 56 b8 3d e6 e3 07 be df 82 53 3c 60 f4 9a 3d
       0.09000913 -0.1327053 0.01290962 0.07566142
000220 34 c3 66 3d ac ad a5 bd d8 a4 bd 3d ba 65 83 3d
       0.056338504 -0.08089766 0.09259957 0.06415887
000230 30 a8 d9 3c 11 5b 6c 3d af 6c 18 3b 94 38 d0 ba
       0.026569456 0.057704035 0.002325814 -0.0015886002
000240 5a d7 ff 3d eb 05 e3 3d ac b8 ff bd c1 5f 00 3e
       0.12492247 0.11085113 -0.12486395 0.12536527
000250 af a1 19 3e c6 a6 94 bd f9 c4 d8 3d e2 9a 3b bd
       0.15003084 -0.07258372 0.105844446 -0.045802005
000260 fb a0 c6 bc e8 69 5a 3d 3c d7 d6 3d 16 66 a9 bd
       -0.024246683 0.053323656 0.104902714 -0.082714245
000270 b3 a0 9e 3d a6 88 56 bd 1e da ba 3d 20 03 be bd
       0.07745495 -0.05237641 0.09123634 -0.0927794
000280 76 8b 77 3d da 52 93 3d 63 75 8f 3d 62 26 88 bd
       0.060435735 0.07193537 0.070048116 -0.06647946
000290 02 ee 87 3b 33 75 00 be 06 a4 e4 bd 9d 06 25 3e
       0.004148246 -0.12544708 -0.111640975 0.16115804
0002a0 4e 1e 09 3d 76 f6 c2 3d 73 ab a8 3d c8 68 b2 3d
       0.033476166 0.09519665 0.08235826 0.08711392
0002b0 ab 3e db 3d 95 90 ea bd f1 b7 98 3d 73 22 91 bd
       0.10705312 -0.11453358 0.07456959 -0.07086649
0002c0 86 f9 bd 3d c9 cc 8a bd 1e 28 d9 3b 4f 80 c8 3b
       0.092761084 -0.06777341 0.006627097 0.006118811
0002d0 21 00 a7 bd 66 2b b1 bd 8a 80 27 bd b1 3c a8 3c
       -0.081543215 -0.08650856 -0.04089407 0.020536752
0002e0 b6 8c c8 bd 3b f8 89 bb a5 34 52 3d dc 44 91 3d
       -0.097924635 -0.0042104996 0.051319737 0.07093212
0002f0 56 36 6d bc c8 a7 ea 3d e4 65 99 ba f5 5c 8d 3d
       -0.014478287 0.11457783 -0.0011703339 0.06902496
000300 da 77 99 bd 58 35 95 bd e7 55 f4 bd 5f 76 8d 3c
       -0.07493563 -0.07285565 -0.11930447 0.017268358
000310 66 70 c6 3c ef 46 39 3d bd 67 bc bc 38 c1 86 3d
       0.024223518 0.045233663 -0.022998685 0.06579822
000320 91 5c c9 bd 26 a4 40 bd b4 58 cc 3c 1e 66 c5 bd
       -0.09832109 -0.047031544 0.02494464 -0.09638618
000330 c7 68 c1 bc 8e 5d b1 bc 43 d8 43 3d 15 ca b9 bd
       -0.023609532 -0.021651056 0.047813665 -0.09071747
000340 e6 6f 20 bd 6e f9 4c bd 4f 8b c6 3d 83 6b 46 3d
       -0.039169215 -0.050042562 0.0969454 0.048442375
000350 1f 99 96 3d 19 ed a6 3d 7f 59 de 39 45 74 0c 3c
       0.07353424 0.081506915 0.0004240982 0.008572643
000360 af 2e 72 3c 15 c0 9a bd 73 43 26 3e f2 f5 64 bd
       0.014781638 -0.07556168 0.16236667 -0.055898614
000370 8a 02 53 bc 1e 57 ef bd e4 57 46 bd ef c5 a1 3d
       -0.012879023 -0.11686538 -0.048423663 0.07899081
000380 85 9f c7 3b de f0 47 3d 6f 20 d0 3d 2f 1c 1f bd
       0.0060920143 0.048813693 0.10162436 -0.038845237
000390 b0 91 7b bb ac 82 01 be ce 8c 1f 3d 08 71 89 3c
       -0.0038386397 -0.12647504 0.03895264 0.01677753
0003a0 d0 98 be 3d 6d a2 92 bd be 9f 81 bd 6c 19 a5 3c
       0.093064904 -0.071598865 -0.063292965 0.020153724
0003b0 a7 9e a9 bd 4a f5 8f bd 1d 9f 93 3d 3c 02 ee 3d
       -0.08282214 -0.07029207 0.07208083 0.1162152
0003c0 ca a6 b0 bd 18 67 ed bc 73 c5 5b 3c 75 fd 94 bc
       -0.086255625 -0.028979823 0.013413775 -0.018187264
0003d0 42 13 d1 bc 68 db bb 3d c7 26 45 bd 4a 67 a5 bc
       -0.025521878 0.09172708 -0.048132684 -0.020190854
0003e0 72 0f 7b bc d8 eb 9a 3b ab 97 36 bd fe bf 83 bd
       -0.015323507 0.004727822 -0.044578236 -0.06433104
0003f0 2f 38 29 bd 51 78 71 bc f2 d2 9e bd 99 5d 94 3c
       -0.041313346 -0.014738158 -0.077550784 0.018111037

lstm.weight_hh_l1 f4 [256, 64]
000000 3d 3d fe bd bf 88 b4 ba 10 bd f0 3d ee 50 20 3d
       -0.12414024 -0.0013773664 0.11754811 0.03913968
000010 93 e0 80 bc 30 87 d4 3d ce ad 04 be 94 45 f1 3d
       -0.015732085 0.103773475 -0.12956926 0.11780849
000020 2c 43 7d 3d 60 e5 02 bd f8 da 60 bd 25 47 4a 3d
       0.06183164 -0.03195703 -0.054896325 0.049384255
000030 bd 67 68 bd 6c 00 f8 bc d7 8d d5 3c ee ae 3c bd
       -0.056739558 -0.030273639 0.026068611 -0.046065263
000040 3d cc 3a bd a3 84 c9 bc f8 cc 26 3c b2 4b 64 bd
       -0.045604933 -0.024599379 0.010180704 -0.05573625
000050 47 95 df bd 52 8d 8e bd 86 7f 73 3c 71 2d a6 3d
       -0.10917144 -0.069605485 0.014861947 0.08114136
000060 fd 76 f2 3b a7 f8 f8 bd 5f f4 fc 3d da 3c 84 bd
       0.0073994384 -0.12156802 0.123512976 -0.06456919
000070 8d cf 5a 3d 00 84 12 3e ea 57 04 be 85 d3 b8 bd
       0.053420592 0.14308167 -0.12924162 -0.09024719
000080 e9 ca b3 3c ef 91 0e be 98 cb 96 3d 29 5f f4 bb
       0.021947341 -0.13922857 0.07363051 -0.007457633
000090 d3 08 b9 3d 83 61 80 3c 6b b2 be bd 96 ba c3 bd
       0.09034886 0.015671497 -0.09311374 -0.09557073
0000a0 d9 30 23 3d 01 a0 9d bd 14 3c f6 3d e7 b2 97 3d
       0.039841507 -0.07696534 0.12023178 0.0740717
0000b0 6b 5e 8a bd 3b b1 cd 3d 3b 10 a5 3d 91 c1 03 3e
       -0.0675629 0.1004357 0.08059736 0.12866808
0000c0 22 53 64 bd 1d 05 29 bd a0 93 e0 3d 3a 15 b2 3d
       -0.055743344 -0.041264642 0.10965657 0.08695455
0000d0 28 0c a8 3d c0 ca dd bc 8b c6 b8 bd 1e 63 14 be
       0.082054436 -0.027074218 -0.09022244 -0.14490935
0000e0 c0 8b a7 bc 79 51 39 bd eb 54 bd 3c 3b b9 a7 3d
       -0.02045238 -0.045243714 0.023111781 0.08189627
0000f0 55 f6 67 bc 79 25 61 3d 51 a0 a5 bd bf d5 5b 3c
       -0.014157851 0.054967377 -0.080872186 0.01341766
000100 48 63 a6 bd 83 d6 16 3d 56 d6 88 3c a9 d0 e9 bd
       -0.08124405 0.036825668 0.016703766 -0.11416752
000110 a1 c0 80 3d e7 91 83 3d e5 e8 58 3c 82 70 26 3d
       0.06286741 0.06424313 0.01323912 0.04063464
000120 bf 30 ad bd 52 91 2f 3d 00 03 b2 3d 0f 1b a9 3d
       -0.08456563 0.042863198 0.086919785 0.08257114
000130 cb a5 3b bc d6 47 a6 3d f2 d2 14 bd cd 5d 12 bd
       -0.011453102 0.0811917 -0.036333986 -0.035733987
000140 f0 ff 3b bd c6 52 ba 3d ae 48 c9 bc 04 0b d4 bd
       -0.045898378 0.09097819 -0.02457079 -0.103536636
000150 e1 42 59 3d b7 65 35 3d 5e 06 d2 3d e3 4e e9 bc
       0.053042296 0.044286456 0.10255121 -0.028479999
000160 eb db c7 bd ea 19 bb 3c 5d 30 e3 bd 0a 5f f9 bb
       -0.09758743 0.022839505 -0.11093209 -0.0076102065
000170 eb 07 91 3d 9c 6a 05 3d f4 f6 a4 bd dd 6d cb 3d
       0.07081588 0.032572374 -0.08054915 0.09933064
000180 0a 90 e7 bc 4b 16 af bc 84 fb 67 3d 5d b9 6e bd
       -0.028266925 -0.021372935 0.05663635 -0.058282245
000190 65 ef 5f bd 33 f8 c3 bc 04 92 54 3d de 55 03 3b
       -0.054671664 -0.023922062 0.051897064 0.0020040195
0001a0 2d 05 62 3d 85 29 e0 3d 8f c6 34 bd 4c 3f a3 bd
       0.055180717 0.10945419 -0.044134673 -0.07971057
0001b0 ac c2 ba bc e3 a0 c9 bd 37 cd 85 bd 39 b5 42 3c
       -0.022797905 -0.0984514 -0.06533282 0.011884027
0001c0 29 66 e5 3d 4a 52 c7 3d ef bf db bc e1 3d d3 3d
       0.11201126 0.09732492 -0.02682492 0.10314537
0001d0 05 67 6c 3d c3 46 2c 3d 83 df 3b bd d3 90 17 3d
       0.057715435 0.04205967 -0.045867454 0.03700335
0001e0 36 37 1b bd 8b 11 2b 3d 89 44 ba bd a4 97 4f bd
       -0.03789445 0.041764777 -0.09095103 -0.050681725
0001f0 a0 e2 0c 3e 21 81 c2 3c 6d 7d 7b bc 97 f0 00 bd
       0.13758326 0.023743214 -0.015349728 -0.031479444
000200 e1 55 cc 3d 25 9a b6 3d bd ec b0 bb 5b 5e 8f bd
       0.099773176 0.089161195 -0.005399315 -0.07000419
000210 99 83 93 39 86 9e ac 3d e0 2c bc bd 54 45 c8 3c
       0.00028136073 0.084286734 -0.09188247 0.02444712
000220 47 32 35 bd f2 89 94 3d 2e f9 d8 bd 26 74 4d bd
       -0.0442374 0.072528735 -0.10594402 -0.050159596
000230 dc 69 cc 3d 1a 57 f3 bd 18 88 8f 3d 8a 34 26 bd
       0.099811286 -0.11881848 0.0700838 -0.04057745
000240 44 67 80 3d 33 c8 d1 bc 7f 7e 02 3e 43 46 cb 3d
       0.06269696 -0.025608158 0.12743567 0.09925511
000250 c1 20 96 3c 5d 4f 58 3d 76 ba 65 bd 7e c2 15 bd
       0.018326165 0.05281006 -0.056086026 -0.036562435
000260 43 d4 de 3d b5 d4 b5 bd d9 82 c5 3d 99 8b d8 3d
       0.108803295 -0.08878461 0.09644098 0.10573501
000270 42 d0 09 3d a5 56 b7 bd af 4b bc bd 08 92 8f bb
       0.033645876 -0.08952073 -0.09194123 -0.004381422
000280 51 a1 f1 3d 30 a7 de 3d b2 8f 3c bd df 8d 24 bd
       0.11798347 0.10871732 -0.046035476 -0.04017436
000290 b0 53 c5 bd 70 41 e4 3d 9e 6e 07 3e da 8d 51 bd
       -0.09635103 0.11145294 0.13225791 -0.05116067
0002a0 8c 4e 42 3d 2e 4b b6 3d e4 4d 67 3d 66 24 8b bc
       0.04743819 0.08901058 0.056470767 -0.01698513
0002b0 3b 53 d3 3d ba c7 f7 3b 6c ee 40 3d b6 cb de 3c
       0.10318609 0.007561651 0.047102377 0.027196746
0002c0 51 ce cb bd 74 eb de 3d 9b 78 05 be 7b 07 15 3d
       -0.09951461 0.10884753 -0.13034289 0.036384087
0002d0 07 be d6 bd c9 f9 1b 3d 3c 2d 52 bd d5 9b a2 bd
       -0.104854636 0.03808001 -0.05131267 -0.07939879
0002e0 00 8c e9 3c d2 1d ee 3b 98 87 7d bd 2e 5f 14 3d
       0.02850914 0.0072667385 -0.06189689 0.036223583
0002f0 c7 8c c2 bd bf 83 f5 bc bf dc a4 bc c8 ef 09 3e
       -0.094995074 -0.029970048 -0.020124791 0.13470376
000300 bf 34 5d 3d 07 4b 2a 3d e1 0d c1 3d c5 ae 97 bd
       0.05400538 0.041575458 0.09426475 -0.074063815
000310 6e 14 52 3d bb 6c 2a bc 34 be 8d 3c b7 38 f3 3d
       0.051289015 -0.0104019 0.01730261 0.11876052
000320 25 d9 09 3d 7c cf 17 bd db f1 96 bd 15 66 85 bd
       0.03365435 -0.037063107 -0.07370349 -0.06513611
000330 53 0b e3 3d 98 85 12 3d 4f 50 cb bc ed 7e c9 3c
       0.11086144 0.035771936 -0.024818568 0.024596656
000340 8d f3 a0 bd 2b c8 4e 3c 8d f6 f3 bc d5 4f 11 bc
       -0.078589536 0.012620966 -0.02978065 -0.008869131
000350 3d 75 86 3c e9 d6 d3 bd 5f 19 ba bd 42 7a b1 3b
       0.016413325 -0.10343725 -0.090868704 0.0054161856
000360 38 a1 80 3d 18 f1 d2 3d 75 e5 9c bd 72 d2 14 3d
       0.0628075 0.10299891 -0.07660953 0.03633351
000370 f2 5a e7 bd 9c 5b 93 bd 5a d9 85 3d 2f 5b f9 3d
       -0.11296643 -0.071952075 0.06535597 0.12175595
000380 0d 33 be 3d c6 f2 d6 3d fc f0 87 3d 11 78 96 3d
       0.09287081 0.10495524 0.06637761 0.073471196
000390 7d 4b d5 3d d1 10 f4 3c ce 24 1f bd bf 6f 62 bd
       0.10414789 0.029793175 -0.03885346 -0.05528235
0003a0 98 23 31 3c 56 5f 41 bc a3 07 e9 3c 0f 7d 6f bd
       0.010811709 -0.011802515 0.028446024 -0.058468875
0003b0 44 69 aa bd 36 71 bc 3d 2a 5f 99 bd c4 26 89 3c
       -0.08320859 0.09201281 -0.07488854 0.016742118
0003c0 08 8a 06 be d1 6f ac 3d 98 fc a6 3d a7 18 33 bd
       -0.13138592 0.08419765 0.08153647 -0.043724682
0003d0 51 2c 47 bd ec 0c d4 bd be cf 2a bc 00 15 db bc
       -0.048626248 -0.10354027 -0.010425506 -0.026743412
0003e0 a6 9a 85 3d 30 75 0a bd 2b bc 88 bc 67 96 bc bd
       0.065236375 -0.033803165 -0.016691288 -0.092083745
0003f0 43 96 d1 3b 83 9c f0 bc 07 bc 85 3d 8e 80 1b bb
       0.0063960864 -0.029371506 0.06530004 -0.0023727748

lstm.bias_ih_l1 f4 [256]
000000 0f 87 76 bd d3 04 e0 bd 54 35 93 bd a9 d2 ac 3d
       -0.060187396 -0.1093842 -0.07187906 0.08438618
000010 f9 4b 5b bd 0d 37 e6 3b e0 d4 18 bd c2 5f b2 3d
       -0.05353925 0.0070256055 -0.03731239 0.087096706
000020 bc ec e4 bd 35 8c 49 bd 14 32 e2 3d cc e4 b9 3b
       -0.11177966 -0.049205977 0.11044708 0.0056730267
000030 d9 d4 04 be 9f 01 ee bd 3e a6 56 3d 2a f5 12 3d
       -0.1297182 -0.11621403 0.052404635 0.035878338
000040 2c bf e7 3d 65 10 01 3e 99 6f b9 3d 6b 49 95 3d
       0.1131576 0.1260391 0.09054489 0.07289394
000050 ec aa 28 3d 28 5a 93 3d 9a 1c ed 3c 3a 3f 6c bc
       0.04117863 0.0719493 0.028944302 -0.014419371
000060 cb e3 b2 3d bf 09 fe 3c dc 3c 9e 3d b4 7a e0 bd
       0.08734854 0.031010507 0.07726452 -0.10960904
000070 e2 de b0 3c e5 fc 15 bd 91 dd fc bd 3b 39 27 bd
       0.021590654 -0.036618132 -0.12346948 -0.040826064
000080 ac 6a b1 3d bb 0b 8d bd 02 94 a8 bd b5 7d e3 3b
       0.08662924 -0.06887003 -0.08231355 0.0069424757
000090 18 85 d4 3d ed 54 76 bd 61 35 73 bc 48 bc 9b bc
       0.10376948 -0.060139585 -0.0148442695 -0.019010678
0000a0 18 10 e3 bd f5 0e 6a bd 42 73 10 3d 15 5c 1d bd
       -0.11087054 -0.05714317 0.03526617 -0.038417894
0000b0 9d 54 43 bd 93 a9 9d 3d 85 1f 7f 3d 86 70 fe bc
       -0.047688115 0.07698359 0.06228592 -0.031059515
0000c0 b2 83 82 3d 3d d2 89 bd fc be a3 bd c2 8e df bd
       0.06372775 -0.06729553 -0.07995412 -0.10915901
0000d0 ad c2 b1 bd 98 47 d9 bd 7c df d7 3d fd 16 cd 3c
       -0.086797096 -0.106093585 0.10540673 0.025035376
0000e0 4b 52 58 bd fd 4e c5 bb 16 a8 e1 3c 79 7c 69 3d
       -0.052812856 -0.006021379 0.02754597 0.057003472
0000f0 26 5b 88 3d 95 a6 c1 3d 46 dd a9 bd f0 58 47 bd
       0.0665801 0.09455601 -0.08294158 -0.0486688
000100 e2 bb 64 bd ca 4c 58 3d 26 41 d1 bd 39 2a ea 3d
       -0.05584324 0.052807607 -0.10217504 0.114338346
000110 43 7c ac 3b ca e1 8f 3d 76 39 06 be 35 41 e9 3d
       0.0052638366 0.07025488 -0.13107857 0.113893904
000120 87 33 b6 bc 1f 56 18 bd c5 e4 fd 3d 78 33 04 3e
       -0.022241367 -0.037191506 0.1239715 0.12910259
000130 d6 31 c9 3c 4f bf 07 be 46 f9 91 3c 8e 27 06 be
       0.024559896 -0.13256572 0.017819058 -0.13101026
000140 3d 9c f6 3d 82 7b 01 3e a0 80 9e 3d ae 21 e1 3d
       0.12041519 0.1264477 0.07739377 0.10992752
000150 c2 63 ce bd 0d a0 bb 3d ec 28 e9 3d 5a 8a f1 bc
       -0.10077621 0.09161387 0.11384758 -0.029484916
000160 32 fb c3 bc bb b8 2b 3c 4f 81 99 bd 3b 93 0d 3e
       -0.02392349 0.010481055 -0.07495367 0.13825695
000170 32 31 9a 3d 07 5a 9f 3a 7f 95 49 3d 80 35 6f 3d
       0.075289145 0.0012157568 0.049214836 0.05840063
000180 0b 6b e2 3d a2 86 00 bd 83 7d b0 3d 7d 49 a9 bc
       0.11055573 -0.031378396 0.086176895 -0.020664925
000190 c0 f7 85 bd d9 8f 33 bb 6d 8c 86 3d 73 fd 27 bd
       -0.06541395 -0.0027398972 0.06569753 -0.041013192
0001a0 3d 7d 2b bc 08 a3 87 bd 7c b9 40 bd 0e 50 bf bd
       -0.010466871 -0.066228926 -0.04705189 -0.09341441
0001b0 ae b6 ec 3c bd 7c 04 3b 55 34 9b bd df e1 a8 3b
       0.028895702 0.0020215951 -0.07578341 0.005153879
0001c0 3f 64 5e bb a0 85 61 bd ab 34 8e 3d 6c ba a2 3d
       -0.0033934263 -0.055059075 0.06943639 0.079457134
0001d0 21 e8 44 3d 5f c3 5d bd 88 4e 02 be 7d 23 cb 3d
       0.048072938 -0.0541414 -0.1272527 0.09918878
0001e0 a5 8d d2 3d b8 9c c7 bd 83 bd 2f 3d f9 ea 7d bd
       0.10280923 -0.097466886 0.04290534 -0.061991666
0001f0 c2 01 d3 bd 7e 01 03 3e 22 24 c7 3d a3 a9 fd bc
       -0.1030307 0.12793538 0.09723689 -0.030964678
000200 d8 ce c9 bd 66 78 92 bb 16 47 c7 3c cf 62 c7 3c
       -0.098539054 -0.004469919 0.024325889 0.024339108
000210 f0 64 13 bd 54 cc 03 3e 0a a5 17 bb 00 30 d3 3d
       -0.035984933 0.12870914 -0.0023139142 0.1031189
000220 1c c2 b0 3b 6b c0 f0 3d b9 5a a4 3d 7d f1 35 bd
       0.0053942334 0.11755451 0.080251165 -0.044419754
000230 b0 6e 97 3d 5b 8e c7 bb 9a ff df 3c ed 34 19 bd
       0.07394159 -0.006089968 0.02734356 -0.03740399
000240 7b af eb 3d dd b8 e4 bc 33 34 4f 3d fa 1f f3 bd
       0.115080796 -0.027920181 0.05058689 -0.118713334
000250 65 5f a3 3c d7 e3 82 3d b5 b5 0a be 78 e7 9f bc
       0.019942949 0.06391113 -0.13545878 -0.019519553
000260 a8 eb af bd 3f 2f cb bd 07 03 3a bd e2 70 dc 3d
       -0.0858987 -0.09921121 -0.045413043 0.10763718
000270 76 fb a1 bc 26 66 c0 3d ec 3d 4b bd e9 5c 05 be
       -0.019773226 0.09394483 -0.0496196 -0.13023724
000280 66 3f 92 3c 46 ed c5 3d e7 a7 af 3d 64 b2 00 be
       0.017852496 0.09664397 0.08576947 -0.1256805
000290 a7 69 e8 3d d1 24 8f bb 99 62 d9 3c 95 99 fc 3c
       0.113482766 -0.0043684025 0.026536273 0.030834952
0002a0 2f db 1b 3d e4 ee 4e bd 0b f5 6b 3d 2a 6e aa bd
       0.038050827 -0.050520793 0.057606738 -0.083217934
0002b0 8e a7 7a bd 92 4d b0 bd 8f 91 f3 3d a1 21 b9 3c
       -0.06119495 -0.08608545 0.118929975 0.022599043
0002c0 cc d9 8f 3d 9e 53 b8 ba 25 54 e0 bd 90 45 25 bd
       0.07023963 -0.0014063006 -0.10953549 -0.040349543
0002d0 07 bc 66 bd 66 88 19 bd 61 0d e0 3d 21 4b 7e bd
       -0.05633166 -0.037483595 0.10940052 -0.062083367
0002e0 96 6b b3 bd 22 fa b2 3d 71 60 b4 3d 36 9e 11 3d
       -0.08760755 0.08739115 0.08807457 0.035551272
0002f0 25 25 a8 bd ea b4 bf bb 92 65 cc bd b8 9d f7 3d
       -0.0821021 -0.005850424 -0.099803105 0.12090629
000300 ec 09 65 bd 1c 83 51 bd e1 b1 47 3c 19 c3 f5 3d
       -0.055917665 -0.051150426 0.012188406 0.120001025
000310 6a 0b 0a 3d 23 ed 14 3d 96 a0 af bd e4 f6 ce 3d
       0.03370229 0.036358964 -0.08575551 0.101056844
000320 ce a8 f5 3d 9b a6 03 bc 4b 15 36 3d 9a f0 2a bc
       0.119950876 -0.008035327 0.0444539 -0.01043334
000330 0c f1 b2 bc 65 0c cd 3d f5 8d 83 3d 78 1c 93 bd
       -0.021843456 0.1001213 0.064235605 -0.07183164
000340 7a 5f cc 3d 38 94 e7 3d cd 15 1f 3d 10 e1 02 3d
       0.09979148 0.11307567 0.03883915 0.031952918
000350 d8 43 35 3b 32 87 0e bd d9 09 80 bd e8 b1 d5 3d
       0.0027658846 -0.0347969 -0.06251878 0.104343235
000360 9f 5e cf 3d 2e 0b e9 bc d0 c8 50 3c b5 4d d1 bd
       0.101254694 -0.028447714 0.01274319 -0.102198996
000370 8c ce 8d bd 86 75 ed bd e4 00 70 3d ab ad 8c 3c
       -0.06924161 -0.115946814 0.0585946 0.017172655
000380 73 6d fc 3d 83 e3 4c bd 08 a9 08 3d 18 1b 00 3d
       0.12325563 -0.05002166 0.033364326 0.03127584
000390 ef 36 75 bd 95 fe 0d bd 46 c5 00 be 85 08 24 3d
       -0.059866842 -0.034666616 -0.12575254 0.040047187
0003a0 07 63 8e 3d 56 e6 74 3d 0e bf c6 bc c4 d8 c0 bd
       0.06952482 0.059789978 -0.024261024 -0.09416345
0003b0 ae 55 2b bd 6a bb 9b 3d 4e 67 30 3d 19 b3 a7 3d
       -0.041829757 0.07604106 0.04306727 0.08188457
0003c0 16 b8 07 3e eb 04 e6 bd c7 46 3d b9 31 24 cb 3c
       0.13253817 -0.11231407 -0.00018050811 0.02479753
0003d0 38 d3 1e 3d f4 78 b8 bd 35 5c b4 3d ac a4 e6 3c
       0.038775653 -0.09007445 0.088066496 0.028154694
0003e0 73 06 75 3d ef a9 9d bd c9 32 ab 3d 36 4b f2 bd
       0.059820604 -0.07698428 0.08359296 -0.118307516
0003f0 26 9b 37 3d 04 ef cb 3d 8a 47 9d bc 82 ad c5 bd
       0.044825695 0.09957698 -0.019199152 -0.096522346
