best_lstm_1step.pt (torch, 206149 bytes, 9 tensors)

lstm.weight_ih_l0 f4 [256, 1]
00000000: 7b5c 0abc 41bd 68bc 5bc1 1ebd 1d9d d23d
00000010: 98d1 9bbd 7687 083e 751b 173e 3a63 18bd
00000020: f9bb 453d 1529 d43d f8be ad3c 16c7 84bc
00000030: 5787 29bd 3e96 2fbd e7ce 62bc f79a 2e3c
00000040: fd69 8b3d 7d59 343e b2b1 703d 1ce3 fa3c
00000050: 81fd 0e3d 2285 e23d 55d6 0e3e e7c9 f03d
00000060: 9dc4 8ebd d9a2 043d 564e 2f3d 8299 2c3e
00000070: 958d 92bd 03e4 083c 37ea 1fbd 88bd 26bd
00000080: 3776 57bd 1f73 e4bd a576 f03d 147c 523d
00000090: 049f 213e 2531 2a3d 86a2 89bc 228c 113e
000000a0: 41b3 8b3d 926f 18ba 8f9c cdbd e5e6 79bd
000000b0: 458a d8bd 7bcc ec3c 283e e03d f2e8 74bd
000000c0: fbeb 303e 7ea4 a03d 3c40 31bd c5cc ba3d
000000d0: e2d5 723d 8de3 c23d 97be 323d fb60 05bd
000000e0: cbfe d33d d6e7 1bbe c2a9 1d3e 684c 513d
000000f0: e116 b63b dafb 023e bf3d b33d e232 8bbd
00000100: 75a0 f63d ec08 ddbc c081 ddbd f6ea 1ebd
00000110: 0e8e 043e 4688 d83c 4390 083e 64e3 053e
00000120: b904 47bd 842f ff3b a05a 7e3c 6eb8 09bd
00000130: 144f bebc c1da 1f3e fa90 68bb 106d b5bc
00000140: f708 60bd 9009 023e 74b6 cd3d 01b8 a2bd
00000150: ab4a 393d fa63 7dbd c6c1 043d e213 bdbc
00000160: ae8b c03d c964 073e 3434 cebc 2736 d83b
00000170: 5b40 eabc 6d75 143b 362d 98bd bf06 8dbd
00000180: 1f79 b53d f610 11bd 5f55 0c3e 782d 08bd
00000190: 8a27 39bd 6323 70bd 1c29 dc3c c8b7 343e
000001a0: de2a 50bd 645b f6bc 4098 46bd e6bb 033c
000001b0: 35ae 1abc d937 0fbd 9673 643d 58fe 913d
000001c0: 78a3 da3c 4c77 91bb dfab 15bd 66b8 123e
000001d0: fd23 353e df5b a73d 5572 243e 1730 013e
000001e0: bca3 aa3d 2174 efbd d938 1a3e 9357 8fbd
000001f0: 6dec 133e b3b2 2f3b a15a e63d cca9 083e
00000200: 92e4 6e3b 9436 d1bd 713b a93d 30cf 863d
00000210: 62a1 c73d 908f 22be 3942 163e a200 d13d
00000220: 936d d8bd c454 04be 0a99 a03d cf75 2b3e
00000230: e1da 293e 8208 2f3e 299c 5ebd 334d 2b3d
00000240: 8159 f03d cac9 32bd ce78 433e e78d a3bc
00000250: 370d 003e a9d0 88bd 427d a23d 545c 80bd
00000260: 86de 883d b444 1abe 4548 de3d d9b9 2cbe
00000270: 8e13 74bd 32e8 74bd ffdd 1bbe fdb6 e9bc
00000280: 3f59 013e 7c1c 02bd 5c9f d9bd 8203 683d
00000290: d546 e83b 9634 2fbe 1924 73bc 2977 e53d
000002a0: afa9 a53b a03f 19bd 99a9 d93d 5ffa 313e
000002b0: cc6a f9bc 31ee 0ebd 9b01 debd 651c b53c
000002c0: e5b0 0f3e 1c9f 1f3e 55e9 d33d 5876 0dbe
000002d0: d0c2 f33d a1a6 293c b517 8abb 217a 0cbe
000002e0: dc31 bfbc 0ed0 3a3d 7dea 9cbd 8e64 8d3d
000002f0: 66a2 723d 9004 e4bb cb6f bc3d 4909 d63b
00000300: ec20 1b3e 314c 0dbe 9254 04be 5320 0b3b
00000310: ea14 c6bd 32c0 113e cce7 033e 0147 4e3d
00000320: beb6 5f3b 415a e93d aa60 2c3d 4680 0b3d
00000330: 86e6 ce3c 0160 77bd 2c4e c7bb a1bd fdbd
00000340: d9ce c13c d950 1b3e 19b9 84ba a75c c33d
00000350: f02d 403d df04 53bd 0af2 703d 7566 1bbc
00000360: 9779 fdbd 5f94 95bd 66e5 c23c 4626 f53c
00000370: 68d6 6cba 67da 4ebd 30eb da3d be66 8abc
00000380: 475d 7c3d 9c1b c2bd a381 a03d dc4b 02bd
00000390: a381 283e 8899 1e3d ce10 0e3e 4e3e b03d
000003a0: e05f 083e 3dfb 353c 0174 28bd a634 2c3e
000003b0: 1f9c 94bd e84e 113e f540 873c e352 e5bc
000003c0: 48f3 2abd 3d49 5dbd 2a9a 3ebd 6ebf 043e
000003d0: e4b5 293e 353b a93d a077 1a3e 73cc 6c3d
000003e0: 54c1 2c3e 7f7d 1cbe e7fb 85bd 60e0 ebba
000003f0: 457c 923d afbf f23c 3255 003e fbe1 84bc
-0.008444901 -0.014205278 -0.038758617 0.10283873 -0.07608336 0.13332924 0.14756568 -0.037204005
0.048274968 0.10359398 0.021209225 -0.016208213 -0.041388836 -0.04286789 -0.013843275 0.010657064
0.06807325 0.17612262 0.058763213 0.030625872 0.03490973 0.11060549 0.13948949 0.1175726
-0.06971095 0.032381866 0.042799316 0.16855434 -0.07155911 0.0083551435 -0.039041724 -0.040708095
-0.052602973 -0.1115477 0.1174138 0.05138786 0.15783316 0.041550774 -0.01680113 0.14213613
0.06821299 -0.0005814965 -0.10039627 -0.061011214 -0.10573248 0.028906098 0.10949355 -0.059792466
0.1727752 0.078438744 -0.04327415 0.09121088 0.059286006 0.09516058 0.043638792 -0.03256319
0.10351332 -0.15225157 0.15396789 0.051098257 0.0055569266 0.12791386 0.087520115 -0.067968145
0.120423235 -0.026981793 -0.108157635 -0.038798295 0.12944815 0.026432168 0.13336281 0.13075024
-0.04858849 0.0077876467 0.015524536 -0.03362315 -0.023231067 0.15610792 -0.0035486803 -0.022146732
-0.05469605 0.1269896 0.10044566 -0.07945252 0.045237225 -0.061862923 0.03241136 -0.02308077
0.09401642 0.1322204 -0.025171377 0.0065982523 -0.02859514 0.0022653 -0.07430498 -0.06886052
0.08860993 -0.035416566 0.13704441 -0.033246487 -0.045203723 -0.058627497 0.026875071 0.17648232
-0.05082213 -0.030072875 -0.04848504 0.008040404 -0.009440948 -0.03496537 0.055774294 0.0712859
0.026689276 -0.00443927 -0.036540862 0.14328155 0.1768951 0.0817182 0.16059239 0.12616001
0.08332011 -0.11692072 0.15060748 -0.06999125 0.14445658 0.0026809394 0.11247755 0.13346022
0.0036452156 -0.10215488 0.08263291 0.06582487 0.09747578 -0.15875077 0.146737 0.10205199
-0.105677746 -0.1292296 0.0784169 0.16744159 0.16587402 0.17093089 -0.054348145 0.04182167
0.117358215 -0.043649472 0.19089052 -0.019965125 0.12505041 -0.06680424 0.07934047 -0.0626761
0.06683068 -0.1506527 0.10853628 -0.1686777 -0.05958896 -0.05979175 -0.15221404 -0.028529638
0.12631701 -0.031765446 -0.106260985 0.05664397 0.007088522 -0.17109904 -0.014840149 0.112043686
0.0050556283 -0.037414193 0.10628051 0.17380665 -0.030446433 -0.034895126 -0.1084015 0.022108266
0.14032324 0.15588039 0.10347239 -0.13814676 0.11902392 0.010354669 -0.004214252 -0.13718463
-0.023339204 0.045608573 -0.076619126 0.06903945 0.059236906 -0.0069585517 0.0920101 0.0065318686
0.15149277 -0.13798596 -0.12922886 0.0021228984 -0.09671958 0.14233473 0.12881392 0.050360683
0.0034136022 0.11394168 0.042084374 0.034057878 0.025256407 -0.06039429 -0.006082317 -0.123896845
0.023658203 0.1516756 -0.0010125964 0.095391564 0.04691881 -0.051518317 0.058824576 -0.009484877
-0.12376707 -0.0730369 0.023791026 0.029925477 -0.00090346346 -0.050501253 0.1068939 -0.016894694
0.061612394 -0.09477922 0.07837226 -0.031810626 0.16455702 0.038720638 0.13873598 0.08605634
0.13317823 0.011107263 -0.041126255 0.16816959 -0.0725634 0.14190257 0.016510466 -0.027993625
-0.041735917 -0.054024924 -0.04653374 0.1296365 0.16573292 0.08263246 0.15084696 0.057812165
0.16870624 -0.15282248 -0.06542187 -0.0017995946 0.07152609 0.029632417 0.125325 -0.016221037

lstm.weight_hh_l0 f4 [256, 64]
00000000: 9c62 003e eb5c ffbd b2ec 0dbd 47d9 473c
00000010: 8e89 8cbd 1728 313d e0c0 693c d34c 4abd
00000020: 6a6e 633d d555 863d 78ab 74bd fc03 a73d
00000030: db20 913d 7720 31bd 7a22 713b 7d09 a63d
00000040: 1e12 f8bc 72ee e8bc 22b9 f03d 1fc8 b43d
00000050: 0dd2 f4ba 8775 243d 50ee 313d 2725 dcbd
00000060: c4e5 c93c 5c37 193d 8f30 c4bd 10c0 dcbd
00000070: 8c3f 9ebd a03c babd fe14 d9bd 5dcc 63bd
00000080: 934f cd3d ed5c 78bc ebdd 1a3c 122d cbbd
00000090: 29b2 aa3b 78c3 82bd 764b bebd fbf5 413c
000000a0: 8752 babc 8535 eabc ed5e 75bd 3fb1 273d
000000b0: 0ed5 3d3d 1301 153d 81c8 d0bc bd3e 45bd
000000c0: ea3f de3a 00e2 ce3d 6f2c c93d 15cc cabc
000000d0: 5f0d 023e fa47 a83d 39ce cf3c 3c26 b5bc
000000e0: d663 02bd 7df7 7d3d 06ea 26bd df53 c1bd
000000f0: d6c9 ab3d ee7a 953d ff09 ff3c b45d 033c
00000100: 36e2 2a3d d8f6 acbd abd8 f7bd 7b03 89bc
00000110: 3184 b1bd fbc6 d63d aeff 9dbc 7e81 673d
00000120: 1075 9f3d ee19 133e ebb8 bf3c 878f f73c
00000130: 9d23 90bc 29e5 a2bd 3ed2 993c c0ae 7cbd
00000140: 112a 403d f15b f9bd a64a 43bd 3ce3 983d
00000150: 4d05 973d 93c9 95bc 2b00 82bd 1e01 9cbd
00000160: 3937 03be e598 063e 4a6a 863d 5a6e c2bd
00000170: 2acc 053e 2b3d aabd 5cdd b33d 6ff8 9ebc
00000180: f1bb 10be a98e eb3d 941f 5fbc df8a 62bd
00000190: deec abbd 7d5c 99bc 372f 9bbd 632f 713d
000001a0: 3de0 983d 2f2b 0e3d 441f 07be 3d09 8cbd
000001b0: 943c 2bbd 1606 873d 5bca df3d 403c 293d
000001c0: 6566 073d 235d d8bd 0967 a2bd b854 fdbc
000001d0: c248 00be 019e 07bd 5da7 5e3d 9d16 2bbd
000001e0: b77f 733d dab6 9cbd c7ce 96bd 684a 903d
000001f0: 9c06 86bd 10ef 203d d3a0 83bd 56d4 753d
00000200: 94d2 afbd 0650 ee3c f9b3 8d3d 72f1 073e
00000210: 509f b63d c969 a73c bf1b dc3c ce00 5e3d
00000220: 7466 153e 6090 93bc 8a54 993d dd9f 7d3c
00000230: 5ff4 91bd cbcc a0bb 3d92 503d c686 89bd
00000240: 9f7d 78bd 1f6c 1e3d 3203 b1ba 177f c1bb
00000250: 1bd8 06be 83dc 9a3d f1b5 d8bd 3b24 c13d
00000260: 6385 c3bd 3b91 8cbc a93d e6bd c59c 64bc
00000270: 55f4 cdbc 5596 3c3c 8dd8 7ebd 5930 3bbd
00000280: 8409 0a3d 56ae 603d 68ff 7fbd 3833 bebd
00000290: 4155 c5bd ca9c aebd 1831 debd 4619 2fbd
000002a0: fe22 0fba 3ea5 a0bc ca44 7abd 5e36 97bd
000002b0: f632 ba3c a193 82bd c6f8 943c ad08 0b3d
000002c0: 1b66 0b3d 9a44 97bd c712 8d3d 780a e63d
000002d0: e504 78bd e8b3 93bd 838f 793d 5a7c 0b3e
000002e0: 91e7 d23c fee9 81bd 990a 173e 72f5 f1bd
000002f0: 19c8 17bd 95e1 f9bd 5c67 4cbb d13c e13d
00000300: 0e99 d1bd ba98 c13d d445 bb3d 6b70 b3bd
00000310: 8635 85bd 74f2 943d aadb 493c 9239 233d
00000320: 56df 87bd 7ecb c33d b07e 99bd b956 97bd
00000330: b381 fc3d c615 f0bd 8c3e c23d f2ca 78bd
00000340: dff6 21bd ce5b b63d 3d1f a0bd 3015 9b3c
00000350: 9036 383d 8b56 603d 735e 91bd 9900 d93d
00000360: 4639 76bd 8e6d 9ebd 4f8a 4fbd e8d7 af3d
00000370: de33 f2bb 2c22 d73d f7ec a13c 495e ebbd
00000380: 7e6e 623d 3bc2 89bd 4761 78bd 7de6 b83d
00000390: 677b 843d 0756 87bd 0f1b e3bd 35ef 87bd
000003a0: 5a4b d2bd 21e2 2bbd c0f1 a03c c72c f43d
000003b0: 59d6 fd3d fa9b 94bc fe5b 96bd d7aa 24bd
000003c0: f467 c0bb 8c91 22bd a31e d7bd 1934 e1bc
000003d0: e181 743c 8053 c23d bcaf ab3d 9733 c3bb
000003e0: 3555 f2bd cade 2bbd 0c02 c23d 80c4 cf3b
000003f0: d099 e73d 2ee5 42bd 3700 1d3c 318b eabd
0.12537616 -0.124688946 -0.03464956 0.012197799 -0.06862174 0.043251123 0.014267176 -0.04938967
0.05552522 0.0655934 -0.059733838 0.08155057 0.07086345 -0.04324385 0.0036794231 0.081072785
-0.030282076 -0.028434012 0.11754061 0.088272326 -0.0018678323 0.040151145 0.043440163 -0.10749274
0.024645694 0.03740631 -0.09579574 -0.107788205 -0.07726964 -0.090935946 -0.10599707 -0.055614818
0.10024943 -0.015158874 0.009452323 -0.09920706 0.0052092266 -0.06384939 -0.09291737 0.0118384315
-0.02274443 -0.028589973 -0.05990498 0.04094052 0.046345763 0.036377978 -0.025486233 -0.048155535
0.0016956304 0.101017 0.09822928 -0.024755517 0.12700413 0.082168534 0.02536689 -0.022112958
-0.031833492 0.0620036 -0.040750526 -0.09439825 0.083881065 0.072988376 0.031132696 0.008017946
0.041719638 -0.08445519 -0.12101873 -0.016725292 -0.08667792 0.10487171 -0.019286957 0.056519978
0.07786 0.1436536 0.023403605 0.030219806 -0.017595107 -0.07953865 0.01877701 -0.061690092
0.046915118 -0.121757396 -0.047678612 0.074652165 0.07374058 -0.018284595 -0.06347688 -0.076174006
-0.12814035 0.13144262 0.06563242 -0.09493704 0.13066164 -0.08312448 0.08782455 -0.019405572
-0.14134194 0.1150182 -0.013618369 -0.05530822 -0.08394788 -0.01872086 -0.07577365 0.058883082
0.07464645 0.03470915 -0.1319552 -0.068376996 -0.04180582 0.06592958 0.10927268 0.041317225
0.033056635 -0.105646394 -0.07929809 -0.030924186 -0.12527755 -0.03310967 0.05435883 -0.041769613
0.05944797 -0.07652064 -0.073636584 0.07045442 -0.065442294 0.039290488 -0.06427159 0.060016952
-0.085850865 0.029090893 0.06919093 0.13275698 0.08917105 0.020436184 0.0268687 0.054199986
0.14589864 -0.01801318 0.07486828 0.015480009 -0.07126688 -0.0049072257 0.050920714 -0.06715159
-0.060666677 0.03867733 -0.0013504981 -0.005905043 -0.13168375 0.075615905 -0.105815776 0.094307385
-0.09546926 -0.017159095 -0.112422295 -0.013953392 -0.02514092 0.011510451 -0.062218238 -0.045700405
0.03370048 0.05485376 -0.062499434 -0.09287113 -0.096354015 -0.08525999 -0.10849208 -0.042748712
-0.00054602313 -0.019610044 -0.06110076 -0.073834166 0.022729378 -0.06375814 0.01818503 0.03394382
0.034032922 -0.073861316 0.06888347 0.112324655 -0.060551543 -0.07212049 0.06092788 0.13621655
0.025745185 -0.063434586 0.14750136 -0.11814393 -0.037056062 -0.122012295 -0.0031189537 0.10997928
-0.10234271 0.094529584 0.09144178 -0.087616764 -0.065043494 0.07272807 0.012320438 0.039849825
-0.06634395 0.095602974 -0.07494867 -0.07389588 0.12329426 -0.11722903 0.09484586 -0.06074042
-0.039542075 0.08904229 -0.07818458 0.018931001 0.04497391 0.054770034 -0.07098093 0.10595817
-0.060113214 -0.0773574 -0.05066901 0.08586103 -0.007391437 0.10504565 0.019766314 -0.11492593
0.055281155 -0.067265 -0.060639646 0.09028337 0.0646885 -0.06608205 -0.110891454 -0.06637422
-0.102682784 -0.0419637 0.019646525 0.11922603 0.12394399 -0.018140782 -0.07341765 -0.040201988
-0.005871767 -0.039689586 -0.1050389 -0.027490662 0.014923544 0.094885826 0.08383128 -0.0059570777
-0.11832658 -0.041960515 0.09473047 0.0063405633 0.11308634 -0.047581844 0.009582571 -0.1145233

lstm.bias_ih_l0 f4 [256]
00000000: 1088 ac3b 88ef 8d3c 5cfa e3bd b31b d4bd
00000010: a92f d7bd b4a2 8b3d c427 14bd 2586 36bc
00000020: 7e95 e13d c541 21bd 9d8d c33c 5aea 533d
00000030: 6f9d a8bd 51e8 dd3c aa0a 84bd c948 efbc
00000040: e125 b1bd 6f8c e8bd d79c 813c 333e b7bd
00000050: d5c2 543c d893 4e3d 565c 4e3c 0dd9 ef3d
00000060: 5581 213c 32de 91bc 864a a0bd 36e4 bdba
00000070: c562 d3bd 11a0 5fbd 4d0a 853c 1ee7 dabd
00000080: 761c bfbc d4b8 56bc bc88 dbbd 66e2 f83b
00000090: 22b8 b23d 8a30 eabc b878 dabd 1f5c 9ebd
000000a0: 40ca 91bd 93b9 793d 13d7 a8bd 21a3 6bbd
000000b0: 489d db3d b91c aebc bf83 85bc adc9 aabc
000000c0: 5772 9f3b 987f 5c3d f13f 8f3d 8321 15bd
000000d0: ae17 673d a105 30bc 7e91 4b3d cb9a bd3d
000000e0: 296c c2bc db57 c0bd 710e 913d b189 92bd
000000f0: dadb 603d 6e67 80bd da07 c23d 09f0 f13d
00000100: e3d5 ebbd 3a57 d0bd af85 993d 6866 b5bd
00000110: e062 3e3d 19dd 61bb 2349 e43d b6ef bebd
00000120: 0386 5bbd bbc7 233e 98b7 e93d 340b 8ebd
00000130: bc4e 8bbc 167d 3cbc adbf be3d 9049 0dbe
00000140: d8f0 8e3c c25f 023e aec3 003c d869 373c
00000150: 664e a9bd db25 d0bd dbd8 86bd 8a7e 853d
00000160: daf5 d8bd a6e3 cbbd a80c 10bd 399b b43d
00000170: 896d c83d dd78 56bd 736b 243e 51d4 d03d
00000180: 2dab ddbd 109f 3f3d 5659 143d 9ffd c53d
00000190: cde3 babd 5e1b 30bd 40fc 54bd 6549 b83d
000001a0: 5c15 7d3c 5b8c 873d f5e6 11be 8bc5 7e3c
000001b0: e5ad 93bd bcc8 63bd 3e53 043e d818 913d
000001c0: e4e8 2bbd 3b69 233e a059 b13c 8a27 903d
000001d0: 6047 93bd 5379 b7bd 6df5 5b3b d2ed fd3d
000001e0: 2026 af3b 1b4f 67bc 4cce de3d 3fc2 f33d
000001f0: 995a 33ba de29 43bd 3390 483d cf6a aa3d
00000200: 7028 b93d 3031 313d 80a3 ddbd 6f45 8fbd
00000210: c7b7 66bc 12a4 31bb dd38 98bd 71a0 203d
00000220: 6a45 a7bd 342c 6abd b919 c8bc e321 5b3b
00000230: 39a9 12bb 5b50 b83d c9e8 c93c d20d 48bb
00000240: 21e1 993d 316a c73d e68c 33bd 3e55 92bb
00000250: bef6 ab3d 71a8 9e3b c743 013e afbe 2e3d
00000260: c7da c3bc c9a3 b6bd 15f9 68bd be7c c4bd
00000270: 0060 ef3d ab3b 83bd a200 303d 343b ebbd
00000280: c8b2 8f3d 630b 2abc f205 a1bd 4286 33bd
00000290: e60b d23d 31f4 c03c 8baf 343d 8354 9fbc
000002a0: de4d b53d 240f a8bd c6a1 ac3d dde5 bf3d
000002b0: 8e4f 913d d3bf 5f3d 7873 fd3b 6905 8abd
000002c0: 50d6 64bd f8f7 3e3d 2f61 36bd 3399 39bd
000002d0: b49f 003e 04e4 2dbd 5061 6c3d 4ece bcbd
000002e0: 8dc3 a43b a9c4 213a 1f38 6ebc 33d0 b63d
000002f0: 694d 913c 352a b63d c59f c73d 5e4d b7bd
00000300: 13a7 793c 95bc b4bd f34b 773c b5b4 313d
00000310: cedd ab3d a547 5f3d 6074 1f3c e32f 3cbc
00000320: d045 d43d 6be6 1abd 392a 693d 2c56 913c
00000330: ddc1 ca3d c411 f23d b81b 33bb fd72 cb3d
00000340: f2a6 273d 1015 653d fd18 80bc c539 6abd
00000350: 1f7f f03c fa60 84bd b82b e63d ee6a 0a3e
00000360: 2994 0cbe 0a8d ebbd ae42 ab3d 8328 c1bc
00000370: 5e23 e3bc 7ac1 f53d 8e4e 5b3c d4f7 e63d
00000380: 8740 283a 9a5c ea3d 4ee1 143d e93d dbbc
00000390: 695a 943d 1b7e cf3c 9648 e4bd e3f3 c0bd
000003a0: c295 40bd 10e0 80bd 7886 cabd d528 b1bd
000003b0: b6b2 31bd a0f3 e4bd 3915 eb3d a994 043d
000003c0: 73f9 1f3e 861d 5cbd 5a1d 8e3d 2952 d73d
000003d0: edfb 323d 99da 993d 42f6 e2bb 9a12 653d
000003e0: 72c8 963b c290 97bd 1be7 a5bd 68e2 e43d
000003f0: d396 143d c5c3 bd3b 1ac2 fd3d 22d0 ec3d
0.0052652434 0.017326131 -0.11131737 -0.10356846 -0.10507137 0.068181425 -0.036170736 -0.011140381
0.110148415 -0.039369363 0.023871237 0.051737167 -0.08233153 0.027088316 -0.064473465 -0.029209511
-0.08649803 -0.113549106 0.015821857 -0.089474104 0.012985905 0.050433964 0.012595257 0.11711321
0.009857495 -0.017806146 -0.07826714 -0.0014487568 -0.10321573 -0.05459601 0.016240263 -0.10688613
-0.023329 -0.01310559 -0.107194394 0.007595348 0.08726527 -0.028587598 -0.106675565 -0.077324145
-0.07118654 0.060967993 -0.08244147 -0.05752862 0.107233584 -0.02125393 -0.016298173 -0.02084812
0.0048659253 0.05383262 0.06994618 -0.036408912 0.056419067 -0.01074353 0.0496993 0.0925804
-0.023733215 -0.09391757 0.070828326 -0.07155169 0.054897167 -0.06269728 0.09474154 0.11813361
-0.11515405 -0.10172887 0.07496201 -0.08857423 0.046481013 -0.003446406 0.11146762 -0.09323065
-0.0535946 0.1599416 0.11411971 -0.069357306 -0.017005317 -0.011504432 0.09313903 -0.13797593
0.017448828 0.12731841 0.007859154 0.011194669 -0.082669064 -0.1016347 -0.06584331 0.06518276
-0.105937675 -0.0995553 -0.03516832 0.08818669 0.09786517 -0.052361358 0.16056614 0.10196746
-0.10823665 0.046782553 0.03621801 0.09667515 -0.09125481 -0.04299485 -0.051998377 0.08998374
0.015446987 0.066185676 -0.1424826 0.015550028 -0.07210902 -0.055611357 0.1292238 0.07084817
-0.04197015 0.15958111 0.021649182 0.070387915 -0.07191348 -0.08958688 0.0033563033 0.12398876
0.005345121 -0.014117981 0.10879192 0.11902284 -0.0006841808 -0.04764735 0.048965644 0.08321153
0.09040916 0.0432598 -0.10822201 -0.06995665 -0.014081902 -0.002710585 -0.07432721 0.03921551
-0.081675366 -0.05717106 -0.024426328 0.0033436946 -0.0022378697 0.089997016 0.024647133 -0.0030525816
0.07513643 0.09737051 -0.043835543 -0.004465728 0.08396672 0.004841857 0.12623511 0.04266232
-0.023908032 -0.08917958 -0.056878168 -0.09594105 0.116882324 -0.06407865 0.042969353 -0.114859015
0.07016522 -0.010378691 -0.07862462 -0.04382921 0.10256176 0.02355394 0.044112723 -0.019449478
0.088527426 -0.08206013 0.08429293 0.09370015 0.07095252 0.054626297 0.007734712 -0.06739313
-0.055868447 0.0466232 -0.044526275 -0.045312118 0.12560922 -0.04245378 0.057709992 -0.09219037
0.0050281943 0.0006170967 -0.0145397475 0.089264296 0.017737107 0.08894769 0.097472705 -0.089503035
0.0152375875 -0.08825032 0.015093791 0.043385226 0.08391915 0.054511685 0.009732336 -0.011486026
0.10364878 -0.0378174 0.056925032 0.017741285 0.09900258 0.11819795 -0.0027329754 0.09934042
0.040930696 0.05592829 -0.015636915 -0.057184 0.029357491 -0.06463809 0.112388074 0.13517353
-0.13728394 -0.115015104 0.083623275 -0.023578888 -0.027726825 0.11999793 0.013385428 0.11277738
0.0006418307 0.114434436 0.03634768 -0.02676292 0.07243807 0.025328686 -0.11146657 -0.09421518
-0.04701782 -0.062927365 -0.09888929 -0.08650366 -0.043383323 -0.1117928 0.11478657 0.032368336
0.15622501 -0.053739093 0.06939192 0.10513718 0.043697286 0.07512397 -0.006926329 0.055925943
0.0046015317 -0.07400657 -0.081007205 0.11175996 0.03627665 0.00579116 0.123905376 0.11563136

lstm.bias_hh_l0 f4 [256]
00000000: 1116 1f3d be9a c63c 4b2f ebbd 6fa9 a5bd
00000010: d188 aabd c52c 4b3d bffb 223e d513 a9bd
00000020: bacb 163e b907 ee3d 9495 c2bc ab2c 923d
00000030: 876d 4d3d f0f9 243d 1cbb 7bbc 4a5e 86bd
00000040: 2bcd bc3d 3baf 543b 6705 503c 177c 0dbd
00000050: 699b a9bc d0ed 4dbd dcb8 703d 170c bf3d
00000060: 1935 293d 477a 893d ae62 ec3d 6f45 0b3e
00000070: 7aca 6abc 4cf9 85bd d400 0c3d cf6d 8dbd
00000080: 26b3 8f3d 0582 06bc 36fd 37bd 29d0 273d
00000090: a559 673d b12e 86bb a805 ef3d 7975 ab3d
000000a0: 7ae6 b0bd 93bf 8cbd 925f aa3c 4cb1 17bd
000000b0: b8a7 53bb 6ceb 8bbb 8372 103e a085 133d
000000c0: 7316 9fbd 3fc5 263e d144 083e d461 a53c
000000d0: da3f 03bd cf39 4abc 3e89 503d 0a77 963d
000000e0: 8358 dd3d 21b3 bdbd 5b6b be3d 71e2 dfbc
000000f0: ef84 dc3d 903d 823d 8e7e c6bd bb32 60bd
00000100: 7fd4 35bc 6e26 d63b d09c c937 6f91 c93c
00000110: e85f 393d 06a9 253d ea55 d23d f044 df3c
00000120: 266f bf3d 1d99 f5bc 807c 53bd 76ec c7bd
00000130: a441 14bd 08e0 413d e69a 6b3c b68e 2e3d
00000140: d4b7 8a3d 4a22 6fbd 4e8b 293e 5295 ccbd
00000150: 0433 8dbd 9bef 90bd f761 74bc 6a6c ff3d
00000160: 8572 93bd 5c14 f83d 3a96 2b3d 20e1 173c
00000170: d770 e0bd a69c babd 523f 98bc 7c10 f53c
00000180: 566a 72bd 086f 523d 5372 b1bd a386 db3d
00000190: 189e aabc 6758 75bc 00ea 0bbd 46ea fc3b
000001a0: 33ed 74bd 0f52 d5bd 4c31 ae3c 9e24 9fbc
000001b0: 06a5 d2ba b58d f1bd b32e b4bd 769f 4dbc
000001c0: d6dc 913c f0d5 df3c 7919 40bd b0a8 033e
000001d0: e766 2b3d acb1 8cba a277 96bd 1a50 203d
000001e0: a980 ec3d f4e8 15bd f457 c43d 926e 2abd
000001f0: c03f b53d 26cf e33d 0406 8abd ddbf f03d
00000200: 3bc8 a43c 9251 a9bd e039 7f3d f67c eabd
00000210: 28fa 5ebd ebba 743d e100 4e3c 3e04 2fbd
00000220: 62e7 fc3c ab22 043e 83af a03d 22c0 1cbd
00000230: a2fb b03d 7891 15bd 4109 c6bd 58f7 8abd
00000240: 92d6 abbc 371e dd3c 21d2 a03d e046 87bd
00000250: 9e9b 60bd 29d5 fcbd 4400 1f3d 1bad e4bb
00000260: 5497 4ebd 045d 7fbd 09a9 df3d 6cc9 8d3d
00000270: 4201 88bd c6e9 f33d 548d f0bc 2920 f9bd
00000280: 3d02 53bd 2be9 013e 377d 083d 6a60 cb3d
00000290: e2a9 853d 8cc2 64bd 2de1 23bd 831c e23d
000002a0: 4832 823d c932 efbd 2938 89bc 6398 a7bd
000002b0: b833 643d de77 c93d bb48 953d be2e 493d
000002c0: 6db1 5e3d 8644 06be 211a 373d 7cfd da3d
000002d0: cdb7 8ebc 1325 923d cab3 c83d 62d1 fdbd
000002e0: 73d5 bcbd 8cab 86bc 9ccc a1bd bf79 00bc
000002f0: b091 133d 11d2 993d b766 3e3d f2d8 f7bd
00000300: a649 c7bc 3e85 69bd 2ecf 83bd 3e9f bcbd
00000310: ba88 333d 8144 163e f7b6 c13b 530e 12bd
00000320: af36 e93c 288c 7ebc b97d f0bd 1abd ac3c
00000330: d9d3 a63d e697 0b3e 77e9 0b3e 09a8 8cbd
00000340: e074 90bd 3a61 f03c 5b6a 2d3e 39d2 3ebd
00000350: 484b 483c 52bb aa3d b8a1 adbd d10c c93d
00000360: ca62 593d f245 bb3d 2d0b 1dbc fef9 0c3e
00000370: 07f3 0abd 4000 a23d 5b74 31bc e06b b6ba
00000380: 26c2 b93d 0563 9abc db87 f0bc 2de1 d0bd
00000390: 43c8 0d3d 3298 b8bc be6b cebd fbe7 c73d
000003a0: d533 f4bc 86b7 cb3d 7415 17bd 1767 ff3d
000003b0: 1128 db3d 07d8 ec3b b615 0d3b e571 a9bc
000003c0: e4c1 b2bd e2b9 77bd 0ca5 e5bc f75f b8bd
000003d0: 5c83 cc3d 671e a83d 8250 e7bb d144 d63c
000003e0: 36c2 56bd 0c64 9dbd 965b 913d 54ed ccbd
000003f0: 4886 313c b981 1dbb 88a4 9fbd 7bab 2a3d
0.038839404 0.024243709 -0.1148363 -0.080889575 -0.08326877 0.049603242 0.15916346 -0.08255736
0.14726153 0.11622567 -0.023752965 0.07137426 0.05015328 0.04027742 -0.015364435 -0.06560953
0.0921882 0.0032453078 0.0126966005 -0.03454217 -0.020703988 -0.050275624 0.058770046 0.09328478
0.041310403 0.06712776 0.11542259 0.13600706 -0.014330501 -0.0654169 0.034180477 -0.0690571
0.07016592 -0.00820971 -0.044919215 0.04097 0.056481976 -0.0040949215 0.11671001 0.083720155
-0.0863771 -0.068724774 0.020797525 -0.037034318 -0.0032296013 -0.004270008 0.14106183 0.036016107
-0.07767954 0.16286181 0.13307501 0.02018825 -0.032043315 -0.012342884 0.050912134 0.07346924
0.10807898 -0.09262682 0.0929782 -0.027329655 0.107675426 0.06359398 -0.09692107 -0.05473588
-0.011098026 0.006535343 2.4034089e-05 0.024605481 0.04525748 0.040444396 0.10270293 0.027254552
0.09347372 -0.029980237 -0.051632404 -0.09761898 -0.036195412 0.047332793 0.014380192 0.04261657
0.06773344 -0.05838231 0.16557047 -0.09989418 -0.06894496 -0.07076951 -0.014915935 0.1247185
-0.07199577 0.12113258 0.041891314 0.009269983 -0.109590225 -0.091119096 -0.018584881 0.029915087
-0.05918344 0.05137542 -0.08664384 0.10719039 -0.020827338 -0.01497469 -0.034158707 0.0077183573
-0.059796523 -0.10416042 0.021263741 -0.01942664 -0.0016070909 -0.117946066 -0.0879797 -0.0125502255
0.017805498 0.027323693 -0.046899293 0.12857318 0.041846182 -0.0010734103 -0.07347037 0.03913889
0.115479775 -0.036599115 0.09587088 -0.041609354 0.0885005 0.11123495 -0.06739429 0.11755345
0.020115009 -0.082675114 0.062311053 -0.11449616 -0.054437786 0.05974857 0.012573452 -0.042728655
0.03087205 0.1290385 0.07845976 -0.03826917 0.08641745 -0.036515683 -0.09669734 -0.06785458
-0.020976339 0.026991947 0.07852579 -0.06605315 -0.054835908 -0.123453446 0.038818613 -0.0069786436
-0.050437286 -0.062344566 0.10920913 0.06923184 -0.06640865 0.11909823 -0.029364266 -0.12164337
-0.051515806 0.12686603 0.03332254 0.09930499 0.06526543 -0.055849597 -0.040009666 0.110405944
0.06357247 -0.116796084 -0.016750412 -0.08183362 0.055713385 0.09837316 0.07289263 0.049116842
0.054368425 -0.13112077 0.044702653 0.106928796 -0.017421627 0.071359776 0.09799917 -0.12393452
-0.092204 -0.016439222 -0.07900354 -0.0078415265 0.03602761 0.0751077 0.046484675 -0.12101926
-0.02432711 -0.057011835 -0.06436001 -0.092100605 0.043831564 0.1467457 0.0059117037 -0.035658192
0.028468458 -0.015536346 -0.1174273 0.021086264 0.081458755 0.13632163 0.13663279 -0.06867988
-0.07053542 0.029343236 0.16935103 -0.046587203 0.01222498 0.0833651 -0.08478111 0.09816898
0.05307273 0.091442004 -0.009585184 0.1376724 -0.033923175 0.07910204 -0.010830964 -0.0013917647
0.09070234 -0.018846044 -0.029361656 -0.10199199 0.034614813 -0.02253351 -0.10079144 0.09761044
-0.029809872 0.09947114 -0.036885694 0.12470835 0.107010014 0.007227901 0.0021527833 -0.020684192
-0.08728388 -0.060480006 -0.028032802 -0.09002679 0.09985992 0.08208924 -0.007059158 0.026155861
-0.052431308 -0.07685098 0.07097547 -0.10006204 0.010835238 -0.002403362 -0.07795054 0.041667443

lstm.weight_ih_l1 f4 [256, 64]
00000000: b99f f03c 6abe c73d 9c10 753d 5eef 2fbd
00000010: 1dc8 293d 9941 c5bd 62b6 c9bc fcf8 f33c
00000020: 602c 3bbd 2b72 07be 1560 26bd df49 243e
00000030: b791 cf3d b698 4abc 82a0 98bd 0fbd 0dbd
00000040: fb65 c13d eab5 ba3d 43b5 6f3d 577d 0dbd
00000050: 9245 853c 32dd 9cbd f11b 003e 03a3 a73d
00000060: 3aef fdbc 1814 06be 6c8b 113e bccd 413d
00000070: 80ec 1e3d 681f 0cbd 84ca 3dbe 6abf a63d
00000080: 6d34 673d e37a 7c3c a348 aabd c650 a6bd
00000090: 0234 c3bd 7bcb c8bd 5b60 c6bd deb6 f43d
000000a0: a282 b9bd 189a d93d 1348 cdbd e589 043e
000000b0: 7f8c f8bb 53fa dabc 60d5 4d3d 3f68 3fbd
000000c0: 7b91 d5bc 1124 2cbd 9364 b43d 4ccf 743d
000000d0: 750f 673d d4de 91bd c6f8 063c 213c 9e3d
000000e0: e4ad fcbd 8caa 0f3e 03db a43d 7a8d 3d3d
000000f0: cb38 9cbd 1527 80bd 80a4 c23d 793f 3c3c
00000100: 7262 d43c b805 fe3d 6cf5 e03d db55 f0bd
00000110: 2a58 0a3e ee5d 02be 3a3d 4d3d b491 8fbd
00000120: 6a8f 4d3d 7566 a73c 6b23 923d 9ecd bcbd
00000130: cae3 aa39 5eee 85bc 181d 29bd f081 a7bd
00000140: fba1 89bd f742 f3bc 75e6 043e a354 efbd
00000150: 1141 bebd 3834 4fbd 5525 883b a5f2 b3bd
00000160: f5c0 003e 1ded c63c 2b8b 653c aad6 f4bd
00000170: 0b9c 8ebd f820 1a3c b64c b9bd 5848 913d
00000180: 23ba 5fbd 59b8 96bd 20b8 f13c bbfd e23d
00000190: 16af a43c 9d18 56bd 2129 a8bd 97fd c7bc
000001a0: 1ec0 e13c 4492 ee3c 4888 febd 28ae d8bc
000001b0: be51 8a3d 694f 2ebd 7bca 9f3d 2aac 89bd
000001c0: 6706 0e3e 08a8 d03d 1021 513c 497e 62bc
000001d0: 862f cabd 212f cfbb 04a0 1d3c 1ddc 2abb
000001e0: 766a 4ebd a37b cc3c 32fc 5d3c 394f eabc
000001f0: 1955 d3bd e827 e13d 2460 c93d 272c 2a3d
00000200: 6794 803c 4356 89bd 5a87 be3d 76dc 0d3e
00000210: 2a6d c5bd bd6c 4f3d f722 9d3d 0398 373d
00000220: 5378 d1ba b8dc 35bd 4f1b ff3c ceb7 733d
00000230: 72bc 9e3d b31d 513d a068 e83a e170 1a3d
00000240: 843f 3abd 4b83 bb3d 2bbe 2fbc 34be ae3c
00000250: e7d2 91bd 02b9 043e fcc1 dfbc b3ac 31bd
00000260: c1e7 59bd c0e1 3dbd 5525 00be c250 acbd
00000270: b72e 033e 581f 393d 8ed2 15bd 8a86 e93d
00000280: 6521 96bd 47f1 a13d e05f ca3d cdfe 07be
00000290: b2b2 07be 6269 ba3d a62f 0bbe 13eb a53d
000002a0: 43a7 73bd e6d6 a8bd e4a7 b8bd 3520 f63c
000002b0: b51e 033d 0b29 0fbe 0970 ebbb 71d0 3fbd
000002c0: ac55 d9bd 4f98 47bd a911 1ebd c191 f03c
000002d0: 912e 45bc c305 8c3d 77ef 92bd f0d5 99bd
000002e0: d28f cbbb 95fe a43b 9fb1 04bd b5a3 893d
000002f0: e2a7 d53d 1d08 09bd c1ca 663c 37da 82bc
00000300: 7427 9cbb bf7e 85bd 1256 53bd 6cda 8fbd
00000310: 3a12 c2bd 53d4 4b3d 0bb7 3cbd 4ab8 d1bd
00000320: 00e3 1cbe 3470 ebbc 8fe2 dc3d f46a 783d
00000330: 629c 2d3d c858 30bd b019 363d 8abc 933d
00000340: 7990 cabd a1bf 933d c595 0d3d d571 3e3d
00000350: 386b 653d 2f4d f73d a7c6 e33d 03cf fdbd
00000360: 74c4 c33c 4ee5 a6bd 1217 b5bd 1a61 61bc
00000370: 848b ed3c d9a7 ddbc 98ff 0bbd d0ae 303d
00000380: 2ace 93bd af40 583d 3485 a43d da70 b33c
00000390: 8615 e0bc 8afe 813d 2d1c a2bb 49f8 d73d
000003a0: cdd7 43bd 3986 9fbd ba6e ecbd 83d8 5ebd
000003b0: 7075 183d db53 3a3d 5403 efbd 7b15 f73c
000003c0: 5f48 d33d 0f90 76bd 5b68 40bd 7195 9bbd
000003d0: c646 0d3d bd03 813d 3a43 153d 9882 8a3b
000003e0: 7fa4 8f3d 1242 c6bd 2f32 d93d 967e f3bd
000003f0: bbf2 9ebd 0156 a03d e619 96bd e7f9 c2bd
0.029373037 0.097531155 0.059830293 -0.042952888 0.04145061 -0.096316524 -0.0246231 0.029781811
-0.045696616 -0.13227145 -0.040618975 0.16043805 0.10135215 -0.012365511 -0.074524894 -0.03460413
0.09443279 0.091167286 0.058522474 -0.03454336 0.016268525 -0.07659377 0.12510659 0.08185389
-0.030997861 -0.13093603 0.14213341 0.047315344 0.038799763 -0.03420964 -0.18534285 0.08141978
0.05644648 0.015410158 -0.083146356 -0.08120875 -0.09531404 -0.09804436 -0.09686347 0.11948942
-0.09058119 0.10625094 -0.10023513 0.12943228 -0.007585108 -0.026730692 0.05025232 -0.046730276
-0.026070347 -0.042026583 0.088082455 0.059768006 0.056411225 -0.07122579 0.008238023 0.077263124
-0.123378545 0.14029902 0.08049586 0.0462775 -0.0762802 -0.06257454 0.09504032 0.011489742
0.025925849 0.124034345 0.109843105 -0.11735126 0.13510194 -0.12731144 0.05010722 -0.070102125
0.0501856 0.020434598 0.07135662 -0.09218906 0.00032594643 -0.016349014 -0.04128751 -0.081790805
-0.067203484 -0.029695017 0.12978537 -0.11686065 -0.09289754 -0.05058691 0.004154841 -0.08786515
0.12573607 0.024282986 0.014010231 -0.119550064 -0.069633566 0.009407274 -0.090478346 0.070938766
-0.054620873 -0.0735938 0.029506743 0.110835515 0.020103019 -0.052269567 -0.0821097 -0.024412913
0.027557429 0.02912248 -0.12428337 -0.026450232 0.06753872 -0.0425562 0.07802292 -0.06722291
0.1386963 0.101882994 0.01276423 -0.013824054 -0.098723456 -0.006322757 0.00962067 -0.002607114
-0.050394498 0.024961298 0.013548898 -0.02860223 -0.103189655 0.1099394 0.098327905 0.041546013
0.015695764 -0.06705906 0.0930316 0.1385363 -0.09639962 0.05064081 0.07672685 0.044822704
-0.0015981294 -0.044399947 0.031140951 0.05950146 0.07750787 0.051053714 0.0017731376 0.037705306
-0.04547073 0.091559015 -0.010726492 0.02133093 -0.071203046 0.129612 -0.027314179 -0.04337759
-0.053199533 -0.04635787 -0.12514241 -0.08413841 0.12810789 0.045195907 -0.036577754 0.114026144
-0.07330588 0.07907348 0.09881568 -0.13280793 -0.1325176 0.091021314 -0.13592395 0.081014775
-0.059485685 -0.082441136 -0.090163976 0.030044654 0.032011706 -0.139805 -0.0071849865 -0.046829645
-0.10612044 -0.048729237 -0.03859106 0.029366376 -0.012035028 0.068370365 -0.071745805 -0.075115085
-0.006212213 0.0050352314 -0.032395955 0.06720678 0.10432412 -0.033455003 0.014086426 -0.015973194
-0.0047654454 -0.065183155 -0.051595755 -0.070240825 -0.09476133 0.049763035 -0.046073 -0.102402285
-0.15320969 -0.028740026 0.107854 0.060648873 0.042385466 -0.04305342 0.04445809 0.07213695
-0.09890837 0.07214285 0.03456666 0.046495277 0.056010455 0.120752685 0.11121874 -0.12393
0.023897387 -0.08149205 -0.08842291 -0.013756061 0.02899719 -0.027057575 -0.0341793 0.043135464
-0.07217057 0.052796062 0.08033219 0.021904398 -0.027354013 0.063473776 -0.0049472065 0.105454035
-0.047813226 -0.07789273 -0.11544557 -0.0544057 0.037221372 0.045490127 -0.11670557 0.03016161
0.10316538 -0.06019598 -0.04697452 -0.07596863 0.034491323 0.06299541 0.036441065 0.004226994
0.07013797 -0.09680571 0.10605275 -0.11889379 -0.07761141 0.07828904 -0.073291585 -0.09520321

lstm.weight_hh_l1 f4 [256, 64]
00000000: e5df c8bd 74cf 0d3a 3ff7 f03d 5afe dbbd
00000010: fccc 29bd 347a eebc 8630 c7bd 1fa4 ac3d
00000020: dc71 c33d 89d2 e3bb 90fa bbbc 4e12 04bd
00000030: c478 f7bd 38c4 583d 171f 4f3d 18bc 793c
00000040: d391 6a3d bd55 a43c 90f3 a33d f30c 493d
00000050: 71b5 e4b9 2d9d a1bd f659 7ebc 03da 18bd
00000060: eabe a93d 2a30 94bc cf53 16bd 9618 99bd
00000070: e34b 85bd 4bb2 3b3d 331b 623d 45e9 b43c
00000080: d914 e03d 38ac 32bd 4c0c 0abe c276 60bb
00000090: 2d11 2f3d 449b 04be 10b1 81bd 6e36 c63d
000000a0: 1c8a cebd 6a41 9d3d b234 013e 37dc bf3d
000000b0: f497 0ebd 73be 293d 9220 93bc 2c01 b93d
000000c0: 3926 1abd 31f1 c53d 4520 29bd 0dd4 9e3d
000000d0: 7f75 0bbd 74fd bcbd 66d7 bbbd 85fd 87bc
000000e0: d8f3 5ebd 73df 913d 28d7 323d dfcc 92bd
000000f0: dfc5 bcbd d3f7 fe3b 9462 413d 0f3f e8bd
00000100: 649d c0bd 259a d6bc 335e 533c ea15 8e3c
00000110: f0d8 c8bb 1b4c cabc eba7 243d d1b8 bfbd
00000120: 27df e6bd f903 89bc 678b 003c 7e6c 4fbd
00000130: 449c a2bb 9b09 ac3d 05bc 9f3d 9730 fdbd
00000140: b7c5 dbbd a83e 8ebd d269 85bd 205c c13d
00000150: 14c5 183d 2df9 d13d 75e0 f13d 0075 d23d
00000160: 6876 aabd 75e0 31bd 4105 e03d b6a6 15bd
00000170: 0854 0c3d b7e5 50bd f7cf 093d 657f f93d
00000180: e116 363d 3e2c bb3d f883 f038 e408 4f3c
00000190: 338a 01be 011c e73d 85ef 013e 5274 6c3d
000001a0: be83 b3bd 9b18 243c ed1e 843c 7d16 d63d
000001b0: f597 dbbd 62d2 b8bd eeeb e33d 4f9f 033d
000001c0: 7fa4 d9bd 4d6b 87bd 7f96 bf3c 12f4 47bc
000001d0: aa3e 7d3d 8ea7 133d 015b 7e3d afa7 66bc
000001e0: 73d8 9a3d a321 7f3b 83d8 1abd 057e 83bd
000001f0: c474 e13c 2f59 ae3d 77b4 713d 4b56 5fbc
00000200: d418 4fbc 4251 b53d 5aa2 693d 1ed6 4e3d
00000210: c2b6 623d 2409 b63d 38d4 0fbd 1908 e2bd
00000220: 1fab df3d fbcd a7ba 8811 303d 66a8 e33b
00000230: dfcc 6fbc a06b 6a3d 0105 e5bd 1fc9 4d3d
00000240: f133 b63d 8ba7 523d 0ee2 b33d 9132 00be
00000250: fe6a 04bc df10 ac3d 7573 45ba 3209 16bd
00000260: 3dc1 ce3c b12d 4a3d 3c72 2f3d ac07 073d
00000270: b817 0fbe 4986 97bd 00e5 d4bb ae70 a9bd
00000280: 2c90 b4bb 5f9d 423d eddc ab3d c4d6 0f3e
00000290: 65ff 293d 45a2 673d e9c0 c93d e676 703d
000002a0: 1109 85bd 0f1c 79bd c60d cf3d a562 ec3d
000002b0: 85de c13d e3d8 05be 51d8 723d d608 92bc
000002c0: 0863 2f3d a5ec 4f3d 28e5 403d b4cd bebc
000002d0: ed4f 933d 7f55 ad3d fdaa 913d 738a 93bd
000002e0: 2c20 36bc db57 cd3d 5275 00be ad00 f7bd
000002f0: 8670 20bd 0b73 d0bd 7d20 a63d 092d 14bd
00000300: d009 89bd cd93 b03d 52ad 3ebd 1903 acbd
00000310: 1a74 c8bd 9882 1ebd 00be c1bd 8105 cdbc
00000320: 9767 b2bd 97f0 013e efb5 b33d 1269 e3bc
00000330: 796a ccbd f240 97bc 1827 9d3d eb1e c33d
00000340: 7e9d 8d3d f54d 1ebc ab82 f7bd c70c 1a3e
00000350: 56df e2bc ba07 adbb cdf5 a53d bec3 dc3d
00000360: 1382 9b3c 2175 983b 929b dcbd 923a fc3c
00000370: aada 2ebc bf02 8c3d 8d10 d63d fe1c 3abd
00000380: 6a2f 123d d38d 483a 1848 84bd a2d7 a7bd
00000390: de69 4dbd bb9b f3bd 1063 c7ba 0879 213d
000003a0: 5e5e ab3d ba3b 533b 4355 2fbd b819 b03d
000003b0: 6a79 f0bd 6c3a dabd 0c28 9fbd a083 173d
000003c0: 20e3 b83d 5192 a13d e2f1 d0bd 662c f73d
000003d0: 1fe7 b03c f283 4ebc dbc6 71bd 3ef7 dcbd
000003e0: 8a29 68bb f13b e5bd 4851 f93d 3665 753c
000003f0: 2d1e 0abd c39e adbc ac62 d5bc bd88 2b3d
-0.098083295 0.0005409636 0.117659084 -0.10741873 -0.041455254 -0.029111005 -0.09726052 0.08429741
0.09543201 -0.006952588 -0.022946626 -0.03224402 -0.12083581 0.052921504 0.05056676 0.015242599
0.057267975 0.020060414 0.0800544 0.049084615 -0.00043622733 -0.07891307 -0.015524378 -0.037317287
0.08288367 -0.018089373 -0.03670102 -0.074753925 -0.06508615 0.04582433 0.05520172 0.022083888
0.109414764 -0.04362127 -0.13481253 -0.0034250473 0.04274099 -0.12949854 -0.063326 0.096783504
-0.10084936 0.07678492 0.12617758 0.093681745 -0.034812883 0.041441392 -0.017959867 0.09033427
-0.03763411 0.09665144 -0.04129054 0.07755289 -0.0340476 -0.0922803 -0.09171943 -0.01660038
-0.054431766 0.07122698 0.04366222 -0.07167982 -0.092174284 0.007781008 0.047213152 -0.113401525
-0.0940502 -0.026196549 0.012900877 0.017344434 -0.0061293766 -0.024694493 0.0401992 -0.09361423
-0.11273032 -0.016725527 0.007845736 -0.050640576 -0.004962476 0.084002696 0.07799534 -0.123627834
-0.107310705 -0.069455445 -0.06514324 0.094413996 0.037297323 0.10252605 0.1181039 0.10276222
-0.083233654 -0.04342695 0.10938502 -0.03653594 0.034259826 -0.051000323 0.033645596 0.12182502
0.044455413 0.09139298 0.00011468673 0.012636397 -0.12650375 0.11284638 0.12689026 0.05772812
-0.08765362 0.010015632 0.016128028 0.10453508 -0.10722343 -0.09024502 0.111289844 0.03213435
-0.10627078 -0.06612263 0.023387192 -0.012204187 0.06182734 0.036048464 0.062098507 -0.014078065
0.07560816 0.003892996 -0.037804138 -0.06420521 0.027521499 0.08513104 0.059009995 -0.013631414
-0.012640197 0.08853389 0.057039596 0.050497167 0.055350073 0.08888462 -0.035114497 -0.11036701
0.10921311 -0.0012802476 0.04298547 0.006947565 -0.014636247 0.057231545 -0.11182595 0.050240632
0.08896626 0.051429313 0.08783351 -0.1251929 -0.00808215 0.084016554 -0.0007532158 -0.036629863
0.025238628 0.04935998 0.04283355 0.0329663 -0.13973892 -0.0739866 -0.0064970255 -0.08273445
-0.0055103507 0.047513362 0.083917476 0.1404677 0.04150333 0.056551237 0.09851248 0.05870714
-0.0649587 -0.060817774 0.10110049 0.115422525 0.0946627 -0.13071017 0.059288327 -0.017826479
0.042819053 0.05076279 0.04709354 -0.023291446 0.07192979 0.08463573 0.071126916 -0.072041415
-0.011116069 0.10026523 -0.12544754 -0.12060676 -0.03916981 -0.10178193 0.081116654 -0.03617576
-0.06691325 0.08621941 -0.04655201 -0.08399028 -0.097877696 -0.038698763 -0.09460068 -0.025027039
-0.087111644 0.12689434 0.087749355 -0.027760062 -0.099812455 -0.018463586 0.07673472 0.095273815
0.06914805 -0.009662141 -0.1208547 0.15043937 -0.027694385 -0.005280462 0.081035234 0.10779522
0.018982923 0.0046526347 -0.1077186 0.030789647 -0.010672251 0.06836461 0.104523756 -0.045437805
0.03568975 0.0007650528 -0.06459063 -0.081954256 -0.05014979 -0.118949376 -0.0015212018 0.039422065
0.083676085 0.0032231645 -0.04280592 0.085986555 -0.11741908 -0.10655674 -0.0777131 0.03699076
0.09027696 0.07889236 -0.102023855 0.12069015 0.021594582 -0.0126047 -0.059027534 -0.10789345
-0.003542515 -0.111930735 0.12173706 0.014977744 -0.033720184 -0.021193868 -0.026048027 0.04187845

lstm.bias_ih_l1 f4 [256]
00000000: 0bca 8b3d 975f f63d 9e88 c13d 6185 8ebd
00000010: 6a9d b43d 1abc 21bd 573a e43c b0cc 5b3d
00000020: 1283 37bd f335 c9bd 737d f23d 12ca 9ebd
00000030: 1385 513d 1b13 333d 4354 003e 8c5f 873d
00000040: 6098 483d 0600 f43d 5f93 aebd 6e31 ea3d
00000050: 5dcc c23d c3e6 843d 47e7 1a3d 895e b3bd
00000060: 29a0 5ebd 5540 f63d 053e 843c 5fe4 9a3d
00000070: fc8b 983d 8dcb 87bb 705c d0bd 4a47 aabc
00000080: c9dd b3bd 2f1f 35bd 668c ee3d bfc3 893c
00000090: fb35 11bd 6927 f3bc 5321 be3d 2303 dc3d
000000a0: 02dc 7fbd 336d cd3d c2cf c8bd bec9 7b3d
000000b0: 8039 c93c 7146 5a3d 9356 4ebd 5c85 673d
000000c0: 41f3 16bb a33b f43d b70e 9fbd d0ce 5d3d
000000d0: 5fd5 933d 4936 52bc af71 703c cbe0 423d
000000e0: 1d3e aebc 1b80 743d b2c9 43bd 5fce 7b3b
000000f0: 38d7 193d 96fe 1a3d a0d5 e23d 17b7 85bd
00000100: e131 803c 2d3b 61bd f212 5d3d d545 32bc
00000110: df76 9f3d 188f 8dbd 0d82 89bd 2c7d 7bbd
00000120: 64c2 0cbd c7e2 a1bb 2be2 5c3d 04bf 92bc
00000130: de2a 883d e50e cb3d 4578 89bd 3d84 113d
00000140: 4f00 70bd e352 e63d fd42 df3c e2b5 a6bd
00000150: 867d fe3c de79 42bd dd95 b33d 0c15 263d
00000160: 6b86 89bd 9eaa 81b8 8dae ba3d e5c0 87bd
00000170: d549 653d be1d 943d a429 c23c 37eb db3d
00000180: 1685 4bbd 5baa 04be aae3 b1bc a2e4 4c3d
00000190: d66f c1bd a40f e2bb 89f0 dd3d 524f e03c
000001a0: 54c6 1c3d 5d97 b3bd bcb1 db3c 1eb9 e23d
000001b0: 4f27 a1bc 9f63 063b 8c93 d33d 7156 c13c
000001c0: 0504 8fbd 5f94 bebd a6a8 bc3c 3112 4b3d
000001d0: d401 6bbc aa64 913d cadb 54bd 965c 3ebc
000001e0: 1629 e7bd b3b3 ee3d 4ecf c63d c54c 04bd
000001f0: b0bd e7bd bc2a a83d 3e8f d43d 5cf9 41bd
00000200: 6f2e 71bc c680 96bd e57d c93c db6c aebd
00000210: fc04 7b3d c259 583d 9f36 4bbc 3840 a83d
00000220: 7c29 b5bd 3977 d63d b567 4a3d 60ee 94bd
00000230: fe59 06be d7d7 4b3d e53b 61bd 619e 8abd
00000240: 4592 d4bd e882 923c 8d63 92bc c8ac 273d
00000250: f38d abbd 9dd4 babc 663f 9bbd 09fa d839
00000260: c817 55bc b093 6fbd c842 013e f561 d8bd
00000270: 9b0c fb3d 942d 85bd 0955 d83d 7aad fb3d
00000280: 9649 ff3d e17a 36bd 2b8b 183e ba7c 0b3d
00000290: bd23 7fbd 71ae 27bd 1b31 a83b 993e 52bd
000002a0: 4b09 913d fca5 e03d 66c3 233c bf55 e03d
000002b0: 982f 8dbc e2f7 893c 6137 83bd aa2f e4bd
000002c0: e83f f13d 2d5d 153d 255b 353d 1da6 853d
000002d0: 6cc6 b53d e691 063d 6c78 bcbc 04eb 9bbd
000002e0: 686e 513c 502e 22bd 59c9 603d c206 873d
000002f0: 5c8c debd a833 a0bd ac33 523c 9c49 a5bd
00000300: ea12 943d 044d d4bd ece9 2e3c 5bd2 1c3d
00000310: 7dc9 06be 874c 5c3d 3f19 7abd f7fc 48bd
00000320: efe2 133d d6ff d83d d9a4 c2bd a303 5fbd
00000330: 92aa 013e 42a1 b73d 6c7b a33d f5b2 72bc
00000340: 505e a03d a032 643d 8347 49bd 9968 063e
00000350: 8264 903c ac21 e33d af75 85bc f500 01be
00000360: 15b5 253d 3f84 9bbd 18d1 e8bd fc28 b13c
00000370: 9345 9cbd c059 44bd e2a2 863c f08d 95bd
00000380: 50bd 72bd a10b e63c a476 af3d 564a d0bd
00000390: 37c2 9abc d7a1 9dbd a3a8 b3bd fc2b 33bd
000003a0: cb11 80bd 3d43 573c bc99 7a3d 3c28 5c3b
000003b0: 8e21 023e bca2 013e 7e45 653d 1918 ca3d
000003c0: 3de3 243c efa9 d83d 46a8 2ebd 9853 6cbd
000003d0: b9be 673d 722f a53d ae98 683b 6b7b 9dbd
000003e0: 8398 f3bd 614c e0bd 8d7e 01be 1df8 b2bd
000003f0: 9c95 ae3d 2dfe 14bc b837 51bc 86a7 803d
0.06825646 0.12029951 0.09449886 -0.06959034 0.08819087 -0.03948603 0.02785985 0.053662002
-0.044802733 -0.09824743 0.11840334 -0.077533856 0.0511523 0.043719392 0.12532143 0.06610021
0.04897344 0.11914067 -0.085242026 0.11435209 0.095116355 0.06489327 0.03781822 -0.087582655
-0.05435196 0.12023989 0.016142854 0.075630896 0.07448575 -0.004144138 -0.10173881 -0.020785946
-0.087825365 -0.044219192 0.116478726 0.016816972 -0.03545187 -0.029681878 0.092837 0.10742786
-0.062465675 0.10030594 -0.09805252 0.061471693 0.024563551 0.053289834 -0.050375532 0.056523666
-0.0023033174 0.11925437 -0.077664785 0.05415231 0.07218432 -0.012830325 0.014675542 0.04757766
-0.021269852 0.059692483 -0.047799774 0.0038422567 0.037558764 0.03784045 0.11075902 -0.06529062
0.015648784 -0.054988075 0.053973146 -0.010880907 0.07786345 -0.069120586 -0.06714258 -0.06139867
-0.034365073 -0.004940364 0.053926628 -0.017913349 0.06648801 0.0991495 -0.06712393 0.035526503
-0.058594044 0.11246278 0.027253622 -0.0814016 0.031065714 -0.047479503 0.087688185 0.040547416
-0.06715091 -6.182979e-05 0.09115324 -0.066285886 0.055978615 0.07232235 0.023701496 0.10738223
-0.049687468 -0.1295561 -0.021715004 0.05002273 -0.09445159 -0.006898837 0.10836894 0.027381573
0.038275078 -0.08769105 0.026818149 0.110704646 -0.019672064 0.0020506156 0.10330877 0.023600789
-0.069831885 -0.09305643 0.023029637 0.049577896 -0.014343698 0.07099278 -0.05196742 -0.011618754
-0.112871334 0.11655369 0.09707509 -0.032299776 -0.11315477 0.08211276 0.10378884 -0.04735695
-0.014720543 -0.0734878 0.024596164 -0.08516856 0.06128405 0.052819975 -0.012403159 0.08215374
-0.08845803 0.10471959 0.04941531 -0.07272029 -0.13120267 0.049766388 -0.05498876 -0.0676849
-0.10379461 0.017884687 -0.017869735 0.04093626 -0.08376684 -0.02280646 -0.07580452 0.0004138502
-0.013006158 -0.058490455 0.12623131 -0.10565559 0.12258264 -0.06502834 0.10563094 0.122889474
0.12465207 -0.04455078 0.14896838 0.034054495 -0.062289942 -0.040937845 0.005132807 -0.05132923
0.070818506 0.10969159 0.009995317 0.10953855 -0.017234609 0.016841833 -0.06407047 -0.11141904
0.11779767 0.036465812 0.044276375 0.06525824 0.088757366 0.032853983 -0.02300664 -0.07613185
0.012782671 -0.03959495 0.05487952 0.06593086 -0.10866615 -0.07822353 0.012829702 -0.080706805
0.0723017 -0.10366252 0.0106758885 0.038286548 -0.13162799 0.05378392 -0.061059233 -0.04906937
0.036105093 0.10595672 -0.095040984 -0.054446828 0.12662724 0.08966304 0.07982525 -0.0148131745
0.07830489 0.055712342 -0.049140465 0.13125838 0.01762605 0.11090407 -0.016291467 -0.12598021
0.040455896 -0.07593583 -0.113680065 0.021625988 -0.07630458 -0.047937155 0.01643509 -0.07302463
-0.059262574 0.028081717 0.08567551 -0.101704285 -0.018891437 -0.07696884 -0.08772399 -0.04374312
-0.06253394 0.013138589 0.06118177 0.0033593317 0.12708113 0.12659734 0.055974476 0.098678775
0.010063943 0.10579287 -0.042640947 -0.05769691 0.05657837 0.0806569 0.0035491395 -0.07689556
-0.11894324 -0.10952068 -0.12645932 -0.0873873 0.085246295 -0.009093803 -0.012769632 0.062819526
