samsung_lstm_1step.pt (torch, 206261 bytes, 9 tensors)

lstm.weight_ih_l0 f4 [256, 1]
0.17877004 0.209763 0.106553905 -0.016884264 0.057633914 -0.13598846 0.19864362 0.10708355
0.20017083 -0.050321512 0.058367603 -0.08912675 0.14338121 0.014566594 0.025461607 0.024328014
0.07741802 0.091895476 0.10579017 0.114207335 -0.020700954 -0.07846389 -0.015425806 -0.075439155
-0.025616735 0.105065994 -0.05158367 0.16164453 0.14936367 -0.19288424 0.15802023 0.0982965
0.17454545 0.06374833 -0.11167878 0.1853467 -0.11112993 0.015782157 -0.038246848 0.09232125
-0.07290464 0.08979362 0.121052146 -0.16037357 -0.22767554 -0.050991014 0.09562134 0.116386905
0.062846705 0.027726714 0.046623148 -0.15827999 0.038873397 0.03977987 -0.03995391 0.16767855
0.06943908 -0.13641107 0.12418632 0.0269638 0.068191595 0.10942715 0.03520191 0.09887954
-0.050002553 0.1750626 0.18123527 0.043997042 -0.105373815 -0.14103472 0.10247023 0.014056156
0.059432212 0.014265824 -0.024434123 -0.16908115 0.0011125656 0.01719637 0.08209032 0.0073518874
0.06591272 0.041004106 0.08710546 0.034009464 0.04266297 0.009885852 -0.057538718 0.02989304
0.045173146 -0.050790258 0.019750975 0.16623412 0.07901248 -0.08586966 0.051084734 0.033623457
0.0635929 -0.03535326 -0.04392166 -0.046870153 -0.12770154 -0.09558705 0.077594474 0.10644925
0.010868366 0.07294914 0.16466032 -0.0065150745 -0.26504356 0.117794976 -0.15961583 0.012332586
0.08449628 -0.033531405 0.11515106 -0.21442991 -0.06873662 -0.067084976 0.15483487 0.14086576
0.16673289 0.024778945 0.014098823 -0.119994976 -0.02290052 -0.024449734 0.18656158 0.080935575
0.16686317 0.2055681 -0.15123378 0.15912789 0.16556972 -0.1936557 -0.113818325 0.1448819
0.2192516 0.16636413 0.088178374 -0.0861403 -0.07336365 -0.04359115 0.031744953 0.20625003
0.067964144 0.20882848 0.106649004 -0.0060765347 -0.14763243 -0.07891166 0.18831801 0.09409678
0.11025635 0.046575528 -0.091653086 -0.09909441 -0.055692643 0.08323769 -0.21772105 0.17259389
-0.046721976 -0.11853641 0.03774275 -0.17093728 0.13984978 0.084803544 -0.19594713 -0.21463099
0.0027989617 0.08089917 -0.07086507 -0.096691325 -0.15226427 0.07468325 -0.17891918 0.057602864
-0.077707045 -0.015978513 -0.12858853 -0.07171544 -0.12577946 -0.08852885 -0.11330706 0.14653791
-0.14440957 0.06644487 0.14448577 0.10068081 -0.088750646 0.08692709 0.16427156 -0.05976573
-0.020928707 0.17076659 0.18075809 0.053777575 -0.02538022 -0.07630045 0.05024859 0.14462397
0.14503272 -0.019253643 -0.012463835 -0.020071128 0.03776275 0.1157157 0.19163364 0.11524961
-0.029494653 -0.009783015 -0.03162407 0.07574654 -0.058296524 0.05680254 -0.047759887 -0.038421083
-0.1332143 -0.00073858653 0.01869206 0.19829912 0.18519025 -0.099277765 0.20945738 0.060392972
0.12090639 -0.039654892 -0.102865495 0.14509787 -0.19447118 0.00037904287 0.066595465 0.023148648
0.14516257 0.06415466 -0.036442697 0.041500572 -0.22412868 0.13954298 0.021731466 -0.01303358
0.18738425 0.049256906 0.12898938 -0.08603895 -0.078510486 0.10776866 0.07696871 0.11787952
0.14861721 -0.02832112 0.03320604 -0.030723268 -0.05322635 -0.03489837 0.16889144 -0.010116905
00000000: 7e0f 373e 1dcc 563e ef38 da3d de50 8abc
00000010: 8a11 6c3d 8f40 0bbe 3c69 4b3e 9f4e db3d
00000020: 95f9 4c3e ee1d 4ebd de12 6f3d 1688 b6bd
00000030: 86d2 123e b9a8 6e3c dc94 d03c 8b4b c73c
00000040: 578d 9e3d b233 bc3d 84a8 d83d 89e5 e93d
00000050: 0c95 a9bc adb1 a0bd 85bc 7cbc d87f 9abd
00000060: 30da d1bc d72c d73d 6649 53bd 2586 253e
00000070: caf2 183e 7283 45be 0ed0 213e ad4f c93d
00000080: 0bbc 323e 7c8e 823d d8b7 e4bd 86cb 3d3e
00000090: 1798 e3bd 9549 813c baa8 1cbd ec12 bd3d
000000a0: 074f 95bd b8e5 b73d 30ea f73d f838 24be
000000b0: c723 69be f4db 50bd 1fd5 c33d 425c ee3d
000000c0: c6b5 803d 2223 e33c eaf7 3e3d 2614 22be
000000d0: b639 1f3d 38f0 223d b6a6 23bd edb3 2b3e
000000e0: 1436 8e3d 58af 0bbe 6655 fe3d 30e3 dc3c
000000f0: 09a8 8b3d 571b e03d e12f 103d 5b81 ca3d
00000100: 7acf 4cbd 9c43 333e bd95 393e 3e36 343d
00000110: 3ace d7bd 686b 10be e9db d13d cb4b 663c
00000120: 316f 733d 34bb 693c 122a c8bc 9c23 2dbe
00000130: 82d3 913a 67df 8c3c f81e a83d 1ae8 f03b
00000140: 40fd 863d ecf3 273d 5964 b23d 824d 0b3d
00000150: 5ebf 2e3d 45f8 213c b8ad 6bbd 40e2 f43c
00000160: 7a07 393d 7209 50bd cccc a13c 4739 2a3e
00000170: 4cd1 a13d 6fdc afbd 3a3e 513d c0b8 093d
00000180: ff3c 823d 94ce 10bd 33e7 33bd ebfa 3fbd
00000190: 31c4 02be 25c3 c3bd dae9 9e3d 1002 da3d
000001a0: 3b11 323c 5c66 953d b79c 283e 687c d5bb
000001b0: cab3 87be 7e3e f13d 5572 23be 9d0e 4a3c
000001c0: 630c ad3d 3a58 09bd 52d4 eb3d 8493 5bbe
000001d0: c9c5 8cbd d963 89bd 088d 1e3e 1d3f 103e
000001e0: 07bc 2a3e 37fd ca3c c0fe 663c edbf f5bd
000001f0: df99 bbbc cf4a c8bc 000a 3f3e 8dc1 a53d
00000200: 2ede 2a3e 7280 523e 07dd 1abe 6cf2 223e
00000210: 1c8b 293e ae4d 46be 9519 e9bd ec5b 143e
00000220: 7e83 603e 5c5b 2a3e dd96 b43d 536a b0bd
00000230: ae3f 96bd a28c 32bd ff06 023d 3533 533e
00000240: c930 8b3d 22d7 553e cb6a da3d ab1d c7bb
00000250: f52c 17be 709c a1bd 70d6 403e d0b5 c03d
00000260: 15ce e13d fbc5 3e3d 9db4 bbbd 03f2 cabd
00000270: f81d 64bd 8678 aa3d 44f2 5ebe 74bc 303e
00000280: 8b5f 3fbd 38c3 f2bd 2498 1a3d 2f0a 2fbe
00000290: c834 0f3e 7bad ad3d 5da6 48be 3ac8 5bbe
000002a0: c96e 373b 77ae a53d b521 91bd 1a06 c6bd
000002b0: 2aeb 1bbe 88f3 983d 9736 37be fbf0 6b3d
000002c0: df24 9fbd 5fe5 82bc b6ac 03be 8bdf 92bd
000002d0: 55cc 00be 9d4e b5bd 880d e8bd 090e 163e
000002e0: 1ae0 13be 3f14 883d 14f4 133e be31 ce3d
000002f0: e6c2 b5bd d506 b23d ce36 283e e9cc 74bd
00000300: ae72 abbc 70dd 2e3e a618 393e e045 5c3d
00000310: 2eea cfbc 6943 9cbd 77d1 4d3d 4e18 143e
00000320: 7583 143e d1b9 9dbc 1d35 4cbc 356c a4bc
00000330: 1dad 1a3d 5afc ec3d 9c3b 443e fd07 ec3d
00000340: c59e f1bc f048 20bc 3e88 01bd 0121 9b3d
00000350: 56c8 6ebd c8a9 683d df9f 43bd 6d5f 1dbd
00000360: 5469 08be b49d 41ba 1720 993c ed0e 4b3e
00000370: 83a2 3d3e 2452 cbbd ff7b 563e 9f5e 773d
00000380: c59d f73d 2b6d 22bd 25ab d2bd 8994 143e
00000390: 7423 47be 46ba c639 3463 883d 3ca2 bd3c
000003a0: 7fa5 143e 8563 833d f044 15bd 81fc 293d
000003b0: fd81 65be 5be4 0e3e 3006 b23c cc8a 55bc
000003c0: a8e1 3f3e 9cc1 493d cb15 043e 3035 b0bd
000003d0: 1bca a0bd d1b5 dc3d c5a1 9d3d d16a f13d
000003e0: 1c2f 183e b201 e8bc 0e03 083d 5daf fbbc
000003f0: e003 5abd 98f1 0ebd e1f1 2c3e 60c1 25bc

lstm.weight_hh_l0 f4 [256, 64]
-0.093830235 0.0040973704 -0.024949899 0.0529082 -0.040273823 -0.0035995285 0.03012035 0.16269325
-0.043561205 0.09091783 0.042523433 0.10070415 0.05367497 -0.12313528 -0.12395813 -0.00070369965
0.07093938 0.07597508 0.108721286 -0.03295211 0.044359013 -0.10896861 0.058565147 0.08856441
0.12134017 0.029109946 0.0064210254 -0.10058659 -0.058561333 -0.0051006195 -0.09521689 0.024390593
-0.08954459 -0.014846713 -0.026293866 0.08668421 0.07676164 0.10244956 -0.08303961 -0.15154658
0.023594879 0.034290638 -0.12202723 0.108817756 0.057437122 -0.0824121 -0.0069805756 0.08543943
-0.07876488 -0.07679301 0.036959205 -0.00081211765 0.029831236 -0.04901667 -0.04924819 0.0016508464
-0.106010646 -0.052224725 -0.02117224 0.025544127 0.12867315 0.13870849 0.07995346 -0.04609524
0.15402916 0.15376908 0.07162552 0.09782262 0.17228772 -0.016040647 0.046885774 0.102559865
0.08363769 -0.008843753 -0.078328095 0.075994715 -0.06735721 -0.1317896 -0.05515589 0.04583185
0.056758236 0.11074992 0.1212507 -0.093215376 -0.09398996 0.119103335 0.046311677 -0.085143626
-0.09422421 -0.028107742 -0.11807968 -0.13159813 -0.09553106 -0.017232599 0.07060813 0.078980856
-0.057171695 -0.068769865 -0.0031374558 0.06532048 0.0908987 -0.08560851 -0.095033295 0.08702379
0.007037815 -0.016377468 -0.09654473 0.005989843 -0.10837881 -0.08040637 0.019341392 0.072164394
0.007121658 0.0019766605 -0.036619853 -0.09678263 -0.043816008 0.10470999 -0.109761946 0.030623682
0.0563144 0.04117876 0.0045699603 -0.04540948 -0.023540048 0.07019933 0.103365675 0.048781708
0.09454576 -0.01520009 -0.048414025 0.07651304 0.036485683 0.027331637 -0.07825559 -0.05986707
0.03405646 0.014107874 0.072764084 0.1381013 -0.024496675 -0.039307814 0.07013453 -0.02457726
0.027337885 0.022096982 -0.061901603 0.03663489 -0.0018566672 -0.052045494 -0.086526126 0.05616816
0.112766474 -0.044044137 -0.095855474 -0.103531286 0.061015442 -0.13922262 0.018054558 -0.044986285
0.05131755 -0.09154833 0.015235446 0.0070248577 0.011926839 -0.025242342 -0.02436603 -0.11198474
-0.048677184 0.0025670787 0.054227255 -0.053693656 -0.014245387 0.09529748 0.080116354 0.022067497
0.049898434 0.09576933 -0.122079894 0.055236567 -0.035092793 0.10196925 -0.023088627 -0.04038931
-0.13734384 0.06123859 -0.035306048 0.08673576 0.122739226 0.029035186 -0.019368328 -0.14106362
-0.05100056 -0.031754706 -0.0862965 -0.2302479 -0.008017858 0.08294119 0.04193631 -0.13451888
-0.033952195 -0.12150161 0.0003960981 -0.03076268 -0.07116369 -0.15481535 -0.08072663 -0.08600293
0.10437917 -0.08232192 -0.07005547 -0.026886208 -0.04268704 0.04204738 -0.1281117 -0.04254064
-0.18333918 -0.005591795 -0.0180486 0.012222178 0.03483016 -0.11897951 0.03600199 -0.18857825
0.014546542 -0.121227235 0.041759107 0.073953055 -0.19553256 -0.0070830076 -0.046641655 0.015249897
-0.1016674 -0.07733797 -0.13218126 0.20023505 0.25133872 0.102275975 0.07385026 0.03326571
-0.12841195 0.049222328 0.0539687 0.029032571 0.07714995 0.09328904 -0.14488497 -0.07946939
-0.09668861 -0.11595904 0.019222675 -0.15380198 0.042975035 -0.025536327 0.12313303 0.018199852
00000000: 112a c0bd 3c43 863b bb63 ccbc 45b6 583d
00000010: 2af6 24bd 11e6 6bbb f4be f63c 0f99 263e
00000020: 3c6d 32bd 2133 ba3d 0d2d 2e3d fa3d ce3d
00000030: 49da 5b3d 5a2e fcbd c3dd fdbd 7c78 38ba
00000040: aa48 913d d398 9b3d 44a9 de3d cbf8 06bd
00000050: ccb1 353d ef2a dfbd 02e2 6f3d 4261 b53d
00000060: 3281 f83d fb77 ee3c 7767 d23b 5800 cebd
00000070: 02de 6fbd 1923 a7bb 1301 c3bd c8ce c73c
00000080: 2763 b7bd a13f 73bc 3c66 d7bc 7e87 b13d
00000090: 3535 9d3d 13d1 d13d ac10 aabd 072f 1bbe
000000a0: 0c4a c13c 5774 0c3d 6ae9 f9bd d8db de3d
000000b0: 3043 6b3d adc7 a8bd 50bd e4bb defa ae3d
000000c0: 7b4f a1bd a745 9dbd 8962 173d 4be4 54ba
000000d0: a360 f43c b4c5 48bd 78b8 49bd 3761 d83a
000000e0: 1c1c d9bd 98e9 55bd 6871 adbc eb41 d13c
000000f0: e5c2 033e 9909 0e3e a4be a33d 5dce 3cbd
00000100: d2b9 1d3e a475 1d3e 67b0 923d 3a57 c83d
00000110: 316c 303e ad67 83bc 4c0b 403d e80a d23d
00000120: 3d4a ab3d 63e5 10bc 7b6a a0bd 1ea3 9b3d
00000130: 94f2 89bd daf3 06be 24eb 61bd 2eba 3b3d
00000140: 537b 683d dbd0 e23d 4952 f83d b4e7 bebd
00000150: cf7d c0bd 73ec f33d 50b1 3d3d c85f aebd
00000160: 9ff8 c0bd 3542 e6bc c2d3 f1bd a9c1 06be
00000170: caa5 c3bd 612b 8dbc ff9a 903d b7c0 a13d
00000180: de2c 6abd 37d7 8cbd c69d 4dbb bec6 853d
00000190: 1929 ba3d 8453 afbd d1a0 c2bd 8739 b23d
000001a0: 799d e63b 0a2a 86bc 3eb9 c5bd 7246 c43b
000001b0: b6f5 ddbd 18ac a4bd d771 9e3c edca 933d
000001c0: cc5c e93b dc8a 013b b3fe 15bd f935 c6bd
000001d0: 6a78 33bd 3172 d63d dfca e0bd 84de fa3c
000001e0: eea9 663d 0fab 283d 9bbf 953b 4aff 39bd
000001f0: 0fd7 c0bc abc4 8f3d 62b1 d33d 54cf 473d
00000200: 35a1 c13d cc09 79bc c94d 46bd deb2 9c3d
00000210: 0372 153d 99e6 df3c 7744 a0bd 2c37 75bd
00000220: c97e 0b3d b624 673c 5605 953d 6d6a 0d3e
00000230: 40ad c8bc 3b01 21bd b1a2 8f3d 4056 c9bc
00000240: b3f3 df3c bb04 b53c 898c 7dbd 770e 163d
00000250: 6a5b f3ba a82d 55bd 9c34 b1bd 9610 663d
00000260: 1cf2 e63d a067 34bd e04f c4bd 3608 d4bd
00000270: 54eb 793d 6090 0ebe 27e7 933c 8a43 38bd
00000280: 5a32 523d b17d bbbd 189e 793c c730 e63b
00000290: ca68 433c 07c9 cebc 459b c7bc 4158 e5bd
000002a0: ba61 47bd 6f3c 283b 661d 5e3d e1ed 5bbd
000002b0: 7c65 69bc 532b c33d 0b14 a43d e5c6 b43c
000002c0: 4d62 4c3d b622 c43d 0605 fabd bd3f 623d
000002d0: 76bd 0fbd 41d5 d03d 5c24 bdbc 436f 25bd
000002e0: dda3 0cbe 51d5 7a3d 139d 10bd 85a2 b13d
000002f0: b45e fb3d 33db ed3c 54aa 9ebc fb72 10be
00000300: f7e5 50bd 3911 02bd 38bc b0bd 1bc6 6bbe
00000310: 555d 03bc 12dd a93d 68c5 2b3d 51bf 09be
00000320: 7511 0bbd d6d5 f8bd 63ab cf39 0402 fcbc
00000330: 45be 91bd ea87 1ebe 0154 a5bd 4e22 b0bd
00000340: bfc4 d53d 6598 a8bd 3e79 8fbd 7740 dcbc
00000350: 9bd8 2ebd e039 2c3d b72f 03be 183f 2ebd
00000360: 44bd 3bbe 603b b7bb a8da 93bc 883f 483c
00000370: 12aa 0e3d 88ab f3bd d376 133d a81a 41be
00000380: 9f54 6e3c fc45 f8bd 990b 2b3d b374 973d
00000390: b039 48be 9318 e8bb 520b 3fbd b4da 793c
000003a0: ff36 d0bd 5f63 9ebd 865a 07be 6b0a 4d3e
000003b0: 78af 803e 1176 d13d ce3e 973d a041 083d
000003c0: 6c7e 03be 5a9d 493d 490e 5d3d b7d5 ed3c
000003d0: cb00 9e3d 530e bf3d ba5c 14be d9c0 a2bd
000003e0: ae04 c6bd ef7b edbd df78 9d3c 447e 1dbe
000003f0: 9706 303d 8f31 d1bc 2c2d fc3d db17 953c

lstm.bias_ih_l0 f4 [256]
0.033557795 -0.070670165 0.06536631 0.1470375 0.07998305 -0.062056556 0.1868611 0.14621145
-0.009780034 -0.055656236 -0.04903811 0.0126674045 0.018437559 -0.113802336 0.09753354 0.056562915
-0.078864366 0.058068566 0.006523017 0.10024509 0.0874468 -0.033924818 0.04726066 0.04913002
-0.07855787 -0.051284038 -0.050834056 -0.02454702 -0.061757527 -0.04980542 0.11485506 0.08471889
-0.09631751 0.005745641 0.07878892 0.13068576 -0.01287376 0.091316566 0.11480266 0.113996096
0.0097225625 0.086075485 -0.05537267 0.13209154 -0.02163495 -0.03578906 0.10658785 0.12213212
0.089138225 -0.022446876 -0.050750595 0.019446054 -0.11508531 0.0076015615 -0.035231717 0.1476879
0.15508541 -0.02559038 -0.07610674 0.08825593 0.0031302238 -0.093774736 -0.025311647 -0.098871134
0.13233782 -0.09403028 0.04635685 0.11881311 0.12087551 0.0061440384 -0.08171911 0.10567515
0.010458682 -0.017702352 0.036601152 0.05912175 -0.06474146 -0.022866614 0.12341983 -0.082015514
-0.059636943 -0.036467064 -0.04127418 -0.11576648 0.059868593 -0.01196925 -0.074858144 -0.1325963
0.070108354 -0.08022904 -0.053223114 -0.03841154 -0.01974973 -0.04983954 -0.026855705 -0.11914345
-0.087743185 -0.052987814 -0.010628164 0.119627245 -0.059459835 0.12708549 0.10217079 0.10018825
-0.09451225 -0.0032888448 -0.018241756 0.11906664 0.16301191 -0.033427853 0.10863955 0.031513225
-0.085816875 -0.07302929 0.07525668 0.039596494 0.11924972 -0.099818975 0.021547927 0.13925642
0.14073655 0.09593171 0.09058965 0.11404328 -0.11126331 -0.027578317 -0.09061245 -0.1189686
0.08466949 0.0040928135 -0.09925258 0.018292768 0.07640257 0.078354925 -0.087563865 -0.0074525937
0.030954218 -0.05145923 0.06735792 0.09253009 -0.08401721 0.0043656193 0.01027265 -0.055322606
-0.0061420086 -0.029634062 -0.12256674 -0.033068698 -0.067651026 0.04438954 0.04468626 -0.09831938
-0.042409908 -0.107194714 -0.091883 -0.11939113 0.031687334 0.03797556 -0.12212386 0.08489124
0.13235612 -0.04742367 -0.034466054 -0.09359832 0.031171644 -0.008613901 -0.04711664 0.007780367
-0.029507956 0.09159542 -0.10891548 0.07932238 0.09874879 0.10776877 0.02125309 -0.03250603
-0.10715053 -0.058360286 -0.13320796 0.011930916 -0.024712315 0.13418029 -0.05432299 -0.10237916
-0.007237684 -0.08307134 0.057443175 -0.017750323 0.006283366 0.010776045 0.0092903115 -0.074958675
-0.043700416 -0.09617328 -0.062113464 0.08551402 -0.04187593 0.14675361 0.10596209 0.10683599
0.04869776 0.10174801 -0.05824266 -0.067993164 -0.026943812 0.010963763 -0.03949904 -0.07015537
-0.012766954 -0.019012714 0.028448313 -0.11180362 0.0016700755 -0.023469443 0.15077923 0.015154418
-0.056620892 -0.007239251 0.09022586 -0.07875964 0.024924502 -0.047840312 0.14904132 -0.06946496
-0.11742256 0.08505128 -0.12404175 0.0034857139 0.024298225 -0.029435495 -0.076648556 0.15198916
0.009334014 0.045282867 0.08815417 -0.04061021 0.14473958 -0.050821748 0.1517552 -0.018567342
-0.05199832 -0.12969603 0.088597685 -0.038209666 0.0955601 -0.07677578 0.048751835 0.115479186
-0.01486639 0.013034973 0.0121516865 -0.11207728 0.032248966 0.13286158 -0.0006668194 0.02127784
00000000: e673 093d 85bb 90bd c6de 853d 0091 163e
00000010: 27ce a33d 042f 7ebd 8458 3f3e 74b8 153e
00000020: 703c 20bc cbf7 63bd 2fdc 48bd f28a 4f3c
00000030: 5d0a 973c 3311 e9bd aabf c73d 84ae 673d
00000040: a483 a1bd 4ed9 6d3d 08bf d53b 4c4d cd3d
00000050: 4f17 b33d c0f4 0abd 6594 413d 8f3c 493d
00000060: f3e2 a0bd 360f 52bd 5f37 50bd d516 c9bc
00000070: 76f5 7cbd c500 4cbd 2139 eb3d 1981 ad3d
00000080: 1d42 c5bd ee45 bc3b 165c a13d 7dd2 053e
00000090: 77ec 52bc 2e04 bb3d a81d eb3d c976 e93d
000000a0: 624b 1f3c 5848 b03d 74ce 62bd 0143 073e
000000b0: c73b b1bc 8d97 12bd bb4a da3d 6820 fa3d
000000c0: 1a8e b63d 83e2 b7bc dbdf 4fbd 554d 9f3c
000000d0: d9b1 ebbd 8516 f93b 224f 10bd 7f3b 173e
000000e0: b6ce 1e3e eba2 d1bc dadd 9bbd 86bf b43d
000000f0: 7124 4d3b f80c c0bd 5f5a cfbc f37c cabd
00000100: 9183 073e f392 c0bd aee0 3d3d 4a54 f33d
00000110: 948d f73d ee53 c93b 595c a7bd 376c d83d
00000120: e45a 2b3c 8604 91bc 17eb 153d a629 723d
00000130: 2c97 84bd c452 bbbc 89c3 fc3d c0f7 a7bd
00000140: de45 74bd 7d5e 15bd 1d0f 29bd fa16 edbd
00000150: c538 753d ac1a 44bc 3a4f 99bd 53c7 07be
00000160: f894 8f3d 1f4f a4bd 7b00 5abd 6b55 1dbd
00000170: 30ca a1bc 8c24 4cbd 7f00 dcbc 7b01 f4bd
00000180: b3b2 b3bd c009 59bd c021 2ebc 21ff f43d
00000190: 288c 73bd b322 023e eb3e d13d 7f2f cd3d
000001a0: a38f c1bd a989 57bb bc6f 95bc 36d9 f33d
000001b0: 98ec 263e a5eb 08bd 6a7e de3d 0314 013d
000001c0: c2c0 afbd 6190 95bd 2d20 9a3d ef2f 223d
000001d0: 3239 f43d e46d ccbd 4785 b03c 3c99 0e3e
000001e0: 3e1d 103e d877 c43d 1187 b93d 868f e93d
000001f0: 05de e3bd eceb e1bc 0593 b9bd cfa5 f3bd
00000200: 3367 ad3d 021d 863b f044 cbbd b7da 953c
00000210: f378 9c3d 8c78 a03d af54 b3bd e334 f4bb
00000220: b393 fd3c eac6 52bd f3f2 893d 6a80 bd3d
00000230: 3711 acbd 780d 8f3b 9e4e 283c f599 62bd
00000240: e742 c9bb 22c3 f2bc 4504 fbbd 0b73 07bd
00000250: 9f8c 8abd ced1 353d f108 373d ac5b c9bd
00000260: 03b6 2dbd e788 dbbd 282d bcbd 5683 f4bd
00000270: 94ca 013d 438c 1b3d 131c fabd 75db ad3d
00000280: 5d88 073e 523f 42bd 472c 0dbd 7ab0 bfbd
00000290: ad5b ff3c 5221 0dbc 61fd 40bd 73f2 fe3b
000002a0: abba f1bc 6196 bb3d 140f dfbd c673 a23d
000002b0: ce3c ca3d dfb5 dc3d f61a ae3c 0b25 05bd
000002c0: bd71 dbbd 320b 6fbd ab67 08be e479 433c
000002d0: 7b71 cabc 8f66 093e c981 5ebd 2aac d1bd
000002e0: 182a edbb 4f21 aabd 8949 6b3d 2069 91bc
000002f0: b2e4 cd3b 028e 303c 6436 183c ef83 99bd
00000300: 35ff 32bd 7ff6 c4bd b06a 7ebd f921 af3d
00000310: 1886 2bbd 9446 163e a702 d93d d4cc da3d
00000320: 4d77 473d 4361 d03d db8f 6ebd 0040 8bbd
00000330: 45b9 dcbc 5ba1 333c bfc9 21bd 9ead 8fbd
00000340: 7c2c 51bc 8dc0 9bbc 700c e93c 4cf9 e4bd
00000350: 6fe6 da3a fd42 c0bc df65 1a3e 3c4a 783c
00000360: 4feb 67bd 3d37 edbb 56c8 b83d bc4c a1bd
00000370: 782e cc3c 34f4 43bd 4a9e 183e a543 8ebd
00000380: 3d7b f0bd 5e2f ae3d 9a09 febd 9370 643b
00000390: 120d c73c b522 f1bc ebf9 9cbd 0ca3 1b3e
000003a0: b1ed 183c 877a 393d 2c8a b43d e456 26bd
000003b0: 9d36 143e 772a 50bd b765 1b3e 8a1a 98bc
000003c0: 31fc 54bd 09cf 04be b472 b53d bd81 1cbd
000003d0: 04b5 c33d 9f3c 9dbd 01b0 473d 5a80 ec3d
000003e0: 2992 73bc a490 553c de17 473c c688 e5bd
000003f0: 7e17 043d de0c 083e 7ecd 2eba dd4e ae3c

lstm.bias_hh_l0 f4 [256]
0.082317 0.101125725 0.14932306 0.11112646 0.11552397 0.1576866 -0.045680918 0.10762702
0.089791365 0.10915352 0.13330877 -0.14222261 -0.077789366 0.041086424 0.065436184 0.14547043
-0.020109277 -0.048227385 0.082521014 -0.07568644 0.028237917 0.061841898 -0.056115266 0.026767762
0.03598332 -0.07796076 -0.084855855 -0.037374854 0.012231076 0.054733414 -0.05628818 -0.06509163
0.09968742 0.040004276 -0.065759 0.012209393 0.0957615 -0.01969934 0.073951624 -0.016839802
-0.13308306 0.111306936 -0.09013481 0.06260025 0.16057174 0.012732842 0.14200856 0.049688842
0.07795121 0.11293796 -0.05903912 0.08776209 -0.053731676 -0.03823269 0.024674715 0.002450941
0.08813558 -0.021905458 -0.11886315 -0.056043588 -0.058594026 -0.09601356 -0.046932243 0.10094946
-0.05033005 0.019924575 -0.008502322 0.106004655 0.074203 -0.1002365 0.11502787 -0.074740104
0.10046813 0.048409443 0.0178557 0.0623527 -0.0036849058 -0.019089669 0.121650465 0.0142148025
0.09648213 0.07916356 -0.08683749 -0.092770025 0.042070836 -0.13022928 -0.024940338 0.033503518
0.043268695 -0.10231463 0.038928185 0.12535928 -0.1252285 0.0060734265 -0.07062229 -0.033483867
0.0939429 0.049418233 0.04123096 -0.015374218 -0.04209216 -0.021343088 0.11203129 -0.009735457
0.05779559 -0.027492698 0.016616968 0.041760016 0.07496794 -0.09795882 -0.0709524 -0.0991673
0.11121796 0.088674724 0.057460483 -0.05267651 -0.0048578694 -0.08304563 0.0016293689 -0.0016087361
0.117592566 0.055762246 -0.02146158 0.0770009 -0.11314357 0.066389084 0.10434476 0.08932192
0.01647791 0.09603761 0.019285623 -0.060744714 -0.05484561 -0.053313088 0.037656598 0.032199237
0.041368697 0.022887869 0.09426116 0.023515033 -0.05722716 -0.010136714 -0.12196909 -0.014623117
0.10507256 0.035928566 0.054994527 0.06261343 -0.0155559955 0.09238264 -0.118144006 -0.066412404
-0.06458797 0.017344508 -0.09404676 -0.07086825 -0.028773779 -0.09575898 0.07541539 -0.0468777
0.031169605 0.0051099933 -0.05026978 0.012787692 -0.04741863 -0.12406383 -0.05548432 0.01427649
-0.066225596 0.01968463 -0.026377399 -0.02934395 -0.020967573 0.0014858615 0.02979521 -0.057642575
-0.03148962 0.052439123 0.082386695 0.0007049545 0.11240149 0.02842108 -0.05060557 0.11347951
0.0027572066 -0.07635289 0.098662175 -0.12361519 0.10341547 0.07153257 0.031444643 -0.056420866
-0.06498186 -0.06352449 5.3010393e-05 -0.008563058 0.03900588 0.13535553 0.055038366 -0.046590433
-0.02677563 0.050954975 0.013891561 -0.05290407 0.015157083 -0.06142447 -0.026219673 -0.045464654
-0.079157904 -0.038040992 0.12501548 0.081444785 -0.08405735 -0.08622413 -0.008214615 -0.06897415
0.055445917 0.05972932 -0.0786109 0.09579487 -0.041051313 0.02030499 -0.061830375 0.1018472
-0.06915726 0.14191055 0.081885636 0.021667201 -0.07672616 0.121080175 0.11025279 -0.048156913
-0.11338026 -0.08658733 0.052155655 -0.08392737 0.008516755 0.025220063 0.065352514 -0.09270437
0.106410526 -0.029411849 -0.06699532 0.051429976 -0.08547671 0.052482978 -0.009339696 -0.10230055
-0.011758787 0.09769047 -0.048853062 0.083224654 -0.040468298 0.13665514 0.14941119 -0.047594856
00000000: d195 a83d 011b cf3d 25e8 183e 4596 e33d
00000010: d597 ec3d 9978 213e ea1b 3bbd 8e6b dc3d
00000020: 89e4 b73d e18b df3d 1882 083e cea2 11be
00000030: 0850 9fbd 3d4a 283d 6803 863d 33f6 143e
00000040: 36bc a4bc 148a 45bd c700 a93d 7e01 9bbd
00000050: 3453 e73c ee4d 7d3d 1fd9 65bd 1148 db3c
00000060: 3f63 133d e4a9 9fbd e8c8 adbd 6016 19bd
00000070: da64 483c 2530 603d 6f8e 66bd c34e 85bd
00000080: eb28 cc3d 86db 233d a8ac 86bd e809 483c
00000090: 9b1e c43d 8360 a1bc f373 973d a0f3 89bc
000000a0: ed46 08be e4f4 e33d 9998 b8bd 8f34 803d
000000b0: eb6c 243e 699d 503c b16a 113e 8786 4b3d
000000c0: e2a4 9f3d 044c e73d 01d3 71bd 9cbc b33d
000000d0: bf15 5cbd e299 1cbd a122 ca3c f79f 203b
000000e0: 6d80 b43d 1373 b3bc 866e f3bd f68d 65bd
000000f0: 4a00 70bd c2a2 c4bd 063c 40bd 97be ce3d
00000100: e226 4ebd dd38 a33c 534d 0bbc f818 d93d
00000110: bef7 973d cb48 cdbd bb93 eb3d 5711 99bd
00000120: 3cc2 cd3d fb48 463d 1e46 923c 8b65 7f3d
00000130: 767e 71bb f061 9cbc e123 f93d 34e5 683c
00000140: 6c98 c53d 8120 a23d dbd7 b1bd 36fe bdbd
00000150: 7852 2c3d d35a 05be ae4f ccbc fc3a 093d
00000160: 843a 313d 558a d1bd 2973 1f3d 2f5e 003e
00000170: e63b 00be 9803 c73b 6ba2 90bd 6126 09bd
00000180: 2365 c03d c66a 4a3d cce1 283d 25e4 7bbc
00000190: d468 2cbd b3d7 aebc a970 e53d 7781 1fbc
000001a0: 12bb 6c3d 5e38 e1bc 4f20 883c 8d0c 2b3d
000001b0: cb88 993d a29e c8bd 7e4f 91bd 3a18 cbbd
000001c0: 3ec6 e33d 189b b53d af5b 6b3d 53c3 57bd
000001d0: c32e 9fbb d413 aabd 8c90 d53a 3adc d2ba
000001e0: 5fd4 f03d f466 643d 32d0 afbc a6b2 9d3d
000001f0: d1b7 e7bd 00f7 873d b5b2 d53d 69ee b63d
00000200: affc 863c 5eaf c43d e2fc 9d3c 73cf 78bd
00000210: caa5 60bd d35e 5abd ce3d 1a3d 59e3 033d
00000220: 3972 293d 577f bb3c ff0b c13d 99a2 c03c
00000230: 0767 6abd 7614 26bc eeca f9bd cc95 6fbc
00000240: 4830 d73d d529 133d f141 613d 783b 803d
00000250: 93de 7ebc 1c33 bd3d 7cf5 f1bd 3a03 88bd
00000260: b346 84bd 1216 8e3c 969b c0bd 6023 91bd
00000270: fdb6 ebbc 491d c4bd 6273 9a3d d502 40bd
00000280: 6657 ff3c bb71 a73b afe7 4dbd 7883 513c
00000290: 0a3a 42bd 2d15 febd 8743 63bd f0e7 693c
000002a0: 49a1 87bd a941 a13c 6a15 d8bc b962 f0bc
000002b0: 30c4 abbc 3dc1 c23a 1615 f43c 9f1a 6cbd
000002c0: 43fb 00bd 68ca 563d 5bba a83d b2cc 383a
000002d0: c132 e63d 53d3 e83c c947 4fbd f267 e83d
000002e0: 40b2 343b e75e 9cbd 650f ca3d f629 fdbd
000002f0: 7dcb d33d ab7f 923d 19cc 003d 9119 67bd
00000300: 3615 85bd 2119 82bd 7a57 5e38 124c 0cbc
00000310: a1c4 1f3d a49a 0a3e e96f 613d 9cd5 3ebd
00000320: 9158 dbbc 2ab6 503d 6e99 633c f0b1 58bd
00000330: 6a55 783c 3a98 7bbd a4ca d6bc 2539 3abd
00000340: 8a1d a2bd dfd0 1bbd 0f04 003e 86cc a63d
00000350: 4326 acbd 4796 b0bd 9896 06bc 5242 8dbd
00000360: 421b 633d bba6 743d c0fe a0bd 1a30 c43d
00000370: 6c25 28bd a656 a63c d941 7dbd 4495 d03d
00000380: 52a2 8dbd 0051 113e a8b3 a73d 6a7f b13c
00000390: 9b22 9dbd e2f8 f73d 37cc e13d 2f40 45bd
000003a0: e933 e8bd b354 b1bd 2ba1 553d 1de2 abbd
000003b0: dc89 0b3c 4e9a ce3c 8ad7 853d cadb bdbd
000003c0: c3ed d93d 1ef1 f0bc d834 89bd 3da8 523d
000003d0: 6a0e afbd 64f8 563d 8605 19bc f382 d1bd
000003e0: eda7 40bc f111 c83d 261a 48bd b071 aa3d
000003f0: 16c2 25bd 53ef 0b3e 3fff 183e d3f2 42bd

lstm.weight_ih_l1 f4 [256, 64]
0.08761907 0.03146198 0.12778269 -0.013000261 -0.06599327 0.11037554 0.03583625 -0.029239671
-0.09051694 -0.13439834 -0.018427296 0.11734174 -0.12967233 -0.10860918 0.057401948 -0.05954523
-0.044260476 0.049101736 0.021529233 -0.10761197 -0.0795938 0.030100856 -0.08445995 -0.24487802
0.052308083 -0.06173707 0.003088647 -0.020778773 -0.06164112 -0.19759223 0.02978366 -0.053902663
0.036781434 0.040465552 -0.001292182 -0.05731547 -0.19711517 -0.0057306704 0.07073053 -0.07648199
0.03778233 0.07382397 0.015576894 0.018884795 0.16514735 -0.094079494 0.22882968 -0.059440542
0.059768412 0.13030574 -0.077923656 0.054816715 0.121363826 0.028082885 -0.08296863 -0.13875201
-0.038698737 -0.148651 0.041418735 -0.19664253 -0.008680136 0.01096653 -0.09549642 -0.07272
0.073522635 -0.015635388 -0.14849049 0.003438347 0.032878812 -0.15874077 -0.12879431 -0.049887333
0.025536468 0.01712489 -0.047727875 -0.07965608 -0.1126677 -0.13953403 -0.076662675 0.15769473
-0.023359826 0.11095029 0.068953566 0.121178545 -0.039425712 -0.0967518 -0.052601144 -0.0048673553
-0.10426786 -7.249764e-07 -0.050955176 -0.03743117 0.040470485 -0.048509102 -0.16021506 0.032182172
-0.03253939 0.058943644 0.0014474434 -0.053853765 0.13088985 -0.12007338 -0.1471333 -0.13078697
-0.02380105 0.05676567 0.0052031814 -0.054276936 -0.019049155 -0.08879733 -0.10484446 -0.13404554
0.064502224 0.070541136 0.047485985 0.08751568 -0.046693195 -0.042786293 0.044298135 0.12556015
-0.11287996 -0.053054057 0.058819022 -0.014330648 0.047590625 0.12608539 0.1118216 -0.0047426815
-0.08304635 -0.07833086 -0.1560921 0.13567528 0.1952642 0.004005418 0.01587884 -0.055968646
-0.08720848 -0.021659704 0.10896735 0.0733497 0.07843246 -0.08972833 0.07104627 0.00027603234
0.1315152 0.06739466 0.098482214 -0.028774045 0.0833193 0.05968006 0.14944988 0.113610186
-0.051058557 -0.055442892 -0.12622893 -0.11715986 -0.010485767 -0.008054438 0.053665824 0.15889016
0.03948771 -0.13018079 -0.0987291 -0.07725509 0.085322574 -0.107355885 -0.117784455 0.055423643
-0.08427686 0.13190272 -0.13120596 -0.012641645 -0.027518135 0.041806143 -0.004301639 -0.020506024
0.093153015 0.025956279 -0.09842546 -0.13790733 -0.05546897 0.003007559 0.055943217 0.14229614
-0.0745917 -0.07777185 0.101673886 -0.028364766 -0.090030454 -0.092146 -0.07959528 0.006677813
-0.14187367 0.064465426 0.06669699 -0.058737557 0.111439675 0.099249735 0.014611416 0.07910608
-0.028472064 0.023994928 0.030568417 0.03605272 0.043251503 -0.10625134 0.044436906 -0.010206661
0.05224925 0.0888895 0.12273078 0.083721034 0.021391362 -0.09045359 0.08803075 0.12624578
-0.011744103 -0.051751237 -0.0068761003 0.13024458 -0.033014018 0.11220337 -0.039373368 -0.03408746
0.08923036 -0.023026066 0.09239356 0.07580094 -0.11029192 -0.09060993 0.019812135 -0.011694662
-0.04351538 -0.110668615 0.067033395 -0.058877207 0.04150951 -0.08549061 -0.047211062 0.07938541
-0.020484999 0.07438421 0.090083174 -0.0005992819 -0.07647149 -0.12197909 0.11197003 -0.08461132
0.090736724 -0.018925363 -0.037665762 0.086329065 -0.081752785 -0.115205005 -0.04070817 -0.06326484
00000000: a171 b33d 47de 003d 77d9 023e 0cff 54bc
00000010: 7b27 87bd 920c e23d 08c9 123d 0988 efbc
00000020: f260 b9bd b89f 09be d7f4 96bc de50 f03d
00000030: d3c8 04be 7d6e debd 4e1e 6b3d b3e5 73bd
00000040: 794a 35bd e71e 493d 135e b03c aa63 dcbd
00000050: 1302 a3bd 1296 f63c 57f9 acbd 4ec1 7abe
00000060: 0041 563d 03e0 7cbd e66a 4a3b 3f38 aabc
00000070: 667b 7cbd 9e55 4abe ddfc f33c 0ac9 5cbd
00000080: 21a8 163d 35bf 253d 6f5e a9ba a0c3 6abd
00000090: 8fd8 49be 59c8 bbbb 2bdb 903d 97a2 9cbd
000000a0: a5c1 1a3d 0631 973d 3b36 7f3c 49b4 9a3c
000000b0: 631c 293e c0ac c0bd 5452 6a3e ed77 73bd
000000c0: b9cf 743d de6e 053e 7096 9fbd 7e87 603d
000000d0: 998d f83d 140e e63c 75eb a9bd 0215 0ebe
000000e0: 9182 1ebd f837 18be b1a6 293d a95c 49be
000000f0: 2137 0ebc f6ac 333c a193 c3bd 39ee 94bd
00000100: 0993 963d c915 80bc e40d 18be e455 613b
00000110: efab 063d f18c 22be a8e2 03be a956 4cbd
00000120: db31 d13c 7f49 8c3c 4e7e 43bd ba22 a3bd
00000130: 53be e6bd 02e2 0ebe 5201 9dbd ba7a 213e
00000140: 1b5d bfbc e839 e33d 8737 8d3d 752c f83d
00000150: db7c 21bd cf25 c6bd 4c74 57bd 567e 9fbb
00000160: 638a d5bd 009c 42b5 60b6 50bd 6d51 19bd
00000170: 61c4 253d 7bb1 46bd 6b0f 24be 74d1 033d
00000180: 0648 05bd e46e 713d 24b8 bd3a c495 5cbd
00000190: fd07 063e 08e9 f5bd 1daa 16be 05ed 05be
000001a0: 6bfa c2bc 1f83 683d 737f aa3b 7e51 5ebd
000001b0: f90c 9cbc 60db b5bd b1b8 d6bd 3c43 09be
000001c0: be19 843d df77 903d aa80 423d 6c3b b33d
000001d0: 5d41 3fbd ae40 2fbd f671 353d d792 003e
000001e0: 9c2d e7bd 364f 59bd 37ec 703d 18cb 6abc
000001f0: 63ee 423d 871c 013e b902 e53d 7f68 9bbb
00000200: 3414 aabd ee6b a0bd 9cd6 1fbe 76ee 0a3e
00000210: 57f3 473e e23f 833b 5714 823c 613f 65bd
00000220: 5c9a b2bd b16f b1bc 462a df3d 5e38 963d
00000230: 33a1 a03d 7dc3 b7bd b580 913d 6fb8 9039
00000240: ecab 063e 3606 8a3d 0bb1 c93d 8cb7 ebbc
00000250: 4fa3 aa3d 1473 743d 6409 193e 75ac e83d
00000260: c722 51bd 1618 63bd 2842 01be 82f1 efbd
00000270: 7fcc 2bbc c3f6 03bc b2d0 5b3d 1ab4 223e
00000280: ddbd 213d 1d4e 05be 7b32 cabd eb37 9ebd
00000290: 9abd ae3d 67dd dbbd fa38 f1bd e703 633d
000002a0: 5999 acbd 8211 073e db5a 06be e71e 4fbc
000002b0: b66d e1bc eb3c 2b3d c3f4 8cbb 40fc a7bc
000002c0: 02c7 be3d 43a2 d43c 4a93 c9bd 9437 0dbe
000002d0: 6e33 63bd 781a 453b b724 653d 14b6 113e
000002e0: 89c3 98bd d946 9fbd 663a d03d 3a5d e8bc
000002f0: e361 b8bd 0bb7 bcbd da02 a3bd 8ed1 da3b
00000300: 5547 11be 7306 843d 6e98 883d cb96 70bd
00000310: 7c3a e43d 7243 cb3d b864 6f3c 5e02 a23d
00000320: 3f3e e9bc 0391 c43c 9e6a fa3c 04ac 133d
00000330: 7d28 313d 4d9a d9bd 7903 363d d739 27bc
00000340: 4f03 563d b30b b63d 465a fb3d ef75 ab3d
00000350: f03c af3c bb3f b9bd 7749 b43d 9346 013e
00000360: 576a 40bc 1bf9 53bd e950 e1bb d65e 053e
00000370: b539 07bd e1ca e53d f845 21bd 4b9f 0bbd
00000380: 68be b63d 29a1 bcbc d638 bd3d 863d 9b3d
00000390: bbe0 e1bd b391 b9bd 0f4d a23c f89a 3fbc
000003a0: 2f3d 32bd 3aa6 e2bd ce48 893d 3a29 71bd
000003b0: e005 2a3d b315 afbd 6360 41bd d194 a23d
000003c0: 28d0 a7bc c056 983d 877d b83d 2119 1dba
000003d0: 169d 9cbd 2cd0 f9bd 8b50 e53d b348 adbd
000003e0: 2dd4 b93d 5d09 9bbc 6a47 1abd 4bcd b03d
000003f0: 016e a7bd 9af0 ebbd 9cbd 26bd ff90 81bd

lstm.weight_hh_l1 f4 [256, 64]
0.18882902 0.15616398 0.15583481 0.0009343377 0.14175156 -0.082439356 0.0025763884 -0.04524837
-0.0374359 0.07195456 0.10244147 0.051534217 -0.013021792 0.0023565595 0.16565774 -0.05291728
0.12130876 -0.038615584 -0.010104266 -0.0713742 0.0747605 -0.047877416 0.0031980586 -0.15603425
0.0040931385 -0.1639691 -0.08819716 -0.115963444 -0.041649695 0.08687979 -0.10786066 0.0069050603
-0.12353383 0.021721337 0.020689659 -0.09551259 0.08724982 0.017022854 0.08195007 0.06628417
0.06271991 0.009270428 -0.065415174 0.08909102 0.0010820088 -0.002186573 -0.13056663 -0.0034774458
0.17328462 -0.076657906 0.10602586 0.07739368 0.012299343 -0.124146044 0.0052372753 0.00534767
-0.046505295 -0.029078301 0.062452972 -0.0640645 -0.04955658 -0.015353269 -0.03662047 0.061744887
0.055466212 0.025789782 -0.09462028 0.1325074 0.114845246 -0.074185535 0.057724796 -0.0042459765
-0.013282857 -0.040946417 0.10282693 -0.016607169 -0.018150276 0.06222117 0.059959576 -0.026519015
0.029908018 0.050838385 -0.013370795 0.068832375 0.08401334 -0.021094503 -0.004922268 0.03587796
-0.016191466 -0.12260493 0.08979182 -0.07385359 0.020742314 0.1326942 0.013521489 -0.019831922
-0.027542673 0.07563636 -0.024302008 0.017639687 -0.117913574 -0.08063878 0.1408905 0.042752195
-0.060518548 -0.077531405 -0.029511765 0.060283937 -0.047139738 0.051744 -0.06729848 -0.09073165
-0.11502383 0.012302051 -0.074139215 -0.0649438 0.11583764 0.082700275 0.13437158 -0.040337253
-0.05594441 0.09229707 -0.098573044 0.0064942623 0.10197687 0.044726096 0.09467459 -0.050105523
-0.14886042 0.01069939 -0.039900556 0.10845941 -0.11939784 -0.04295937 -0.0074845506 0.020091347
-0.10596396 -0.05673663 -0.045584526 -0.060670614 0.06402487 -0.119083814 0.07830103 -0.08498138
0.036915045 0.051387265 0.0030315188 0.10937674 -0.018120874 -0.0048685065 -0.037174206 0.12781794
0.06729164 -0.042113956 -0.08596946 0.014740605 0.09194372 0.09017875 -0.05447944 0.015884532
0.096499406 0.083988264 -0.060338497 -0.01745055 -0.024453424 -0.026068104 -0.107832335 0.09837068
0.028731257 0.065304406 -0.01809662 0.046900786 0.05205506 0.05720443 -0.035933223 0.05103654
0.033286247 -0.11995408 -0.09365609 -0.083790794 0.08373006 -0.101766214 0.12778258 -0.096592255
0.016774682 0.10442033 -0.09322605 -0.04543022 -0.10936417 -0.0006861703 -0.06633272 0.06579636
-0.13156937 0.0686141 0.044444807 -0.087713316 -0.051874086 -0.00093488116 0.027309243 0.0071408283
0.0012861337 0.12739192 0.083223745 -0.049053565 -0.1219635 0.1054621 -0.0200554 -0.090643615
0.038721103 -0.0018486185 0.028065806 0.12225877 0.045760654 0.022899587 0.011476171 0.025877116
0.07919489 -0.051892605 -0.097063854 -0.08146231 -0.059404027 0.06716262 -0.053784966 -0.03287675
0.07611682 -0.05370387 0.036221404 0.01717676 0.041268706 0.0835165 -0.10458449 0.01794973
0.09493057 0.049166817 0.11106148 0.058570936 0.07265493 -0.008560424 0.08420786 0.07129212
-0.06625725 0.07705699 -0.03834034 -0.0121094575 0.049669057 0.0894768 -0.08385496 0.002966327
0.1164493 0.090275936 -0.022271808 0.057729736 -0.050646834 0.11142794 -0.00050750724 -0.092136726
00000000: 655c 413e 73e9 1f3e 2993 1f3e 57ee 743a
00000010: 5227 113e f7d5 a8bd a0d8 283b 5b56 39bd
00000020: 6356 19bd ea5c 933d d5cc d13d 8b15 533d
00000030: 5b59 55bc 8270 1a3b 2fa2 293e cabf 58bd
00000040: ba70 f83d 602b 1ebd 5d8c 25bc a32c 92bd
00000050: 081c 993d 1c1b 44bd 8596 513b 71c7 1fbe
00000060: bc1f 863b 84e7 27be b6a0 b4bd 3e7e edbd
00000070: df98 2abd 08ee b13d 0de6 dcbd d843 e23b
00000080: 4eff fcbd f2f0 b13c 5c7d a93c 1b9c c3bd
00000090: 09b0 b23d 8373 8b3c 70d5 a73d ffbf 873d
000000a0: 4c73 803d fee2 173c 64f8 85bd 5a75 b63d
000000b0: 31d2 8d3a 9c4c 0fbb 42b3 05be dce5 63bb
000000c0: 8671 313e d2fe 9cbd 1624 d93d 9480 9e3d
000000d0: 2f83 493c 4840 febd 739d ab3b 823b af3b
000000e0: 567c 3ebd 9e35 eebc b0ce 7f3d 4034 83bd
000000f0: d7fb 4abd 478c 7bbc 59ff 15bd 35e8 7c3d
00000100: 8a30 633d 1845 d33c 47c8 c1bd 05b0 073e
00000110: fc33 eb3d 96ee 97bd d670 6c3d d521 8bbb
00000120: 57a0 59bc 6eb7 27bd ed96 d23d c20b 88bc
00000130: e3af 94bc a0db 7e3d 2c98 753d 683e d9bc
00000140: a901 f53c e93b 503d 2e11 5bbc fdf7 8c3d
00000150: 300f ac3d 61ce acbc fa4a a1bb c5f4 123d
00000160: f7a3 84bc 4b18 fbbd c6e4 b73d 8d40 97bd
00000170: c9eb a93c fde0 073e 3c89 5d3c 8e76 a2bc
00000180: 2ca1 e1bc 3ce7 9a3d 0115 c7bc 1b81 903c
00000190: ac7c f1bd f225 a5bd 9945 103e ed1c 2f3d
000001a0: 4ce2 77bd c9c8 9ebd a8c2 f1bc 4aec 763d
000001b0: 9915 41bd 84f1 533d c9d3 89bd 84d1 b9bd
000001c0: 9d91 ebbd 8b8e 493c 4dd6 97bd 4101 85bd
000001d0: 493c ed3d c35e a93d b498 093e ad38 25bd
000001e0: f725 65bd 3f06 bd3d aae0 c9bd d2cd d43b
000001f0: 40d9 d03d b632 373d c0e4 c13d 733b 4dbd
00000200: de6e 18be 7f4c 2f3c c46e 23bd f81f de3d
00000210: db86 f4bd 2af6 2fbd f640 f5bb 9c96 a43c
00000220: a203 d9bd ab64 68bd d7b6 3abd c081 78bd
00000230: 791f 833d 37e2 f3bd 4a5c a03d b80a aebd
00000240: 3b34 173d 747b 523d 72ac 463b ea00 e03d
00000250: 3a72 94bc fe87 9fbb fb43 18bd b5e2 023e
00000260: 33d0 893d af7f 2cbd c210 b0bd 9482 713c
00000270: fd4c bc3d a3af b83d d525 5fbd 4720 823c
00000280: 7ba1 c53d 0a02 ac3d 8025 77bd 75f4 8ebc
00000290: 8c52 c8bc c78c d5bc 33d7 dcbd 9176 c93d
000002a0: d05d eb3c 51be 853d 5d3f 94bc 0a1b 403d
000002b0: b037 553d 314f 6a3d b72e 13bd b10b 513d
000002c0: 2957 083d 7caa f5bd c4ce bfbd 829a abbd
000002d0: aa7a ab3d ce6a d0bd 70d9 023e 29d2 c5bd
000002e0: 0f6b 893c 53da d53d 4ded bebd 0a15 3abd
000002f0: 52fa dfbd 1ce0 33ba 73d9 87bd 3ec0 863d
00000300: 1fba 06be 8d85 8c3d c20b 363d 0aa3 b3bd
00000310: ec79 54bd d012 75ba a2b7 df3c 9cfd e93b
00000320: 7c93 a83a 0773 023e 3671 aa3d 64ec 48bd
00000330: 00c8 f9bd 83fc d73d 394b a4bc 5ca3 b9bd
00000340: 059a 1e3d 584d f2ba 43ea e53c ce62 fa3d
00000350: 866f 3b3d ea97 bb3c 8d06 3c3c 3ffc d33c
00000360: ee30 a23d 578d 54bd 6ac9 c6bd b6d5 a6bd
00000370: a351 73bd 8e8c 893d a04d 5cbd c5a9 06bd
00000380: 23e3 9b3d 97f8 5bbd e55c 143d 47b6 8c3c
00000390: 6009 293d b30a ab3d 6530 d6bd 500b 933c
000003a0: f56a c23d 2563 493d 3474 e33d 14e8 6f3d
000003b0: 1ccc 943d 0541 0cbc 2c75 ac3d 9a01 923d
000003c0: e2b1 87bd 0ed0 9d3d c30a 1dbd bf66 46bc
000003d0: c871 4b3d 9d3f b73d 26bc abbd b566 423b
000003e0: f87c ee3d 97e2 b83d 5e73 b6bc 0476 6c3d
000003f0: 0e73 4fbd 5534 e43d 3c0a 05ba 2eb2 bcbd

lstm.bias_ih_l1 f4 [256]
0.07839827 0.10553708 0.06540157 -0.0730149 0.02887862 -0.083440244 0.003670613 0.029276386
0.055242453 0.10614626 -0.03430005 -0.074096285 -0.08688568 0.064920545 -0.083922535 0.13256209
-0.06942987 0.097899325 -0.07399591 -0.08452694 0.039009515 0.009486521 0.044999648 0.0007252958
-0.020705357 0.079884514 0.03506186 -0.07471785 -0.09993122 0.056688543 -0.033992533 -0.11867471
0.024707297 0.0884311 -0.030835021 -0.12484918 -0.074547835 -0.13295232 0.15696895 0.05857592
-0.016448803 0.015068504 -0.0873098 -0.092749536 0.035575114 0.10812974 -0.08487857 0.118365765
0.034590766 0.053577993 0.101243995 0.08913476 -0.03297956 -0.06560344 0.058058165 0.07438172
-0.11938519 -0.028866021 0.054160222 -0.034681916 -0.03345125 0.08576679 0.061210737 0.116578564
0.11197856 -0.07648898 0.061433066 -0.017027391 0.09994535 0.1130387 -0.011235042 -0.060548224
0.010139992 -0.08440702 -0.07549617 -0.13368517 -0.01036473 -0.08133393 -0.065528855 0.027410422
-0.0048180493 -0.08488532 0.08638355 -0.0063518295 -0.027472574 -0.027794132 -0.012640856 0.02523705
0.0103088 0.016698703 0.08479568 0.0303769 0.08325116 -0.05467495 -0.10237142 0.0914182
0.055853795 0.008222759 -0.09898096 0.060089897 -0.027200319 0.05105839 -0.09486334 -0.047387738
0.11382129 -0.06405815 0.1297086 0.093259126 0.038532265 -0.00021150059 -0.035774898 0.08089387
0.056619965 0.043945193 -0.009943612 0.062495664 0.09010584 -0.06899068 -0.046226285 -0.11297324
0.010270779 -0.10328113 -0.07210457 -0.010520364 0.10105339 0.12901746 0.072285965 -0.025041241
0.036522795 -0.009033052 0.0615946 0.100939184 0.012637368 -0.006230263 0.094274804 -0.051583212
0.013143779 -0.11810084 -0.00089672505 -0.056629974 0.07103117 0.123621285 -0.003247981 -0.022904016
0.07729046 0.09216979 0.057396967 -0.097685434 -0.05986924 0.0204833 -0.068376295 0.08668797
0.04801177 -0.051550154 -0.1015329 0.009423898 -0.090532064 0.059590705 0.0286779 -0.05170925
-0.0855817 -0.019102624 -0.025525903 -0.015957883 0.06552885 0.0965393 0.052353337 0.071583524
0.051651575 -0.09475245 0.077288315 -0.03811369 -0.08725169 0.0038942983 -0.10241747 -0.118893094
0.02199412 0.01807537 -0.0860415 0.029373802 -0.08990298 -0.0030534207 0.03879162 -0.051505458
-0.050033577 -0.09766632 0.1082034 -0.010151568 0.065813474 -0.107403606 0.06475994 0.030273858
-0.040756837 0.11216803 0.09986269 0.09814371 0.070441484 0.07010266 -0.07545581 0.12817813
-0.07153697 -0.06046015 0.07074997 0.06535068 -0.0812622 0.08061017 0.032443006 0.04995707
0.05282024 -0.09823272 0.035766825 -0.062229622 -0.06851407 0.06959141 0.04347463 0.013908875
0.076618165 0.014634233 -0.08059253 0.12586859 -0.033125326 0.09318868 0.079481326 -0.059035085
0.09308664 0.04337453 0.06706 0.0064002383 0.082683496 0.07221026 0.045875136 0.058108345
-0.062479574 0.0065522674 -0.0401989 -0.059497043 0.13620856 0.08804502 0.03617666 -0.04194705
-0.013843676 0.009885988 0.039261904 -0.07497786 0.08124094 0.12921701 0.03713979 0.02952714
0.056774646 0.07450843 -0.1182254 -0.055547547 0.021813877 -0.08672477 0.05812074 0.025806373
00000000: 468f a03d d323 d83d 42f1 853d d688 95bd
00000010: db92 ec3c b8e2 aabd ab8e 703b 08d5 ef3c
00000020: e945 623d 3663 d93d 367e 0cbd cbbf 97bd
00000030: 1ff1 b1bd 10f5 843d 94df abbd 5bbe 073e
00000040: 3f31 8ebd 717f c83d 2b8b 97bd 761c adbd
00000050: 71c8 1f3d 5a6d 1b3c 8d51 383d c721 3e3a
00000060: 489e a9bc 7e9a a33d 069d 0f3d ac05 99bd
00000070: bda8 ccbd 3f32 683d c13b 0bbd ba0b f3bd
00000080: f566 ca3c 5d1b b53d ba99 fcbc edb0 ffbd
00000090: 89ac 98bd a724 08be 78bc 203e 4eed 6f3d
000000a0: a4bf 86bc e3e1 763c 7bcf b2bd 78f3 bdbd
000000b0: 36b7 113d 2073 dd3d d1d4 adbd c069 f23d
000000c0: 0caf 0d3d 9974 5b3d 0359 cf3d 498c b63d
000000d0: 9315 07bd 195b 86bd 66ce 6d3d 7155 983d
000000e0: 3980 f4bd 6f78 ecbc 1cd7 5d3d a00e 0ebd
000000f0: 2e04 09bd 80a6 af3d 1cb8 7a3d bec0 ee3d
00000100: 0455 e53d 41a6 9cbd 3da1 7b3d 077d 8bbc
00000110: 26b0 cc3d d580 e73d 2e13 38bc 6a01 78bd
00000120: 3622 263c 96dd acbd bc9d 9abd c4e4 08be
00000130: d4d0 29bc 6792 a6bd fe33 86bd d28b e03c
00000140: bae0 9dbb 5bd8 adbd dce9 b03d 0223 d0bb
00000150: 2a0e e1bc 85b0 e3bc 981b 4fbc eebd ce3c
00000160: 3ee6 283c b8cb 883c 5ca9 ad3d fad8 f83c
00000170: 967f aa3d d7f2 5fbd 1ba8 d1bd 7739 bb3d
00000180: f3c6 643d c0b8 063c 88b6 cabd d320 763d
00000190: 34d3 debc 9a22 513d b647 c2bd a519 42bd
000001a0: 231b e93d eb30 83bd 55d2 043e a4fe be3d
000001b0: 02d4 1d3d 42c6 5db9 b388 12bd afab a53d
000001c0: 56ea 673d e0ff 333d 88ea 22bc 74fb 7f3d
000001d0: 6989 b83d fc4a 8dbd c657 3dbd 845e e7bd
000001e0: c546 283c 0f85 d3bd 90ab 93bd 9b5d 2cbc
000001f0: 14f5 ce3d 271d 043e aa0a 943d 4a23 cdbc
00000200: ed98 153d 5eff 13bc 9f4a 7c3d 34b9 ce3d
00000210: f70c 4f3c 3c27 ccbb 2613 c13d eb48 53bd
00000220: 0159 573c dade f1bd 3312 6bba d5f4 67bd
00000230: ca78 913d 282d fd3d 14dc 54bb 34a1 bbbc
00000240: 764a 9e3d 84c3 bc3d 1519 6b3d 4d0f c8bd
00000250: 7339 75bd 98cc a73c df08 8cbd 7689 b13d
00000260: fda7 443d 4126 53bd 7bf0 cfbd b166 1a3c
00000270: e068 b9bd 6215 743d eaed ea3c 14cd 53bd
00000280: 7545 afbd 1b7d 9cbc b31b d1bc 1bba 82bc
00000290: fd33 863d 66b6 c53d 7470 563d 629a 923d
000002a0: 9a90 533d 930d c2bd 5649 9e3d 1a1d 1cbd
000002b0: 04b1 b2bd 7c37 7f3b 40c0 d1bd 397e f3bd
000002c0: 032d b43c cc12 943c 8736 b0bd 54a1 f03c
000002d0: 0e1f b8bd e61b 48bb f6e3 1e3d 63f7 52bd
000002e0: 02f0 4cbd 4805 c8bd bf99 dd3d c352 26bc
000002f0: 37c9 863d 6cf6 dbbd dca0 843d e200 f83c
00000300: a4f0 26bd 5ab8 e53d cf84 cc3d 92ff c83d
00000310: a043 903d fc91 8f3d 9388 9abd 2141 033e
00000320: fa81 92bd 10a5 77bd 5ce5 903d 94d6 853d
00000330: cc6c a6bd f216 a53d f5e2 043d c99f 4c3d
00000340: 095a 583d 3c2e c9bd 3c80 123d 7de4 7ebd
00000350: 1b51 8cbd f185 8e3d 7412 323d 0de2 633c
00000360: fce9 9c3d 6cc4 6f3c b20d a5bd b2e3 003e
00000370: 6cae 07bd b5d9 be3d 1bc7 a23d c6ce 71bd
00000380: 35a4 be3d 7ea9 313d c156 893d 17b9 d13b
00000390: f755 a93d f9e2 933d 91e7 3b3d 0403 6e3d
000003a0: 95ea 7fbd 67b4 d63b 9aa7 24bd 2cb3 73bd
000003b0: 427a 0b3e f350 b43d fa2d 143d abd0 2bbd
000003c0: 96d0 62bc d7f8 213c 17d1 203d fe8d 99bd
000003d0: a661 a63d 7751 043e e41f 183d e7e2 f13c
000003e0: 888c 683d e097 983d 2920 f2bd d385 63bd
000003f0: 04b3 b23c c29c b1bd 0310 6e3d e367 d33c
