samsung_lstm_1step.pt (torch, 206261 bytes, 9 tensors)

lstm.weight_ih_l0 f4 [256, 1]
000000 33 aa 1f bc 9b ad 2f 3e e1 a1 cf bd 17 c0 8b 3d
       -0.0097451685 0.17156069 -0.10138298 0.068237476
000010 01 ea c9 bd ca 14 68 bd 02 07 4f 3e 5a af 10 3e
       -0.09859086 -0.05666045 0.20217517 0.14129391
000020 b4 7e 5c 3e 4e 67 a6 3d 59 cd 12 3d 35 63 42 bd
       0.21532708 0.081251726 0.035840366 -0.047457892
000030 a8 c5 15 3e 57 10 96 3c ba 44 23 3e af 35 3b bc
       0.14626181 0.018318338 0.15944186 -0.011426373
000040 b0 55 58 3e a5 6a d5 bd 23 ab 91 bd d3 e5 92 3d
       0.21126437 -0.104207315 -0.0711272 0.07172742
000050 b0 d6 10 bc f8 8b 29 3d 6d 2f 2f 3e ef a4 0b bd
       -0.008840248 0.04139325 0.17107935 -0.03409284
000060 26 44 e3 3d 3f 32 17 3e 2d a4 b5 bc d9 94 2a bd
       0.11096983 0.14765261 -0.022173012 -0.04164586
000070 e3 29 57 3d 20 3d 08 bd 85 02 e7 3d be ba 1f 3e
       0.05253018 -0.03326142 0.112797774 0.1559858
000080 32 9e 20 3c b7 79 ca 3d 96 51 1d be 4c 00 24 3e
       0.009803342 0.098864965 -0.15363154 0.16015738
000090 4e c1 4e 3e 88 ab 01 bd 1f cd 2e 3e a4 99 14 3e
       0.20190927 -0.031657726 0.17070435 0.14511734
0000a0 d8 31 88 bc 5a 3e c2 3d 7c a1 2d bd 5b b7 87 bd
       -0.01662533 0.09484549 -0.04239033 -0.06626769
0000b0 f9 98 84 3d 1c a8 e5 3d 7f fd 47 3e 08 57 d4 bc
       0.0647449 0.11213705 0.19530295 -0.025920406
0000c0 bd 63 24 3e 1a 71 41 3c 38 fd ba bc f3 87 a7 3d
       0.16053672 0.011806751 -0.022825822 0.08180227
0000d0 d9 29 37 3e 44 74 ff 3d e7 32 e8 3d 0f 47 55 bc
       0.17887057 0.12473348 0.11337834 -0.01301743
0000e0 1c ac 5e bd b4 06 2f 3e 6b 02 3c 3e 8c 0f 3a 3e
       -0.054363355 0.17092401 0.18360297 0.18169993
0000f0 fb 10 28 3e e9 19 f5 3c 92 be a4 3d c0 e3 fd bd
       0.16412728 0.029919581 0.08044161 -0.123969555
000100 03 44 08 3e e8 71 3e 3e 19 36 16 3c 52 92 a0 3c
       0.13307194 0.1859814 0.009168171 0.019601021
000110 17 44 58 3b c5 28 9b 3b 48 33 b6 3d f8 f8 0e 3c
       0.003299957 0.0047350847 0.088965 0.008726351
000120 9d d4 96 bb 02 27 3c 3d 70 c5 d7 3d 5a 2e fc 3d
       -0.004602982 0.04593564 0.10535705 0.12313528
000130 3c 8d 44 bd 75 e0 ea 3d d6 12 63 bd 29 eb 82 3d
       -0.047986254 0.11468593 -0.055437885 0.063925095
000140 97 0f 4e 3e 22 6a b7 3d d7 d4 80 3d 35 40 df 3d
       0.20123135 0.0895579 0.06290596 0.109009184
000150 8a a0 fb 3d 08 13 6c 3b 01 d5 3d 3a 6f d6 ba 3c
       0.1228648 0.0036022086 0.0007241518 0.022807328
000160 a3 98 22 bb 59 78 05 3e f3 d3 5d bd 3c 0e d7 3d
       -0.0024810217 0.1303419 -0.05415721 0.10500762
000170 61 12 bb 3d 7d 4e a6 bc 78 47 c0 bd 46 b2 48 3e
       0.09134365 -0.020301098 -0.093886316 0.19599256
000180 43 b2 35 bd 5a af 11 3e b3 c5 2c be 47 39 96 3d
       -0.044359457 0.14227048 -0.16872291 0.073351435
000190 49 89 bb bc 0a af 87 bd bd f2 38 3d ea 1e 10 3e
       -0.022892611 -0.06625183 0.04515337 0.14074293
0001a0 b3 1b 0c bd 67 1b 8c 3d 48 d8 fe bd c8 9c 5d 3d
       -0.034206104 0.06841164 -0.12443596 0.054104596
0001b0 d7 44 f7 3c ec de de 3d 9d 16 fb 3d 7c cd 61 bd
       0.030184193 0.10882363 0.122601725 -0.055127606
0001c0 06 ee e0 3d 20 95 cf bd 5a 45 01 3c cc 84 04 3e
       0.10982899 -0.10135865 0.00789007 0.12941283
0001d0 1d f3 ad 3d 8d 72 83 bc 09 7d 3a bd b8 29 8c 3d
       0.08493636 -0.016045833 -0.0455294 0.06843895
0001e0 4b 6f 00 3c 31 34 88 3d dc 02 eb 3d d1 c0 35 3e
       0.007839034 0.0665058 0.11475155 0.17749335
0001f0 ec 4f 15 3e 56 24 23 be 9b 6c 15 3e 5f 5a 65 be
       0.14581269 -0.1593183 0.14592211 -0.22397755
000200 f3 c0 29 be 0c d6 2d bd a5 f1 a3 bd 29 12 10 be
       -0.1657751 -0.04244046 -0.080050744 -0.14069428
000210 38 0d 9e bc 45 87 05 3e 35 07 6e be 32 3a ce 3d
       -0.019293413 0.13039882 -0.23244937 0.100696936
000220 cb 8d 45 be 63 55 1a bd 3f 1b 45 3e 39 c3 ff 3d
       -0.19292371 -0.037679087 0.19248675 0.12488408
000230 86 e8 bf 3c 64 f1 fc 3d 42 88 6d 3e 42 82 fa 3d
       0.023426306 0.12350729 0.2319651 0.12231876
000240 48 9d 1f 3e 9f ff 9e bd 9e a2 9b bd bf 0e 1c be
       0.15587342 -0.077635996 -0.07599376 -0.1524
000250 ae 62 3f bb 4f 0c d4 3d 5d 93 1e be e4 b8 fb 3c
       -0.0029203105 0.1035391 -0.15485902 0.030727811
000260 5b 02 25 3d 32 04 25 3e 58 9b b4 3d f1 3e c1 bb
       0.04028545 0.16114882 0.08818692 -0.005897396
000270 5c 30 2d 3e e3 dd 62 3d c5 cb c9 bc 51 0e 4b be
       0.16912979 0.05538739 -0.024633298 -0.1982968
000280 c4 5b ee bd 76 88 f1 bc 70 75 1b 3e 7e ad 2b 3e
       -0.11638597 -0.029484015 0.15181518 0.16765401
000290 dd 30 3b 3d 8a 68 ea 3d e9 e6 2d be c4 25 60 be
       0.045700897 0.114457205 -0.16982616 -0.21889406
0002a0 62 98 37 be 49 1d 2d be 3c 63 db bb 31 9e f0 bd
       -0.17929223 -0.16905703 -0.0066951793 -0.117489226
0002b0 9b a7 ec bc 6e 80 9e 3d d6 90 51 bc 57 38 00 3e
       -0.028888514 0.0773934 -0.012790879 0.12521492
0002c0 8f be 84 bd 20 13 b5 bd 6b 3b 47 be e6 ac 39 3d
       -0.06481659 -0.088415384 -0.1945626 0.045330904
0002d0 ac c0 12 be c4 a2 1e be 29 b3 59 3d 61 9b 66 3b
       -0.14331311 -0.15491778 0.053149376 0.0035187828
0002e0 cf c3 e3 3d 24 9b 53 3e c0 88 22 3e 9e f2 26 3e
       0.11121332 0.2066465 0.15872478 0.16303489
0002f0 3a bb 58 be 91 d1 d0 bd 0d bf 44 be 33 bb 2f 3e
       -0.21165171 -0.101962216 -0.19213505 0.17161255
000300 71 ab a5 3c 4d 1c c8 3c eb db b9 bd 63 6b 5d 3e
       0.020223351 0.024427557 -0.09075149 0.21622996
000310 38 90 80 bd ba 61 6a bb f8 f8 62 3e ba b6 3a 3e
       -0.062775075 -0.0035763816 0.22165287 0.18233767
000320 01 ee 62 3e bd ab b2 3d 24 6f 52 3d 08 6b 3e 3d
       0.22161104 0.08724163 0.051375523 0.04648879
000330 48 3e 18 3e b3 52 28 3e b9 d2 03 3e b9 db 4a bd
       0.14867508 0.16437797 0.12873353 -0.04952595
000340 87 28 24 3e 90 59 02 be f9 40 dd bb 59 6c b1 bc
       0.16031085 -0.12729478 -0.00675213 -0.02165811
000350 bc f8 de 3d a6 d3 f2 3c 5f b9 05 3e ee d7 6a bb
       0.10887286 0.029641937 0.13058995 -0.003583427
000360 d0 6f ba 3d 32 d1 16 3e ab d7 ff 3d d5 69 a6 bc
       0.09103358 0.14728239 0.12492307 -0.020314137
000370 a0 50 a7 3c 1f 7e 6a bc 2a 60 96 bc f2 22 f5 ba
       0.020424187 -0.014312296 -0.018356401 -0.0018702431
000380 e4 63 2f 3e dc 33 a7 3c 01 47 ed bd 9f ef 5e 3e
       0.17127949 0.02041047 -0.115858085 0.21771096
000390 4a 51 b6 bc 15 5f 8c bd bc 8a eb 3d 2d f9 08 3e
       -0.022255559 -0.06854073 0.11501071 0.13376303
0003a0 8d 9e f2 3d 8b c7 76 bd 57 ba c2 39 a8 95 27 3d
       0.118466474 -0.060248893 0.00037141397 0.040914208
0003b0 6c da 4d 3d 72 42 06 3e 5a f2 5a 3e f6 40 12 3d
       0.05025713 0.13111284 0.21381512 0.035706483
0003c0 15 aa 2e 3c 2b 6a 51 bd b6 60 58 bc 95 f9 ec bc
       0.010660668 -0.05112664 -0.013206651 -0.028927604
0003d0 52 78 a3 3c f6 b4 ab bb eb e7 17 bc 40 15 24 3e
       0.019954834 -0.005240078 -0.009271602 0.16023731
0003e0 83 02 04 be 81 72 84 3e 42 cf 89 3c f6 c2 15 3e
       -0.12891583 0.2586861 0.016822461 0.14625153
0003f0 7f 13 c0 3c ed 93 8f bd 73 72 80 3c c2 1d 70 be
       0.023446796 -0.070106365 0.015679574 -0.23448852

lstm.weight_hh_l0 f4 [256, 64]
000000 a8 d1 e7 3d 16 a3 dd bd 4c 8d 02 3d 20 61 cf 3d
       0.11319286 -0.10822122 0.031873032 0.10125947
000010 65 05 9a bc 29 9d 0b 3e 8f 47 07 3d 72 67 9b 3d
       -0.0188014 0.1363417 0.033027228 0.0758809
000020 da 60 cb 3c 76 92 f9 bd db 41 38 bd 6d b2 64 3c
       0.024826456 -0.12186138 -0.04498468 0.013958556
000030 e9 60 cc bd 13 20 a9 3d 31 62 90 bd 73 5f 0b 3e
       -0.09979422 0.08258071 -0.070499785 0.1361063
000040 98 95 e4 bc 28 ee c8 3d 10 d0 8c bd 8d 52 c4 bd
       -0.027903363 0.0981105 -0.06875622 -0.09586058
000050 56 b7 ba bd 97 2b e4 3c 95 00 93 bd 23 f0 09 3d
       -0.09117 0.027852817 -0.071778454 0.033676278
000060 cd da cc bd 93 b6 d8 bc 12 a1 59 bb 1a 95 12 bc
       -0.100026704 -0.026454246 -0.0033207578 -0.008946681
000070 83 0e e1 3c b9 78 de bd aa 7d a9 3d 6b 73 8d 3c
       0.02747274 -0.1086287 0.08275922 0.01726695
000080 90 88 13 3c f4 18 2a bc 47 db 6d bc e5 e9 01 3c
       0.009004727 -0.010381926 -0.014517612 0.0079293
000090 ec fc e1 3d ff 23 9c 3c e2 09 38 3d 73 fb 98 3a
       0.11034569 0.019060133 0.0449313 0.0011671617
0000a0 7a 9d ae bc cf 80 cf 3d f9 7b 97 bd 11 f5 90 3d
       -0.021315325 0.1013199 -0.07396693 0.07077993
0000b0 0e 68 a5 3c d9 8b bb 3d 3c dc a3 bd db 40 2a 3c
       0.020191219 0.09157533 -0.08000991 0.010391439
0000c0 85 9e 08 bd b9 60 26 3d 2c 24 2b 3d 7d 50 9f bd
       -0.0333543 0.040619586 0.041782543 -0.07779024
0000d0 86 21 a7 bc 73 fe 96 3c df f4 dc bb 36 4a e9 3d
       -0.020401727 0.018431878 -0.006743058 0.11391108
0000e0 d5 01 8f 3c 28 e2 a7 3d ac a5 24 bd 3f 6d 70 3d
       0.017456928 0.08197433 -0.04019706 0.058697935
0000f0 76 57 8f bb 0d 3b 48 bd a0 42 e1 bc 89 cc 92 3d
       -0.00437444 -0.04888444 -0.02749759 0.07167918
000100 20 56 12 bd 4d 5c 29 bd 9e 22 29 bd 69 74 d4 bd
       -0.035726666 -0.04134779 -0.04129278 -0.10373766
000110 03 7d 06 bd 23 5a bc 3d 50 1e a4 3b f2 54 e9 bd
       -0.032834064 0.0919688 0.0050084963 -0.11393155
000120 e7 d9 ff bd 73 22 54 3d a5 37 02 3e a2 18 fa 3d
       -0.124927334 0.051790666 0.12716539 0.122117296
000130 8b 89 c6 3d c5 56 7a bc 80 2a 08 3e 11 62 10 bd
       0.09694203 -0.0152794765 0.13297462 -0.035249773
000140 1f 7f 84 bd 6d 57 bb 3d 74 a4 21 3d c8 e4 da bd
       -0.06469559 0.091475345 0.039463475 -0.10688168
000150 00 33 60 3b 97 88 16 3d 30 f5 a0 bd a5 19 13 3d
       0.0034210086 0.036751356 -0.07859266 0.03591313
000160 04 4b ac 3d 4c dc 0e 3e 5d 9e 33 bd d3 6e 83 bc
       0.084127456 0.13951224 -0.0438522 -0.016044056
000170 10 33 fa bc 6b 62 3c bd 0c a5 93 bd ce d6 0c be
       -0.030541927 -0.045992296 -0.072092146 -0.13753816
000180 b2 a5 09 be fc 2a dd 3d c0 1d da 3d 16 22 b5 bc
       -0.13442114 0.10799214 0.106502056 -0.02211098
000190 91 ad 9b bc bc 05 8d 3d 37 cc c0 3d d6 39 12 be
       -0.019003661 0.06885859 0.09413951 -0.14279875
0001a0 28 99 1e 3d 3d b7 7f 3d e9 e3 bd 3d 92 4b ac 3d
       0.03872028 0.06243061 0.09271986 0.084128514
0001b0 5a 2e 87 3d b6 5f 06 3e 46 66 62 bd 1e 07 8c 3d
       0.06600638 0.13122448 -0.055273317 0.06837295
0001c0 b3 8b e7 bd 10 3a 04 be 2e a2 0b be 3d 22 ce bd
       -0.113059424 -0.12912774 -0.13636085 -0.10065124
0001d0 a7 48 fc ba 6d 6b b9 3c c5 d3 3b bd 4e bd c1 bd
       -0.0019247726 0.022634232 -0.045856256 -0.09459935
0001e0 e2 4b 39 ba 21 87 d1 3d 7b 40 92 3c 42 49 c4 bd
       -0.00070684974 0.10230852 0.017853012 -0.09584285
0001f0 f8 a1 89 bc 3e 35 9a 3d a7 4e 6e 3d 9d 26 8d 3d
       -0.016800866 0.075296864 0.058180477 0.068921305
000200 da 7e 4f 3d af 98 ef 3d 4c b2 3a bc 36 59 de 3d
       0.050658084 0.11699044 -0.011395048 0.108568594
000210 71 93 bc 3d 3f 81 9f bd ff aa d5 3b a2 b1 8e bc
       0.0920781 -0.077883236 0.0065206285 -0.017418686
000220 a2 2d 58 3d fa 79 be 3d 1c 58 96 3c aa 45 9d 3c
       0.052777894 0.09300609 0.01835256 0.019198257
000230 2f d4 e0 bd 6c 0d 7c 3d 8d 0e da 3b e5 53 34 bb
       -0.10977971 0.061536238 0.0066545666 -0.0027515825
000240 c2 15 4d 3b dc 4a fa bc 09 57 13 3c 25 35 96 3d
       0.0031293486 -0.030553274 0.008992919 0.07334355
000250 0c 16 a5 3c 5f 31 99 3c 23 fc d9 3d 6c 6f 69 bd
       0.020152114 0.0187003 0.106437944 -0.056991026
000260 0a 6d c9 bd e6 63 db 3d 14 98 bb 3d 26 9b 78 3d
       -0.09835251 0.107124135 0.09159866 0.060694836
000270 d4 04 09 bd 1f e7 62 bd de eb 9c 3c 29 f6 80 bd
       -0.03345187 -0.055396196 0.019155439 -0.06296951
000280 d9 fb 8e 3d 88 64 a5 bc d0 ee b0 3c aa ca c6 bc
       0.0698163 -0.020189539 0.02159825 -0.02426656
000290 6e 4d f3 3d e1 e2 e1 bd b2 1c 4e 3d 1c 40 98 bd
       0.11880003 -0.11029602 0.050320335 -0.07434103
0002a0 e1 30 25 3a ac 0d b0 bd 48 9e 06 3e 64 6e 9e 3d
       0.0006301534 -0.08596358 0.13146317 0.07735899
0002b0 5a 10 eb 3d 45 c0 fd bc bb 13 c5 bd 4f a2 bb 3d
       0.11477728 -0.03097547 -0.09622904 0.09161817
0002c0 ca f9 00 be d0 6f 3b 39 e9 a8 1a 3d 01 59 a7 bd
       -0.12595287 0.00017875363 0.03775874 -0.08171273
0002d0 fb af 42 bd 56 89 db 3d 6d 3b 55 3d 17 11 81 3d
       -0.04753111 0.10719554 0.052058626 0.06302088
0002e0 b6 a1 52 3b cb bc 25 bc b2 79 d1 bd 1f b1 8b bd
       0.0032139844 -0.0101158125 -0.1022829 -0.068208925
0002f0 9a 4f ea bd c3 33 e5 3d 1c 7d ff bd e2 af 8b 3d
       -0.11440964 0.111915134 -0.124750346 0.06820656
000300 d6 fe d0 bd 52 b5 7d 3d b5 6e 23 3d fe 61 92 bc
       -0.10204856 0.0619405 0.0399005 -0.017868992
000310 31 17 f9 3d 2a a2 d1 3d 44 b2 91 bc 63 a0 d8 bd
       0.121626265 0.102360085 -0.017785199 -0.10577466
000320 21 8e 9f 3d 45 d0 31 3d 3e 42 0b 3e 2f ab ab bd
       0.07790781 0.043411512 0.13599488 -0.0838226
000330 09 63 e4 bd 44 6a 91 3c df dd 08 bc 91 b7 15 3d
       -0.11151702 0.017750867 -0.008353679 0.036552016
000340 fb 62 71 bd f3 f4 f2 3d 4c dd 16 bd 38 9d 01 3b
       -0.058932286 0.118631266 -0.03683214 0.0019777548
000350 a0 5a 81 bc 92 2f 23 3d 83 82 d3 bd b1 82 2b bd
       -0.015790284 0.03984029 -0.103276275 -0.041872684
000360 8b 04 39 3c 18 98 00 3e 10 d5 61 bd 7a da 40 bd
       0.011292587 0.12558019 -0.055134833 -0.047083355
000370 f3 18 23 bd d9 b6 dc bd d1 7e a5 bd 6a 1d 12 be
       -0.039818715 -0.10777063 -0.08080829 -0.14269033
000380 67 5a b1 3c 24 d7 f1 bd 8d e9 9a 3c 10 0b e3 3d
       0.021649553 -0.11808613 0.018910194 0.110860944
000390 b5 17 a4 bd 4c 6f 6c 3c b3 e9 a4 bc 15 5d 2d 3c
       -0.08012334 0.014430832 -0.020130968 0.0105812745
0003a0 b3 14 56 3c 77 df f4 3b 5a 44 c6 bc 08 05 0f bc
       0.0130664585 0.007472928 -0.024202514 -0.008729227
0003b0 9d 81 4d bd f7 7f ad bc 74 33 15 bd 43 32 e0 3d
       -0.050172437 -0.021179182 -0.036426023 0.10947087
0003c0 2b 37 0a be cd 2e e5 3d 4f 5e e4 3c 09 11 8c 3b
       -0.13497607 0.11190567 0.027877001 0.0042744917
0003d0 f2 c2 01 be 8b 2a 6d 3d f3 92 80 bd f2 ba 4d 3d
       -0.12672022 0.0579019 -0.06278028 0.050227113
0003e0 b2 70 d0 bd 11 00 85 bd 4f 0a d8 3d e8 b0 dc 3d
       -0.10177745 -0.06494153 0.10548841 0.1077593
0003f0 cc 5c 16 be e3 5d e8 bc 11 9c f6 bc 13 c9 94 bd
       -0.14683837 -0.028365081 -0.030103715 -0.07264914

lstm.bias_ih_l0 f4 [256]
000000 f1 d1 58 bb 08 27 c9 3d 8d 42 94 bd b3 07 63 bd
       -0.003308412 0.09821898 -0.07239256 -0.055427264
000010 d6 45 47 bd 1d 2e 72 3d 00 39 15 3e a8 65 f2 3d
       -0.048650585 0.05912601 0.14572525 0.11835796
000020 4e 1c 9c bd 56 39 b3 bd ff d0 8d 3d 9e 62 60 3d
       -0.07622586 -0.0875117 0.069246285 0.05478155
000030 68 57 c7 bd 7d 73 16 bd c5 f9 41 3e 0a 11 df 3d
       -0.09733468 -0.036731232 0.18942936 0.10891922
000040 92 d2 ee 3d 08 d0 41 bd 1b 9e 9c bd 34 c8 90 bc
       0.11661257 -0.047317535 -0.07647344 -0.01767359
000050 09 5f 65 3d b8 dc 9e bd eb c1 98 bd 27 bc 04 be
       0.055998836 -0.077569425 -0.07458862 -0.129624
000060 b4 03 b3 3d 09 4e e5 3b 83 ce b2 bd a6 44 8c 3d
       0.08740941 0.006997828 -0.08730795 0.06849031
000070 a8 e2 b3 bd 43 06 d0 3d 1e 47 b4 bd 2e c8 25 3e
       -0.087834656 0.10157444 -0.08802627 0.16189644
000080 a0 50 89 bd dd 04 96 3c 3a de 17 3e 29 fa 2d bd
       -0.06704831 0.018312866 0.14830866 -0.0424749
000090 6b b6 88 3d 4c 5d 11 3d 13 b4 a8 3d 41 1f 1a bd
       0.066754185 0.035489365 0.082374714 -0.037627462
0000a0 ec de 0a bd c1 14 ae bd 59 d2 15 3d 22 06 af 3d
       -0.033904 -0.08500052 0.036577556 0.085460916
0000b0 d2 9d 01 3e 20 9a d2 3d 09 33 91 3c b1 22 ee bd
       0.1265786 0.10283303 0.01772453 -0.116277106
0000c0 b3 4b 95 bc d3 c4 0f 3d 87 d1 ff 3c 50 f7 88 bd
       -0.018224573 0.035099816 0.03122784 -0.06687796
0000d0 c8 4a 2c 3d 25 98 e8 bd e8 ec b4 3d 3a 0f a2 bb
       0.042063504 -0.11357144 0.08834249 -0.004945663
0000e0 b5 e5 cd 3d 2e 3e cb 3c d7 46 28 3e c5 99 00 bc
       0.10053579 0.024809923 0.16433273 -0.0078491615
0000f0 8b 59 c0 3a c5 c6 f6 3c 80 86 4b 3e 51 e2 43 3d
       0.0014675123 0.030124078 0.19875526 0.047823254
000100 27 00 d3 3d 30 14 c2 3c 2d 4f ca bd 4e 27 0d 3d
       0.103027634 0.023691267 -0.09878383 0.034461312
000110 cf 68 9f bd 8c a1 03 3e da 2a 05 3c 7a d9 88 bd
       -0.077836625 0.12854594 0.008127892 -0.06682105
000120 71 6a a1 3d 9d af a6 3c e7 13 3e bd 15 fa b0 bd
       0.0788163 0.02034741 -0.0464057 -0.08641449
000130 fd 25 ce 3d 16 4e a0 3d fa dc b2 b7 e2 02 b5 3b
       0.100658394 0.07827394 -2.1322154e-05 0.0055240253
000140 f7 7f 3b 3c 87 fa 6c bd 50 98 c9 bd 9b fe 3e 3c
       0.011444083 -0.05785611 -0.098435044 0.011657382
000150 65 cc b4 3d 37 13 80 3b 21 25 d9 bd 3b fd e0 3c
       0.08828048 0.0039085406 -0.10602785 0.0274645
000160 07 d7 a2 3d 72 83 c5 3d 0f 1d 1d 3d 64 2c 5b 3b
       0.079511695 0.09644212 0.03835779 0.0033443207
000170 b6 4b 97 bd 2a 4a fa 3d 1d df d2 3d a3 be 51 bd
       -0.073874876 0.12221177 0.10296462 -0.051207196
000180 8c 67 2f 3c 64 66 b5 bd 2c 37 f4 3d 59 72 b6 bd
       0.01070584 -0.0885742 0.11924586 -0.08908529
000190 e1 da 19 3d 91 89 32 bd 9c 7c d8 3d 35 f0 a9 3d
       0.037562255 -0.043588225 0.10570642 0.08297769
0001a0 cf 81 47 3b d4 eb 0e 3d 49 3f aa bc 40 2d 87 3d
       0.0030442362 0.034892872 -0.02078213 0.06600428
0001b0 22 b6 9a bc 69 77 53 bd 5f 9b 39 bd 06 76 c4 3d
       -0.018885676 -0.05162755 -0.04531419 0.09592824
0001c0 c3 94 81 bc ab 8f 03 be 3a d1 15 bd 16 4c 23 bd
       -0.015818005 -0.12847774 -0.036576487 -0.039867483
0001d0 ad 62 2b 3d 81 aa ae bc 0d 13 01 be 69 c5 a8 bd
       0.04184215 -0.021321537 -0.12604924 -0.08240778
0001e0 a0 b8 1e 3c be 66 fc 3d 59 bd 0b 3e ac f2 80 3d
       0.009687573 0.12324284 0.13646449 0.06296286
0001f0 3b 2f ae 3c b4 ac cf bd 6f 96 1b 3e 47 18 36 3d
       0.021262756 -0.101403624 0.15194105 0.044456746
000200 58 26 86 bd 84 fe 1b bd 33 0e 88 3b 0a f5 5e bd
       -0.06550282 -0.038084522 0.0041520833 -0.054432906
000210 fc 44 84 3d 5d 1c bb 3d eb da dc 3d cd 6b c6 3c
       0.0645847 0.09136269 0.10783943 0.024221325
000220 a7 5f ea bd fa 7d f5 3d 6f cf 87 3a a3 03 b2 3d
       -0.114440255 0.11986919 0.0010361503 0.086921
000230 1b 65 f9 bd 10 af c0 3d 50 53 a8 bd 83 ac 9f 3d
       -0.121774875 0.094083905 -0.082190156 0.07796576
000240 fa 02 b5 bd ff 38 df bd 99 e5 47 3d ed 39 a4 bd
       -0.08838458 -0.10899543 0.048802946 -0.08018861
000250 7c f8 99 bd 7c 3a 36 3c ba b7 19 bd ed ea 26 ba
       -0.07518098 0.011122342 -0.03752873 -0.0006367404
000260 38 03 dd bc f0 92 2f 3c 51 bb 6d 3d 89 d0 9e bd
       -0.026979074 0.010716185 0.058039967 -0.07754619
000270 0a cc a6 bd ea 84 5b bc d4 da 60 3d 27 64 1d 3d
       -0.08144386 -0.013398388 0.05489619 0.03842559
000280 ba ab 4e bd d3 55 f9 3c 43 f8 81 bd 20 5a 6a bd
       -0.05045674 0.030436432 -0.0634618 -0.057214856
000290 d0 af e2 bd 24 68 e2 3d 90 84 7f bd 67 c4 37 bd
       -0.1106869 0.110550195 -0.06238228 -0.04486504
0002a0 cd 68 c1 bc 5f 7c 36 3d 0e 25 3e bd 93 b4 2c 3d
       -0.023609543 0.044552203 -0.046422057 0.042164396
0002b0 ef 51 51 3d 1f 0b cc 3d 14 cf 88 bd 07 c8 9b 3d
       0.05110353 0.09963059 -0.06680122 0.076065116
0002c0 1f 39 ba bd 18 5d c2 3d 93 aa 28 bd 77 70 cc bd
       -0.09092926 0.094904125 -0.041178297 -0.099823885
0002d0 13 05 f1 3d 98 43 df bd 71 23 25 bd 39 43 87 3d
       0.11768546 -0.10901564 -0.040317003 0.066046186
0002e0 1d ec da bc 71 7f e8 3d f0 4e e0 bd 39 d9 9d bc
       -0.026723916 0.113524325 -0.10952556 -0.019268619
0002f0 7f f9 8e bd fa 9c 22 bd b5 61 97 bd 7f d6 42 bc
       -0.06981181 -0.039700486 -0.07391683 -0.01189196
000300 cd 7d 21 3d 73 09 c9 bd 37 d3 cb bc 89 79 e5 3d
       0.039426614 -0.098162554 -0.024880989 0.112048216
000310 74 30 31 3d 0c 4b 50 bd d2 27 76 bb 4f 1c da 3c
       0.0432591 -0.05085282 -0.0037560356 0.026624827
000320 5f 65 17 3d f5 c1 00 be 82 c8 fa 3d b7 91 df 3d
       0.03696191 -0.12573989 0.12245275 0.10916465
000330 23 8f cd 3d ae 63 ae 3d b6 69 79 3d db 78 d9 bd
       0.10037067 0.08515106 0.06089183 -0.106187545
000340 d2 be 86 bd a7 83 f8 bd a3 10 f1 bc a4 78 83 3c
       -0.06579365 -0.12134486 -0.029426878 0.016048737
000350 13 69 d2 bd 63 12 91 bd ba e3 98 bd 63 ee 00 be
       -0.102739476 -0.07083585 -0.074653104 -0.12590937
000360 5a aa 7b 3c 33 b1 8a bd 46 e8 e7 bd 39 de 9f bd
       0.015360439 -0.06772079 -0.113235995 -0.078060575
000370 7f 42 01 bd f7 1b ae bc 45 86 b7 3d d8 50 42 bd
       -0.031557556 -0.021253569 0.08961157 -0.04744038
000380 dc 0b aa 3d 43 4f fe 3d a0 e2 34 ba a6 3b a4 bd
       0.08303043 0.12417462 -0.0006900225 -0.080191895
000390 82 6b bc bd 3b 81 dc 3d c1 fa 07 3d d3 a2 ed 3d
       -0.09200193 0.10766836 0.033198122 0.11603322
0003a0 e6 4d 04 3e 11 78 9a 3c 7a 0a bf 3d f8 29 8d bd
       0.12920341 0.01885608 0.0932817 -0.068927705
0003b0 06 b0 05 3e bf 63 b9 3d 45 a0 82 3d 13 56 81 3d
       0.13055429 0.09052228 0.06378225 0.063152455
0003c0 98 4f 8b 3d 1c ea 82 bc 65 55 7c 3d 6a d2 d3 bb
       0.06802291 -0.015980773 0.061604876 -0.0064642923
0003d0 5a 73 d1 3d 10 30 d8 bd 9a 57 be bc 5a aa dc 3d
       0.1022708 -0.10556042 -0.023235131 0.107746795
0003e0 ae fe c5 bd 57 a5 e8 3b 8a d6 44 bd 19 ab 95 bd
       -0.09667717 0.007099788 -0.048056163 -0.07308025
0003f0 a7 59 df 3b a2 15 b0 3d 00 93 4f 3e 7a b5 5a 3d
       0.0068161073 0.08597876 0.2027092 0.053395726

lstm.bias_hh_l0 f4 [256]
000000 22 ce 68 3d 40 02 2e 3d a5 45 2d bd a5 7e d8 bd
       0.05683721 0.042482615 -0.042302746 -0.105710305
000010 e8 25 33 3d b7 18 fe 3d 44 4d 30 3e 2c b0 50 3d
       0.043737322 0.12407058 0.17216974 0.05094926
000020 be 02 1a 3d 96 96 07 3d 8c 51 8c 3d 19 b5 89 3d
       0.03760027 0.033102594 0.06851491 0.06723995
000030 00 27 f4 3d f9 ca 3b bd 4f 48 22 3e 3c c3 d5 3d
       0.11921501 -0.045847867 0.15847896 0.104376286
000040 a7 36 05 3d 35 05 b6 3d 6f 00 dc 3c 81 7c 73 bd
       0.032522824 0.08887712 0.026855676 -0.059444908
000050 0c 05 82 3d 56 d0 55 bd 4d 5c d7 3d 94 21 14 be
       0.06348619 -0.052200638 0.10515652 -0.14465934
000060 18 29 15 3d c3 b4 fd 3d aa 0d eb 3c c2 76 ad bc
       0.036416143 0.12387993 0.028693039 -0.021174792
000070 82 55 53 bd 0e 3e e9 3c 6a ca 71 bd 4a 44 2d 3e
       -0.05159522 0.028471973 -0.059030928 0.16920581
000080 e2 49 53 bd 6e e3 6e bd 8f 1e a0 bd b6 de 89 bd
       -0.051584132 -0.058322363 -0.078183286 -0.06731932
000090 fe 67 d2 3d 53 39 ce 3d 9b 22 8f bd 4e 5e 2b 3e
       0.10273741 0.100695275 -0.06989022 0.16735193
0000a0 f5 b0 0b 3d d5 2d d1 3b 3b 72 5f 3d a0 de f2 3d
       0.034104306 0.0063836374 0.054552298 0.118588686
0000b0 4d d8 ef 3d 60 d8 90 bd 1e 60 47 bd cb 4a f3 3d
       0.11711178 -0.0707252 -0.04867565 0.118795
0000c0 1d c2 fb 3d 1c 05 66 3b d7 9d b2 3c a5 2c 27 3d
       0.122928835 0.003509826 0.02180378 0.04081406
0000d0 6c 34 f9 bb 11 82 02 3e 86 80 d4 bd f5 2e e7 3d
       -0.007605126 0.12744929 -0.103760764 0.11288253
0000e0 59 a2 93 bd 21 a4 b3 3d d3 8a 1a 3e 0b 98 ca 3d
       -0.072087 0.087715395 0.1509202 0.09892281
0000f0 52 9f fe 3c e9 3f ce bb 94 af 0a 3e f7 1f 4a 3d
       0.03108183 -0.00629424 0.1354354 0.04934689
000100 4d b2 c5 3d ad 99 30 bd 45 5b c8 3d 31 94 9c bd
       0.09653149 -0.043115307 0.09783033 -0.07645453
000110 79 8e 00 3d b4 00 b9 bd 8d 5f 14 bd ff bf 29 3d
       0.031385873 -0.09033337 -0.036223937 0.041442867
000120 2c bb 19 3e c6 17 57 3d d6 a9 9c bd 5b 3f 10 bd
       0.15012807 0.052512906 -0.07649581 -0.03521667
000130 f3 eb 8f bd 6c 29 f7 bb 5f 8b c4 3d 62 5a cd bd
       -0.070274256 -0.0075427797 0.095968954 -0.10027005
000140 aa ef 35 3b 43 71 76 bc 30 30 a9 36 87 a7 8d bd
       0.002776126 -0.015041652 5.0422022e-06 -0.06916719
000150 1b bf db 3d 1a 7d 95 3c 18 f4 0f 3d 97 49 86 3d
       0.1072981 0.01824813 0.035144895 0.06557005
000160 3d 2f 9a 3d 5e 57 ae bd 94 e8 0f be 19 89 ac bc
       0.07528541 -0.08512758 -0.14053565 -0.021061467
000170 74 ea df bd 1f d0 57 3d 14 c5 94 bb cb a5 a5 3d
       -0.1093339 0.052688714 -0.004540095 0.08088263
000180 48 93 c1 bd 78 1c ed bd dc 18 8c 3c 89 72 10 3d
       -0.0945192 -0.115776956 0.017101698 0.03526548
000190 38 f0 b7 3d bd 96 71 bd d6 75 b5 bc ee 39 66 3d
       0.08981365 -0.058981646 -0.022150915 0.05620759
0001a0 d8 c2 1f bd 5e 74 00 bd b9 4a d0 3c 82 1d a4 bd
       -0.039004177 -0.031360976 0.025426256 -0.08013441
0001b0 ea 06 86 3c 31 06 25 bd e2 70 b8 3d 4a 01 12 3d
       0.016360719 -0.040289108 0.09005906 0.03564576
0001c0 80 ec 8f 3d ce 5c bb 3c 46 a4 76 bc 96 49 de 3d
       0.07027531 0.022871401 -0.015053814 0.10853879
0001d0 15 04 a8 bd cc 94 82 3d 70 09 05 bb 13 e3 c6 bd
       -0.082039036 0.06376037 -0.0020299815 -0.0971128
0001e0 16 12 26 3b 5f 45 8a 3c e6 b4 78 bd da 51 c7 3d
       0.002534037 0.016878782 -0.060719393 0.09732409
0001f0 0e b5 85 bd c5 4a e1 bc 40 12 b4 bc 23 4d d6 3d
       -0.06528674 -0.027501473 -0.021981359 0.104639314
000200 42 1f be bd de 81 5b bd 1e da ad 3d 58 bd 8a bd
       -0.09283306 -0.053590648 0.08488868 -0.06774396
000210 d9 a5 72 bd 5b 39 bf bd 70 77 4b bd 72 bb 11 3d
       -0.059240196 -0.093371116 -0.04967445 0.035579152
000220 15 53 9a 3d cd a3 09 3d 11 f9 62 3c dc d3 24 3d
       0.07535378 0.03360348 0.013853327 0.040241107
000230 1f b5 f8 bd f6 c7 43 bb d4 36 8c 3d a1 19 0b 3d
       -0.12143921 -0.0029873825 0.06846395 0.03395999
000240 3c 82 b3 3d 13 bc f0 3d 7b 77 b2 3d eb 2b 97 bd
       0.087650746 0.11754622 0.08714195 -0.073814236
000250 c5 64 d0 bb 71 19 91 bd ca 97 9a bd 28 fe d7 bd
       -0.006359669 -0.07084931 -0.07548483 -0.10546523
000260 cb 52 07 be 62 34 bd 3d 9a 14 13 3d c7 ab c1 3d
       -0.13215177 0.09238507 0.03590832 0.09456592
000270 ae ce 8a 3d 68 d9 e8 3d a5 db 84 3d 8f 20 6e bd
       0.06777702 0.11369592 0.06487206 -0.05813652
000280 ad 9f 04 be 51 23 a6 3d 61 f2 8b bd 4c 5d 82 3c
       -0.12951536 0.08112205 -0.068333395 0.015913628
000290 e6 06 9e 3d a5 0f ee 3c 97 c3 5e bd 91 ef 69 3d
       0.077161595 0.029060194 -0.054385748 0.057113234
0002a0 a3 40 77 3c 67 17 15 3d de 6b a6 3d 6a 81 80 3d
       0.015091094 0.03639927 0.08126043 0.06274684
0002b0 41 d0 88 bd bd f3 f1 3d 12 9e ba bd e5 cf 1d bc
       -0.06680346 0.118140675 -0.09112181 -0.009632085
0002c0 95 76 ba bd 32 02 71 bd a1 3d 09 bd dd 6c d5 bd
       -0.09104649 -0.058839984 -0.03350604 -0.10421155
0002d0 41 57 d1 bd 38 99 b9 bd ec e1 d6 3d 85 c4 59 3c
       -0.102217205 -0.09062427 0.1049231 0.013291483
0002e0 8c e9 d1 bd 2f 1f f9 bd 20 2c dc 3d 84 29 79 3d
       -0.10249624 -0.12164151 0.10750604 0.060830608
0002f0 b6 82 e9 3a 96 e6 3b 3d 09 c8 84 3d 06 ff f8 bd
       0.0017815444 0.0458742 0.06483466 -0.12158017
000300 33 b4 0d bd ed dd b3 bd e1 51 96 bd 37 fa 9e bd
       -0.03459568 -0.08782563 -0.07339836 -0.077625684
000310 14 94 c9 3d 02 f6 a3 3d 7a 3d 18 3e f6 a0 d2 3d
       0.09842697 0.08005907 0.14867201 0.10284607
000320 c5 57 28 3e 18 ce 49 bd e8 e2 db 3d cf 0c aa bd
       0.16439731 -0.049268812 0.10736638 -0.08303224
000330 bf 09 0b bd aa 28 9e bd 2e 6e 60 3e 57 58 0a 3d
       -0.03394484 -0.077226 0.2191703 0.033775654
000340 af e7 03 3e 13 90 c7 bd 57 11 06 bd 6d 88 16 bb
       0.12881349 -0.09744277 -0.03273138 -0.00229695
000350 ad 84 c6 3a 2d 10 ff 3d 6b 8d 61 3d f2 4b 76 3d
       0.0015145742 0.12454257 0.055066507 0.06013102
000360 8b 8d e7 bd 75 a6 c9 bd e3 ab ba 3c 83 e8 a8 3d
       -0.11306294 -0.09846202 0.02278704 0.08247473
000370 d5 02 dd 3d 8a dc e1 bd db 4e 97 bd 54 11 40 3d
       0.10791556 -0.110283926 -0.07388087 0.046891525
000380 1c 03 06 3e 32 31 80 bd d7 8c 9b 3c ed a2 0b bd
       0.13087124 -0.06259383 0.018988056 -0.034090925
000390 90 15 f5 3c a2 dc 02 3d 8b 1d 93 bd 74 2a 58 bd
       0.029917508 0.031948693 -0.07183369 -0.05277486
0003a0 d1 e9 04 3e 24 11 88 bd f1 5c 87 3c 4a 00 21 bc
       0.12979819 -0.06643894 0.01652381 -0.009826729
0003b0 8a 5e a2 3d 63 cc 35 3d 98 81 70 bc 7d 69 e0 3d
       0.07928188 0.04438437 -0.014679335 0.1095762
0003c0 13 d5 8b bc d3 a5 86 bd b9 b8 79 bc b1 ed 96 bc
       -0.017069375 -0.06574597 -0.015241795 -0.018423887
0003d0 cb e2 1f 3d 74 b8 bc bd 49 fc b0 3d aa 02 46 3d
       0.039034646 -0.09214869 0.086418696 0.048342384
0003e0 55 96 b4 3c 11 76 2c 3e b1 c1 8f 3c d1 91 ef 3d
       0.02204434 0.16841914 0.017548414 0.11697734
0003f0 bd ee 42 bd aa 46 e6 bd 36 e1 0a 3d 68 1c ef 3c
       -0.04759096 -0.11243947 0.033906184 0.02918835

lstm.weight_ih_l1 f4 [256, 64]
000000 62 78 d1 bd ac 65 ba 3c 5b a1 ca bd 4b 7b 6c 3d
       -0.10228039 0.022753559 -0.09894057 0.05773477
000010 c7 e1 b8 3d 29 73 0d 3e 65 ee 92 3d 4c 69 c2 bd
       0.090274386 0.13813461 0.071743764 -0.0949274
000020 ea dc 7f bb 4e af bd 3b 2e 5d a9 3d a4 93 82 3d
       -0.0039041587 0.00578872 0.08269726 0.063758165
000030 d9 13 b9 bc 4c 9b ab bc 17 62 0b 3e 8c e1 98 3b
       -0.022592472 -0.020948075 0.13611637 0.004665559
000040 fe 1b 09 3d 98 c1 93 3d a9 6d 90 3c 0a ed 40 3d
       0.03347396 0.072146595 0.017630415 0.047101058
000050 47 8f b7 bd f5 26 8e bd c7 42 6a bd 9c 3f cf 3d
       -0.08962875 -0.06941024 -0.05719259 0.101195544
000060 d3 77 ed bd 13 c9 3f bd 40 83 c7 bd 93 36 f3 3d
       -0.1159512 -0.04682262 -0.09741831 0.118756436
000070 29 cb bf bd 82 fc ea 3c ac b5 a0 3c 82 9b 09 be
       -0.093649216 0.028684858 0.019617878 -0.13438228
000080 bf e9 05 be 64 12 8e bc 38 39 b2 3c be 5d d1 3d
       -0.13077448 -0.017342754 0.0217558 0.10222958
000090 0f 3c 1e 3c fb 09 8c bd a2 d8 6e 3d 50 cb 23 be
       0.009657874 -0.06837841 0.058312066 -0.15995526
0000a0 af e0 11 3d 9e e5 53 3b fe a3 89 3d 7d c0 ac 3d
       0.035614666 0.0032332907 0.06720732 0.08435152
0000b0 5f df 47 bd ef 0c f4 3c 35 8d 21 3a 1a f8 46 bd
       -0.048797008 0.029791323 0.0006162704 -0.04857645
0000c0 58 f6 c1 3d 21 0c 7d bd 66 3d 66 3d 86 7f 5b 3d
       0.094708145 -0.061779145 0.056210898 0.053588413
0000d0 bf 15 99 3c 09 62 c9 bd bd e8 41 3d 0b 3a 4f 3d
       0.018687127 -0.09833152 0.047341097 0.050592463
0000e0 96 61 4d 3d 4e 76 ec 3d e8 85 79 bd ef f6 09 3e
       0.050141893 0.11546002 -0.06091872 0.13473104
0000f0 fc b4 11 be 17 e0 cb 3d 1b de e0 3c e8 59 97 3c
       -0.14229196 0.09954851 0.027449658 0.018475488
000100 4d 0e 2a 3d 49 66 93 bd b9 8a b8 bd 9b 6f 90 3d
       0.041517545 -0.07197244 -0.09010834 0.07052537
000110 31 a7 16 3d f5 72 a3 3d a6 14 56 bc df bf 06 3e
       0.03678054 0.07980911 -0.013066446 0.1315913
000120 fc d5 20 be 0d 81 55 3d 95 ed c2 3c ca 3a dd 3d
       -0.15706629 0.052125026 0.023794929 0.10802229
000130 8c 49 9e bd aa 4c 16 3e 87 ff 37 bd ed c3 00 3e
       -0.07728872 0.14677683 -0.044921424 0.1257474
000140 49 0b e6 bc 1e eb d0 bd 7f 65 e4 3d d7 0c 8e 3d
       -0.028081553 -0.10201095 0.11152171 0.06936043
000150 bc 65 ed bd 1e d4 90 3d 42 aa 8d bc 18 ae 56 bd
       -0.1159167 0.07071708 -0.0172931 -0.052412122
000160 4f b1 14 bd 70 de 0c 3e e8 91 71 bd e3 92 21 3d
       -0.036301907 0.13756728 -0.058977038 0.039446723
000170 89 a6 c0 3d b4 5e 83 3d 5e fd 35 3b cb 2d 34 bd
       0.09406764 0.064145476 0.0027769427 -0.043988984
000180 08 08 a5 bd 45 ad ae bd 2f 06 d6 3c 4c 20 c4 3d
       -0.080581725 -0.08529142 0.026125995 0.09576473
000190 63 5b 05 3d de 63 a8 bd 24 dc 51 3d 2a 3a a4 bc
       0.032557856 -0.08222173 0.051235333 -0.020047266
0001a0 d4 23 0d be db 67 b2 3d cf 52 e1 bd b4 1c a2 bd
       -0.13783199 0.08711215 -0.110021226 -0.07915631
0001b0 a2 c8 77 bd 3a 84 fa 3d ee b4 ac bd 59 7a fe 37
       -0.060494073 0.122322515 -0.08432947 3.0336132e-05
0001c0 dc 62 37 3d 3d 5b 17 3c b9 31 13 be cc 75 85 3d
       0.044772014 0.0092380615 -0.14374436 0.065166086
0001d0 80 c6 7e bd 2b 86 0e be 36 18 5d 3d 6d 18 a2 3d
       -0.062201023 -0.13918369 0.053978167 0.07914815
0001e0 84 bb ae 3d 9c 5c 7a 3d ee fa 34 bb 0a 3a 3b 3e
       0.085318595 0.061123475 -0.0027615386 0.18283859
0001f0 a7 bc 38 3d 09 0f 66 3d d0 5c be bd c7 61 01 3e
       0.045101788 0.056166682 -0.09295046 0.12634955
000200 91 e4 a6 3d a9 f8 a6 bd dc 5e 05 3d 0b 49 d7 bd
       0.08149064 -0.08152897 0.032561168 -0.10511979
000210 79 6f 85 bd 09 fe db 3d 20 6c 2b 3d 38 97 12 3e
       -0.06515402 0.10741813 0.041851163 0.14315498
000220 d2 3d 88 3d 40 78 3b bd 49 d9 65 bc 5e 59 72 bd
       0.06652416 -0.045768976 -0.014028856 -0.05916726
000230 94 1b 58 3c b5 a6 bf 3d b0 b6 89 3d 5a 3b 30 bc
       0.013190169 0.09357969 0.06724298 -0.010756338
000240 66 33 1b 3d 14 2b ed bd f8 7e 93 3d 80 97 0e 3c
       0.037890814 -0.11580482 0.07201952 0.008703113
000250 96 fa 8e bd 85 a4 0a 3e 5d 5f 37 3d 07 40 15 3e
       -0.06981389 0.13539322 0.04476868 0.14575206
000260 8c e7 e8 3c f7 4e 70 3d 38 2d ab bd 65 7d 7c 3c
       0.028430723 0.058669057 -0.08358234 0.015410756
000270 50 34 c5 bd f3 b2 db bc b7 0a 05 3c 37 5f 2b be
       -0.096291184 -0.026818728 0.00812023 -0.1673554
000280 b5 e1 bd bd bd 6b 2a 3d e9 47 0f bc 8f 01 3a 3d
       -0.09271566 0.041606653 -0.008745172 0.045411643
000290 f3 3b 39 3d 2b 73 8f bd a3 db 82 3d c8 22 16 be
       0.045223188 -0.070043884 0.06389549 -0.14661705
0002a0 d6 0d eb 3c 83 3a 33 bc 72 69 4e 3d 8a e8 08 bd
       0.02869312 -0.010939243 0.05039353 -0.03342489
0002b0 39 2f 7c bc e3 f8 1e 3d 06 5d ad 3d 0b bc 3f 3d
       -0.015392118 0.038811576 0.084650084 0.04681019
0002c0 7e 9c e9 3c 5d cb 2b bd cd 6e 8b bd 0e 2f 7e bd
       0.028517004 -0.04194199 -0.06808243 -0.062056594
0002d0 c5 f5 00 be 44 e3 0a bd 05 b1 dc bd 0f 10 bd bb
       -0.12593754 -0.033908144 -0.10775951 -0.0057697366
0002e0 e9 15 a3 3d ca 23 4e 3e 92 31 1c 3e 85 cc d9 3d
       0.079631634 0.2013084 0.15253285 0.10634712
0002f0 06 2d 1f be 64 35 80 3d ae 09 b2 3b d8 8c bc 3c
       -0.15544519 0.062601835 0.005433283 0.023016378
000300 eb 08 b3 bc 2d 49 b6 3c 08 ae 66 bd 90 f0 ae 3d
       -0.021854838 0.02225169 -0.056318313 0.085419774
000310 ba 5a 47 bd 17 02 b2 3d 7a 4c f7 bc 8c 0c c9 3c
       -0.048670508 0.08691805 -0.030187834 0.024542116
000320 ad 0d 0f be e3 6c 87 bc 72 11 0e 3e 9c 48 37 3d
       -0.1397006 -0.016531413 0.13873842 0.04474698
000330 6d 4e 88 3d ee 9b cc 3c 66 f6 cf 3d b8 39 46 bd
       0.066555835 0.024976697 0.10154419 -0.04839489
000340 82 95 19 3d 6e f4 af bb 60 48 82 3c 16 c4 95 bc
       0.037496097 -0.0053697145 0.015903652 -0.018281978
000350 bd b6 c3 3d 84 ff 1b bd 87 04 1e bd 26 81 99 3d
       0.09556339 -0.038085476 -0.038578536 0.07495336
000360 fa 05 90 3d 30 3a c6 bc ac 26 59 bc 9c 69 83 3b
       0.0703239 -0.024197668 -0.013253849 0.0040103924
000370 cd a5 1f 3e 6e 3a 14 3d da 8d ba bd 5d 03 7d bd
       0.15590592 0.036188535 -0.09109087 -0.061770786
000380 da f9 30 bd 8b 12 58 bd 3c db ba bc 4a 6e 17 3e
       -0.043207027 -0.05275206 -0.022809617 0.14788166
000390 14 55 f9 3d b8 98 cb bc 87 b9 fd bd 97 5f 05 bc
       0.121744305 -0.024853095 -0.12388902 -0.008140466
0003a0 34 7d 30 3d 9e 85 8e 3d c7 c4 36 3d 25 b9 cf bd
       0.043088153 0.06959079 0.044621255 -0.101427354
0003b0 ac 36 08 be fd 14 b4 bd cd 5e 12 be c5 2b 15 3e
       -0.13302106 -0.08793066 -0.14293976 0.14567478
0003c0 f0 af ed bd 26 d3 e9 bd a8 86 59 3c 2b 6a 04 be
       -0.11605823 -0.114172265 0.013276733 -0.12931125
0003d0 6c 34 14 be 89 7e bb 3d 55 60 7e 3d 6b 18 63 3d
       -0.14473122 0.09154994 0.062103588 0.05544321
0003e0 70 67 75 bc ec e8 ac bc 85 5c ab bc 3b 05 b1 3c
       -0.014978275 -0.02110716 -0.02091814 0.02160894
0003f0 c9 9a 09 3d 01 f7 57 bd 8a 3e 7a 3c 12 6b bf bd
       0.03359488 -0.052725796 0.0152737 -0.09346594

lstm.weight_hh_l1 f4 [256, 64]
000000 80 c8 f7 bd c7 f5 c2 bd a3 98 56 3d 73 13 20 bc
       -0.12098789 -0.095195346 0.05239166 -0.009770262
000010 42 9f 07 be b0 b1 a8 3d 4d cb 53 3d 65 67 e3 3d
       -0.13244346 0.08237016 0.051707555 0.11103705
000020 49 5b 13 3d e8 09 cd bd 98 16 2f bc 37 fb fe bd
       0.03597573 -0.10011655 -0.010686539 -0.12450259
000030 b3 c9 09 3d 5a a8 3f bd 95 7f e5 ba d2 84 07 3e
       0.03363962 -0.046791412 -0.0017509336 0.1323426
000040 77 02 77 bd a6 95 b7 bd 7a 3c 05 bd 69 61 d6 bd
       -0.060305085 -0.0896409 -0.032528378 -0.10467798
000050 fe 60 4f 3d 88 14 43 bd 58 f8 7e 3d 18 37 26 3c
       0.05062961 -0.047627002 0.062248558 0.010144971
000060 6c 5f 97 bd e5 1c 22 3d 2c f9 c9 3d e5 7b a7 bd
       -0.07391247 0.039578337 0.09861979 -0.08177928
000070 52 d6 9f bc d8 94 1d 3b 8c f4 d9 3d e6 46 72 3c
       -0.019511376 0.0024045017 0.10642347 0.014787411
000080 86 5c 0c 3d 5e 40 f0 3d 4d d5 f0 bb 6b 36 7b 3d
       0.034267925 0.11731027 -0.007349646 0.061331194
000090 d5 fa fa bd 8d ff cf bb 54 a8 a4 3d d6 ac e2 3d
       -0.12254874 -0.0063476027 0.080399185 0.11068122
0000a0 ea 77 2f 3d 9b 32 ab bd cf 9a a0 3d 54 b1 2c bc
       0.04283897 -0.083592616 0.078420274 -0.010540325
0000b0 29 70 fe 3d 02 a9 2f 3d 02 41 f0 3d c6 5c e7 bd
       0.124237366 0.042885788 0.11731149 -0.11296992
0000c0 0d a9 da bd 87 04 b0 bd 01 64 96 3d 89 f8 03 bd
       -0.10676775 -0.085946135 0.07343293 -0.032219443
0000d0 55 e7 38 3c ca 1b 92 3b 9a 69 6a 3d 66 d7 91 bd
       0.011285623 0.004458879 0.057229616 -0.07121162
0000e0 5e bd b4 3c 89 4e 0d 3d 83 61 2d 3d 23 be 94 3d
       0.022062954 0.034498725 0.042329323 0.07262828
0000f0 b2 2e a6 bd 7b 4c db 3c c0 2b d9 3d cb c5 1a bd
       -0.08114375 0.026769867 0.10604048 -0.037786286
000100 c3 47 03 be c7 d0 b3 bd 73 2a cc bd 77 ce c8 3d
       -0.12820344 -0.087800555 -0.09969034 0.09805005
000110 50 4c ea 3d f3 29 44 3d fd a7 f1 bd 20 4b 78 3d
       0.11440337 0.04789157 -0.11799619 0.06061852
000120 d4 39 f4 3d 7b 5c a2 3d df 1d 50 bd e8 31 83 bd
       0.11925092 0.079277955 -0.050809737 -0.06406003
000130 7f aa ad bd ca 9a f2 bd 0a 5e f3 3d 53 68 1a bc
       -0.08479785 -0.1184593 0.11883171 -0.009424287
000140 a7 d4 74 3d 50 1f 11 be 96 c7 bb bc fd 83 29 bd
       0.059773114 -0.14172101 -0.022922318 -0.04138564
000150 b2 21 80 3d cf 74 bb 3d 8d e0 3d bd 1c 4d 53 3d
       0.06256427 0.09153139 -0.046356726 0.05158721
000160 fe 52 a8 bd 06 a0 25 3c 29 3a 42 3d cb 17 06 3e
       -0.082189545 0.010108953 0.047418747 0.13095014
000170 35 13 72 bd 0d fa 78 bc f8 de 20 3d 74 fa df 3c
       -0.05910035 -0.0151963355 0.03927514 0.027341105
000180 e8 49 c7 bd 6c e2 77 bd 8f 9d e2 bc 05 a3 3e 3d
       -0.097308934 -0.060518667 -0.02766302 0.046542186
000190 93 f0 86 bd 13 e5 f8 bd f4 7b d7 3d 18 59 d0 b8
       -0.06588855 -0.121530674 0.10521689 -9.934808e-05
0001a0 e3 93 5e bd 02 34 7b bd 5d 15 1f 3d 2b 8d 0d bd
       -0.054340255 -0.061328895 0.038838733 -0.034558456
0001b0 a7 f4 48 3d 63 74 85 bd a4 dd b8 bd 31 18 b8 bd
       0.049061444 -0.0651634 -0.090266496 -0.08988989
0001c0 57 8d c4 3d 1f e8 3a 3c e9 96 1b 3d b1 28 35 bd
       0.09597271 0.011407881 0.037985716 -0.04422826
0001d0 9f 77 a6 3d 22 4b d9 3d 76 ea 35 bd 89 61 05 bd
       0.08128285 0.106100336 -0.044413052 -0.03256372
0001e0 2a 43 27 bd 16 3d 03 bd 0c cc 9a 3d ef 25 88 3d
       -0.040835537 -0.032040678 0.0755845 0.0664786
0001f0 7a 2f ac bd 1c 0c 93 3d b5 f3 70 3d 0d 73 92 bd
       -0.08407493 0.07180044 0.058826167 -0.071508504
000200 9e ba e0 bd 96 6f 6d bc af d8 a4 bd 54 5c cf bd
       -0.109730944 -0.014491936 -0.080491416 -0.10125032
000210 c3 09 98 3c f3 5d f9 bd 67 83 86 3d 08 c7 31 bd
       0.018559342 -0.121761225 0.06568032 -0.0434027
000220 9f 04 d8 bd 2f 3f cd 3d 7b b5 a4 3d eb fb bd bd
       -0.105477564 0.10021817 0.08042427 -0.09276565
000230 c1 44 ae 3d a1 b4 a8 bd d9 80 8d bd f4 48 b5 3d
       0.085092075 -0.08237577 -0.06909341 0.08851805
000240 47 97 c2 3c ac 8d 5d bd 8f 2a 0c 3d fa 42 df bd
       0.023753775 -0.054090187 0.034220275 -0.10901447
000250 67 e3 3d 3d be 88 71 3d e1 a4 55 bd 7a 9a 7f bd
       0.046359446 0.058968298 -0.052159194 -0.06240318
000260 e3 68 ad 3d e4 b8 cf 3d d4 7f 7a 3b cd b8 ce 3d
       0.08467271 0.10142687 0.0038223164 0.10093842
000270 57 79 62 3c ff b5 07 3e 16 b6 cd bc b9 e7 46 3d
       0.013822875 0.1325302 -0.02511124 0.04856083
000280 a2 7e 19 3d b4 07 a3 3d ce c5 71 bd fc a4 bc bd
       0.037474282 0.07960454 -0.059026532 -0.09211156
000290 be 25 00 3e b6 a3 bb 3d 77 f3 17 3d 70 6a 57 3d
       0.12514398 0.09162085 0.03709742 0.05259174
0002a0 5f b4 7a 3d 40 27 2c bd e0 27 96 3d 2f 5d cf bc
       0.06120717 -0.04202962 0.07331824 -0.025312988
0002b0 8c b9 2d bc 6c c4 09 bd 4a 05 82 3d 0a c6 b2 bd
       -0.01060332 -0.033634588 0.06348665 -0.08729179
0002c0 64 80 dd 3d 4b bd ec 3d 2b 4f d3 bd 4f 3e b1 bd
       0.10815504 0.11559542 -0.103178345 -0.086544625
0002d0 fd 75 b9 bd 16 6c cc 3d 08 4c a9 bd 43 ed 1b bd
       -0.090557076 0.09981553 -0.08266455 -0.038068067
0002e0 47 8d f4 bc a3 7f 94 bd bb bc 17 bd c7 ad ee bd
       -0.029852523 -0.07250907 -0.03704522 -0.11654239
0002f0 f6 cb 9f bd c3 80 63 bc fb 2f db 3c 57 08 bf bd
       -0.07802574 -0.01388568 0.026756277 -0.093277626
000300 9a a4 ba bd 79 f5 14 3d 36 4a 9a 3d f9 bf ab 3c
       -0.091134265 0.036366913 0.07533686 0.020965563
000310 c6 dc c6 3d 90 f2 a0 bd 58 a7 8a bd 7f 03 bd bd
       0.09710078 -0.07858765 -0.067701995 -0.092291825
000320 8f 06 0a bc f5 a6 21 bc 3a 4e 5c bd e3 47 b4 3d
       -0.008424415 -0.009866466 -0.05378554 0.08802774
000330 b3 44 bb 3d c0 e1 4f 3d a7 f9 d2 bd b1 a9 9f 3d
       0.09143963 0.0507524 -0.10301524 0.07796038
000340 d7 e8 c2 bd b7 8c 78 bd 48 25 41 bd 5c d6 9f 3d
       -0.09517067 -0.06068107 -0.047154695 0.07804558
000350 4f 72 3d bd c6 d1 c9 bd f9 91 3e 3c 7d a0 ff bb
       -0.04625159 -0.09854464 0.011631482 -0.007801114
000360 49 71 02 bc 48 6c 00 bd 0c 6b 88 bd 52 6a a3 bd
       -0.00796158 -0.031353265 -0.066610426 -0.07979263
000370 48 27 cd 3d 19 23 ee bd a3 f2 cd bc 93 67 db 3c
       0.10017258 -0.11627788 -0.025140112 0.026782786
000380 ea 44 02 be 1e 9c c3 3c 15 c9 da bb 39 b2 98 bd
       -0.12721601 0.023878153 -0.006676803 -0.07455868
000390 4a c7 b9 bd ab ec 1b bc 9d 29 be bd 0e 42 a5 3d
       -0.090712145 -0.009516875 -0.09285281 0.080692396
0003a0 cd a8 53 bd 83 22 92 3d 79 63 49 bb e1 c8 93 bd
       -0.051674653 0.07135489 -0.0030729456 -0.07216049
0003b0 39 74 1f bd e2 37 7a 3c 52 71 c6 bd 3f eb fa bb
       -0.038929198 0.015272113 -0.09689583 -0.007657438
0003c0 75 89 87 bd 79 37 51 3d 6d 74 02 3e 18 8b 1a bc
       -0.06618015 0.051078293 0.12739725 -0.009432577
0003d0 60 08 87 3d e4 2f ca bd 1c 93 da bc a8 a0 88 3d
       0.06593394 -0.09872416 -0.026681475 0.06671268
0003e0 fd 6b a6 bd 76 c7 e7 3d 6b e0 04 be 2a 79 0a bd
       -0.08126066 0.11317341 -0.12976234 -0.033806957
0003f0 e3 c2 e5 3d f9 30 02 bd 2f 7d 0b 3e ad 8d 8d bc
       0.11218812 -0.031784985 0.13621973 -0.01727947

lstm.bias_ih_l1 f4 [256]
000000 5f fd e7 3d 21 9e 53 3d 56 8a a1 bd 2a f0 0d 3e
       0.113276236 0.051664475 -0.078877136 0.13861147
000010 97 5c 08 3c 4f fb ed 3d 67 52 65 bd 30 25 74 bd
       0.008322856 0.11620199 -0.055986788 -0.059605777
000020 92 f6 fb 3d 7f 6e a3 3d b0 81 3a bd 85 fb a2 bd
       0.12302889 0.0798006 -0.045533836 -0.0795813
000030 39 9d d4 bd 66 bc d3 bd 22 c0 28 3b 2c 5c 97 bd
       -0.1038155 -0.103386685 0.0025749286 -0.07390627
000040 f3 1a 34 3d ae cc 06 be e4 6e 88 3d 87 a7 3f bd
       0.043971013 -0.13164017 0.06661776 -0.046790626
000050 f6 d9 16 bd 01 05 d4 bd 50 07 b6 bd 88 ea 8b bd
       -0.036828957 -0.10352517 -0.088881135 -0.06831843
000060 11 ca a7 bd 80 e1 19 bd 2a c3 da 3c 81 80 e6 3d
       -0.08192838 -0.03756857 0.02670439 0.11254979
000070 57 7b 8e 3d 42 40 a5 3b f0 3d 17 bd 92 65 86 3d
       0.06957119 0.0050430605 -0.036924303 0.06562342
000080 35 8d 6e bd 20 dd 0d 3e b5 b5 55 3d 73 f2 9b 3d
       -0.058240134 0.13853884 0.052175242 0.07614603
000090 54 f7 cb bd b9 45 25 3d 03 e2 7b bd 24 ae 59 39
       -0.099592835 0.040349696 -0.06149484 0.00020759605
0000a0 24 e3 44 3d 53 4c 92 bd b9 6a c1 3d 43 4a 46 bd
       0.04806818 -0.07143464 0.09444184 -0.048410665
0000b0 88 ac bb bb df de 99 3d db 1b 87 3c f0 a9 1d 3d
       -0.0057273544 0.075132124 0.016492775 0.038492143
0000c0 b2 61 d9 3d 76 af cb 3d 25 a3 db bb 3b 2e 06 be
       0.10614337 0.09945576 -0.006702798 -0.13103573
0000d0 5b 36 59 bd 6b a3 ff bc b0 c0 ae 3d 5d 2c fc bd
       -0.053030353 -0.031205853 0.08532846 -0.12313149
0000e0 01 59 ad 3d a9 71 2e 3d 9d cd 62 3d 30 53 c8 bd
       0.08464242 0.042588864 0.05537187 -0.09781492
0000f0 f0 ff b4 bd e3 4b 6e bd 2d da e8 3d 9f 75 e9 bc
       -0.08837879 -0.05817784 0.11369739 -0.028498469
000100 94 5b eb 3d 9f aa 02 be 11 c3 15 be 36 9d 00 3d
       0.114920765 -0.127604 -0.14625193 0.031399928
000110 69 ad 77 3d d4 1e 00 be f4 26 d5 3d f9 a2 e7 3d
       0.06046811 -0.1251176 0.1040782 0.113103814
000120 6e 41 c2 3d 7f 2b 77 3d b3 c1 f8 bd 59 5d 6f bd
       0.09485136 0.060344215 -0.1214632 -0.058438633
000130 3c 5f 37 3d a6 a4 d5 bd be 69 bc bd f4 c5 48 bc
       0.044768557 -0.10431795 -0.09199856 -0.012254227
000140 c5 b1 a8 3d d5 51 1a bc 97 85 d5 bd 19 c0 d2 bd
       0.08237032 -0.009418924 -0.10425871 -0.10290546
000150 9b 00 0c 3d 1a d1 d1 bd 95 8d 12 bc 7f 7e d1 bd
       0.034180265 -0.10244961 -0.008944889 -0.10229205
000160 8a e2 1e 3d 05 4d 9e 3b d6 98 ca bd 72 7a 23 bd
       0.038790263 0.004830959 -0.098924324 -0.039911695
000170 1b 01 00 be 8f 85 9d 3d be 79 dd 3d 41 6e b5 bd
       -0.12500422 0.0769149 0.10814236 -0.0885892
000180 32 ce 66 bd ab a2 dd bd 97 93 c3 3c b3 f6 8c bd
       -0.056348987 -0.10822042 0.023874087 -0.06882992
000190 b1 72 a6 3d be 3f 5f 3d 75 df af bd 15 82 03 3d
       0.081273444 0.05450415 -0.08587543 0.032106478
0001a0 47 2a 18 3d 61 a9 04 be 97 c0 d4 3d 44 b7 6d bd
       0.037149694 -0.12955238 0.10388296 -0.058036104
0001b0 71 01 fc bd 76 29 b3 bd 8b 1d 6b 3d 28 5a 8c 3d
       -0.123049624 -0.087481424 0.05740122 0.068531334
0001c0 0e e7 0c be 9b 28 7a bc 4f cc 03 bd 9f 27 89 3d
       -0.13760015 -0.01526847 -0.032177266 0.0669701
0001d0 48 ab 83 3d 21 30 d6 3b 1f 86 7b 3d 35 b6 2a 3c
       0.06429154 0.006536499 0.061407205 0.010419418
0001e0 f8 ee e8 bd 2e 3b 52 3d eb 2a 2a bd 79 03 a9 bd
       -0.11373705 0.05132597 -0.041544836 -0.082526155
0001f0 b9 3c 4e bd 2f a5 bf bd 62 28 8c 3d 89 ca fd bd
       -0.05035088 -0.09357678 0.0684364 -0.12392146
000200 b1 f5 60 3c 56 fa 92 bc e7 87 b0 3b 4c 91 55 3d
       0.013730452 -0.017941635 0.0053872946 0.05214052
000210 d5 d1 1f bd 87 4c af 38 7b 97 3b bd 83 18 ae bd
       -0.03901847 8.3589046e-05 -0.04579876 -0.08500769
000220 e6 22 7b bd b2 98 b6 bd 07 cb d1 bd 54 4d 0b bd
       -0.06131258 -0.08915843 -0.102438025 -0.034009293
000230 72 47 bc 3d c5 7e 75 3d 3d 66 db 3c 6e c3 dc bb
       0.091933146 0.05993535 0.02678215 -0.006737164
000240 c9 0f 9e bd 4d 63 1b 3d 1c 75 14 bd 4c 29 c6 3d
       -0.077178545 0.037936497 -0.036244497 0.096758455
000250 e2 5a 03 bd 46 f5 d1 bb 6e b0 d2 3c c7 11 33 3d
       -0.032069094 -0.0064074127 0.025718894 0.043718126
000260 c3 d8 93 bd b6 71 fe 3c d8 27 c1 3d 10 21 c1 bd
       -0.072190784 0.031060081 0.09431428 -0.09430134
000270 03 a6 bf 3d b4 f0 cc 3d 23 c9 f0 bd ba 5f 8d bd
       0.09357836 0.10006848 -0.11757114 -0.06903024
000280 18 e8 a5 bd 3b b8 98 3d dc fd 9d bd 34 81 72 bd
       -0.08100909 0.07457014 -0.077144355 -0.05920525
000290 5e 85 bb bd 5a 4d 28 3d 6c f7 96 bd f0 27 22 3c
       -0.09156297 0.041089393 -0.07371411 0.009897217
0002a0 a3 64 72 bd 46 f4 d9 3c 18 9b 8f bd 25 cc 49 3c
       -0.059178006 0.026605736 -0.07012004 0.012316738
0002b0 b4 e7 d4 3c 62 e3 49 bd 5a 34 da 3c 50 b6 ad bd
       0.02598939 -0.049289115 0.026636291 -0.08482039
0002c0 13 8a dc 3d 9a ff 0c 3d 38 fd 6f bd 27 1a 6f bd
       0.10768523 0.03442345 -0.058591098 -0.05837455
0002d0 6d b8 ad 3d 40 f2 5e 3d 20 15 a6 3d 35 73 d4 3c
       0.08482442 0.054430246 0.08109498 0.025933841
0002e0 17 30 55 bc 1b 63 7e bd bf 32 8b bd ec b1 e3 bc
       -0.013011954 -0.062106233 -0.067967884 -0.0277948
0002f0 5b 96 c7 3d 2a f4 ba 3c 4c 68 02 3e d7 3d 55 3c
       0.09745475 0.022821505 0.12735099 0.013015232
000300 bd 63 8e bd a1 14 64 3c e2 2b 1f bd da f3 0d 3e
       -0.06952617 0.013920934 -0.03886021 0.13862553
000310 fe e5 09 3e a6 b6 f0 3d 61 10 8a bd d3 54 8c 3c
       0.13466641 0.117535874 -0.06741405 0.017130291
000320 7b f2 e2 3d 06 4c 35 bc f2 62 d5 bd a3 1e e8 bd
       0.11081406 -0.011065489 -0.10419263 -0.113339685
000330 d5 47 9c bd c3 a3 15 bd a7 95 25 3c 44 5b 7b 3d
       -0.076308884 -0.03653313 0.010106481 0.061366335
000340 35 42 d1 b9 a2 36 8e bd 19 d2 99 3d a1 8e 10 bd
       -0.00039912915 -0.06944014 0.07510776 -0.03529227
000350 7d ab f9 bc 06 5a 19 bd a5 84 66 3c cf 7e 92 3d
       -0.03047728 -0.03743937 0.014069711 0.07153093
000360 b0 f9 c2 3d c6 51 30 bc 2a 7b d9 3d 7d 6e 81 bb
       0.0952028 -0.010761684 0.10619195 -0.003949939
000370 0f c0 56 3d b0 d3 d6 3c 7b 99 f3 3d 87 4e 4e 3d
       0.052429255 0.026223987 0.118945085 0.05036786
000380 01 9b 15 bd 7d 08 02 3e 34 1f de 3d 82 dd 1e bd
       -0.036524776 0.1269855 0.10845795 -0.038785465
000390 ee d1 20 bd 24 60 5b bd 69 df 50 3b a7 71 a3 3d
       -0.039262705 -0.053558484 0.0031871444 0.07980662
0003a0 eb ac 9e 3d fb 27 99 3d 1c 40 4a bd bb a3 97 bd
       0.07747825 0.07478329 -0.049377546 -0.07404276
0003b0 cb d7 3f 3d 0c 79 04 bd bf 16 80 bd c5 31 1e bc
       0.046836656 -0.032342 -0.062543385 -0.009655421
0003c0 19 a7 c0 3d ad c7 92 3d 0c 37 05 3e dc 09 f8 bc
       0.09406871 0.071669914 0.1300928 -0.030278139
0003d0 b7 88 cc 3d b9 a7 92 3d 3f fa 45 3d ff 85 89 3d
       0.09987014 0.07160897 0.048334356 0.06715011
0003e0 3f 94 fb bd f6 e3 85 bd 96 f2 95 3d 06 89 a2 3d
       -0.12284135 -0.06537621 0.0732166 0.079362914
0003f0 0c 39 dc bd 4c b8 b6 3d 13 19 27 3d ef ea 52 3d
       -0.10753068 0.089218706 0.040795397 0.05149358
