samsung_ohlc_lstm_multistep.pt (torch, 217093 bytes, 10 tensors)

lstm.weight_ih_l0 f4 [256, 4]
000000 22 81 58 3d 67 cb 74 bc c7 51 59 3d fb dd 4f bd
       0.052857526 -0.014941073 0.053056505 -0.050748806
000010 0d 54 4a 3d 25 fa 6a 3e f0 48 81 3c b7 fd 10 3e
       0.049396563 0.22946985 0.01578185 0.14159285
000020 57 3f ad bd e9 53 e6 3d 35 b6 c7 bd e4 28 18 3e
       -0.08459347 0.11246473 -0.0975155 0.14859349
000030 59 bc 55 bd 97 32 75 bd 8b 07 8d bd fe cf 0a bd
       -0.052181575 -0.0598627 -0.06886204 -0.033889763
000040 b2 d9 bf 3d 6b 22 96 3d 1c 40 c9 bc 41 c9 d5 bd
       0.09367694 0.073307835 -0.024566703 -0.10438777
000050 ab 04 04 3e 6a 9a c3 3d d0 f6 ae bd 0f b8 ac 3d
       0.12892406 0.095509365 -0.085431695 0.08433544
000060 6f 2b 91 3d b6 06 02 3c 1c 32 7f 3d ee 8e 25 3e
       0.070883624 0.00793617 0.062303647 0.16167805
000070 9d 7c a2 3d 91 25 1d bc b7 8b 33 3e b0 db 8b 3d
       0.07933924 -0.009591476 0.17533766 0.068290114
000080 78 f2 91 bd e0 ba c8 3d 18 c1 0e 3d 17 89 eb 3c
       -0.07126325 0.098012686 0.034852117 0.028751893
000090 29 ce 23 3e 90 cb 42 ba d5 c7 63 3d 60 f4 1f ba
       0.15996613 -0.0007430846 0.055610497 -0.00061017834
0000a0 32 fd 7b 3d d6 86 19 bd 07 ab 00 bc 76 cf 87 3d
       0.061520763 -0.037482105 -0.007853276 0.06631367
0000b0 04 53 a2 3d 0a fb 30 3d 53 24 ea 3c 2d 98 1e bc
       0.0792599 0.04320816 0.028581774 -0.009679836
0000c0 c8 d7 bc 3b ab 91 9b 3c f3 b1 2a 3d 54 af 17 bd
       0.005763028 0.018990358 0.04167361 -0.03703244
0000d0 85 71 1f 3e 82 f6 17 3d 7d a3 1e 3c 58 05 cb 3c
       0.15570648 0.037100323 0.009682533 0.024782822
0000e0 0c 45 9d 3d c3 bf 99 3d 45 62 fc 3d 2f e9 32 bc
       0.07679185 0.07507279 0.12323431 -0.010919853
0000f0 a2 d1 21 3c 27 37 18 bd 59 78 2a 3e 14 98 09 3e
       0.0098766405 -0.037161972 0.16647471 0.1343692
000100 90 8f b9 3d 72 00 0f 3d fc c0 d7 3d 80 31 b8 3c
       0.090605855 0.034912534 0.10534856 0.022484541
000110 0e 69 1c 3d 36 9a 33 bc 5b 47 2f 3e 19 fb 0b 3d
       0.038186125 -0.01096206 0.17117064 0.034175012
000120 7d 6c 0e bd 2c 9d dd bc ae be 4e 3d b5 b2 89 3d
       -0.03477143 -0.027052484 0.050474815 0.06723539
000130 58 11 c6 3c d5 9b 09 bd 11 ba 4c 3d 65 ae a2 bb
       0.024178192 -0.03359588 0.049982134 -0.004964637
000140 04 17 32 bd 8a 70 5e 3d eb 1a d9 bc fd 15 23 3e
       -0.04347898 0.054306544 -0.026502093 0.15926357
000150 c2 46 35 3c b1 cd c9 3d 0b e0 3a bd 4c 4d 89 3d
       0.011064233 0.09853686 -0.04562382 0.06704196
000160 11 09 2d bd b4 26 3f bd 39 d2 15 3e 5d 6b 20 3e
       -0.042244975 -0.04666777 0.14630975 0.15665956
000170 dd d5 a5 bc 37 2e 00 3d 03 46 8f bd b4 86 20 3a
       -0.02024358 0.031294074 -0.069957756 0.0006123588
000180 17 10 1e be 34 56 c0 bd ce bd 10 bd fe 9c 14 be
       -0.15435825 -0.09391442 -0.03533726 -0.14513013
000190 8f 4d f9 3d 55 5e 0e bd 13 05 f5 3d 63 48 0d 3d
       0.12172996 -0.03475793 0.119638585 0.03449286
0001a0 ad c3 aa 3d 56 02 ae ba 75 7c c8 bc a4 65 06 3d
       0.083381034 -0.0013275843 -0.024473408 0.032811776
0001b0 c0 34 cf bc dc 91 a7 3d d4 49 c8 3a 53 75 8c bc
       -0.025293708 0.08182117 0.0015280792 -0.017145788
0001c0 f8 2c 9d bc 13 14 0f 3d 50 d7 30 3d 69 0c 01 3e
       -0.019186482 0.034931254 0.043174088 0.1260239
0001d0 6d b6 a0 3b e7 0f 50 bd 0a b7 cf 3c 84 d5 c8 3d
       0.0049045593 -0.050796416 0.025355835 0.0980635
0001e0 72 10 a6 bb 24 07 20 3e 14 af 71 3d 32 58 d5 3d
       -0.0050678784 0.15627724 0.059004858 0.104172125
0001f0 dd 5f 9b 3d f2 6e 3a bd d9 9d ff 3d 31 a0 ed 3b
       0.07586644 -0.045515962 0.12481279 0.0072517623
000200 20 63 cb 3d e9 b3 79 bd 02 b3 e7 3d 73 18 af 3d
       0.09931016 -0.06096259 0.1131344 0.08549585
000210 70 53 bd 3d b0 e2 8c 3c 18 d2 8c bd 29 d1 af bc
       0.0924443 0.017197937 -0.0687601 -0.02146204
000220 dc 84 87 bd 80 ee 20 3d 8c 78 eb bd 60 cd fd 3c
       -0.06617138 0.03928995 -0.11497602 0.03098172
000230 0e 91 9f 3d 83 cd 6d 3d 41 87 bf 3d aa f8 f7 3d
       0.07791339 0.05805732 0.093519695 0.12107976
000240 e7 be e7 3d bc 73 0f 3e 4f 91 0a bc 53 4c 01 3e
       0.113157086 0.14008993 -0.008457496 0.12626772
000250 d2 1c 25 be 9d a8 23 be 5d 5e ed bc ca bf a1 3d
       -0.16124275 -0.1598229 -0.02897566 0.07897909
000260 3e 02 19 3e ea 32 0a 3e 99 50 4a 3d 22 b9 07 3e
       0.14942262 0.13495985 0.04939327 0.13254216
000270 42 b1 84 3d 4a 67 64 bd 36 7e e9 3d 69 09 02 3c
       0.06479122 -0.055762567 0.11401026 0.007936814
000280 0c dd 13 3e ed ac 06 3e 8d 18 36 3e 8e 85 bb 3c
       0.14439791 0.13151903 0.17782803 0.022890832
000290 10 fd 63 3d 38 af 8c 3d 63 c8 2a 3d 41 47 92 3d
       0.05566126 0.06869358 0.04169501 0.07142497
0002a0 3d 48 f0 3d 60 2a 87 3d 44 42 b3 3d cb 0a 97 bd
       0.11732528 0.06599879 0.087528735 -0.073751055
0002b0 b4 07 9b 3d 43 87 95 3d 13 d7 1d 3e 92 cd 1a bd
       0.07569829 0.0730119 0.15414076 -0.037793703
0002c0 fc 62 a5 bd 7c a2 88 3b fd 69 49 3c 7c e7 f1 3b
       -0.080755204 0.0041697603 0.012293336 0.0073823314
0002d0 67 fc 69 3d cb ad d8 bb 94 46 93 3c 47 28 4e 3d
       0.057125475 -0.0066125146 0.01797799 0.05033138
0002e0 9f d0 b5 3d 54 ce 8c 3d 0f a9 14 3e ff cd 18 3e
       0.08877682 0.068752915 0.14517616 0.14922331
0002f0 fe b6 5b bd fb 3a 3a bc d9 05 12 bd a7 1e 06 3e
       -0.05364131 -0.011366601 -0.035650108 0.1309763
000300 cd 56 2f 3d 3b 48 15 3e ae ae 63 3d 63 9d 1d 3e
       0.04280739 0.14578335 0.05558651 0.1539207
000310 14 db d1 3d 50 f4 be 3d cf 62 35 39 64 38 5b 3d
       0.10246864 0.09323943 0.00017298314 0.053520575
000320 a1 2e 8c bd de 0b 82 3d 96 91 c5 bc 98 96 18 3e
       -0.06844831 0.0634992 -0.024117272 0.14901197
000330 da 88 61 bc 04 63 da bc b7 b8 99 3d af 5c f7 3c
       -0.013765538 -0.026658542 0.07505935 0.030195562
000340 ea 83 37 3e 3f 48 af 3d 10 52 b2 3d 12 e1 15 3e
       0.17921415 0.08558702 0.087070584 0.14636639
000350 b5 42 f5 3d ff e4 f1 3d 37 d2 ed 3d 5c 47 0f 3c
       0.11975614 0.11811256 0.11612361 0.008745041
000360 14 5a 4e bd 6d 12 20 3d 9d 4a 53 bd 20 69 9b bc
       -0.050378874 0.039080072 -0.05158483 -0.018971026
000370 1d 09 97 bd 43 04 80 bd 8f ab a1 3d 17 5f 67 3d
       -0.07374785 -0.06250813 0.0789405 0.05648717
000380 ac 25 1e 3e 0b f8 4d bd 04 55 f7 3d 8e 83 cd 3d
       0.15444058 -0.05028538 0.12076762 0.10034858
000390 3c d6 98 bd c9 a2 6c bc ab 92 d0 3d 59 d9 ba bd
       -0.07462737 -0.014443108 0.10184225 -0.09123487
0003a0 e1 81 3e bc 0e 99 f0 3d 47 60 b4 3d 8e 82 f7 3d
       -0.011627645 0.11747943 0.08807426 0.12085448
0003b0 68 e0 2a bc c4 c5 a2 3c 8e d7 87 3d b4 77 e5 3d
       -0.010429479 0.019869693 0.06632911 0.11204472
0003c0 5f ea 84 bc f8 3e 0d 3e 4c e4 77 bd 73 0a 4a 3d
       -0.016225038 0.13793552 -0.060520455 0.04932637
0003d0 58 db 6b 3d 3d de 15 3e 68 f7 94 3d 32 0b d3 3d
       0.05758223 0.14635558 0.072737515 0.1030487
0003e0 e2 ce b1 3d f0 c8 ac 3d e2 c8 e2 bb 52 9b 10 bd
       0.08682038 0.08436763 -0.0069209198 -0.035304375
0003f0 23 65 7b bd dd 3e 80 bd 8c 64 22 3e f9 de 9a bd
       -0.06137575 -0.0626199 0.15858668 -0.0756206

lstm.weight_hh_l0 f4 [256, 64]
000000 dd c4 57 bd 5d 83 a4 bd 6f e4 0b bb 8f 5c 54 bd
       -0.052677978 -0.08032868 -0.0021345874 -0.051846083
000010 b3 00 9d bd 58 65 1b bd f1 61 9d bd 1b 82 25 3d
       -0.07666149 -0.037938446 -0.076846965 0.04040728
000020 a7 1a fd bc 09 30 de bd 7f c7 8a bd 90 5d 44 3d
       -0.030896498 -0.10849006 -0.06776332 0.04794079
000030 57 df 86 3c 9c 12 08 be 90 5d 91 bd 14 8e 3d bd
       0.016463919 -0.13288349 -0.07097924 -0.046278074
000040 29 71 08 be 32 8a b8 bd 71 fd 64 3d fa 23 b2 3c
       -0.13324417 -0.09010734 0.055905763 0.02174567
000050 a4 f9 ea bc 04 7b ad 3d d9 0a fd bc 08 1c 74 bb
       -0.028683491 0.08470729 -0.030888962 -0.0037248153
000060 75 1b c8 bc cc 2c 59 3d d9 14 86 bd 6e 9b 2c bd
       -0.024427155 0.053021237 -0.06546945 -0.042140417
000070 2b ff c8 3d 6d ef 4c bc 48 e5 48 3d 6c 09 e4 bc
       0.098142944 -0.012508255 0.049046785 -0.027836524
000080 ac 09 5f 3d 12 6b d1 bd 8c b4 a1 3d e1 95 89 3d
       0.054452583 -0.102255 0.07895765 0.0671804
000090 13 00 e6 3d 93 5e 52 bd ca f3 73 bd fa 61 a0 bc
       0.11230483 -0.051359724 -0.059558667 -0.019577969
0000a0 10 06 a4 bd 3a 00 c5 bd 2d c4 94 3d 7c bb 36 3d
       -0.08008969 -0.09619184 0.0726398 0.044612393
0000b0 9d 5d cc 3c a2 b8 81 bd 66 42 b2 bc cd 3f 16 3d
       0.024946982 -0.06334044 -0.021760177 0.03668194
0000c0 cc 36 b2 3d b6 89 44 bc 85 ed f4 bd 3a 08 df ba
       0.08701858 -0.0119957235 -0.11959366 -0.0017016002
0000d0 e2 86 0f 3e c5 87 16 3d 61 c4 e5 bc cd 2e da 3d
       0.14016297 0.036750574 -0.028047742 0.10653458
0000e0 49 4b ed bc 95 1c f0 3d 83 4f 44 3c 23 be 81 bd
       -0.028966563 0.117242016 0.011981848 -0.06335094
0000f0 c1 ac 88 bd 9b 9f 3e bc 22 f8 b1 bd bf ef 82 bd
       -0.06673575 -0.011634733 -0.08689906 -0.06393384
000100 b3 80 1c be 96 bb c7 bd f2 ab 08 3e 65 d9 df bb
       -0.1528347 -0.09752576 0.13346842 -0.0068313354
000110 9c 9e 5f bd f5 0a d0 3c 28 7c 43 3e f4 1c 20 3e
       -0.05459462 0.02539585 0.1909033 0.15636045
000120 50 5c 53 3d 3d ff d4 bc 33 ed 19 be 32 c3 04 3e
       0.051601708 -0.026000613 -0.1503189 0.12965086
000130 3c 04 99 3d 5d 61 ae bd 14 fb d5 3c 32 ec 23 bd
       0.07471511 -0.08514664 0.0261207 -0.040020175
000140 94 f6 53 3c cf 5a 2a 3e 84 bb 86 3d 94 a2 0e 3e
       0.012937207 0.16636203 0.065787345 0.13929206
000150 94 2c 0e bd 7b a8 ff 3d 69 04 2a 3d 3d b5 1d 3e
       -0.03471048 0.12483307 0.041508112 0.15401168
000160 6f 64 c1 3c 0d de 20 3e 1f 28 36 3c e8 c1 cd bb
       0.02360746 0.15709706 0.011117964 -0.006279219
000170 26 66 e5 3d f6 f0 97 3d 89 1a c2 bd 40 a5 94 bd
       0.11201124 0.074190065 -0.094777174 -0.072580814
000180 e1 07 9f 3c 4c 81 f6 bd 4d 65 11 bd 87 6a bc 3d
       0.019412937 -0.1203638 -0.035497 0.09200006
000190 ef 8b 40 3e 5b 2c c6 3d f6 a4 2f bd ff 26 63 ba
       0.1880338 0.09676429 -0.04288193 -0.00086651737
0001a0 9a c4 16 3d c1 58 08 be 38 6f 37 bd 45 f3 e1 bd
       0.036808588 -0.13315107 -0.0447838 -0.11032728
0001b0 41 af 16 bd e5 7c 65 3c 26 75 c1 bc 0b b5 0e 3e
       -0.03678823 0.014006828 -0.023615431 0.1393625
0001c0 07 6d a4 3d fe f9 8f bc 1f 60 0f be fc 04 c1 bd
       0.08028608 -0.01757526 -0.14001511 -0.09424779
0001d0 cc 5b 18 3e 68 36 f8 3c 34 19 82 bd d2 c4 d3 3d
       0.14878768 0.03029938 -0.06352463 0.10340275
0001e0 07 96 7d bd 46 22 47 3d 26 6d 08 be e6 4e 88 3d
       -0.061910655 0.04861667 -0.13322887 0.06655674
0001f0 4f f0 e4 bd ba 9a 81 3d 7c 43 88 3c fc d5 17 3d
       -0.11178648 0.0632834 0.016633742 0.037069306
000200 22 4e 16 3c 0e fe d5 3d 3c 24 cf bd 59 9c 1b bd
       0.009173902 0.10448848 -0.10114333 -0.0379909
000210 f2 9f b2 3d ab b1 4b 3c 1d ba db 3d 26 ae 69 bd
       0.087219134 0.012432496 0.10728858 -0.057050847
000220 d2 6b 22 bc 4b 70 2b 3d 76 aa df 3d 9f 45 f1 bd
       -0.009913402 0.041855138 0.10921185 -0.11780857
000230 d3 96 2f 3d cd f8 d5 3d ea d0 d1 3d 15 63 8b bd
       0.042868447 0.104478456 0.10244925 -0.06806008
000240 49 d2 e8 bd 46 a4 88 bc 81 39 ce bd d8 81 96 bd
       -0.11368234 -0.016679894 -0.10069562 -0.073489845
000250 71 25 56 bd 8a be da 3d 79 f2 ec 3d 61 be c3 3c
       -0.0522818 0.10680874 0.115696855 0.02389449
000260 1a 84 ae bd 65 f0 fb bb 18 71 e6 bb 01 67 b3 3d
       -0.0852129 -0.0076885694 -0.007032525 0.08759881
000270 94 e3 10 3c 49 32 d7 3d 61 90 cb bb 74 55 69 bd
       0.008843321 0.10507638 -0.0062122797 -0.05696626
000280 3e cd 50 bc 2b 46 20 3d a6 ba 50 bd 7f 3a ee bc
       -0.012744246 0.039129417 -0.05095925 -0.029080627
000290 c1 5a 11 3e a8 d1 c4 bd 39 0d b2 bd 45 ff 2e 3b
       0.14194776 -0.09610301 -0.08693928 0.0026702445
0002a0 51 2b b8 bd c6 77 22 bd 94 47 dd bd c9 e5 f1 3d
       -0.08992637 -0.039665006 -0.10804668 0.11811406
0002b0 a0 b5 cd bd ef ff d7 3d 3b 1b da 3d 1e 90 d0 3d
       -0.10044408 0.10546862 0.10649725 0.10183738
0002c0 0e 5e 68 bc c9 f5 5f bc d8 0b f3 3d 5b 58 95 bd
       -0.014182581 -0.01366944 0.118674934 -0.07292243
0002d0 87 9a 7e bd f1 f7 fa bd ea b6 5e 3d 6d 04 df 3d
       -0.062159088 -0.12254322 0.05437366 0.10889516
0002e0 c7 fa 0e 3c 43 4a a4 bd 51 84 59 3d a5 58 44 bc
       0.008726782 -0.08021977 0.053104702 -0.011984025
0002f0 8d b4 da bc 3a a3 26 bc f3 50 97 3c 4a cc be bd
       -0.026697421 -0.010170752 0.018471217 -0.09316309
000300 97 95 14 be 02 af ed bd 27 05 aa 3d f2 a4 ca bb
       -0.14510189 -0.11605646 0.08301764 -0.006184214
000310 72 95 47 bd 32 b3 e2 3c 4f 9a 61 bd 75 f4 44 bc
       -0.048726507 0.027673338 -0.0550788 -0.012021174
000320 95 68 63 bd 3a 40 7b bd 7e 80 bf bd 92 48 95 bd
       -0.05551966 -0.061340548 -0.0935068 -0.07289232
000330 03 8d 4a 3d 77 a9 b1 bd b2 0f d0 3d c0 5e c0 3d
       0.049450886 -0.08674901 0.10159244 0.09393072
000340 65 74 d4 3d d8 ff ca bd 6c 7c af 3b 8c f5 ac bc
       0.10373763 -0.099120796 0.0053554084 -0.02111318
000350 58 3a e7 3d dc 70 b5 bd 31 3d c7 3c ed 6e d2 3d
       0.11290425 -0.08859417 0.02432117 0.10275064
000360 d4 7d 8c 3d 9d 16 8f bd d4 af 03 3e f5 10 34 3d
       0.06859937 -0.06986735 0.12860042 0.043961484
000370 74 49 5f 3d 2a 89 01 be b8 6f ec bd 07 4e cc 3d
       0.05451341 -0.1264998 -0.11544746 0.0997582
000380 9a 7a e0 bd cc ed f8 bd c9 91 94 bc 2b ec 35 3d
       -0.109608844 -0.12154731 -0.018135922 0.04441468
000390 b0 c0 31 bc 10 a6 b7 3c 25 93 34 3d a4 0f 19 3d
       -0.010849163 0.022418052 0.04408564 0.03736843
0003a0 cb 3b 18 3d 8a 39 be bd ae fc 98 bd e2 05 5c 3d
       0.037166398 -0.092883185 -0.0747007 0.053716548
0003b0 51 54 cd bc ee 71 a5 3d e0 1f c6 3d 8e 69 50 bd
       -0.02506462 0.08078371 0.096740484 -0.050881915
0003c0 76 4a b0 bc c7 c5 a8 bc 7e 0e 36 3d 02 6c da 39
       -0.02151988 -0.02060212 0.044447415 0.00041660672
0003d0 3b 4d 13 bc 21 00 9a 3c 2c a3 3a 3d d4 d3 9e 3d
       -0.008990581 0.01879889 0.04556577 0.07755247
0003e0 60 87 98 3d b0 2b 56 bb c5 d6 42 bd d2 cc bc 3d
       0.07447696 -0.0032679848 -0.0475681 0.09218754
0003f0 91 cb 84 bd 5e 61 04 bd a0 dc 65 bd d1 16 a8 3d
       -0.0648414 -0.03231942 -0.056118608 0.08207477

lstm.bias_ih_l0 f4 [256]
000000 e0 16 c8 3d 21 f6 de 3d 6d 18 37 3c 96 4a fb 3c
       0.09769988 0.10886789 0.011175257 0.030675214
000010 46 be 0e be 9a 13 bb bd 0b aa d8 bd c4 08 5f bd
       -0.13939771 -0.09134598 -0.10579308 -0.05445172
000020 1b fa 6f 3d 6e 07 5c bd d4 ee 29 3c f0 f6 06 3e
       0.05858813 -0.053718023 0.0103718825 0.13180137
000030 fa bc 0c 3d fb 0e ca 3b f0 3e 68 3c a4 a7 a0 bd
       0.03435991 0.0061663366 0.014175162 -0.07844475
000040 fd 65 1f bd 22 6c 3a bd 1c c3 77 3d 44 05 88 3d
       -0.038915623 -0.04551328 0.060488805 0.06641629
000050 de f2 4d ba e6 11 e2 3c af 7b ff 3b 5b da 04 3a
       -0.00078563194 0.027596425 0.0077967267 0.0005067938
000060 f4 f4 80 bd 3d 7a e1 3d fc a9 00 bd aa 43 b1 bd
       -0.06296721 0.11009643 -0.03141211 -0.08655484
000070 25 2a d9 bd 4f 44 34 3d 7d 84 e8 bd c2 7b 61 3d
       -0.106037416 0.044010457 -0.11353395 0.055049665
000080 fa e1 b5 3d c1 f1 76 3d 58 be 60 bd a6 05 fd 3d
       0.08880992 0.06028915 -0.054869026 0.12354593
000090 b6 a7 38 3e 4c b3 04 3e bf 5c 0e 3e 1a 36 3e bd
       0.18032727 0.12959021 0.13902567 -0.046438314
0000a0 0f 49 0d 3d cf 40 61 bc 29 36 4e 3d 18 0c 09 3d
       0.034493502 -0.013748362 0.05034462 0.0334588
0000b0 61 5d 42 3d bb 7f 82 3d 12 03 7f bc 97 69 b1 bd
       0.047452334 0.06372019 -0.015564697 -0.08662718
0000c0 a2 8d 6a bd aa d6 9f 3a 0e ba f8 bc fa 50 db bd
       -0.057263978 0.0012194712 -0.030362155 -0.107088044
0000d0 89 04 75 bd 3f 08 c5 bb 0d 20 dd 3d e6 0c 2a bc
       -0.05981878 -0.006012946 0.10797129 -0.010379052
0000e0 e1 61 1f 3e 1b 28 a1 bd 24 e3 c5 bd b0 b2 27 bb
       0.15564682 -0.07868978 -0.09662464 -0.0025588684
0000f0 41 12 ad 3d 84 82 f9 3d e8 c0 d3 3d ac 2b 62 3d
       0.08450747 0.12183097 0.10339528 0.05521743
000100 9c a0 ed 3d 75 62 92 bd eb 03 83 3d 5a 09 28 bd
       0.116028994 -0.071476854 0.06397232 -0.041024543
000110 7e ee e3 bd 12 7d cc 3d fb 18 b9 bd 43 cc c7 3d
       -0.11129473 0.09984793 -0.09037968 0.09755757
000120 05 1a d2 bd 1b 47 ea 3c 58 ca a7 bc cc bf 63 3d
       -0.10258869 0.028598359 -0.020482227 0.055602834
000130 b2 5a 57 3d d0 a2 7d 3c 0a d0 f5 3d 24 14 04 3d
       0.05257673 0.015480712 0.12002571 0.03224577
000140 0f 48 f2 bd 2b ed a7 bd 3a 3c c0 bd de dd 46 bd
       -0.1183015 -0.08199533 -0.09386487 -0.048551433
000150 41 e0 9a 3c a1 72 da bb 18 95 e0 bd 4e 90 46 3c
       0.01890576 -0.006666497 -0.109659374 0.012119366
000160 3f 04 eb 3d ea f3 d8 bc 85 8d b9 3d b4 5a 27 3d
       0.11475419 -0.026483495 0.09060196 0.040857986
000170 e7 c1 64 3d 7e ff 0f 3d 0b cf 7a 3d 9c 7c fa 3d
       0.055848982 0.035155766 0.061232608 0.122307986
000180 dc 05 09 bd a7 87 98 bd 45 9f ce bd bd 59 8f 3d
       -0.033452854 -0.07447749 -0.10088972 0.06999538
000190 0b e7 c4 3d 0e 40 b7 bd c8 56 e5 bc 71 50 8d bd
       0.096143804 -0.08947764 -0.027995482 -0.069001086
0001a0 1d 6c ae bd 2e d6 c0 bd 3f fc e9 bd 50 a5 0b bd
       -0.08516715 -0.094158515 -0.11425065 -0.0340932
0001b0 c3 65 07 3e a8 51 d9 bc a8 90 97 3d 77 75 f2 3c
       0.13222413 -0.026528195 0.07400638 0.029597027
0001c0 d7 ff ea 3d 51 da 89 3c 4c 80 15 bc 90 74 5e bd
       0.11474579 0.016827734 -0.009124827 -0.05431038
0001d0 93 3e 14 3d 80 9b 17 3c 5a 52 ce 3d 89 99 15 be
       0.036192488 0.009253383 0.10074301 -0.1460935
0001e0 be 88 e4 3d 2d b5 d7 3d 00 c4 b7 3c 90 b3 7e bd
       0.11158894 0.105326034 0.022432327 -0.062182963
0001f0 90 a4 ab bd e9 44 25 bc 99 99 67 3c a7 ea 85 3d
       -0.08380997 -0.01008723 0.014135742 0.06538897
000200 e5 c4 96 3d 49 35 f7 3d f9 f8 58 3d a9 5d 21 3d
       0.073617734 0.1207071 0.052971814 0.039395962
000210 b6 88 4b bd aa 2e 9e bd 00 c0 65 3d cc ea 82 3c
       -0.049690925 -0.07723744 0.05609131 0.0159811
000220 fd f5 9e 3d 73 71 80 3d da a8 c3 bc 7a 75 03 bd
       0.07761762 0.06271639 -0.023884226 -0.032094456
000230 74 24 31 3d 06 12 b6 bd e4 ea b4 bd 50 1c 28 3d
       0.043247655 -0.088901564 -0.08833864 0.041042626
000240 89 22 77 bd db 7a eb bd 3e 1d 9d bd 64 cd bf 3d
       -0.06033567 -0.11498042 -0.07671593 0.09365347
000250 b4 08 8d 3d 04 48 8b 3d 9e 9a 20 bd 15 79 de 3d
       0.068864256 0.06800845 -0.039209954 0.10862938
000260 45 1f e2 bd f0 d2 93 bd 19 2e 8c 3c 89 25 51 3c
       -0.110411204 -0.072179675 0.017111825 0.012765297
000270 23 fd 9b 3d c0 5d 89 bd 57 54 2e bc 0d 21 dd bd
       0.07616641 -0.067073345 -0.010640225 -0.107973196
000280 6d 24 5c 3d 58 0f 06 3d a8 30 ce 3d 17 d4 19 3d
       0.053745676 0.032729477 0.10067874 0.03755578
000290 6c b3 31 3d 0c ac 3a bd bd ae ce bd 26 90 9a bd
       0.043384 -0.045574233 -0.100919224 -0.075470254
0002a0 02 02 cc 3d 8d ed 88 3d 4d 18 b9 3d 08 cf 11 3d
       0.099613205 0.06685934 0.09037838 0.03559783
0002b0 5f ce 1f 3d c6 00 08 bc 70 64 a2 bd b4 c3 88 bb
       0.03901517 -0.008300966 -0.07929313 -0.0041737203
0002c0 70 c2 d1 bc a4 5e fd 3d 34 2f ee bc 08 b1 aa 3d
       -0.02560541 0.12371567 -0.029075243 0.08334547
0002d0 c1 4d bd 3d ea fe 7a 3c 84 54 95 3d 1f 7f 68 3d
       0.09243346 0.015319565 0.07291511 0.056761857
0002e0 15 98 c4 3b f1 9d 8b 3c 8d bd 29 bd 9b ec f6 bc
       0.005999575 0.017043086 -0.041440535 -0.03014212
0002f0 10 64 7c 3d 38 96 02 bd 2b 2a b8 bd c1 ef e5 3d
       0.061618865 -0.03188154 -0.08992418 0.1122737
000300 5e 66 b7 3d 12 df 05 3e 5f 7d cf 3d ef da 85 bd
       0.08955072 0.13073376 0.101313345 -0.06535899
000310 1b 72 85 3d 81 f4 62 bc 73 5a 46 bd df f4 7e 3d
       0.065159045 -0.01385224 -0.048426103 0.062245246
000320 0f 3a cb 3b 16 6c 12 3e 3a ac d4 3d 57 b3 7f bc
       0.0062019895 0.14299044 0.10384412 -0.015606723
000330 fc e9 a5 3d b9 ef a7 3c f0 1f e8 3d b1 36 eb 3d
       0.081012696 0.02050005 0.113342166 0.11485041
000340 26 73 c8 bc 27 3d 00 3e f0 7a 8c 3d b1 60 95 bd
       -0.02446897 0.12523328 0.06859386 -0.07293833
000350 9e 01 c1 bc fc 4c cd bd 05 78 39 bd 47 07 ba 3d
       -0.023560341 -0.10024449 -0.045280475 0.09083419
000360 34 db 42 bd 5e 81 e0 3d 05 9d c5 3d ff fb 16 3d
       -0.04757233 0.10962175 0.0964909 0.036861416
000370 48 30 4d bc 2d e0 8d 3d 17 a9 53 3c 02 1d 7c bd
       -0.012523718 0.06927524 0.012918732 -0.0615511
000380 b4 8b 1e bd d9 27 11 3d 66 22 58 bc ad be 45 3d
       -0.03870745 0.035438392 -0.013191795 0.048277546
000390 93 b5 84 bc 77 e5 04 3e 3a bf 64 bd ce 26 34 bc
       -0.016199863 0.12978159 -0.05584643 -0.01099558
0003a0 74 57 f7 3d 23 8b 10 3b 70 13 03 3d 37 1a a3 3d
       0.12077227 0.0022055588 0.03200096 0.079639845
0003b0 bc b8 06 3e e7 44 b7 bc a1 d5 e2 3b 1a 4d f0 bc
       0.13156408 -0.022371722 0.006922439 -0.02933364
0003c0 e6 d7 52 3d ab 4a fb bd 27 bc ad bd fa 0e 10 be
       0.051475428 -0.12270101 -0.08483153 -0.14068213
0003d0 61 2b 98 3c fe 7f 18 3e be 53 0f 3d 67 15 74 bd
       0.018575372 0.14892575 0.034991972 -0.059590723
0003e0 bb c1 98 bb 07 19 97 3d 7b 75 e8 3d 93 9b 96 3d
       -0.0046617663 0.073778205 0.113505326 0.07353892
0003f0 04 fd bb bd 74 78 ef 3c 5a 6b e8 3d 12 0c c0 bd
       -0.09179118 0.029232241 0.11348601 -0.09377302

lstm.bias_hh_l0 f4 [256]
000000 d7 3d 10 3d 86 d4 01 bd 4e 04 65 3d 36 17 fb 3c
       0.035215225 -0.03169682 0.05591231 0.030650716
000010 3a 1f 99 bd d6 9b 06 be a1 98 1b bc 61 b6 b6 3b
       -0.07476659 -0.13145384 -0.009496839 0.0055759405
000020 d2 f5 b5 bd 5a 99 08 3e 1b 01 be 3d f3 57 53 3d
       -0.08884777 0.13339749 0.092775546 0.051597547
000030 42 ee 6f bd a9 0d 86 3d 9d fa 77 3d 18 eb da 3d
       -0.05857683 0.06545574 0.060541738 0.10689372
000040 25 33 51 bd 4c 74 48 bd 06 e6 e1 3d 31 ec 12 3d
       -0.051074166 -0.048939034 0.110302016 0.03586978
000050 50 54 4b bd 73 65 e8 bd 5a 90 ba 3c fb 1f de 3c
       -0.049640954 -0.11347475 0.02277391 0.027114859
000060 be cd 8e bd 27 08 e8 3d 7c e6 dd b9 6a c5 e8 bd
       -0.06972836 0.1132968 -0.0004232413 -0.11365779
000070 53 c0 16 bd 63 ce f7 bd 9d 45 c9 3d bf 43 a6 3d
       -0.03680451 -0.12099912 0.09827731 0.0811839
000080 03 f0 8d bc 40 39 fe 3d f2 d5 ae 3d 0f 23 79 bc
       -0.01732636 0.12413263 0.085369006 -0.0152061125
000090 3c 4a 04 bd 86 ae d9 bd ea ba 0c 3d 7c fb 5b 3d
       -0.032297358 -0.10628991 0.034357943 0.05370663
0000a0 3e e0 b7 bd db ba 81 bc 68 a5 d0 bd 8b 74 bf 3d
       -0.08978318 -0.01583617 -0.10187799 0.09348401
0000b0 ed ad c5 3c 64 9b 4e 3d c8 b8 52 bd 3d 57 d8 3d
       0.024130786 0.05044116 -0.051445752 0.105635144
0000c0 e0 e2 98 3d 1e 66 96 3a 7b a4 4a bc 08 68 75 bc
       0.07465148 0.0011474525 -0.012368317 -0.014978416
0000d0 53 5d c3 bb a7 4c 80 bd ba 85 5e 3c 56 86 85 bd
       -0.005962053 -0.0626462 0.013581688 -0.06519763
0000e0 ea b8 c3 3d 2f 59 33 bd 0d 1c 0f bd ef cf 19 bd
       0.09556754 -0.043786224 -0.03493886 -0.037551817
0000f0 3f 2c a6 3d f0 57 d8 3d ba f6 64 38 b4 c0 9d 3d
       0.08113908 0.10563648 5.4589218e-05 0.07702771
000100 8a ff a6 3c 37 60 ec 3d cf 49 ed bd 1e eb 8d 3d
       0.020385522 0.11541789 -0.115863435 0.06929611
000110 77 5a 1b 3c b2 7f c7 3d 09 2d 98 3d 00 ff 7f 3d
       0.009482018 0.09741153 0.07430465 0.062499046
000120 dd 3d b6 3d 54 d0 0a 3e 2a e7 a0 bd e6 48 29 bb
       0.08898518 0.13556033 -0.07856591 -0.0025830804
000130 32 fb 99 bd 01 d4 3e 3d 13 71 19 bd 9c 65 ac 3d
       -0.07518615 0.0465889 -0.03746135 0.08417818
000140 89 e0 b9 3d f4 a9 8d bc ce da 7a bc e3 dc 94 bd
       0.0907603 -0.017292954 -0.015310956 -0.07268693
000150 16 ce 4d ba 6f ee 5a bc 1a 47 c4 3d 90 8b 11 bc
       -0.00078508386 -0.013362511 0.09583874 -0.008883372
000160 ac 27 75 3c 47 98 83 3b 2f 1b c1 bd 9a 8e 18 bd
       0.014963072 0.0040159556 -0.09429013 -0.03724537
000170 69 b7 ea 3c 42 2d 46 3d 86 bc dc 3d 22 72 f1 3d
       0.02865191 0.048383005 0.107781455 0.11789347
000180 e7 bd dd 3c c2 8e 35 3d 73 be b7 bd 85 d0 fa 3d
       0.027068092 0.044325598 -0.08971872 0.12246803
000190 bf 06 e4 bd 86 09 98 bd 08 04 9e 3d a1 53 92 3d
       -0.11134099 -0.074236915 0.07715613 0.07144857
0001a0 8f d2 03 bc 28 c6 b8 bd fa 11 36 3d e4 ec e8 3d
       -0.008045807 -0.0902217 0.044450738 0.11373308
0001b0 32 ec 9a bd 71 76 2f bd aa a6 e7 bd da af fc 3d
       -0.07564582 -0.042837564 -0.113110855 0.123382285
0001c0 71 6c ac 3d 38 f9 00 bc 07 bd a0 bd 28 28 4a 3c
       0.08419121 -0.007871918 -0.07848554 0.012338676
0001d0 c1 a3 93 3c 71 25 fd 3c b0 fa 8f 3b b0 fd 17 bd
       0.01802242 0.030901643 0.004393898 -0.03710717
0001e0 1e 24 eb 3d 96 e1 82 bd b6 c1 0d bd 64 23 59 bd
       0.11481498 -0.06390683 -0.034608565 -0.053012267
0001f0 7c 82 09 3d 0d ed a5 bd 4e ad f7 bd 6f 0e f2 3d
       0.033571705 -0.081018545 -0.12093602 0.11819159
000200 e7 55 19 3c 66 60 fe 3c 45 c7 83 3d 3f 9c 3f 3d
       0.00935886 0.031051826 0.06434492 0.046779867
000210 3d b4 a7 bd 76 c7 cc 3d f6 2a 1e bd 90 0b 35 bd
       -0.081886746 0.09998982 -0.03861519 -0.04420048
000220 c8 ed a0 bd 6b 90 7b bd 7f cf 2c bd b6 1f e2 bd
       -0.07857853 -0.061417025 -0.04219007 -0.11041205
000230 55 c8 98 3d 2e 79 cb 3d 08 b6 b4 3d 26 d7 59 bd
       0.07460085 0.099352226 0.08823782 -0.053183697
000240 0d bb 19 bd e1 e2 e9 3d e5 aa 6b 3d b2 3b b5 3d
       -0.0375319 0.11420227 0.057536025 0.088492766
000250 44 24 8b bd cf 61 68 bd 98 f5 16 3d fb 19 fa bb
       -0.067940265 -0.056733903 0.03685531 -0.0076324916
000260 d7 22 5f bc f8 0c 45 3d 4a 4c da 3c 23 7d 54 bd
       -0.013619146 0.04810807 0.026647706 -0.051877152
000270 b6 b5 96 bc 79 8a 8d bc 47 17 25 bd 65 84 43 bd
       -0.018397193 -0.017277943 -0.040305402 -0.047733683
000280 91 f8 75 bc 27 1f e5 3d 64 66 be bc 79 1a 6d bd
       -0.015012876 0.111875825 -0.023242183 -0.057886574
000290 4f d7 00 bd ca ce c9 bd 3f 70 dd 3c c8 e1 90 bc
       -0.031455334 -0.09853895 0.027031062 -0.017685786
0002a0 fe cf 53 3b e4 a9 42 bd 5b e4 86 3d cd 58 8e bd
       0.0032320018 -0.0475253 0.06586524 -0.06950531
0002b0 84 e9 03 3e bf c3 d1 bd ca e4 f9 3c 4a c1 b8 3c
       0.12882048 -0.10242414 0.030504603 0.022553105
0002c0 e6 9e b9 3d e6 64 d5 bd 2d f5 a9 bd 14 40 e0 bd
       0.090635106 -0.104196355 -0.08298717 -0.10949722
0002d0 37 8e 8d 3d 79 00 1c bd 7e e9 3d 3d 8c e2 99 3b
       0.06911891 -0.03808639 0.046365254 0.004696196
0002e0 28 63 7d 3d 93 11 b0 3d 81 91 0f bd 59 75 db bd
       0.06186214 0.08597102 -0.035050873 -0.10715742
0002f0 8c d2 7c 3d 18 93 ad 3c cb ef af bd 1b 3f c0 3d
       0.06172423 0.021188304 -0.08590659 0.093870364
000300 ea 02 bb 3d d3 a4 55 bd 41 ae 02 be 94 48 e9 3c
       0.09131415 -0.05215914 -0.12761785 0.02847699
000310 39 fa 0b be fa 34 57 3d ad 3c dc 3c 82 7a ba bb
       -0.13669671 0.052540757 0.026884401 -0.0056908736
000320 44 d0 8a bc dc 59 13 3e e8 e5 d3 3d 21 83 2a 3d
       -0.016945012 0.14389747 0.103465855 0.04162896
000330 8f 7e f5 3b b5 b8 9f 3d 90 7d b9 3d 63 ff bf 3d
       0.0074918936 0.07798902 0.09057152 0.09374883
000340 d2 fa ff bd 6e b7 1e 3e da b2 a7 3d 01 ff af bc
       -0.12499012 0.1549966 0.0818841 -0.0214839
000350 9d 5a 79 bc 98 7d 82 3c e9 14 2b bd 50 96 7b bd
       -0.015219358 0.015929028 -0.04176799 -0.061422646
000360 65 00 e0 3d 16 2c 6b bb c2 fd 1e bd e6 3c e3 bc
       0.10937575 -0.0035884432 -0.03881622 -0.027739
000370 5c cb dc 3d b9 fc b5 bd 50 09 6f 3d d6 4d 19 bd
       0.10780975 -0.08886094 0.05835849 -0.037427746
000380 54 95 06 3d 0e 24 8a 3d de 6e b9 3d 84 06 ce bc
       0.032857254 0.06745158 0.09054349 -0.025149591
000390 31 d5 1f bd f1 3c 0b 3c c9 68 3c bc a4 d0 b5 bd
       -0.039021675 0.008498416 -0.011499592 -0.08877686
0003a0 30 5b 87 bd 89 7c cf 3d ee 74 03 3c 5e 08 4e 3c
       -0.066091895 0.10131175 0.008023484 0.012575237
0003b0 0b 6f 72 3d 7b 4b 99 3c 70 54 ca bd 92 5a 88 bd
       0.05918793 0.01871275 -0.098793864 -0.066579
0003c0 8c 23 c6 3c 1b 7c 15 3d f1 cf b5 3d 97 c7 c7 bd
       0.024186872 0.03649531 0.08877552 -0.097548656
0003d0 f3 d7 65 3d 6e 80 bc ba b2 0f 48 3d 37 c9 12 bd
       0.05611415 -0.0014381537 0.048843093 -0.035836425
0003e0 f2 79 44 3e 02 71 86 bd 9c 12 82 3d af ab 46 3d
       0.19187143 -0.06564523 0.06351206 0.048503574
0003f0 94 a9 56 bd f8 09 77 3d 72 fb cc bd f2 29 e8 3d
       -0.052407816 0.06031224 -0.10008897 0.113361254

lstm.weight_ih_l1 f4 [256, 64]
000000 e1 63 02 bd e2 83 89 3d 31 f3 dc bd fc 19 a0 bd
       -0.031833533 0.06714608 -0.107885726 -0.07817456
000010 38 7e 30 bd 39 fc 11 3e 9d 85 6e 3d fe a3 2c 3d
       -0.04308912 0.14256372 0.058232892 0.042148583
000020 71 52 a1 bd 72 f9 85 bc 2f bb 58 bd 24 3f 81 3c
       -0.078770526 -0.016354296 -0.052912887 0.015777178
000030 93 da 6f bd e3 09 04 3d 8d 04 58 3d 1c 8d 7f 3d
       -0.058558058 0.03223599 0.052738715 0.06239043
000040 8a cc d7 bd c3 61 44 bd a6 07 f5 ba 84 42 f5 3d
       -0.105370596 -0.047944795 -0.0018694296 0.119755775
000050 b1 8c 40 bd 1b 20 30 bd b7 ef 8a bd 7f 24 eb 3d
       -0.047009174 -0.04299937 -0.06784003 0.114815705
000060 68 03 dc bd 63 cb c9 3d 24 3f 83 3d 96 a4 70 3d
       -0.10742837 0.09853246 0.064085275 0.05875071
000070 57 7f d3 3d 88 03 96 bd 9c 75 03 be d2 13 c8 3d
       0.103270225 -0.07324892 -0.12837833 0.097694054
000080 a3 58 16 be e4 57 07 3d 31 a2 32 3d 5e eb 8c bd
       -0.1468225 0.033042803 0.04361171 -0.0688083
000090 75 8c b9 3d c2 87 5c 3c 0e 38 30 bd 40 d8 84 bd
       0.09059993 0.013460102 -0.043022208 -0.06486559
0000a0 59 dd 2c bd d8 ca 79 bd ba c8 37 bc 6a 66 e0 3d
       -0.04220328 -0.060984462 -0.011217291 0.10957034
0000b0 c3 f4 2b bd 63 6b 9c bd 1a 52 fe bc c6 fd 37 bd
       -0.04198147 -0.0763767 -0.031045008 -0.04491975
0000c0 e3 a3 9e bd fc 66 9c bd de 80 bb bc 64 8a 31 3d
       -0.07746103 -0.0763683 -0.022888597 0.04334487
0000d0 ee b6 c4 bd 60 76 19 bd d3 cb ae 3b ce 70 a4 3d
       -0.096052036 -0.037466407 0.0053343563 0.08029328
0000e0 13 2f 27 be 59 86 95 bc 12 0f c6 3d e8 7f 87 3b
       -0.16326551 -0.018252539 0.09670843 0.0041351207
0000f0 aa e0 59 bd e7 bb b9 ba c3 86 f5 bd 46 ef c2 3d
       -0.053192772 -0.0014170379 -0.119885944 0.09518294
000100 38 cd 29 be 8d b6 a2 bd 33 4e 9b bd e4 17 c4 3d
       -0.16582191 -0.07944975 -0.07583275 0.09574869
000110 5d 3a dc 3d 22 c9 aa 3d 68 0e 51 3d 11 cc 24 3e
       0.107533194 0.08339144 0.05103913 0.1609347
000120 52 14 1d 3e 61 81 13 be 34 67 b8 bd da 50 01 3d
       0.15339783 -0.14404823 -0.090040594 0.031571247
000130 4d c4 93 3b 43 0d 39 be 9a 44 fe 3d f4 63 7f bd
       0.004509485 -0.18071465 0.124154285 -0.062351182
000140 04 5f 8a 3c 3d 91 fc 3d e3 78 68 3d 16 b2 cd 3c
       0.01689101 0.123323895 0.05675591 0.025109332
000150 2c df 0f 3d 09 3c 0f 3e 97 7e 74 3d 83 25 1f bc
       0.035124943 0.13987745 0.059691038 -0.009713533
000160 3c a1 4b bd be 06 41 3d 75 0c e1 ba ca 98 bf bd
       -0.049714312 0.04712557 -0.001716985 -0.09355314
000170 54 2d 22 3e b0 10 1a bc 6a 6d 01 be 95 16 57 bc
       0.15837604 -0.009403393 -0.12639394 -0.013127943
000180 ae 11 21 3d c7 0a d0 3b be 39 cb 3c 21 20 a9 3d
       0.0393235 0.006348941 0.024807807 0.08258081
000190 75 36 4d 3e c0 16 7f 3c cb af 5f 3d b9 4a 92 bd
       0.20040305 0.015569389 0.05461101 -0.071431585
0001a0 4b e9 bf bc 8f db 45 be 73 0b ab bd 76 72 a2 3d
       -0.023426672 -0.19322036 -0.08351793 0.07931988
0001b0 7d dd 29 be f0 5b 88 bc a5 78 7e 3c 01 f3 17 3e
       -0.16588397 -0.016645402 0.015531694 0.14838792
0001c0 51 7c fa 3d 1a 22 00 bd 07 11 b8 bd 1d d3 1f bc
       0.12230743 -0.03128252 -0.08987623 -0.009754923
0001d0 78 0b ad bc 44 b3 de bd e2 f0 81 3d 0e a1 f5 bd
       -0.021123633 -0.10874036 0.06344773 -0.11993609
0001e0 69 f9 10 be 95 4c c6 bd 9a 42 22 be 00 ef b1 bd
       -0.14157642 -0.096825756 -0.15845719 -0.08688164
0001f0 d8 f9 03 be f6 bd 15 3e ec 22 d1 bd b1 98 19 3e
       -0.12888277 0.14623246 -0.10211739 0.14999653
000200 6a 9b fe 3d 99 a2 42 3d 9b 19 ca bd 60 d4 f5 3c
       0.12431987 0.047518346 -0.09868165 0.030008495
000210 e6 11 d1 3d 01 20 51 bd ca 8b 7d 3d b8 ae 46 bd
       0.10208492 -0.051055912 0.06190089 -0.04850647
000220 f2 be 6c bd 29 5e 93 bd c7 d8 eb bc 25 54 fb bd
       -0.057799287 -0.07195694 -0.02878989 -0.12271909
000230 19 29 c6 3a 80 b0 01 3e 2e b6 02 bd 61 43 34 3d
       0.0015118449 0.12664986 -0.03191202 0.04400957
000240 28 37 54 3d b1 3e 9d 3c bb 80 8a 3d 4f e2 5e 3d
       0.051810414 0.019194933 0.06762835 0.054415043
000250 ca 5e ea bb 90 0b 91 bb 18 70 8b 3d 6d 71 fd bd
       -0.007152413 -0.004426427 0.068084896 -0.1237515
000260 c3 50 2a bc 48 83 9d 3d 9a bc d3 bc 6d d3 55 bb
       -0.010395232 0.076910555 -0.025846768 -0.003262724
000270 4d ea 13 be db 96 44 3d bb fd 05 3d 96 39 8f bd
       -0.14444847 0.04799543 0.03271268 -0.069934055
000280 aa d3 7f bd 04 9c af bd 4f ce 46 bd 15 43 9c bd
       -0.062457718 -0.085746795 -0.048536595 -0.076299824
000290 47 44 4c bc 20 5e ac bd 58 b0 b7 3c f4 53 a0 bc
       -0.01246745 -0.084163904 0.022422954 -0.019571282
0002a0 98 a5 ec 3c 0f 91 ad bd 94 41 96 3b 3a 6a cf 3d
       0.028887555 -0.08474933 0.0045854542 0.10127683
0002b0 4f 30 72 bd 20 a4 9c bd f4 21 a7 3d b7 d2 33 bb
       -0.059128102 -0.07648492 0.08160773 -0.0027438828
0002c0 92 45 ed 3c 2c 65 86 bd 2d da d4 3d 4c e2 99 bd
       0.028963838 -0.06562266 0.10393176 -0.07513866
0002d0 b6 ca b8 bd 68 50 c5 bd f3 07 a3 bd e4 26 b8 3d
       -0.09023039 -0.09634477 -0.079605006 0.08991793
0002e0 b0 13 9b bd 33 f0 e9 bb 37 6d b4 bd 99 a5 ca 3c
       -0.075721145 -0.0071392297 -0.088098936 0.024737166
0002f0 5a 65 03 bd bb fe f3 bd 70 50 8e bd 8f b7 9b bc
       -0.03207908 -0.1191382 -0.06948936 -0.019008426
000300 3d b5 aa bd ac e7 21 bd 67 2b dc bd cd 79 1c bd
       -0.0833535 -0.03952758 -0.10750466 -0.038202096
000310 a9 ff f3 bb e8 77 57 bd 3a b0 45 3b 19 fd 08 bd
       -0.0074462485 -0.052604586 0.0030164854 -0.033444498
000320 01 69 04 3d bd 53 96 bc f2 b3 3c 3d 3b c9 c3 3d
       0.032326702 -0.018350476 0.046070047 0.09559866
000330 bd b9 b6 3d e0 4f 29 3d 86 3c a9 3d 7a 9c 8b 3d
       0.089221455 0.04133594 0.08263497 0.06816955
000340 63 0e b5 3c c1 b8 4c 3c 5d b4 0c 3e ca f3 1a bd
       0.022101587 0.012495221 0.13740678 -0.03783015
000350 cc c4 3a 3d f2 d2 87 bd 9c b3 0d 3e 0f 69 d2 bd
       0.045597836 -0.066320315 0.13838047 -0.102739446
000360 59 99 c0 bd 00 25 02 3e a1 6e c8 bd 3c 8e 5c bb
       -0.09404249 0.12709427 -0.09786726 -0.0033654114
000370 35 12 d1 bd 71 ad e1 bd 56 17 05 bc f7 0e 10 bd
       -0.10208551 -0.110194094 -0.0081232395 -0.03517052
000380 18 36 07 3d 1d fa 2a be 8a c3 3e bd f9 ab 85 3d
       0.033010572 -0.16696973 -0.0465732 0.06526942
000390 65 22 7b 3d 05 b8 b4 3d 46 b4 07 be 02 e3 ff bc
       0.061312098 0.088241614 -0.13252363 -0.031236175
0003a0 24 35 c1 3d 54 ff 97 3b bf 54 83 bd 57 09 d4 bd
       0.09433964 0.004638592 -0.064126484 -0.10353344
0003b0 5c 09 1a bc af dc 69 bd 1d 67 21 3d 49 83 e4 3c
       -0.0094016455 -0.057095226 0.039404977 0.027894633
0003c0 88 e4 90 3d c4 ed 8c 3d af 58 f0 bd fd e9 b5 3c
       0.07074839 0.06881288 -0.11735665 0.0222063
0003d0 a5 ea a8 3d 25 2a a8 bd 68 be 37 3a 5c 21 9b bd
       0.0824788 -0.082111634 0.0007009269 -0.07574722
0003e0 68 7a b0 bd 5e a1 83 3d 5c a8 d8 3d d5 4a 04 be
       -0.08617097 0.06427263 0.10578987 -0.12919171
0003f0 39 90 01 be 2e 2b 95 bd 5d 8c 89 bd 32 7d 26 3d
       -0.12652673 -0.072836265 -0.06716225 0.04064674

lstm.weight_hh_l1 f4 [256, 64]
000000 90 ba c1 38 b5 fe b7 bd 30 3b 61 bb 4a 1a f1 3d
       9.237707e-05 -0.089841284 -0.0034367554 0.11772592
000010 18 12 a5 bd 33 59 83 bc 27 2e 17 3d 16 2e e2 bc
       -0.08060092 -0.016033744 0.03690925 -0.027609866
000020 01 71 7b bd 14 0e ed 3d 3c 6f f0 3d 22 16 93 3c
       -0.061387066 0.11574951 0.11739966 0.01795489
000030 f0 f4 93 bd 04 97 4c 3d 40 64 d3 3c 0b 65 b5 3d
       -0.072244525 0.049948707 0.025804639 0.08857163
000040 96 57 e6 bd 2a ea 5a 3c 22 0d be bd 3a 45 29 3d
       -0.112471744 0.013361493 -0.09279849 0.041325785
000050 f9 c3 0a be fd 69 d7 3d 4b db a7 3d d5 2d f7 3a
       -0.1355132 0.105182625 0.08196124 0.0018858264
000060 2d 34 f4 3d cb 3f 55 3d bf 3c 18 3d 50 a7 66 ba
       0.11924014 0.05206279 0.037167307 -0.0008798735
000070 bd be 4d 3d 13 17 a9 bd 63 54 be bd 36 de fa bd
       0.05023073 -0.08256354 -0.09293439 -0.122494146
000080 16 ee cc 3c 7c fa 69 3d 94 df 47 3d 56 c1 01 3e
       0.025015872 0.057123646 0.048797205 0.12671408
000090 f0 6f c8 3d 4c 85 c4 bd bf 17 d3 bd f9 9e cb bd
       0.097869754 -0.09595737 -0.103072636 -0.09942431
0000a0 4d 79 3e 3d 11 63 af 3d 8d 76 c2 bc 98 25 9f bd
       0.0465024 0.08563817 -0.02373817 -0.07770842
0000b0 3a 25 a0 bc 74 4a f4 bd bc 57 ad 3d 52 b6 40 3d
       -0.019549001 -0.11928263 0.08464 0.047048874
0000c0 01 05 75 3d 01 69 82 3d e3 c8 17 be ec df 9d 3d
       0.059819225 0.06367684 -0.14822726 0.07708725
0000d0 d6 b7 c6 3a cc a8 a3 3d 18 0c 18 3d b8 f2 0d bd
       0.0015160989 0.0799118 0.03712091 -0.034655303
0000e0 68 71 bb 3d 56 bb ae 3d ab 23 f1 bb b5 73 c1 3d
       0.0915249 0.08531825 -0.0073589883 0.094458975
0000f0 3b 46 5f bc d5 a4 03 3d 59 0a f5 bb 7e 1b dc 3c
       -0.013627584 0.032139618 -0.00747804 0.026868578
000100 24 4a 08 bd c1 6f 46 bd 89 67 b0 bd 65 38 4d bd
       -0.03327383 -0.04844642 -0.08613498 -0.05010261
000110 70 98 e0 bd 3c 7c e9 bc ab 64 d8 3d c8 6a ac 3d
       -0.10966575 -0.028501622 0.10566076 0.084188044
000120 45 02 98 3d 99 4a b7 3c 79 a1 12 bd 3c 9a bf 3d
       0.07422308 0.022374438 -0.035798524 0.0935559
000130 55 45 9d 3d 79 46 30 bd cf 3b 42 3d b1 a3 f8 3c
       0.0767924 -0.043035958 0.04742032 0.030351492
000140 7f 6f ae bc 52 30 9e 3a c9 ad 2f bd c0 31 2e 3e
       -0.0212934 0.0012068844 -0.042890344 0.17011166
000150 2d cf 9a 3d eb fb 7f bc 48 ad 88 3d 52 5e 4c bd
       0.07559047 -0.015624027 0.06673676 -0.04989464
000160 68 63 8b bd 2a de d6 3c 5c c2 aa 3d 22 68 9c bd
       -0.068060696 0.026228983 0.08337852 -0.07637049
000170 43 df e7 3b a3 b5 d5 bd 6c 5a ae 3d ac b3 26 3d
       0.0070761754 -0.10435035 0.0851334 0.040698692
000180 b7 f3 bc 3c a8 03 c3 bd 1b dc aa 3a 13 d7 de bd
       0.023065431 -0.09522182 0.0013035567 -0.10880866
000190 7c 54 01 bd 74 d8 3f bc 70 16 e2 3d bb 88 bf bd
       -0.03157471 -0.011709321 0.11039436 -0.09352251
0001a0 63 c0 0d bd 3c 2d a2 bd 98 94 89 3c e9 c9 f2 bd
       -0.034607302 -0.07918784 0.016794488 -0.118549176
0001b0 ba 52 4a 3c e4 2c c8 bc db e3 96 bd 9e e0 8a bd
       0.012348825 -0.024435468 -0.07367679 -0.067811236
0001c0 da 39 9e 3d fa 11 89 3d f5 2c c1 bc bd fd c3 3d
       0.07725878 0.06692882 -0.023581007 0.09569881
0001d0 56 8f 59 3d e3 a0 24 3d f9 82 50 3d a8 e7 81 bd
       0.05311521 0.040192496 0.050906155 -0.06343013
0001e0 01 f3 1c 3d d3 5a f3 bd d8 1b b5 3c 3d 9a d9 bd
       0.038317684 -0.11882558 0.022108003 -0.10625122
0001f0 4d 5e b2 bc 7c e6 dc 3d 3f 82 39 bd 3f 36 0a 3e
       -0.021773482 0.10786149 -0.045290228 0.13497256
000200 3d d3 38 bd ce e0 48 bd 6e 31 91 3d eb bc 31 3d
       -0.045123328 -0.049042515 0.07089506 0.043393057
000210 b7 79 4c 3d 45 30 89 bd d6 2e b1 3d 1d 70 e2 3c
       0.049920764 -0.0669866 0.08651511 0.02764135
000220 18 77 0b bd f5 4f 81 bc cf a5 04 bd ad e0 95 3d
       -0.034049124 -0.015785197 -0.03238469 0.07318244
000230 5a 76 7c bd aa 1a a4 bd fa 4d 80 bd 87 f3 d9 bd
       -0.061636306 -0.08012898 -0.06264873 -0.10642152
000240 65 08 ab bd 4e 0e b0 bd 64 c4 6f 3d da 6f 81 bd
       -0.083512105 -0.085964784 0.058536902 -0.06320162
000250 a7 ee c7 3d 0a 09 a1 3d 37 97 66 bd 34 79 ad 3d
       0.09762316 0.07863052 -0.056296553 0.08470383
000260 97 a6 66 bd 74 c8 f5 3d d8 27 e2 bd bd 8f 2d 3d
       -0.056311216 0.12001124 -0.11042756 0.042373408
000270 92 7e c4 3d 47 16 9b 3c 11 48 9a 3c c8 79 f6 bd
       0.09594454 0.018931521 0.018833192 -0.12034947
000280 5e 28 82 bd f3 e1 06 3d f8 eb 07 be 80 ab 5a 3d
       -0.06355356 0.032930326 -0.13273609 0.05338621
000290 8a 37 a4 3d 84 a2 b2 3d 9f d3 85 bd 4f 35 e8 bc
       0.08018406 0.08722404 -0.06534504 -0.028345732
0002a0 d0 cc 0d be 84 6c 6f 3d dc 3a 00 be 9e 7e c4 bd
       -0.13847661 0.058453098 -0.12522453 -0.09594463
0002b0 4b de 9d bd 65 73 02 bd 6a 5f b6 3d 34 85 60 3d
       -0.07708415 -0.03184833 0.089049175 0.054814532
0002c0 fe 3a 91 bd 80 c7 ea 3d a9 38 14 bd 37 9b c5 3d
       -0.0709133 0.11463833 -0.036186848 0.096487455
0002d0 30 35 03 bd 1a bd 17 bd d9 b4 db bd ae 96 ec 3d
       -0.032033145 -0.037045576 -0.10727853 0.11552177
0002e0 01 6b 08 3e 49 fe a1 3d 60 19 07 3d 09 bc c6 3d
       0.13322069 0.07909829 0.032983184 0.097038336
0002f0 5d 9f b9 bd 9a dd 11 bd 9a 4c 2d 3d e8 a0 be 3d
       -0.09063599 -0.035611726 0.04230938 0.09308034
000300 71 2d ce 3c f3 5f 44 3d 7c 8e 5e bd 00 7f 30 bd
       0.025168153 0.047943067 -0.054335102 -0.043089867
000310 93 00 3e 3d d6 1f 9e 3d c9 53 a4 3d 62 53 df 3d
       0.046387266 0.07720916 0.08023793 0.10904576
000320 a7 86 e5 bb 96 04 0c bd c1 90 b0 bd 49 ba 2b 3c
       -0.007004577 -0.03418406 -0.086213596 0.010481426
000330 7f 36 08 bd 64 d7 a4 3d 11 00 62 3d b3 cb a2 bd
       -0.033255097 0.08048895 0.055175845 -0.07949009
000340 94 32 6c 3d 02 5b 39 3d ad 50 0d 3d 31 1c 1d 3d
       0.057665423 0.045252807 0.034500767 0.038356964
000350 c2 ee b1 bd e1 f5 ee bc de 39 6e 3d 1e 10 ff bd
       -0.086881176 -0.029169979 0.058160655 -0.12454246
000360 a1 b3 ba bd de 10 ae bd c5 d8 0e bd e2 06 31 3d
       -0.09116293 -0.08499311 -0.034874696 0.043219455
000370 f4 0a f9 3b bc 62 b0 3d 7b e7 b4 bd c6 3a a8 3d
       0.0076001827 0.08612582 -0.08833214 0.08214335
000380 a3 c7 98 bd 37 23 bf 3c 27 cc 4b 3d b5 c2 e0 bc
       -0.07459953 0.023332221 0.04975524 -0.027436594
000390 05 90 56 bd 22 7a 00 3e 40 a3 41 3d 96 fe da 3a
       -0.05238344 0.1254659 0.047274828 0.0016707953
0003a0 23 28 5f 3d d4 f3 91 bd 40 6f 27 bd 39 d1 21 3b
       0.054481637 -0.07126585 -0.04087758 0.0024691357
0003b0 9f 40 df 3d 86 2a c0 bb 1f 41 e8 3d c3 3f fb 3c
       0.10900997 -0.005864444 0.11340546 0.030670052
0003c0 4d fa f6 bd 5d c2 e9 3d 75 6d d3 3d a8 1b d4 bd
       -0.1205946 0.11414025 0.10323612 -0.103568375
0003d0 c9 c8 53 bd 10 83 17 bd bc 4a e8 3d 89 de a2 3d
       -0.051705156 -0.036990225 0.113423795 0.079526015
0003e0 64 f5 ab bd 4f a0 c6 bd 6d 1e 67 3d 4f fe cc bd
       -0.08396414 -0.09698545 0.0564255 -0.10009443
0003f0 a6 d8 6e bd 91 19 46 bc 4e 0e e5 3c 65 51 b4 3c
       -0.05831208 -0.012091056 0.027960923 0.022011468

lstm.bias_ih_l1 f4 [256]
000000 b2 4b e8 3d c3 96 db 3c 1b dc 89 3b 2b e7 e6 3d
       0.11342563 0.026805287 0.004207147 0.112745605
000010 32 f0 4d 3d cb 4f 6b 3d 86 d6 b2 3d 43 d3 b2 bd
       0.050277896 0.057449143 0.08732323 -0.08731701
000020 51 8d 86 bd 5d 0d d1 bd 65 34 d2 3d ae fa ba bd
       -0.06569923 -0.10207627 0.102639 -0.091298446
000030 15 44 8b bd 39 7d 0c be ce 65 e2 3d b9 a2 99 3c
       -0.06800095 -0.13719644 0.11054574 0.01875435
000040 e7 4f 70 bd f5 6a 30 bc df 9e d1 3d 9b 14 e9 3d
       -0.05866995 -0.010767688 0.102353804 0.11380883
000050 12 6d 87 bd 74 68 a4 3c 41 4e 9c bd d5 6d f7 3d
       -0.066126004 0.020069338 -0.07632113 0.12081496
000060 f9 1a 97 3d 1b 14 d8 3d 9b ba 47 3d e6 69 e8 3d
       0.073781915 0.1055071 0.048761945 0.113483235
000070 47 9f 7c 3d 99 45 48 bc af 88 05 3e 27 06 a2 3d
       0.061675336 -0.012223625 0.13040422 0.0791133
000080 f3 8f ff 3c 08 09 f6 bd 95 c5 f4 bc 07 9b 3b bc
       0.03119657 -0.12013441 -0.02987937 -0.011450536
000090 ec fe c8 3b 28 bd 9a bd b2 f9 93 3d 18 99 8d bd
       0.0061339047 -0.0755561 0.0722536 -0.06913966
0000a0 de 88 9a bd ae b0 c9 bd b2 17 06 3e 1d 3c 9d bd
       -0.075456366 -0.09848152 0.13094977 -0.07677481
0000b0 0c b7 d8 bd 28 1a a1 3d 8f 84 9c bd 84 67 fb bc
       -0.105817884 0.07866317 -0.07642471 -0.030689009
0000c0 f2 e5 de 3c 6a 57 e6 3c 26 e6 e2 bc ec 21 93 bd
       0.027209256 0.028117854 -0.027697634 -0.071842045
0000d0 1c 95 c4 3d 9c a2 c9 bd a1 36 8d bd d4 41 3b bd
       0.09598753 -0.098454684 -0.06895185 -0.045717075
0000e0 62 54 be bc 12 0a 7c 3c 4d 18 01 3e 8f 44 f1 3d
       -0.023233596 0.01538326 0.12606926 0.11780655
0000f0 34 aa 87 bc dc cf d1 bb 88 3d 23 bd b1 f1 42 bd
       -0.016560651 -0.0064029526 -0.039853603 -0.047593776
000100 aa 6d 46 bd bd a5 cb 3d 37 cb 8f bd a7 e1 92 bd
       -0.048444428 0.099437214 -0.07021182 -0.07171946
000110 ff d3 04 be 4b 1e 07 be b2 0c 99 bd 38 ce e6 3c
       -0.12971495 -0.1319515 -0.074731246 0.028174505
000120 9b 49 f1 bd fa 35 80 3d b2 6d c0 3d c1 00 0d 3d
       -0.11781617 0.06260295 0.09395923 0.034424547
000130 6f 24 a3 bc e3 f1 62 3b 77 32 b5 3d 13 2e 62 3c
       -0.019914834 0.003462904 0.08847516 0.01380493
000140 3e 37 b2 3d ca 42 a1 3d e3 a6 3e bd b4 68 29 3e
       0.08701943 0.07874067 -0.046545874 0.16543847
000150 e1 71 da 3d 46 07 ec 3d 07 3b b1 3d af ef ea bd
       0.10666252 0.11524825 0.08653837 -0.11471497
000160 ee e1 ed 3d 28 1c 46 bd 14 48 81 39 7e a1 46 3d
       0.11615358 -0.048366696 0.000246585 0.048493855
000170 74 45 96 bd 6e 54 fa 3d 32 0d 50 bd 29 e0 4a 3c
       -0.07337466 0.12223135 -0.050793834 0.0123825455
000180 05 3f 24 3d 64 94 53 3b 3a 18 fc 3c b4 fd cf bc
       0.040099163 0.0032284493 0.03077327 -0.02538953
000190 20 dc 2d bd 55 1a 05 bd fd dc f3 bd 9a 35 97 bd
       -0.042446256 -0.032495815 -0.119073845 -0.073832706
0001a0 d3 d3 74 bd cf ed 3a bd 34 4d 17 3d c1 c6 56 3d
       -0.059772324 -0.04563695 0.03693886 0.05243564
0001b0 05 75 03 bd 41 6d 94 3d 92 f2 d9 3d f6 83 26 bd
       -0.03209402 0.07247401 0.1064197 -0.04065319
0001c0 0a 02 ea bd 62 90 dd bd c5 33 54 bd c2 f0 92 bd
       -0.1142617 -0.108185545 -0.051807184 -0.07174827
0001d0 74 aa 73 3d dd 33 cb bd d0 9f c4 bd 48 2f 58 bd
       0.05948873 -0.099220015 -0.09600794 -0.052779466
0001e0 7c f1 da bd 4e 28 c6 3d f2 6d e7 bd cf 91 5a 3c
       -0.10690591 0.09675656 -0.11300267 0.013340428
0001f0 42 61 a9 bd 5c 86 d7 bc 93 eb b1 3d 91 ea 9e 3d
       -0.082705036 -0.026309185 0.0868751 0.07759584
000200 1c b3 d4 bd a9 fa c7 3d de 7f c6 bd 11 fd 8c bd
       -0.10385725 0.097646065 -0.096923575 -0.06884206
000210 79 a7 d9 3d 5c 84 de 3d 35 59 9d 3d 0b 87 1f bd
       0.10627646 0.10865089 0.076830305 -0.038947146
000220 99 51 b3 bc 86 1a b3 bd c7 2e 7e bb c0 f5 b0 bc
       -0.021889495 -0.08745293 -0.0038785206 -0.021601558
000230 8b 26 9d 3d b0 c6 f0 bb 91 dd 1b bd 96 54 51 3d
       0.07673367 -0.007347904 -0.0380531 0.051106058
000240 22 e0 c7 3c e2 67 7b bd 2d f8 58 3c 44 c8 39 3c
       0.024398867 -0.061378367 0.0132427635 0.011339251
000250 3e 12 b9 bd 4d 26 a5 bd f8 88 9c bd 1e 6f 03 3e
       -0.090366825 -0.08063946 -0.07643312 0.12835357
000260 77 d4 cc bd 84 42 8d 3d 7b 7e a8 3d 7d 34 4f 3d
       -0.10001462 0.068974525 0.08227249 0.050587166
000270 97 e5 b1 3d 65 29 52 bd a0 90 b4 3c 53 e7 6d 3d
       0.08686369 -0.05130901 0.022041619 0.058081936
000280 69 d0 f0 bc ad 98 01 bd 29 6f a7 3d fc 69 7e 3d
       -0.029396253 -0.031639744 0.08175499 0.062112793
000290 78 01 c6 3c 13 53 30 bd 8a 04 b3 3d 7b 7d 40 bd
       0.024170622 -0.043047976 0.087411 -0.046994668
0002a0 03 5f ff 3d 19 66 a8 3d 90 28 52 3d b2 bc e8 3c
       0.12469294 0.082225986 0.051308215 0.02841029
0002b0 42 ed dd bc ed d9 13 3d a3 60 81 3d 7f 10 b7 3d
       -0.027090672 0.036096502 0.0631726 0.08938693
0002c0 a8 5a 1d 3d 35 1f 7b 3d dd eb b1 3d 8f 00 7c bd
       0.038416535 0.06130906 0.086875655 -0.06152397
0002d0 e1 a2 b4 bd 0b 55 37 3c 9e c7 a3 3d 8d d4 32 bd
       -0.08820129 0.011189709 0.07997058 -0.043659735
0002e0 dc c8 b0 bd 66 34 99 3c 87 69 e0 ba af 06 89 3c
       -0.08632061 0.018701743 -0.0017121293 0.01672682
0002f0 8e f7 f5 bd 56 46 5c bc a9 04 ec bd f4 73 14 bc
       -0.12010108 -0.013444504 -0.11524326 -0.0090608485
000300 de ff df 3d 84 e2 eb 3c 8b 10 31 bd 84 2e 4d 3d
       0.10937475 0.028794535 -0.043228667 0.05009319
000310 49 f7 5f 3d 06 77 8d 3d a1 b8 d9 3d bd b5 7e 3d
       0.05467919 0.069074675 0.10630918 0.062185038
000320 53 a9 b2 bd fb 14 66 bd ca 40 a8 3d f6 6e 76 3c
       -0.08723702 -0.056172352 0.082154825 0.015041104
000330 57 65 22 bd 71 eb e0 3c 0e ec bd 3c db 75 df bd
       -0.039647426 0.027456017 0.023183849 -0.10911151
000340 4d 5d dc bd 68 88 b6 3d 15 90 df 3d 1b 2f e2 3c
       -0.10759983 0.08912736 0.10916153 0.027610352
000350 6e b0 92 3d 02 fd bf 3d 98 86 5b bd ec f0 00 3d
       0.071625575 0.09374429 -0.053595155 0.03147976
000360 5c 40 17 3d 98 5e 1e 3d 09 b1 3d bd af d5 f1 3d
       0.036926612 0.03866443 -0.046311412 0.11808335
000370 09 b5 de ba 86 47 27 3d ab 46 ec 3d b7 5d c1 bd
       -0.0016991209 0.040839694 0.11536916 -0.09441703
000380 2d 7f 52 3d ed 0b 3e 3d 60 f6 ae 3c 71 ef cd bc
       0.051390816 0.046398092 0.021357715 -0.025138589
000390 95 b5 7b 3d 13 16 a8 3d 92 df 24 3d 0f 6e 61 bc
       0.061452467 0.08207335 0.040252276 -0.01375915
0003a0 29 db c2 3c 32 1d d0 bc 80 8c 95 3b 60 f2 6b bd
       0.023786144 -0.025404546 0.004563868 -0.057604194
0003b0 c0 f7 63 bd 19 c3 34 3d 38 02 b9 bd d0 a5 ca bd
       -0.055656195 0.044131372 -0.09033626 -0.098949075
0003c0 4a 27 43 bd 09 03 da bc ed ef 91 bd f1 18 1c 3d
       -0.04764489 -0.026612775 -0.0712584 0.038109723
0003d0 71 5e 4c 3b 76 c3 52 bd 7d 69 a7 bd ec e7 d5 bd
       0.003118422 -0.051455937 -0.08174417 -0.10444626
0003e0 45 60 84 3d fe 3e 1a 3d 86 0f 2b 3d ea 6a 7d bb
       0.064636745 0.03765773 0.04176285 -0.0038668462
0003f0 0e 7d 9a bd ce 2d 78 3d ae b7 c3 bd 52 8b aa 3d
       -0.075433835 0.060590558 -0.095565185 0.083273545
