samsung_ohlc_lstm_multistep.pt (torch, 217093 bytes, 10 tensors)

lstm.weight_ih_l0 f4 [256, 4]
0.0066429973 0.17138469 0.045082152 0.16244052 0.13296042 0.016810954 0.14794776 0.11304698
0.14094326 0.1087616 0.024229513 0.024477143 0.09414646 0.14981118 -0.055790365 0.029513977
-0.09001125 -0.095990755 0.14602396 0.12736867 -0.06853155 -0.03845056 -0.008475767 0.12750089
0.044042293 -0.053776097 0.018254993 0.026676815 -0.037865616 0.20019047 0.079900414 -0.032551855
0.012810563 0.067218535 -0.002012423 0.085670374 -0.033661596 0.05169124 -0.08774824 -0.015846606
0.09905117 0.15974906 0.077199966 -0.059892077 0.02414022 0.05740451 0.05347267 -0.028492799
0.09663631 0.114264935 -0.009184105 0.07521211 -0.06535682 0.05333405 0.13681722 0.079485565
0.024514021 0.055030446 -0.10729117 -0.015306409 0.14004056 -0.041714296 -0.027095828 -0.059491657
-0.087917745 0.16278541 0.056463826 0.03817972 0.032042697 -0.059953686 0.11076304 0.122651115
0.1438992 0.013046032 -0.024657302 0.02972228 0.19484045 0.0018432556 0.23983736 0.12090222
0.088990845 0.09464377 0.038340546 0.1222122 -0.03131099 -0.24462838 -0.04218572 -0.061854217
-0.03459487 0.08270911 0.094076015 -0.033339966 0.1339401 0.13585055 0.08077279 0.14377314
-0.023370055 -0.0447194 0.14814842 0.12501861 -0.034815215 0.04694632 -0.024418237 0.13744609
0.13473867 -0.019921161 -0.04517827 -0.06881151 0.05549373 0.023050105 -0.016742282 0.15700465
0.13243394 0.03991854 0.16523896 0.033531625 -0.034377947 0.06943266 0.029083667 0.040339712
0.13825762 0.0758463 -0.017138295 0.16599827 0.1016082 -0.037400573 -0.057775814 0.009614262
0.15192114 0.077965066 0.04995121 -0.0018175842 0.14158411 0.16100699 -0.05836212 0.10044846
0.17308462 -0.036723632 -0.004024458 0.020391913 0.00029037605 -0.08738082 -0.06430116 0.01669691
0.07583818 0.031499166 0.14382589 0.13145737 0.044220366 -0.1138919 0.017403161 -0.08924997
0.015608094 0.17043935 0.11914544 -0.040213432 -0.020113582 0.14431575 0.06475897 -0.00039052538
-0.046429835 0.1025398 0.13787113 0.03441712 0.03496447 0.061214123 -0.12462654 -0.030072533
0.07451733 0.02187669 -0.100409694 0.0067873425 0.11533463 0.09237946 0.050750945 -0.0064008962
0.13386577 -0.05640124 -0.060394365 -0.020284176 -0.0008718976 -0.033201985 0.19561835 0.18862265
0.16980286 -0.0334079 0.18669036 -0.03451004 -0.017189633 0.09665734 0.030358722 -0.016361045
0.054173995 -0.072305694 0.07524422 -0.064132586 0.14214404 0.15645903 -0.024162902 0.17618123
-0.0125099765 -0.06370411 -0.0067737643 0.049022052 0.14291976 0.07938962 -0.045613553 0.15204826
0.0646282 0.24017128 0.05864543 0.03532058 0.1426629 -0.05470542 0.17599438 0.009792633
0.17358936 0.124742955 0.07753932 0.1761711 0.0023701752 0.09108336 0.17736465 -0.018335935
-0.008502785 0.017461775 0.073126756 -0.061625313 0.024270697 -0.009497378 0.062041428 0.17174898
0.027316542 0.124302804 0.026939813 0.11346107 0.16120759 0.1096125 -0.022664627 -0.016455768
0.08273163 -0.014003451 -0.09198138 -0.07388845 0.115013085 0.1368371 0.011950286 0.0811592
0.123302445 0.13614017 0.15182658 0.16245532 -0.042788602 0.09307397 -0.05855832 0.024407607
00000000: 80ad d93b 787f 2f3e 10a8 383d cf56 263e
00000010: c726 083e 20b7 893c 9e7f 173e 2d85 e73d
00000020: 6e53 103e 67be de3d f97c c63c 4a84 c83c
00000030: dccf c03d 1a68 193e 7084 64bd 4cc7 f13c
00000040: d157 b8bd cd96 c4bd 4e87 153e ef6c 023e
00000050: 455a 8cbd 567e 1dbd f2dd 0abc 988f 023e
00000060: b165 343d 5344 5cbd 7f8b 953c 5689 da3c
00000070: fa18 1bbd bbfe 4c3e d4a2 a33d 1855 05bd
00000080: 65e3 513c dfa9 893d dbe2 03bb f373 af3d
00000090: bee0 09bd 32ba 533d 59b5 b3bd bed0 81bc
000000a0: 57db ca3d 4295 233e 041b 9e3d 6551 75bd
000000b0: b6c1 c53c fe20 6b3d 2906 5b3d bb69 e9bc
000000c0: 42e9 c53d bc03 ea3d ee78 16bc cf08 9a3d
000000d0: ccd9 85bd ce74 5a3d d019 0c3e 54c9 a23d
000000e0: a1d1 c83c 9b67 613d 79bb dbbd bcc7 7abc
000000f0: cb66 0f3e 9cdc 2abd 12f8 ddbc 86ad 73bd
00000100: 380e b4bd 38b1 263e 9d46 673d 5762 1c3d
00000110: 343f 033d ff91 75bd bcd7 e23d 8230 fb3d
00000120: 505a 133e 06bf 553c 1cfe c9bc 247c f33c
00000130: 4184 473e 6599 f13a ed97 753e 959b f73d
00000140: d540 b63d 98d4 c13d fa0a 1d3d 644a fa3d
00000150: f43f 00bd dd7f 7abe efca 2cbd d95a 7dbd
00000160: 5ab3 0dbd 6563 a93d edaa c03d 7d8f 08bd
00000170: 9827 093e 681c 0b3e 346c a53d 4439 133e
00000180: 8f72 bfbc b12b 37bd 38b4 173e e104 003e
00000190: 669a 0ebd c94a 403d c108 c8bc abbe 0c3e
000001a0: eff8 093e b431 a3bc da0c 39bd 0ded 8cbd
000001b0: 654d 633d 93d3 bc3c 1c27 89bc d4c5 203e
000001c0: c39c 073e 9f81 233d 6734 293e 7558 093d
000001d0: e4cf 0cbd b632 8e3d df40 ee3c 413b 253d
000001e0: 6893 0d3e 4e55 9b3d 9c65 8cbc 73fb 293e
000001f0: f617 d03d 5831 19bd 55a6 6cbd 2385 1d3c
00000200: 3791 1b3e 26ac 9f3d a499 4c3d 013c eeba
00000210: 6dfb 103e 04df 243e 1e0d 6fbd ecb7 cd3d
00000220: 183d 313e 856b 16bd 9adf 83bb f10c a73c
00000230: 9d3d 9839 b7f4 b2bd 54b0 83bd f5c7 883c
00000240: 0c51 9b3d 4505 013d 1847 133e c39c 063e
00000250: 6a20 353d 2840 e9bd 1391 8e3c b0c8 b6bd
00000260: 17b9 7f3c a787 2e3e 8602 f43d d7b6 24bd
00000270: 3dc5 a4bc 82c7 133e 5aa0 843d 6ebf ccb9
00000280: 362d 3ebd 6300 d23d 172e 0d3e f7f8 0c3d
00000290: e736 0f3d a9bb 7a3d 333c ffbd ac5a f6bc
000002a0: 8b9c 983d bf36 b33c 99a3 cdbd 5b68 de3b
000002b0: 9034 ec3d 7131 bd3d 39e0 4f3d 9cbe d1bb
000002c0: 1c14 093e fd04 67bd 1560 77bd 002b a6bc
000002d0: 0f90 64ba cefe 07bd 2d50 483e 4c26 413e
000002e0: cde0 2d3e b9d6 08bd c22b 3f3e 665a 0dbd
000002f0: 46d1 8cbc 49f4 c53d dbb2 f83c 9907 86bc
00000300: 8de5 5d3d 0215 94bd a419 9a3d f257 83bd
00000310: 358e 113e cc36 203e 47f1 c5bc da68 343e
00000320: a5f6 4cbc 4d77 82bd 74f6 ddbb 59cb 483d
00000330: 8f59 123e 0697 a23d 47d5 3abd 8ab2 1b3e
00000340: ca5b 843d 76ef 753e 3136 703d 50ac 103d
00000350: 3916 123e ca12 60bd df37 343e 4871 203c
00000360: 69c1 313e 3c79 ff3d efcc 9e3d 3266 343e
00000370: f154 1b3b ea89 ba3d 149f 353e 3e35 96bc
00000380: 444f 0bbc ff0b 8f3c 7bc3 953d d36a 7cbd
00000390: 57d3 c63c e49a 1bbc 271f 7e3d f7de 2f3e
000003a0: f1c6 df3c 7892 fe3d e2b0 dc3c 475e e83d
000003b0: 9a13 253e 857c e03d 2bab b9bc 3fce 86bc
000003c0: 336f a93d bb6e 65bc bc60 bcbd d452 97bd
000003d0: fb8b eb3d 061f 0c3e 22cb 433c cb36 a63d
000003e0: fe85 fc3d 5468 0b3e 6d78 1b3e b05a 263e
000003f0: 1a43 2fbd 919d be3d d9da 6fbd 76f2 c73c

lstm.weight_hh_l0 f4 [256, 64]
0.08653429 0.06685918 -0.013793672 0.01974342 -0.028330643 0.07034606 0.030481745 -0.091871895
0.0028532413 0.22720583 -0.1206769 -0.17017183 0.11855623 0.039265044 0.10845602 0.06436531
-0.06279015 -0.09410495 6.8996436e-05 -0.08995585 0.04412339 -0.23940267 0.066888936 0.009017937
-0.07821561 0.0021527773 -0.13422167 -0.025847927 0.011849263 -0.072298296 -0.040335383 0.0434252
-0.06028947 0.053550314 0.023983391 -0.09735388 0.0019280423 -0.24207462 -0.10205227 0.05035423
0.13411425 -0.047939483 0.06747431 0.10623989 -0.008566616 0.051815193 0.007138167 -0.11763735
0.13945471 0.08031779 -0.10075568 -0.087559335 0.066045925 -0.076198675 -0.09615975 0.09034783
0.012042276 0.039862316 0.14732072 -0.055968996 0.12001053 0.036042504 0.13362545 -0.1021658
0.012352248 0.06469899 -0.010018732 0.040154897 0.12131475 0.019233568 0.04085389 -0.14668047
-0.11650208 0.0671103 0.07818647 -0.04939141 0.016070131 -0.03150606 0.1872769 -0.058481187
-0.062616564 -0.029638452 -0.13587438 -0.06402296 0.13867465 -0.25254694 0.011936675 -0.10013943
-0.053432375 -0.02376356 -0.056109264 -0.021237927 -0.089800954 0.09918673 -0.116437525 0.09234351
0.11284908 -0.065404646 0.0718446 -0.03629607 0.086262 -0.0838319 -0.12292307 0.05749947
0.01187381 -0.06624739 0.048039503 -0.025537489 -0.028855864 -0.020257847 -0.028278047 0.061450038
0.15048063 0.06358752 -0.08627448 -0.08988002 -0.114499 0.09455593 -0.050651256 0.032768924
0.1099649 0.053610172 0.16308092 0.083125316 0.12254294 -0.059933588 0.054499365 0.070521586
0.05748327 -0.040747475 0.015262222 -0.05608907 -0.03129294 0.08440064 0.07641527 -0.08151987
-0.023496205 -0.042629782 -0.07017294 0.10198668 -0.119312644 -0.049209423 0.038191855 0.01219116
-0.031754985 -0.0077033765 0.05711854 0.02808768 0.11541166 -0.075346984 -0.08012476 0.13005063
0.034577902 0.014260978 0.06426949 0.08767394 0.11169912 -0.085316144 -0.041171838 -0.11203602
-0.11185203 0.047522943 0.04760341 -0.08225426 0.09339789 -0.059971534 -0.055976108 0.09157711
-0.07179934 -0.014789294 -0.060090058 0.0667424 -0.11457352 -0.05020684 0.106280774 0.0057395645
-0.040070385 0.030744232 -0.05259311 0.11521272 -0.08106405 -0.09649595 -0.025135763 -0.106653154
-0.034074888 0.10303868 0.122199066 0.03178502 0.10791469 -0.024373803 0.11532107 -0.008807142
0.10126928 -0.09112511 -0.12713236 -0.11764629 -0.046300158 0.13786528 -0.037832994 -0.06426528
-0.09758085 -0.06378968 0.10228041 -0.056499958 0.021773584 0.087657005 0.106150664 0.019316727
-0.082058914 0.022186697 -0.12097141 0.0048729707 0.1266503 -0.05707411 -0.11234209 -0.00046350446
-0.123922415 -0.071419664 0.016326629 0.07186955 0.01605366 0.07535119 0.0062540052 -0.07758495
-0.0055099893 -0.06456492 -0.07785729 -0.13132742 0.08496191 -0.11654458 0.0134888645 0.038885612
-0.05731164 -0.03200875 0.05904406 0.008155468 0.11653247 0.0040467745 0.058059104 -0.11035583
-0.05161286 -0.021668475 -0.06766542 -0.03179427 -0.11281512 0.028438278 -0.08919904 -0.008518185
-0.081890434 0.08314597 -0.098657385 0.06871729 0.082367055 0.021262188 0.12047036 0.09049712
00000000: e438 b13d 77ed 883d dbfe 61bc f4bc a13c
00000010: aa15 e8bc 9811 903d dab4 f93c 5527 bcbd
00000020: 72fd 3a3b a5a8 683e 7325 f7bd 8641 2ebe
00000030: 9ccd f23d 62d4 203d 311e de3d f6d1 833d
00000040: 1f98 80bd 19ba c0bd 2eb2 9038 c63a b8bd
00000050: baba 343d f925 75be 11fd 883d f8bf 133c
00000060: 812f a0bd 9c15 0d3b 6871 09be 08bf d3bc
00000070: 6923 423c 2111 94bd b736 25bd 9fde 313d
00000080: 17f2 76bd 9357 5b3d d178 c43c 7961 c7bd
00000090: 5db6 fc3a 69e2 77be c800 d1bd 3d40 4e3d
000000a0: 3f55 093e 315c 44bd f92f 8a3d 4d94 d93d
000000b0: fe5a 0cbc 2b3c 543d 49e7 e93b daeb f0bd
000000c0: 37cd 0e3e a77d a43d fe58 cebd 4f52 b3bd
000000d0: 1643 873d 0d0e 9cbd 67ef c4bd 4808 b93d
000000e0: f74c 453c ab46 233d 3edb 163e bf3f 65bd
000000f0: 15c8 f53d 4ea1 133d 1cd5 083e 4e3c d1bd
00000100: 1561 4a3c e780 843d 9c25 24bc 7679 243d
00000110: de73 f83d b78f 9d3c 6956 273d 6833 16be
00000120: a498 eebd 2071 893d 3a20 a03d a64e 4abd
00000130: 82a5 833c 800c 01bd 84c5 3f3e f889 6fbd
00000140: 1d3d 80bd 57cc f2bc a722 0bbe 781e 83bd
00000150: ba00 0e3e d54d 81be 0b92 433c e715 cdbd
00000160: e8db 5abd ccab c2bc d4d2 65bd 29fb adbc
00000170: 90e9 b7bd 6a22 cb3d cc76 eebd 981e bd3d
00000180: 6b1d e73d dff2 85bd 4323 933d 30ab 14bd
00000190: 22aa b03d 0fb0 abbd 17bf fbbd 9084 6b3d
000001a0: 5e8a 423c b6ac 87bd 12c5 443d ff33 d1bc
000001b0: 2263 ecbc c9f3 a5bc 5da7 e7bc 09b3 7b3d
000001c0: 9817 1a3e 2c3a 823d adb0 b0bd 0413 b8bd
000001d0: 747e eabd 8aa6 c13d b177 4fbd b538 063d
000001e0: 4735 e13d 5796 5b3d affe 263e 9b3d aa3d
000001f0: cbf7 fa3d ec7c 75bd ba3a 5f3d 9f6d 903d
00000200: 9473 6b3d d3e6 26bd 660e 7a3c a7bd 65bd
00000210: 072d 00bd 3eda ac3d 9c7f 9c3d e4f3 a6bd
00000220: 1d7b c0bc 919c 2ebd d5b6 8fbd 64de d03d
00000230: 305a f4bd d28f 49bd 106f 1c3d 6ebd 473c
00000240: 8411 02bd 9b6c fcbb 21f5 693d 2218 e63c
00000250: f35c ec3d 854f 9abd 7318 a4bd fe2b 053e
00000260: 8fa1 0d3d e1a6 693c b99f 833d 658e b33d
00000270: 82c2 e43d 3bba aebd cda3 28bd 2473 e5bd
00000280: ad12 e5bd 6ba7 423d cbfb 423d ec74 a8bd
00000290: 6547 bf3d b6a4 75bd 3447 65bd c88c bb3d
000002a0: 880b 93bd cc4e 72bc fe20 76bd 3db0 883d
000002b0: 86a5 eabd b0a5 4dbd bca9 d93d f512 bc3b
000002c0: d820 24bd 54db fb3c df6b 57bd a6f4 eb3d
000002d0: e904 a6bd ab9f c5bd 84e9 cdbc f86c dabd
000002e0: 1c92 0bbd f205 d33d 8143 fa3d 0231 023d
000002f0: 6102 dd3d 92ab c7bc 742d ec3d d54b 10bc
00000300: 4566 cf3d cd9f babd fc2e 02be 8af0 f0bd
00000310: 3ca5 3dbd 8e2c 0d3e c5f6 1abd 849d 83bd
00000320: 78d8 c7bd 2aa4 82bd 6478 d13d 806c 67bd
00000330: 845e b23c 8485 b33d 8565 d93d 1d3e 9e3c
00000340: 810e a8bd e0c0 b53c dcbf f7bd 71ad 9f3b
00000350: 9eb0 013e 8bc6 69bd 9c13 e6bd 8402 f3b9
00000360: 09cb fdbd 7944 92bd 6cbf 853c 5830 933d
00000370: f782 833c ba51 9a3d 66ee cc3b dce4 9ebd
00000380: 248d b4bb 9d3a 84bd a573 9fbd b27a 06be
00000390: 8300 ae3d edae eebd 6600 5d3c 8546 1f3d
000003a0: 9cbf 6abd 9b1b 03bd 2fd8 713d 839e 053c
000003b0: 93a8 ee3d ce9a 843b 62cf 6d3d 3d02 e2bd
000003c0: 0268 53bd 1682 b1bc 2b94 8abd b53a 02bd
000003d0: 9d0b e7bd 64f7 e83c fcad b6bd db8f 0bbc
000003e0: 2cb6 a7bd 6f48 aa3d e20c cabd a7bb 8c3d
000003f0: 0fb0 a83d 0a2e ae3c 2ab9 f63d 8e56 b93d

lstm.bias_ih_l0 f4 [256]
0.03706083 0.10644147 0.05737413 0.07729327 -0.060623486 -0.069173604 -0.063511774 -0.0287521
-0.08559619 -0.10045069 0.006757986 -0.14637743 1.4427631e-05 0.073143594 0.03156941 -0.03778778
0.08433547 -0.08753289 0.07493179 0.019337885 0.017733691 -0.045167357 0.10547713 0.24547368
-0.027834939 -0.08859893 0.06711334 -0.1159028 -0.024083043 -0.04329728 0.027057128 -0.093342334
-0.013810297 -0.0901047 -0.016693888 -0.10519704 0.03887369 -0.027202386 -0.07134296 -0.019238783
-0.008214675 -0.110848054 -0.08113844 -0.060471185 -0.0014617135 0.051752537 0.04196617 0.0026676233
0.048439328 -0.07551948 0.085011035 0.011371192 0.010185508 0.040149793 0.028993884 -0.027897079
0.04489557 0.02528511 0.08294105 0.10404092 -0.039820317 0.10842403 -0.022830635 0.05351124
0.071113795 -0.05467855 -0.058110967 0.07116878 0.082411155 -0.015222782 0.11668148 0.026068745
-0.021014592 0.032013185 0.043940704 0.034633394 0.032116845 -0.11686856 0.052176535 0.019059392
-0.025671886 -0.01572399 0.059226543 -0.06616094 -0.05437024 0.122471556 -0.07792216 -0.0845898
-0.024222117 -0.11584326 0.1036983 -0.03226432 0.06515061 0.0154190585 0.0057659545 0.1020228
0.065208994 0.05250977 -0.04159646 -0.022494875 0.11909235 -0.028931454 -0.018862862 0.04337764
-0.03796353 -0.030550377 -0.0026571334 0.052996613 0.07861693 0.03528664 -0.053044446 -0.007401017
-0.020188896 -0.033514727 0.039393708 0.034531575 -0.13987973 -0.07575691 -0.11500767 0.005325639
0.07599524 0.037261393 -0.106456526 -0.06344609 -0.07241578 0.077233575 0.016337607 0.053263526
0.051159795 -0.03840249 -0.09999171 -0.0031383075 0.018008273 0.12193792 0.042104963 0.09564266
-0.12262227 -0.027610388 -0.08841674 -0.09800236 0.08657834 0.0063261148 0.03144412 0.10272225
0.031331107 -0.0031859104 0.002165758 0.032303106 0.07854465 -0.10210928 -0.034571312 0.10192214
-0.054283015 -0.09552611 -0.10440078 -0.034827095 -0.067737885 -0.013197355 0.031150265 0.00031434794
-0.12508695 0.07358975 -0.11079298 0.024552207 0.08144766 -0.105499506 -0.09278429 -0.039305553
-0.07659082 0.08224298 0.07183991 -0.035345946 0.09969605 0.0994459 -0.02464804 -0.11295436
0.0018828862 -0.010298262 0.04686339 -0.10326551 -0.05643088 0.050221983 -0.055218145 0.057356782
0.10331558 0.04149544 0.10507295 -0.060963914 0.06658758 -0.12102103 0.0096307825 -0.016642613
0.124454916 0.008825795 -0.007309672 0.13272923 -0.007264777 0.07741915 0.10740889 0.060185485
-0.06552171 -0.02879358 0.053546075 0.0745369 0.030318242 0.07772315 -0.026760798 -0.0013304743
0.020881694 -0.06870458 0.003295634 0.07756594 -0.02342109 -0.018831087 -0.02075341 0.17989397
-0.104429 -0.028343966 0.0148988785 -0.09449721 0.06526912 -0.037047356 0.027141761 0.12822378
-0.03313036 0.0070323623 -0.039129708 0.03064648 0.060779363 0.033330586 -0.0021163905 0.07094578
-0.011083764 0.06784884 0.11492517 0.1162241 0.10197393 -0.01736055 -0.0047728913 -0.06464061
0.046106827 -0.02199508 -0.027774487 -0.0007266086 0.14692776 -0.04161732 0.037137564 0.13143817
0.10164232 0.06196465 -0.0029563317 -0.04178796 0.10207673 0.04574354 -0.10916083 -0.029848276
00000000: 19cd 173d fcfd d93d 2301 6b3d ef4b 9e3d
00000010: 5550 78bd e4aa 8dbd 7612 82bd 8689 ebbc
00000020: 0e4d afbd 17b9 cdbd 1872 dd3b f7e3 15be
00000030: 340e 7237 4fcc 953d ed4e 013d 5cc7 1abd
00000040: 13b8 ac3d 7244 b3bd d775 993d 7c6a 9e3c
00000050: 3f46 913c 6801 39bd 6504 d83d 745d 7b3e
00000060: 1906 e4bc 5b73 b5bd b872 893d 725e edbd
00000070: cd49 c5bc 7d58 31bd e9a6 dd3c 442a bfbd
00000080: 9544 62bc d088 b8bd 9fc1 88bc 8c71 d7bd
00000090: 053a 1f3d 8ad7 debc 421c 92bd a79a 9dbc
000000a0: d896 06bc 4e04 e3bd e92b a6bd a2b0 77bd
000000b0: f796 bfba 78fa 533d b8e4 2b3d 4bd3 2e3b
000000c0: 5168 463d f5a9 9abd 441a ae3d 3c4e 3a3c
000000d0: 1ee1 263c 1c74 243d 9584 ed3c 6a88 e4bc
000000e0: 6be4 373d b822 cf3c ffdc a93d 6813 d53d
000000f0: a11a 23bd 6b0d de3d 5007 bbbc 9a2e 5b3d
00000100: 1ca4 913d 9ef6 5fbd c405 6ebd f0c0 913d
00000110: 2ec7 a83d fa68 79bc b3f6 ee3d 1f8e d53c
00000120: cb26 acbc 4220 033d 2bfb 333d bfdb 0d3d
00000130: f48c 033d c958 efbd 10b7 553d 7122 9c3c
00000140: d94d d2bc 99cf 80bc 8897 723d 637f 87bd
00000150: 54b3 5ebd 5ed2 fa3d a795 9fbd 6b3d adbd
00000160: 766d c6bc 3b3f edbd c65f d43d 9727 04bd
00000170: af6d 853d 38a0 7c3c 55f0 bc3b 54f1 d03d
00000180: 4b8c 853d 7c14 573d 0d61 2abd 2c47 b8bc
00000190: b1e6 f33d a801 edbc 4a86 9abc c1ac 313d
000001a0: a57f 1bbd c944 fabc 4d23 2ebb fa12 593d
000001b0: ea01 a13d b988 103d 2245 59bd 3b84 f2bb
000001c0: 2f63 a5bc bd46 09bd 4c5b 213d fb70 0d3d
000001d0: a23c 0fbe 7026 9bbd 2489 ebbd b382 ae3b
000001e0: 64a3 9b3d 679f 183d e105 dabd 06f0 81bd
000001f0: b94e 94bd a32c 9e3d 72d6 853c db2a 5a3d
00000200: ef8c 513d ee4b 1dbd 74c8 ccbd 10ac 4dbb
00000210: 1686 933c 97ba f93d 4176 2c3d 4de0 c33d
00000220: 6221 fbbd 2e2f e2bc d613 b5bd 76b5 c8bd
00000230: fc4f b13d 4c4b cf3b 8dcb 003d 0b60 d23d
00000240: 0c55 003d b5ca 50bb 64ef 0d3b 4350 043d
00000250: 04dc a03d ac1e d1bd a69a 0dbd 8ebc d03d
00000260: de57 5ebd 31a3 c3bd 13d0 d5bd dba6 0ebd
00000270: 29ba 8abd b839 58bc d72e ff3c 11cf a439
00000280: cb16 00be 39b6 963d 6ee7 e2bd b621 c93c
00000290: 08ce a63d 2010 d8bd b105 bebd dcfe 20bd
000002a0: a6db 9cbd 026f a83d cd20 933d e9c6 10bd
000002b0: 712d cc3d 4baa cb3d b0ea c9bc 9e54 e7bd
000002c0: 2dcb f63a 0bba 28bc d3f3 3f3d de7c d3bd
000002d0: 1124 67bd 91b5 4d3d 6c2c 62bd f2ee 6a3d
000002e0: 1e97 d33d 1ff7 293d 7d30 d73d 4cb5 79bd
000002f0: 125f 883d e0d9 f7bd 6eca 1d3c 1756 88bc
00000300: 38e2 fe3d 119a 103c f985 efbb 2cea 073e
00000310: 5e0d eebb ee8d 9e3d 31f9 db3d 0e85 763d
00000320: 3f30 86bd 84e0 ebbc 2153 5b3d cda6 983d
00000330: f65d f83c 512d 9f3d 7639 dbbc 4f63 aeba
00000340: 1610 ab3c fdb4 8cbd 90fb 573b e4da 9e3d
00000350: 96dd bfbc a743 9abc 0e03 aabc 2036 383e
00000360: dfde d5bd 9b31 e8bc 6d1a 743c c187 c1bd
00000370: d1ab 853d f8be 17bd 6658 de3c 184d 033e
00000380: b3b3 07bd bb6f e63b 7946 20bd 540e fb3c
00000390: c8f3 783d a785 083d 24b3 0abb 054c 913d
000003a0: ad98 35bc 55f4 8a3d e35d eb3d e706 ee3d
000003b0: b5d7 d03d b637 8ebc ea65 9cbb 4c62 84bd
000003c0: 83da 3c3d 072f b4bc 5287 e3bc e179 3eba
000003d0: 3b74 163e ec76 2abd 8f1d 183d ba97 063e
000003e0: d929 d03d a5ce 7d3d 04bf 41bb da29 2bbd
000003f0: 9b0d d13d 945d 3b3d b78f dfbd 5f84 f4bc

lstm.bias_hh_l0 f4 [256]
0.062335983 0.04920535 0.11738999 -0.010840786 0.055965807 -0.035597593 0.007663949 0.16731817
-0.00022885764 -0.015973847 0.07900315 -0.104499266 -0.011853863 0.118284784 -0.110478714 0.0047195214
0.118060075 0.06746003 0.06615657 -0.019366812 -0.11978494 0.10522538 -0.015970437 0.02737613
-0.03177975 -0.056461684 -0.06458448 0.05233107 0.10736336 -0.07751057 0.010992401 0.0061763204
-0.039551087 -0.088872 0.104503125 -0.061136775 0.007905265 0.012856636 0.11236194 -0.012208462
0.0009852421 -0.013363005 0.025062535 0.12136637 -0.04684612 -0.070762075 0.060496002 -0.024555154
0.07980734 0.064102724 0.11924049 -0.075859934 0.017363118 -0.093579255 0.1278343 0.08568765
0.053769525 -0.028862707 0.09997759 0.01650709 -0.044550236 0.02133225 0.07822422 0.1263879
-0.011186457 -0.018129747 0.104755856 0.058423977 0.021941843 0.03218988 -0.09613568 0.12866867
-0.013440752 -0.113870576 -0.039279293 0.10036552 0.07783026 -0.023437176 -0.11236986 0.019658597
0.0667821 0.05240112 0.030168666 -0.069782235 0.08370801 0.21133786 -0.028606094 -0.10912673
-0.020463757 -0.11532501 0.003207989 0.1188131 0.019107452 0.088844456 0.027941413 0.1060669
0.01942613 0.101704784 0.09983389 -0.029290643 0.10646831 0.03605005 -0.11698171 -0.11019362
0.05694806 0.046350986 0.061828773 -0.036595978 0.022071915 -0.04073303 -0.0431313 -0.015020558
-0.13861904 0.07161373 -0.1084414 0.10534693 -0.04940638 -0.07014851 0.04686964 0.0325924
-0.053727247 0.10369451 0.11064068 0.091632165 -0.11531011 0.12334866 0.058197025 -0.1097588
0.03880884 -0.113039576 0.054980658 -0.0656748 0.04832092 0.08109655 -0.056606505 -0.019151969
0.093431525 0.111296795 0.037633233 -0.056151345 0.036181305 -0.006793699 0.027594987 -0.1202186
-0.088435575 0.095977314 -0.10486741 -0.0038771927 0.014282325 -0.08065215 0.1037557 -0.14263561
-0.059972405 0.049622215 0.080818556 -0.10122339 -0.061342604 -0.004814528 -0.05531195 0.07078519
0.117230706 0.0184718 0.11625372 -0.091197975 -0.08392528 0.032223977 -0.05193535 -0.0004138577
0.045614887 -0.05304746 0.111570194 0.055532414 0.11804572 -0.046810683 0.02540842 -0.10551424
0.108865 0.07228775 -0.05256755 0.04458056 0.042447295 -0.08483406 0.07031928 -0.030987926
-0.073724166 0.054943953 0.0932603 0.123208545 0.010636377 0.11477064 0.119755454 -0.09305715
-0.06776364 -0.02547386 0.0004564784 -0.096366175 -0.11872613 -0.066758975 0.02299223 -0.014464897
-0.10368284 -0.033368714 0.093094885 0.08888184 0.0739474 -0.030270193 0.0067913625 0.039720707
-0.06085953 -0.08878535 0.09665521 -0.039617594 0.026575025 0.10542075 0.113123946 0.0677238
-0.07180207 0.07393461 -0.0008785437 -0.050411 -0.031912584 -0.013468777 0.13176271 0.11279443
0.13654816 0.025131963 0.0470695 -0.14375459 0.07045997 -0.07204463 -0.026869237 -0.046165355
0.027562505 0.090857536 0.025889233 -0.055212475 -0.1110794 0.10733937 0.0009242105 0.08432138
-0.13020572 -0.009323665 0.029242054 0.0012220752 0.08040814 -0.033121273 0.11821941 0.022505542
0.0074769314 0.118492894 0.0009978386 -0.049515232 0.018288933 -0.08346442 0.009546245 -0.028111273
00000000: 0454 7f3d 8d8b 493d 2a6a f03d 8d9d 31bc
00000010: 673c 653d c8ce 11bd dd21 fb3b 7455 2b3e
00000020: 81f9 6fb9 96db 82bc 67cc a13d b603 d6bd
00000030: b436 42bc 4b3f f23d aa42 e2bd 37a6 9a3b
00000040: 7bc9 f13d 7c28 8a3d 197d 873d 26a7 9ebc
00000050: ce51 f5bd 6780 d73d 6fd4 82bc e843 e03c
00000060: 7c2b 02bd 5e44 67bd de44 84bd 1b59 563d
00000070: 52e1 db3d ddbd 9ebd 7919 343c bb62 ca3b
00000080: 5200 22bd 8602 b6bd bc05 d63d 8e6a 7abd
00000090: 1685 013c a4a4 523c 041e e63d 0006 48bc
000000a0: 3d23 813a 81f0 5abc f24f cd3c ee8e f83d
000000b0: b8e1 3fbd b5eb 90bd a8ca 773d e427 c9bc
000000c0: 0872 a33d 4a48 833d 5c34 f43d 745c 9bbd
000000d0: 193d 8e3c 7ba6 bfbd ffe6 023e 027d af3d
000000e0: 6f3d 5c3d 7c71 ecbc 0dc1 cc3d e039 873c
000000f0: 4f7a 36bd f9c0 ae3c 0534 a03d d46b 013e
00000100: 6747 37bc d684 94bc 3d8a d63d fb4d 6f3d
00000110: 61bf b33c 89d9 033d c9e2 c4bd b8c1 033e
00000120: 9a36 5cbc fa34 e9bd 53e3 20bd 708c cd3d
00000130: 7965 9f3d 52ff bfbc 2b22 e6bd 110b a13c
00000140: 0ec5 883d 8fa2 563d 4724 f73c fde9 8ebd
00000150: 1b6f ab3d f468 583e 5457 eabc d67d dfbd
00000160: 9ca3 a7bc 852f ecbd 203d 523b 4854 f33d
00000170: 3b87 9c3c 15f4 b53d 64e5 e43c 9a39 d93d
00000180: 8c23 9f3c 994a d03d b675 cc3d eef2 efbc
00000190: 0f0c da3d 38a9 133d 1b94 efbd 31ad e1bd
000001a0: 5e42 693d 88da 3d3d 2b40 7d3d aae5 15bd
000001b0: 29d0 b43c add7 26bd 72aa 30bd c918 76bc
000001c0: 26f2 0dbe 38aa 923d 8616 debd 22c0 d73d
000001d0: 585e 4abd 06aa 8fbd 61fa 3f3d 9c7f 053d
000001e0: 1a11 5cbd ca5d d43d 9597 e23d a5a9 bb3d
000001f0: b527 ecbd 399e fc3d 0160 6e3d 39c9 e0bd
00000200: 05f6 1e3d 4b81 e7bd 6633 613d 8280 86bd
00000210: 28ec 453d f315 a63d 39dc 67bd 97e4 9cbc
00000220: 0759 bf3d 93ef e33d 4e25 1a3d f4fe 65bd
00000230: d932 143d ae9d debb e20e e23c 2b35 f6bd
00000240: b61d b5bd c18f c43d bac4 d6bd 8018 7ebb
00000250: 6a00 6a3c f42c a5bd de7d d43d 120f 12be
00000260: a0a5 75bd aa40 4b3d 3384 a53d 354e cfbd
00000270: 6242 7bbd 30c3 9dbb c98e 62bd d3f7 903d
00000280: a716 f03d 2c52 973c 6e16 ee3d 01c6 babd
00000290: 04e1 abbd 4afd 033d 29ba 54bd 0afb d8b9
000002a0: add6 3a3d 4b48 59bd ea7e e43d f575 633d
000002b0: f4c1 f13d 8fbc 3fbd 5225 d03c da17 d8bd
000002c0: 9df4 de3d 9a0b 943d 1251 57bd 1b9a 363d
000002d0: 37dd 2d3d 7bbd adbd 8e03 903d 64da fdbc
000002e0: b2fc 96bd e90c 613d 42ff be3d c354 fc3d
000002f0: 3344 2e3c df0c eb3d 5942 f53d bf94 bebd
00000300: aac7 8abd 8eae d0bc 7e53 ef39 a15b c5bd
00000310: af26 f3bd eeb8 88bd 335a bc3c 2dfe 6cbc
00000320: ab57 d4bd a2ad 08bd 88a8 be3d af07 b63d
00000330: bc71 973d 32f9 f7bc 148a de3b 2eb2 223d
00000340: d847 79bd 18d5 b5bd 2bf3 c53d 0f46 22bd
00000350: deb3 d93c d6e6 d73d 87ad e73d c7b2 8a3d
00000360: f70c 93bd 076b 973d 124e 66ba c47b 4ebd
00000370: c5b6 02bd 25ac 5cbc ceec 063e c400 e73d
00000380: 48d3 0b3e 8ce1 cd3c f3cb 403d 6734 13be
00000390: 514d 903d 238c 93bd e01c dcbc e217 3dbd
000003a0: c3ca e13c 8413 ba3d a815 d43c 7a26 62bd
000003b0: 997d e3bd bed4 db3d b746 723a b0b0 ac3d
000003c0: a654 05be 49c2 18bc 088d ef3c 0a2e a03a
000003d0: 06ad a43d 2caa 07bd 051d f23d 8b5d b83c
000003e0: 0c01 f53b 67ac f23d e8c9 823a 7cd0 4abd
000003f0: acd2 953c 65ef aabd db67 1c3c 9d49 e6bc

lstm.weight_ih_l1 f4 [256, 64]
-0.16116413 0.08653145 0.08767432 -0.077419974 -0.08705145 0.096247114 0.015328945 -0.0011567568
0.044953473 0.10099478 -0.09988313 -0.026633797 -0.09210258 0.09096163 0.06984331 0.036185425
-0.011682616 0.11649191 -0.028633412 0.06533075 0.05393682 -0.022696598 -0.07562481 0.0006785863
-0.02370114 0.028024623 -0.014048331 0.05506127 -0.14334671 0.037899636 -0.14811045 -0.012859869
0.11529677 -0.042751618 -0.058743484 -0.007978562 0.022489857 0.07125733 -0.07311283 0.01926177
0.13758539 0.009796 0.10567439 0.13193353 0.077595204 -0.08789779 -0.019257795 0.12850508
-0.043260258 0.10112717 0.0033023402 -0.004442942 0.11702525 -0.07084461 0.063071236 0.07609386
0.06290175 0.13286886 0.09184911 0.04370772 0.10403069 -0.14870046 0.021564286 -0.08964208
0.01824742 -0.12222227 0.031145941 -0.040733855 -0.050840095 0.06760669 0.11210214 0.038568225
0.15916899 -0.1050255 -0.042135097 0.034909785 -0.12272557 -0.10554592 0.0399806 -0.118785046
0.059776753 -0.11805561 0.080607004 0.024893913 -0.109632105 -0.07964999 -0.064682126 0.020789288
-0.062020596 0.034405306 0.08305125 0.08603101 0.1597555 0.14313485 0.085433565 0.028501892
-0.08303337 -0.015158796 -0.023772877 0.061444674 -0.015203663 -0.11178129 0.067691095 0.01236329
0.05665625 -0.004046695 -0.15190206 -0.12808071 -0.029267037 0.13283351 -0.12611896 -0.16356848
0.015715297 0.00032762883 -0.019405756 -0.04160204 0.023265325 0.19400713 -0.10005398 -0.006586615
-0.010276138 0.05315978 -0.16084225 0.13490015 0.09979327 0.1368662 -0.025116252 0.022957236
-0.106043845 0.051745534 -0.10665278 0.1126903 0.0026905485 -0.009346745 -0.010709106 -0.09461065
0.00692837 0.0663709 0.02784184 0.10844249 0.03176793 0.0061611654 0.0301244 -0.01324515
-0.123314574 -0.024040256 -0.12569457 -0.005916098 -0.10235794 -0.040670317 -0.022811232 0.17116565
0.083976805 0.032450765 -0.01822892 -0.07080762 -0.12152461 -0.13156721 -0.124469385 -0.032928176
0.08470203 -0.0023011935 -0.07622682 -0.06587274 0.01461108 -0.03564271 -0.10221125 -0.104867846
0.056660585 0.0499086 0.00880937 0.14673416 0.049434423 -0.11532108 -0.027446402 -0.020332657
-0.051255006 0.0473765 0.13701068 0.059254486 -0.008628783 -0.13388984 0.0631141 -0.095896594
-0.03009186 -0.055919662 -0.089699335 -0.0012278764 -0.122341655 0.009067857 0.010654301 0.036068223
-0.16681379 -0.01973107 -0.0032332041 0.118745424 -0.08757907 0.022920292 -0.008843815 -0.0015378786
-0.11003191 0.14731872 0.019057997 0.013336218 -0.10940102 0.11283633 -0.070178606 0.1577886
0.028364958 0.15447487 -0.14845103 -0.06697168 -0.09488515 0.110870056 -0.046163037 0.09191249
-0.15007268 -0.019508267 -0.066098146 0.037438624 -0.0048238663 -0.13164824 -0.08502948 0.10640274
0.12906626 0.047185235 -0.14842118 0.0935673 0.036236063 -0.0044127367 -0.08496169 0.064790644
0.13384601 -0.020536873 0.09183303 -0.006129558 0.12731816 -0.027258402 0.017210208 0.05984072
0.035821512 -0.009953577 -0.06291697 0.018078092 0.019491736 -0.11937608 0.07546182 -0.08541311
-0.08897654 0.070311666 0.031364523 -0.12945348 -0.018278599 -0.03907203 -0.028378056 0.07388189
00000000: 3608 25be 6737 b13d 988e b33d 5d8e 9ebd
00000010: 0848 b2bd 351d c53d 4126 7b3c 519e 97ba
00000020: 2221 383d 5ad6 ce3d 878f ccbd 1f2f dabc
00000030: 47a0 bcbd 174a ba3d 020a 8f3d 2b37 143d
00000040: 7168 3fbc 4f93 ee3d 9e90 eabc 21cc 853d
00000050: dbec 5c3d 37ee b9bc 2ee1 9abd 28e3 313a
00000060: e528 c2bc e593 e53c f92a 66bc ed87 613d
00000070: 7bc9 12be a63c 1b3d 44aa 17be 33b2 52bc
00000080: b720 ec3d 521c 2fbd 029d 70bd 84b8 02bc
00000090: a63c b83c 5def 913d 2ebc 95bd dcca 9d3c
000000a0: 2fe3 0c3e 677f 203c d16b d83d 9519 073e
000000b0: 3cea 9e3d c203 b4bd 86c2 9dbc d696 033e
000000c0: ab31 31bd c31b cf3d 136c 583b 1996 91bb
000000d0: efaa ef3d fb16 91bd 7e2b 813d 19d7 9b3d
000000e0: a2d2 803d c60e 083e 631b bc3d de06 333d
000000f0: 0b0e d53d ef44 18be 96a7 b03c 4496 b7bd
00000100: 9d7b 953c ab4f fabd c625 ff3c 8bd8 26bd
00000110: b43d 50bd 6075 8a3d cf95 e53d b7f9 1d3d
00000120: 32fd 223e 9c17 d7bd da95 2cbd 90fd 0e3d
00000130: 8b57 fbbd 7628 d8bd b3c2 233d 9345 f3bd
00000140: 78d8 743d 24c7 f1bd 4915 a53d 52ee cb3c
00000150: cc86 e0bd 891f a3bd 1078 84bd 4c4e aa3c
00000160: 4f09 7ebd 94ec 0c3d c616 aa3d 0731 b03d
00000170: f296 233e f191 123e cbf7 ae3d cd7c e93c
00000180: 660d aabd 995c 78bc 56bf c2bc 69ad 7b3d
00000190: c918 79bc 97ed e4bd a1a1 8a3d 668f 4a3c
000001a0: 6210 683d 239a 84bb 378c 1bbe 9727 03be
000001b0: 6dc1 efbc 8205 083e 5425 01be 7f7e 27be
000001c0: 5ebd 803c 99c5 ab39 d2f8 9ebc e766 2abd
000001d0: ec96 be3c cea9 463e 1ae9 ccbd 88d4 d7bb
000001e0: 3f5d 28bc 12be 593d d5b3 24be 4423 0a3e
000001f0: 6a60 cc3d a726 0c3e 99c0 cdbc d010 bc3c
00000200: 842d d9bd 20f3 533d c66c dabd 2cca e63d
00000210: ea53 303b 1723 19bc 3f75 2fbc 3ac3 c1bd
00000220: 6107 e33b 77ed 873d 9214 e43c 1917 de3d
00000230: 171f 023d 9ae3 c93b 72c7 f63c 3002 59bc
00000240: 5a8c fcbd 12f0 c4bc 14b6 00be d4db c1bb
00000250: 0aa1 d1bd eb95 26bd 9fde babc 0c46 2f3e
00000260: 08fc ab3d 18eb 043d d154 95bc 9603 91bd
00000270: e5e1 f8bd 8eb9 06be cee9 febd b2df 06bd
00000280: 4278 ad3d 9fcf 16bb cf1c 9cbd 49e8 86bd
00000290: 5063 6f3c 17fe 11bd 2254 d1bd f4c4 d6bd
000002a0: ee14 683d f66c 4c3d 2d55 103c 7b41 163e
000002b0: c07b 4a3d 752d ecbd 47d7 e0bc ac90 a6bc
000002c0: c5f0 51bd dc0d 423d 874c 0c3e d5b4 723d
000002d0: bd5f 0dbc 6b1a 09be f741 813d 6f65 c4bd
000002e0: 3483 f6bc 040c 65bd 49b4 b7bd b2f0 a0ba
000002f0: 438e fabd 5991 143c 618f 2e3c 46bc 133d
00000300: 3cd1 2abe 0ea3 a1bc 2ae4 53bb cd30 f33d
00000310: a85c b3bd 56c3 bb3c a6e5 10bc a592 c9ba
00000320: 6958 e1bd b8da 163e 841f 9c3c 2780 5a3c
00000330: a40d e0bd bc16 e73d cdb9 8fbd 5693 213e
00000340: a15d e83c a92e 1e3e 8c03 18be 7328 89bd
00000350: 2553 c2bd d70f e33d 7415 3dbd 9e3c bc3d
00000360: a7ac 19be cdcf 9fbc 775e 87bd 3e59 193d
00000370: 8611 9ebb ccce 06be f023 aebd aee9 d93d
00000380: f229 043e 4e45 413d b9fb 17be 36a0 bf3d
00000390: 446c 143d b898 90bb 6500 aebd f5b0 843d
000003a0: ee0e 093e f23c a8bc f512 bc3d 76da c8bb
000003b0: b15f 023e 034d dfbc 6cfc 8c3c 8b1b 753d
000003c0: 94b9 123d 5414 23bc 9dda 80bd 8218 943c
000003d0: 22ad 9f3c 727b f4bd ba8b 9a3d 12ed aebd
000003e0: 5539 b6bd 90ff 8f3d 1678 003d 748f 04be
000003f0: 00bd 95bc fe09 20bd 1979 e8bc 634f 973d

lstm.weight_hh_l1 f4 [256, 64]
-0.050834317 0.014518097 0.11687323 0.057039365 0.07918462 0.09881707 -0.0017981454 0.035000905
0.020974496 -0.09781932 -0.043939702 0.101944365 -0.02819788 0.039337166 0.009719224 -0.0861468
0.040212102 0.10188502 0.05128364 -0.10253723 0.07256664 0.072306395 -0.02210129 0.110302806
0.09373288 -0.12177648 -0.08366138 -0.07783859 0.013355455 0.05621011 -0.07401077 -0.1108533
-0.010024705 0.11232683 0.12138698 0.09216919 -0.05451102 0.054324016 0.02748188 0.077709265
0.10248644 0.042312555 -0.11728115 -0.053909007 -0.03647473 -0.106186666 0.047709532 -0.05587579
-0.08596868 -0.08032163 -0.019131292 0.019099629 0.12163304 -0.018100617 -0.0023274377 0.044524383
0.11995659 -0.012110809 0.021303969 -0.044222284 -0.03294762 0.09206925 -0.0053360006 -0.07460434
-0.124013536 0.023504898 -0.040721882 0.01160556 0.110816866 -0.04372132 -0.048249733 -0.0768988
0.022837063 0.059925973 -0.014553977 0.04586265 0.12075599 0.047365956 -0.06049817 0.039909627
-0.008688323 0.063359156 -0.05507135 -0.036968317 0.13155505 0.050771154 0.077221185 0.07834544
-0.098659515 -0.03851822 -0.13228053 -0.05417444 -0.074895225 0.08076096 0.01983275 0.06983975
0.028920628 0.05444694 -0.010442371 0.03326868 0.014746896 0.06768813 0.13595544 0.013783039
0.047495265 0.022293728 0.037521504 -0.12010472 -0.003959654 -0.036842603 -0.0298961 -0.10652467
0.01261112 -0.10726771 0.0034796393 0.033468172 -0.11815789 0.04050291 -0.12695788 0.07794215
-0.079866834 -0.072680645 0.037558373 -0.076855324 0.04679126 0.11718426 -0.1346728 -0.09238587
-0.09629351 -0.118393235 0.073514275 -0.093168356 -0.13110982 -0.03748413 0.04907766 0.028050032
-0.047871817 0.031345893 -0.06911869 -0.060060732 0.059821643 0.0844258 -0.037737805 0.08189714
0.01674771 0.010362074 0.016676208 -0.018398 -0.09947501 -0.0023343633 -0.048532523 -0.13547622
0.11814118 0.019212278 -0.07735646 0.11880182 0.07229808 -0.055744123 0.11229876 -0.061228096
0.07704422 0.07982027 -0.12023511 0.047992986 -0.0039126514 -0.073038325 0.012866041 0.07173164
0.12942137 0.086190075 -0.012793403 -0.045936923 -0.02772883 0.030040182 0.07990305 -0.04563381
0.041323062 0.017072791 -0.045043148 -0.1113384 -0.104474805 -0.116585225 0.06696049 0.031261243
0.05058816 -0.09420046 0.060700547 0.0115506835 -0.04632582 -0.097596906 0.08528728 -0.12950628
-0.06711869 -0.114450574 -0.075153194 -0.0721137 -0.0037177189 -0.08682279 0.1307946 -0.033435732
-0.080875315 0.071444646 -0.054912753 -0.017641585 0.038980097 -0.016407866 -0.12411581 -0.018075798
-0.06950485 0.072533414 0.025037162 -0.02390771 -0.10049547 -0.01587948 0.08266346 0.09343528
-0.076296106 0.04507876 -0.04377355 0.035170216 -0.06891216 -0.05562339 -0.035503656 0.009046395
-0.09305666 0.08286786 0.031009234 0.12125099 -0.093669906 0.08515866 -0.000853575 0.023283083
0.1063775 -0.07502807 0.089312755 -0.089258164 -0.01571878 0.08467883 -0.012595512 -0.011222287
0.04517105 0.009051466 0.08966855 -0.034106553 -0.01164605 0.033941906 0.016486214 -0.045044664
-0.002407705 -0.12851904 0.049006823 0.002631349 -0.08889049 0.08170023 -0.09395699 -0.060315836
00000000: a537 50bd 50dd 6d3c 3b5b ef3d 1ca2 693d
00000010: 8c2b a23d 9b60 ca3d bfaf ebba 1c5d 0f3d
00000020: b5d2 ab3c 7f55 c8bd 1efa 33bd 35c8 d03d
00000030: 3eff e6bc 0220 213d 613d 1f3c bc6d b0bd
00000040: 72b5 243d 18a9 d03d cb0e 523d 0aff d1bd
00000050: d29d 943d 6015 943d c40d b5bc 70e6 e13d
00000060: 06f7 bf3d f265 f9bd a856 abbd d769 9fbd
00000070: d7d0 5a3c 933c 663d f592 97bd 0e07 e3bd
00000080: a93e 24bc 9c0b e63d bd99 f83d 33c3 bc3d
00000090: f346 5fbd dc82 5e3d ae21 e13c 0926 9f3d
000000a0: 69e4 d13d ee4f 2d3d 1931 f0bd b1cf 5cbd
000000b0: 8766 15bd 6578 d9bd 126b 433d 03de 64bd
000000c0: 5910 b0bd ab7f a4bd 3ab9 9cbc d376 9c3c
000000d0: be1a f93d bf47 94bc ed87 18bb 335f 363d
000000e0: cdab f53d 6a6c 46bc a985 ae3c 6d22 35bd
000000f0: 15f4 06bd ce8e bc3d 9ed9 aebb 29ca 98bd
00000100: cffa fdbd 588d c03c fdcb 26bd 3f25 3e3c
00000110: f4f3 e23d 2015 33bd 83a1 45bd 1e7d 9dbd
00000120: cb14 bb3c f074 753d ce73 6ebc 79da 3b3d
00000130: eb4e f73d ce02 423d eecc 77bd 4778 233d
00000140: 7859 0ebc 72c2 813d 7f92 61bd 176c 17bd
00000150: 5eb6 063e 6af5 4f3d 2426 9e3d 9373 a03d
00000160: 000e cabd 48c5 1dbd 8c74 07be 05e6 5dbd
00000170: ab62 99bd 0166 a53d 4b78 a23c 2508 8f3d
00000180: f4ea ec3c c103 5f3d 7a16 2bbc bd44 083d
00000190: f79c 713c 13a0 8a3d e737 0b3e 41d2 613c
000001a0: 658a 423d 56a1 b63c 26b0 193d 77f9 f5bd
000001b0: fcbf 81bb 45e8 16bd aae8 f4bc 9b29 dabd
000001c0: df9e 4e3c 2caf dbbd a90a 643b ec15 093d
000001d0: c4fc f1bd 61e6 253d 3f01 02be 22a0 9f3d
000001e0: 3991 a3bd 97d9 94bd cfd6 193d 5366 9dbd
000001f0: 31a8 3f3d 4dfe ef3d abe7 09be ce34 bdbd
00000200: 8835 c5bd 2778 f2bd a78e 963d 0dcf bebd
00000210: a741 06be f688 19bd a805 493d 2ec9 e53c
00000220: 3d15 44bd 8d64 003d 1a8e 8dbd 3e02 76bd
00000230: 8a07 753d 6fe7 ac3d f592 1abd b0b9 a73d
00000240: 7e32 893c b0c5 293c 8b9c 883c 67b7 96bc
00000250: 8eb9 cbbd 1efc 18bb 0aca 46bd 47ba 0abe
00000260: 01f4 f13d 1163 9d3c 106d 9ebd 5e4e f33d
00000270: 0411 943d f353 64bd e4fc e53d 50ca 7abd
00000280: 5cc9 9d3d cf78 a33d d33d f6bd 4b94 443d
00000290: b335 80bb 1e95 95bd 16cc 523c 0ae8 923d
000002a0: 0987 043e 6c84 b03d 6c9b 51bc 5b28 3cbd
000002b0: 9227 e3bc d416 f63c 36a4 a33d 85ea 3abd
000002c0: 5f42 293d 3ddc 8b3c 2a7f 38bd 6305 e4bd
000002d0: e3f6 d5bd 3cc4 eebd 9522 893d ca0b 003d
000002e0: 8835 4f3d 2cec c0bd 23a1 783d 143f 3d3c
000002f0: 25c0 3dbd e3e0 c7bd 19ab ae3d 4b9d 04be
00000300: 8675 89bd 1065 eabd ebe9 99bd 59b0 93bd
00000310: f9a4 73bb 26d0 b1bd 05ef 053e e8f3 08bd
00000320: f5a1 a5bd 9251 923d 32ec 60bd 1685 90bc
00000330: 98a9 1f3d ca69 86bc 6e30 febd b213 94bc
00000340: 8f58 8ebd 668c 943d bc1a cd3c 1ada c3bc
00000350: 92d0 cdbd af15 82bc 764b a93d ff5a bf3d
00000360: 2241 9cbd 81a4 383d e54b 33bd a50e 103d
00000370: d221 8dbd 5ad5 63bd 486c 11bd 5537 143c
00000380: 7d94 bebd a0b6 a93d 1407 fe3c 7052 f83d
00000390: 02d6 bfbd aa67 ae3d 73c2 5fba 2abc be3c
000003a0: 72dc d93d 51a8 99bd 9be9 b63d fccc b6bd
000003b0: acc4 80bc 186c ad3d 685d 4ebc afdd 37bc
000003c0: 4705 393d 9a4c 143c 25a4 b73d 50b3 0bbd
000003d0: 13cf 3ebc ab06 0b3d 190e 873c c180 38bd
000003e0: 96ca 1dbb 7f9a 03be 61bb 483d b672 2c3b
000003f0: 380c b6bd 7352 a73d 866c c0bd bd0d 77bd

lstm.bias_ih_l1 f4 [256]
0.13749753 -0.05418264 -0.047046028 0.08698334 0.05063044 0.018697659 -0.007663865 0.005344048
0.11245702 0.022343287 -0.087221645 0.13228077 0.04468049 0.021559173 0.09964701 0.045310937
-0.0032571657 0.11892071 0.0113285715 0.081994995 -0.029864034 -0.044695087 0.02911302 0.047965575
0.101056814 0.048057288 -0.041974917 0.09989383 -0.101770975 0.15443924 -0.06101998 -0.08882502
-0.103059016 0.07512282 0.07442497 -0.116966166 0.037221275 0.027735941 0.036591474 0.04580064
0.07389099 -0.013504215 -0.019972581 -0.10437384 0.122571275 0.013923526 0.020643536 -0.0723962
-0.052207276 -0.097828016 0.07435785 -0.025828766 -0.09815048 -0.051022943 -0.076270126 -0.06844657
-0.1065488 -0.0868967 0.10693628 -0.04738717 -0.046454657 -0.015609289 -0.06257052 0.09745488
-0.026692964 0.086385615 -0.076140024 -0.1122381 -0.02613594 0.12063554 -0.012167675 -0.035809234
-0.030830076 -0.046013243 -0.08729641 0.001219514 0.013805519 0.066006735 -0.042530607 -0.100245535
0.08333975 0.066963255 0.1016655 0.05958357 0.08161047 0.030506443 -0.053354118 -0.07571372
0.02586189 -0.03267576 0.07127046 0.013209668 0.07564754 -0.051945265 0.060177837 -0.101431854
-0.020503724 0.011729593 -0.051233817 -0.05760586 0.03023402 0.08814111 0.01003236 0.011134914
-0.120047934 0.044843063 0.047690798 0.07001047 0.011890051 -0.12008064 -0.028667837 0.074083224
-0.008110915 0.04258653 -0.067476414 -0.023744192 0.07015532 0.063183 0.02230419 -0.024732701
-0.05466979 -0.11085374 0.094439745 0.06923474 -0.06873767 -0.036670294 0.06415186 -0.06206312
0.04447277 0.06395344 0.1042634 0.015236339 -0.15360837 0.034208555 0.0966926 0.07090684
-0.027861902 -0.004781134 -0.012757114 0.08618564 -0.039434716 -0.039943095 -0.11367362 -0.11167281
0.042038422 -0.03805838 -0.09913368 0.033027012 -0.03742547 0.07735455 0.06281969 0.069788165
-0.0018597408 -0.009762443 -0.055552382 -0.13913995 0.07916148 -0.06959151 -0.12227472 -0.013993043
-0.10379132 -0.012099257 0.017085513 0.07148917 -0.10295773 0.12325963 0.079488665 -0.029983975
-0.09590519 0.11942049 -0.019018143 -0.020962387 -0.03372337 0.059879452 -0.057051264 0.012237258
0.06945068 -0.0071966667 -0.033224072 0.10477769 -0.04055748 0.111840226 -0.037819933 -0.051910408
0.072039135 -0.030561227 0.0044907015 -0.12394266 0.13586298 -0.07312917 0.12713772 -0.07378355
0.14228146 0.03688457 -0.03353681 0.12338294 0.11644012 0.00050083257 -0.040645722 0.062408697
-0.011859525 -0.10988492 -0.034962878 0.08110567 -0.03481753 -0.0052903267 0.112790614 -0.10603525
0.12088577 -0.024605284 -0.029934434 -0.08200238 0.06387664 0.035507727 0.083993204 0.039648388
0.037617743 0.122734345 0.07311506 0.04666942 -0.02240932 -0.039349046 0.061112974 0.09174298
-0.16908962 -0.100622505 0.0756539 0.037708104 0.12039457 -0.022211727 -0.050316308 -0.044587538
0.07017328 0.0036697944 0.13535345 -0.14792383 -0.057544667 0.10245188 -0.0093242265 -0.049606953
-0.039532524 0.059144903 -0.01330503 0.0836363 0.11438447 -0.09748144 0.10375132 0.0060183243
-0.06567337 0.038023405 0.113265805 -0.059635565 -0.061186254 0.13046567 -0.009996624 0.0022877904
00000000: 27cc 0c3e 9eee 5dbd 56b3 40bd 5224 b23d
00000010: dd61 4f3d d52b 993c 2921 fbbb 201d af3b
00000020: de4f e63d 4509 b73c 43a1 b2bd 9c74 073e
00000030: e402 373d dd9c b03c bb13 cc3d f697 393d
00000040: 2c76 55bb b48c f33d 799b 393c feec a73d
00000050: 6ba5 f4bc 3212 37bd 6e7e ee3c 8d77 443d
00000060: e0f6 ce3d b8d7 443d e4ed 2bbd 2395 cc3d
00000070: 4d6d d0bd 5225 1e3e 16f0 79bd e4e9 b5bd
00000080: 9b10 d3bd fed9 993d 1e6c 983d f58b efbd
00000090: 5675 183d 7c36 e33c f1e0 153d 7499 3b3d
000000a0: 2954 973d c840 5dbc 8a9d a3bc f4c1 d5bd
000000b0: a606 fb3d 801f 643c a21c a93c 7544 94bd
000000c0: 4cd7 55bd 0e5a c8bd ee48 983d d996 d3bc
000000d0: 1e03 c9bd 6ffd 50bd 8333 9cbd b72d 8cbd
000000e0: 4236 dabd e6f6 b1bd 6901 db3d 0d19 42bd
000000f0: 3d47 3ebd 1abe 7fbc f924 80bd 6d96 c73d
00000100: 34ab dabc f1ea b03d 4def 9bbd 17dd e5bd
00000110: 0a1b d6bc c40f f73d ee5a 47bc b4ac 12bd
00000120: 5b8f fcbc 6278 3cbd 76c8 b2bd 19d8 9f3a
00000130: 8b30 623c 8a2e 873d 9334 2ebd 884d cdbd
00000140: 08ae aa3d 0824 893d 0036 d03d e70d 743d
00000150: 6423 a73d a6e8 f93c d989 5abd cb0f 9bbd
00000160: 50dc d33c 05d7 05bd 3ff6 913d 5d6d 583c
00000170: 19ed 9a3d 8fc4 54bd 097d 763d 81bb cfbd
00000180: 6df7 a7bc 7b2d 403c 8dda 51bd 1ff4 6bbd
00000190: 56ad f73c 5483 b43d c55e 243c 376f 363c
000001a0: b1db f5bd 5cad 373d 6d57 433d a661 8f3d
000001b0: 7dce 423c d7ec f5bd d0d8 eabc f2b8 973d
000001c0: a5e3 04bc 376f 2e3d 1331 8abd 2e83 c2bc
000001d0: 98ad 8f3d 1766 813d 47b7 b63c 3c9c cabc
000001e0: 6eed 5fbd 4907 e3bd a069 c13d f2ca 8d3d
000001f0: 56c6 8cbd 9733 16bd 0d62 833d e635 7ebd
00000200: 1429 363d 05fa 823d 0d88 d53d d6a1 793c
00000210: 834b 1dbe 451e 0c3d c506 c63d 9b37 913d
00000220: a53e e4bc 0fab 9cbb 3703 51bc 1982 b03d
00000230: 4c86 21bd 5f9b 23bd b7cd e8bd b7b4 e4bd
00000240: 7b30 2c3d 1be3 1bbd 9906 cbbd 5547 073d
00000250: 734b 19bd 106c 9e3d 9ca7 803d 19ed 8e3d
00000260: 8cc2 f3ba a7f2 1fbc e58a 63bd b47a 0ebe
00000270: 6a1f a23d fe85 8ebd 2b6b fabd 1443 65bc
00000280: 8b90 d4bd f63b 46bc ebf6 8b3c ea68 923d
00000290: 81db d2bd 8b6f fc3d f4ca a23d f4a0 f5bc
000002a0: f169 c4bd bb92 f43d f0cb 9bbc 50b9 abbc
000002b0: 8421 0abd 2844 753d 96ae 69bd c87e 483c
000002c0: 283c 8e3d 04d2 ebbb f715 08bd af95 d63d
000002d0: 9a1f 26bd 7d0c e53d 13e9 1abd 02a0 54bd
000002e0: 4189 933d 8a5b fabc bc26 933b a6d5 fdbd
000002f0: aa1f 0b3e bfc4 95bd 6430 023e d41b 97bd
00000300: 3bb2 113e 4614 173d e55d 09bd 32b0 fc3d
00000310: 2878 ee3d 4e4a 033a 217c 26bd 43a0 7f3d
00000320: 744e 42bc 580b e1bd 3c35 0fbd bb1a a63d
00000330: d49c 0ebd 7a5a adbb c4fe e63d 0229 d9bd
00000340: f592 f73d 0591 c9bc 0f39 f5bc ddf0 a7bd
00000350: c1d1 823d 8d70 113d a104 ac3d 5966 223d
00000360: 1015 1a3d 255c fb3d 59bd 953d 6f28 3f3d
00000370: c093 b7bc 772c 21bd 9951 7a3d bee3 bb3d
00000380: d425 2dbe 2c13 cebd 6ff0 9a3d d073 1a3d
00000390: 6e91 f63d 5ef5 b5bc 7918 4ebd 6ca1 36bd
000003a0: 02b7 8f3d ef80 703b 189a 0a3e 5879 17be
000003b0: f5b3 6bbd 4bd2 d13d a4c4 18bc a930 4bbd
000003c0: dbec 21bd ed41 723d 57fd 59bc 8249 ab3d
000003d0: 6842 ea3d 59a4 c7bd 927b d43d 5d35 c53b
000003e0: c37f 86bd 6ebe 1b3d e7f7 e73d 6c44 74bd
000003f0: 709e 7abd cb98 053e e1c8 23bc c1ee 153b
