spx_ohlc_lstm_multistep.pt (torch, 217029 bytes, 10 tensors)

lstm.weight_ih_l0 f4 [256, 4]
000000 a0 bc b0 3c 3b a7 75 bd 5d 96 2e 3e f2 cb f3 bc
       0.021574318 -0.059973937 0.17049547 -0.029760335
000010 97 2e 8c 3d 01 b5 ab 3d 71 6e 1e bd 13 06 08 3d
       0.06844824 0.08384133 -0.038679544 0.033208918
000020 1b ad 6d bc 59 49 1d 3e 79 5e 4a bd 65 b5 21 3e
       -0.014506604 0.15360011 -0.049406502 0.15791853
000030 2f be 84 bd b5 e2 f2 bd 2b e7 aa bb f3 38 f1 bd
       -0.06481587 -0.11859647 -0.0052155457 -0.1177844
000040 11 ff 0c bd 8e 06 24 3e 3c 77 2d 3d 0e 46 ec bc
       -0.034422938 0.16018125 0.04235004 -0.028841998
000050 eb 61 c5 3d 9d 73 03 bd 46 ba ed 3d 83 d1 a7 bd
       0.09637817 -0.03209268 0.116077945 -0.08194258
000060 50 df 29 be db 49 e1 bc b5 8f 97 bc a1 94 00 bc
       -0.16589093 -0.027501037 -0.018501142 -0.007847936
000070 84 df 1d 3e 92 0c 2a 3e 07 20 8e bd e3 80 da 3d
       0.15417296 0.16606358 -0.069397025 0.106691144
000080 08 72 e3 bc 41 e5 bc 3d e5 58 92 3d a1 52 8f 3d
       -0.027764335 0.09223414 0.071458615 0.06998182
000090 2b 68 b0 3d fc bd db 3c ae 6c eb 3c 79 04 29 3e
       0.086136185 0.02682399 0.028738346 0.16505612
0000a0 c8 68 fd 3d 88 6e 17 bd a0 da 77 bd e9 d9 e9 3c
       0.12373501 -0.036970645 -0.06051123 0.02854629
0000b0 ed fa e8 3d 4a 21 58 bd f5 cc 20 bd f9 a3 f6 3d
       0.11375985 -0.052766122 -0.039257962 0.12042994
0000c0 75 3e fe bd 89 20 fa 3c be ce 29 bc 4e af 01 3d
       -0.124142565 0.030533092 -0.010364233 0.031661324
0000d0 00 29 32 3e c0 b6 bd 3d c6 e2 e9 3d 8c 26 b4 3d
       0.17398453 0.092633724 0.11420207 0.08796415
0000e0 19 6e b6 3d bb 1e 4c ba 5d a0 c4 bd a1 d1 87 3c
       0.08907718 -0.00077865616 -0.09600899 0.016579451
0000f0 77 86 e9 bc 18 17 06 3d 2e dd 58 3d 4b 2f e6 bd
       -0.0285065 0.032736868 0.05294531 -0.11239489
000100 1e ef 0f 3e 7b ee 04 bd 51 fb fd 3d fe f0 bf bd
       0.1405606 -0.032453995 0.124014504 -0.093721375
000110 4c 69 92 3d 08 28 69 bd 75 6e 42 3b cf 47 17 3e
       0.0714899 -0.056922942 0.0029667888 0.14773487
000120 9e 4b 02 3e 6f a9 4b 3d 0a d2 2d 3c f9 3b 43 3b
       0.12724158 0.04972213 0.010609159 0.0029790385
000130 e4 1f f5 3d 9b 8c 8f bd d6 22 0e 3e 05 2c c1 3d
       0.11968973 -0.0700924 0.13880476 0.09432224
000140 fc d0 dc bd 4a a7 ed bd bb f5 98 bd fa e1 76 bd
       -0.10782048 -0.116041735 -0.07468744 -0.0602741
000150 e4 e1 57 3d 4c 96 9d 3d 0e 95 d3 3d 64 98 12 bd
       0.05270566 0.076946825 0.10331164 -0.035789862
000160 60 73 88 bd b9 58 87 bb ae 66 88 3b a6 a8 73 3d
       -0.06662631 -0.0041304496 0.004162631 0.059487008
000170 31 19 e9 bc 70 7e 83 bc d5 3d 26 3d 45 b3 ab bd
       -0.028454395 -0.016051501 0.04058631 -0.08383802
000180 b8 1c 61 bc c3 6f 43 3d f4 3a 0d 3d 1e 6a c9 3d
       -0.013739757 0.047714006 0.03448005 0.09834693
000190 59 8e 91 bd ec 07 81 bd d0 30 9b 3d d7 d0 05 be
       -0.07107229 -0.06300339 0.075776696 -0.13067947
0001a0 6d 0f 8f 3d 8f 8c 99 bd 90 13 ab 3d 16 3a ba 3d
       0.06985364 -0.074975125 0.083533406 0.0909311
0001b0 8d 63 49 bc df 39 17 3e b5 c4 73 bd a6 ac e0 3d
       -0.012291801 0.1476817 -0.059513766 0.1097043
0001c0 9b 66 04 bd 6f db 36 3e dc d5 32 bd fd 2d e4 3c
       -0.032324415 0.17857145 -0.043660983 0.02785396
0001d0 7f 39 86 bd 34 49 c1 3c 2b 90 e8 bc 7f 04 21 3d
       -0.06553935 0.023594476 -0.028389057 0.03931093
0001e0 47 de cc bc 36 8e 77 bc 20 33 f4 3d 23 8e fe 3d
       -0.025008334 -0.015109589 0.11923814 0.12429454
0001f0 85 e4 c5 3c dd fd f2 3d 89 74 b2 3c be 05 07 3e
       0.024156818 0.11864827 0.021784084 0.13185784
000200 f6 f5 1b 3e a7 50 57 bd 4b 95 7d 3c 49 0b 00 3e
       0.15230545 -0.05256715 0.015477489 0.12504305
000210 3c 74 4a bb 8c 31 93 bd 24 fa 34 3d 22 0a 10 3d
       -0.0030892035 -0.07187185 0.044183865 0.035165913
000220 8c 52 82 3b c5 c4 a8 3d 4e 8e 07 3d 1b a4 02 bd
       0.0039771255 0.08240656 0.033094697 -0.031894784
000230 68 69 a7 bc fb cd b1 3d b0 a8 12 3e 2f a6 9f 3d
       -0.020436004 0.08681866 0.14322162 0.07795369
000240 f9 9f 1b 3e 6c 00 15 3e 9a 2e e4 3c 0f 35 0b 3d
       0.15197743 0.14550942 0.027854253 0.033986147
000250 23 36 84 3c db ca 11 3e 24 97 19 3e 20 b2 84 3c
       0.016139096 0.1423754 0.14999062 0.016198218
000260 69 ad cc 3d 14 98 7f 3d 94 61 ec 3d ca ba a4 3d
       0.09994013 0.062400892 0.11542049 0.0804344
000270 47 23 8f bd 3b 18 3f 3d 59 ba f3 bd a1 66 32 bd
       -0.069891505 0.046653967 -0.11900777 -0.043554906
000280 c4 95 8d bd 92 9b 8f 3d 9c 0d 0b be 72 2c be bd
       -0.06913331 0.070120946 -0.1357941 -0.09285821
000290 34 03 90 3d 4a 09 dd bc c8 fb 97 3d 4d 51 1e 3e
       0.07031861 -0.026981968 0.0742107 0.15460701
0002a0 a8 7c 1a bd 84 8b 49 3d a0 d0 29 bc 61 03 da 3c
       -0.037716538 0.049205318 -0.0103646815 0.02661294
0002b0 a3 74 bb 3b 4f 8a 45 3d 57 0b be 3d c0 23 4b bd
       0.0057206913 0.048227604 0.09279507 -0.04959464
0002c0 a7 ed 95 bd f6 58 56 3c 99 b1 16 bd 29 7d a0 3d
       -0.07320719 0.013082733 -0.036790464 0.078363724
0002d0 3a 02 af bd f7 fe 52 bd 46 b0 9f 3c 5c 56 cc bd
       -0.085453466 -0.051512685 0.019493233 -0.09977409
0002e0 c8 c5 ff 3c 08 e9 04 be ba 76 00 3d 20 3d e4 3d
       0.03122224 -0.1297952 0.031363226 0.11144471
0002f0 7a 78 28 3e 4e 65 22 3e ee 28 07 3e 56 bd 96 3c
       0.16452208 0.15858957 0.13199207 0.01840083
000300 d7 29 f1 3d 94 7e 1b 3e 40 ec d3 3d de ca 54 bd
       0.117755584 0.15185004 0.103477955 -0.05195128
000310 0c c6 8b 3c 0a dd 81 3d 7e 8e 9b 3d e7 c3 12 3d
       0.01706221 0.06340988 0.075955376 0.03583136
000320 2d d6 14 bc 46 fa 21 be 5a d2 d4 bc 1a e9 0d be
       -0.009084267 -0.15818128 -0.02597921 -0.13858452
000330 e9 59 b4 bd 66 81 7f bd bc be 42 3d 5e 45 74 3c
       -0.088062115 -0.062379263 0.04754518 0.014909117
000340 fb 1e 09 bc cd b4 87 3d 00 9a cf 3d 5f c8 6e bc
       -0.008369203 0.06626282 0.10136795 -0.014574139
000350 be e2 8a bd ae e0 3a bd 49 44 05 bd 61 88 ee bc
       -0.06781529 -0.045624427 -0.032535825 -0.029117765
000360 d6 fa 02 bd 19 7c d0 3d 7d ca c2 3b 14 67 1b ba
       -0.031977497 0.1017992 0.0059445486 -0.00059281406
000370 15 68 40 3d fc de b6 3d c2 83 1a bd 2f 6d 2d bd
       0.04697426 0.0892925 -0.03772331 -0.042340454
000380 21 64 f9 3c cb d1 fc 3c 5d 96 80 bd 60 82 c5 3d
       0.030443253 0.030861756 -0.062786795 0.09644008
000390 6b 24 a7 bd 79 c0 94 bd d1 f2 bb 3d 1f d7 e4 3d
       -0.08161243 -0.07263274 0.09177173 0.111738436
0003a0 a4 f1 06 3d 0c 4f 22 bd c9 e2 5c bd ee e6 15 bd
       0.03294529 -0.039626166 -0.053927217 -0.036597185
0003b0 75 68 17 3e 1c 5b f6 3d 42 63 31 3e 4d a1 c9 bc
       0.14785941 0.120290965 0.1732302 -0.024613047
0003c0 48 d6 42 bd ff ab 5d bd 71 ec f1 3d 48 70 52 bd
       -0.047567636 -0.054119106 0.11812676 -0.05137661
0003d0 9d 47 92 bd 72 39 b5 bd c2 7d f3 3d 13 38 b6 3c
       -0.071425654 -0.088488474 0.11889221 0.022243535
0003e0 38 c3 c2 bb a9 80 9f 3d 65 b4 58 bc b3 cf 9f 3d
       -0.005943682 0.07788212 -0.013226603 0.07803287
0003f0 98 a3 1b 3e 77 79 20 3e a4 48 a2 3c 1c a4 bd 3c
       0.15199125 0.15671335 0.019810028 0.023149543

lstm.weight_hh_l0 f4 [256, 64]
000000 73 e1 aa bd 39 50 e4 bd 1c 40 25 3c a3 77 7a 3d
       -0.08343782 -0.11148114 0.010086086 0.06114925
000010 c3 d3 ff 3d bd 2d 89 3d df 82 4c 3d 1c 6f a0 3d
       0.12491562 0.06698177 0.049929496 0.078336924
000020 3d dc 53 3d 3a 28 8e 3c 67 44 68 bd 21 c2 9b 3d
       0.051723707 0.017353166 -0.05670586 0.076053865
000030 40 6d 35 bd 7f 36 e7 3d a5 14 a1 3c 80 6b 73 3c
       -0.044293642 0.11289691 0.019663164 0.014857173
000040 25 47 26 3d 2f 4e b3 3c 47 44 57 3d 94 0f 19 bc
       0.040595192 0.021887867 0.05255535 -0.009342093
000050 d5 ac c2 bd e9 63 75 bd b4 7d 0e 3e ce 97 0c 3c
       -0.09505621 -0.059909735 0.1391514 0.008581115
000060 8d 11 99 3d 70 7e f6 bc a9 e2 0d 3e f2 42 81 3d
       0.07474051 -0.030089587 0.13855995 0.06311597
000070 c9 43 cc bd 3a 14 ee bc 74 19 be 3d ff 2d 20 bd
       -0.099738665 -0.02906238 0.092821985 -0.039106365
000080 35 3c 77 3d ce 76 a2 bb 9d 9c 0c 3d bc f0 80 bd
       0.060360152 -0.0049580103 0.034329046 -0.062959164
000090 fe c8 0a 3e c6 44 03 be bd ec e6 3d 0e d2 73 bd
       0.13553235 -0.12819204 0.11275623 -0.059526496
0000a0 46 7b 9e bd 05 47 96 3d ae fe 0b 3d 5c a1 0d 3e
       -0.07738356 0.07337765 0.03417843 0.13831085
0000b0 cf e1 bf 3c f7 5e 0e be f2 e3 39 bd 54 fd 38 bd
       0.023423104 -0.13903414 -0.0453834 -0.045163468
0000c0 1a fc 94 3d 53 6a da bd 35 0a c4 3c 8e ac 2a bd
       0.07274647 -0.10664811 0.023930648 -0.041668467
0000d0 c8 0b 74 3d 5a b3 86 bd f2 d3 3b bd 25 06 1d 3d
       0.059581548 -0.06577177 -0.045856424 0.038335938
0000e0 1c f1 1b 3e fe b9 d2 bc 4a dc 94 bd 72 ff b6 bb
       0.15228695 -0.025723454 -0.07268579 -0.0055846507
0000f0 5e 5f 6d bd 7d 10 ad 3b d8 86 25 bd 1a fe 4b bd
       -0.057952277 0.0052815066 -0.0404118 -0.049802877
000100 59 0b 63 bd b4 2e 70 3c 4e f5 df 3d f0 31 f9 bb
       -0.055430744 0.014659572 0.1093546 -0.00760483
000110 c4 b6 d1 bd d4 6d 4c 3c 1c 1c ec bc 38 88 cf 3d
       -0.10239938 0.012477357 -0.028821997 0.101334035
000120 db f9 97 3c a8 03 ba bd fe 12 b3 3b 2c 7a 90 bd
       0.018551758 -0.090827286 0.0054649105 -0.070545524
000130 2a 11 94 3d 64 0c ad 3c 43 61 cd 3d 40 90 8f bd
       0.07229836 0.021124072 0.10028317 -0.070099354
000140 6a c8 86 bd da cf bc 3d 0c 89 d2 3d 1b e7 7d 3d
       -0.06581195 0.09219332 0.10280046 0.061987977
000150 b6 45 59 bd 6b 61 c4 bd 8e 90 47 3d 8c 0f 6d 3d
       -0.053044997 -0.095888935 0.048721842 0.057876155
000160 1e a0 3c bc 8d 4d df 3d 9b c0 b2 bd 36 f2 58 3c
       -0.011512784 0.109034635 -0.08728143 0.013241341
000170 67 19 76 bc b5 af 31 3a 6e e5 d4 bd b3 e7 93 bd
       -0.015020705 0.00067781965 -0.10395323 -0.072219275
000180 16 0a 80 bd e7 ef 4a bd cb e6 11 bd e3 b8 5d bd
       -0.06251924 -0.049545195 -0.035620492 -0.0541314
000190 d2 23 91 bd 64 43 ce 3d e8 e6 78 bd 7d 2a b7 bd
       -0.0708691 0.100714475 -0.060767084 -0.08943651
0001a0 24 0f b2 bd d5 ce 82 3c 7d f7 a5 3d 15 e0 ec bd
       -0.08694294 0.015967766 0.08103845 -0.11566178
0001b0 5c dd 95 3d b0 9d 42 bd 9b 80 99 bd 07 79 eb bd
       0.073176116 -0.047513664 -0.07495233 -0.114976935
0001c0 fe 40 83 bd d9 fa cb 3d 20 ea ff 3d 19 3f a8 bc
       -0.06408881 0.09959955 0.12495828 -0.0205379
0001d0 b5 6b 7c bd 28 5d 7b 3d 6e c6 4d 3c c1 d5 ac 3d
       -0.061626155 0.061368138 0.012559516 0.08439208
0001e0 2e db 30 3c 5f 89 9b bb ff 9f f7 bd 35 22 03 bc
       0.010794444 -0.0047466005 -0.12091064 -0.008003761
0001f0 5e 92 bb bc 81 af 88 bc 42 0d 95 3d 73 bd bf bd
       -0.022896942 -0.01668525 0.07277919 -0.093623064
000200 45 ea c3 3c 66 60 8e bd 70 e6 29 bb 3d 63 19 3d
       0.02391542 -0.0695198 -0.0025924705 0.037448157
000210 cf 5a dc bd a4 08 3f bc da 64 d7 3d e0 db a1 3c
       -0.10759508 -0.011659775 0.10517283 0.019758165
000220 5d 05 a2 bd 11 20 2f 3b 64 b9 e1 3b 77 f0 22 bd
       -0.07911179 0.0026721994 0.0068885554 -0.039780106
000230 8e 31 1b 3e 4a 16 cb 3c 71 22 97 bd bd cf 31 bd
       0.15155622 0.024790902 -0.07379616 -0.043411005
000240 41 02 ca 3d 0a 81 51 3d d2 bb c9 bd ba d1 60 3d
       0.09863711 0.051148452 -0.09850277 0.05488751
000250 23 41 3c bc 16 b2 eb bd 06 ca f3 ba e0 ff c8 3c
       -0.011490139 -0.115085766 -0.0018599636 0.024536073
000260 ff 17 f6 3d b3 7e d8 bd 2b a9 ec bd 9c 2c 92 3d
       0.12016296 -0.10571041 -0.11555704 0.07137415
000270 4e 48 a3 bd fd 92 3b bd 04 3f d0 bd 21 51 0b be
       -0.079727754 -0.045794476 -0.10168269 -0.13605167
000280 c9 9b 7e 3d 38 43 06 bd 20 c3 87 bc d2 41 ad 3d
       0.062160287 -0.03277895 -0.016572535 0.0845982
000290 96 65 d1 3d ca 0b cd 3c fe 38 0c 3d c4 a5 a3 3c
       0.10224454 0.025030036 0.03423404 0.019976504
0002a0 7e 14 82 3d 23 8d ab bd 09 0d eb 3d 07 cd 6f 3d
       0.06351565 -0.08376529 0.11477096 0.05854514
0002b0 bd ff 68 bd 85 ef d9 3c f2 8c 21 bc 49 28 4b bd
       -0.056884516 0.02660347 -0.009860264 -0.049598966
0002c0 fb 3c 59 3d ce 66 fb ba 42 2e 2a 3b 75 17 52 3d
       0.05303667 -0.0019180418 0.0025967513 0.0512919
0002d0 09 00 d8 bb a9 db 0f be 19 5c 8d 3b fe a0 ad 3d
       -0.006591801 -0.14048637 0.0043139574 0.084779724
0002e0 22 50 dd bd f6 c2 20 be 0d 46 db 3d 92 6e bd 3d
       -0.108063 -0.15699372 0.107067205 0.09249605
0002f0 ab eb b2 3d 73 77 42 bd ca 44 f6 bc 8a 6f ce 3d
       0.08736356 -0.047477197 -0.030062098 0.10079868
000300 0f be b2 3c 95 9a dc 3d 1e 1d 30 3b 09 22 28 bd
       0.021819143 0.10771672 0.0026872824 -0.041048083
000310 2c d1 5a bd 3b bc ab bd 26 37 8d 3d aa cc ad 3d
       -0.053422138 -0.083855115 0.06895284 0.08486302
000320 92 9e 88 bd 6a 01 f2 3c ef e9 08 3e fa cd 89 bc
       -0.0667087 0.02954169 0.13370489 -0.01682185
000330 82 b1 02 be 6e 5c bf bc 49 10 b5 bd bc de 20 bd
       -0.12763026 -0.023359504 -0.08840997 -0.039274916
000340 7a 25 8d bd bd c0 12 bd 36 b2 2b bd 32 2d 2d 3e
       -0.06891914 -0.03582834 -0.041918002 0.16911772
000350 a4 c8 91 bc 8f cc 43 bd 4e b1 aa bb cf 0d 61 3d
       -0.017795868 -0.047802504 -0.0052091246 0.05494481
000360 09 9d fa bc 54 17 98 bd 03 39 81 3c 56 64 45 3d
       -0.030592458 -0.074263245 0.015774256 0.04819139
000370 9e cd 47 bd 97 52 53 3d 9a f6 2a be 74 bd 1b bd
       -0.048780076 0.051592436 -0.16695634 -0.038022473
000380 74 4b 60 3c 66 ba 81 3c 9b 5c 17 3d c9 a3 f5 bd
       0.013689864 0.015835952 0.03695355 -0.1199413
000390 ed cd 8f 3d ab d9 4c bd 97 36 0b bd 8f 07 d6 3d
       0.07021699 -0.05001227 -0.033987608 0.104506604
0003a0 a1 c5 db 3d be 9e ee 3d f1 aa 0b 3d ed 17 a9 bc
       0.10731054 0.116513714 0.03409857 -0.020641292
0003b0 cc 61 c0 bd 42 fd 93 bc 89 33 00 3d 65 60 f1 3d
       -0.09393653 -0.018065099 0.031299148 0.11785964
0003c0 88 07 37 bd 5b 09 3c bd 5a 12 4a bd 2f 10 37 bd
       -0.044684917 -0.04590736 -0.049333908 -0.04469317
0003d0 e3 a2 41 bc ff 38 14 3e 15 65 0a bd 48 c4 6f bc
       -0.01181862 0.14474867 -0.033787806 -0.014634199
0003e0 f4 6e 29 3d 16 9b 58 3d 3b 16 5a 3c e2 58 5d bd
       0.04136558 0.052882276 0.013310964 -0.054039843
0003f0 ff cc 39 bd d6 6d 18 3c e3 b5 32 3e ec c9 bb bd
       -0.045361515 0.009303531 0.17452197 -0.09169373

lstm.bias_ih_l0 f4 [256]
000000 42 73 fc 3d 02 f6 0a bd 1c 2b 80 bc 6b 08 b4 3d
       0.12326671 -0.033926018 -0.015645556 0.08790668
000010 dd 99 ed 3d ba f2 8b bd 20 38 2c 3c 5d 53 c5 bd
       0.11601613 -0.06833406 0.010511428 -0.09635041
000020 e6 f6 a9 bd 3b ed 94 bd 22 2c 8d 3c c3 9c a9 3d
       -0.08299045 -0.072718106 0.017232958 0.08281853
000030 24 29 a6 bd b9 83 71 bd a3 10 5c 3c 8e 4b e6 bb
       -0.08113316 -0.05896351 0.013431701 -0.00702805
000040 65 50 ef 3b 04 f8 c7 3d 21 2b af 3b e5 03 69 bd
       0.007303285 0.09764102 0.0053457175 -0.05688848
000050 5a ea 31 bd db e7 61 3d c5 2b 3f 3d 27 b9 8e 3b
       -0.043436386 0.055152755 0.0466726 0.004355568
000060 30 1a f4 bd 93 39 90 bc cd 49 9e 3d d0 c4 0b 3e
       -0.11919057 -0.017605579 0.0772892 0.13649297
000070 31 b8 a4 3d ca c0 52 3c 16 b7 90 38 b8 a5 8b bd
       0.08042944 0.012863347 6.9005575e-05 -0.06818718
000080 7a 36 aa bd a6 4e 38 bc fe 09 13 bd 4d 43 00 3e
       -0.08311172 -0.01124922 -0.0358982 0.12525673
000090 b1 57 97 bc 46 9c 0a 3e 0f 52 8b bd d7 ba 2a bc
       -0.018474432 0.13536176 -0.06802761 -0.010420523
0000a0 4b a7 0d bd 7f 63 bc 3d 5e 37 35 3d 23 ba 7d bd
       -0.03458337 0.09198665 0.044242255 -0.061945092
0000b0 c5 c7 c5 3d f0 dd b1 bc 25 dd cb 3d 43 bf d7 3d
       0.09657244 -0.021712273 0.09954289 0.10534527
0000c0 a2 15 10 3e 7e f3 16 3d a1 bf 47 bd 71 86 bd bd
       0.14070752 0.036853306 -0.048766736 -0.09254158
0000d0 d9 0f 53 3b 5e 12 95 bd 27 d7 6b 3d 24 45 b3 3d
       0.003220549 -0.07278894 0.057578232 0.08753422
0000e0 66 3f 3d 3d aa 1a 9b 3d b8 f1 a1 bd ae 44 c0 bd
       0.04620304 0.07573445 -0.07907432 -0.093880996
0000f0 30 d8 ff 3d 19 38 1f 3e 89 c9 a8 bd f0 f5 af 3d
       0.12492406 0.15548743 -0.08241565 0.08591831
000100 ca 23 eb 3d 62 f4 d2 bc 2d 06 12 bc ad 0a 6c bd
       0.114814356 -0.025751296 -0.008912605 -0.05762737
000110 d1 52 46 bc 1d 6e 92 b9 a9 5d ef 3d 6d cb b9 bd
       -0.012104706 -0.0002792933 0.11687786 -0.090720035
000120 c5 75 e5 3d f6 34 4f bd 5c 68 ca 3d 98 f4 f1 bd
       0.112041034 -0.050587617 0.09883186 -0.11814231
000130 f2 fa ca bd b2 58 c9 bd 95 12 ab 3d 38 f6 b7 bd
       -0.09911145 -0.098313704 0.083531536 -0.089825094
000140 00 6d 02 bd fc be 22 3e bc f9 a3 bc 8a ba 12 3d
       -0.03184223 0.15893167 -0.020016544 0.03582243
000150 76 53 0e be ce de d3 3d 76 64 3b bc 37 52 22 bd
       -0.13899025 0.10345231 -0.011437526 -0.039629187
000160 2b 58 b3 bb a3 f0 66 bd 0e 38 06 3e 29 5a ec 3c
       -0.005473157 -0.056381833 0.1310732 0.028851585
000170 55 98 81 3d 95 4e a8 bd 1f 90 d4 bd 16 04 8c bc
       0.06327883 -0.08218113 -0.103790514 -0.017091792
000180 74 67 b6 3a 76 8b 77 3d 06 55 b3 3c ee 27 c1 3d
       0.001391633 0.060435735 0.021891128 0.09431444
000190 68 3a 7e 3d b2 dd b7 3d 26 32 91 bd 4f 5c 16 3d
       0.06206742 0.08977832 -0.07089643 0.036709126
0001a0 0b 5d ee 3d 43 31 fb 3d f6 00 3f bc 50 92 e3 3c
       0.1163884 0.12265255 -0.011657944 0.027779728
0001b0 d7 51 23 bd 77 65 a4 bd ef 2f a0 bc d9 a2 c9 3d
       -0.03987297 -0.080271654 -0.019554107 0.09845514
0001c0 f1 31 09 3e 64 c0 9b bd e6 0d 92 bd 09 71 34 bc
       0.13397957 -0.07605055 -0.07131557 -0.011013278
0001d0 13 80 79 3d fe 02 64 3d aa 8f a4 bc 9c 33 bc 3d
       0.060913157 0.055666916 -0.020088036 0.09189531
0001e0 60 55 fc bb 4e 8a ef 3d 39 6c a4 bd ee 24 0f bd
       -0.007700607 0.116963014 -0.08028454 -0.03494733
0001f0 ae f0 32 3b 44 14 5d bd ad 56 2b bd 1b 06 6d 3c
       0.00273041 -0.053974405 -0.041830707 0.014466788
000200 9e 86 51 3d 53 67 d4 bd be 78 9c 3d 61 fe 70 3d
       0.05115377 -0.1037127 0.07640217 0.058836345
000210 57 c7 75 3d 03 ba c1 3d 8e 91 14 3e 2e 6c 7f bd
       0.06000456 0.09459307 0.1450865 -0.062359028
000220 0d 6d e7 3d 9d 95 88 3d 08 dd 73 bc 08 a7 00 3e
       0.11300097 0.066691615 -0.014884241 0.12563717
000230 9e 98 b8 3d c3 ab c9 3d ec 2c f6 bd f9 21 2a 3d
       0.090134844 0.09847214 -0.12020287 0.041536305
000240 51 01 62 bd f6 75 10 bd 8a 2c cf 3d 87 48 74 bc
       -0.055177037 -0.035268746 0.10115917 -0.01490987
000250 1d 03 ef 3d c1 97 0b bd bd 64 b7 3d 7f 7d 28 3d
       0.11670516 -0.03408027 0.08954761 0.041135307
000260 7b b2 e5 3d 31 a8 1b bd fd 95 9b bd e3 dc e8 3b
       0.11215683 -0.038002197 -0.07596967 0.00710641
000270 ca 62 92 bc 15 ad 06 bd 97 30 7d 3d 43 00 67 bd
       -0.017869372 -0.032879908 0.061813917 -0.056396734
000280 e4 dd 01 be 95 f2 52 3c fd 1f e1 3d 0c 9d c9 3d
       -0.12682301 0.012875219 0.109924294 0.098444074
000290 91 c5 bf 3d 7d f3 3f 3d a3 59 f0 3d a3 ba 68 bd
       0.09363855 0.046863068 0.11735847 -0.056818616
0002a0 2e b3 80 3d a1 9f 12 3d 75 7f 5e 3d 56 3c cb 3d
       0.06284176 0.035796765 0.05432077 0.099236175
0002b0 07 1d c2 bd 04 69 b4 bd 0f 57 07 3d 7d 7f 70 bd
       -0.09478193 -0.08809093 0.03304201 -0.058715332
0002c0 a8 41 0a 3d 01 f6 8c 3c f0 fe 09 3d 10 54 75 3d
       0.03375402 0.017207148 0.033690393 0.05989462
0002d0 c9 39 13 3d e0 01 d3 bc f1 5a ed bc c4 4b b4 3d
       0.03594378 -0.02575773 -0.028974028 0.08803514
0002e0 2f 31 6f 3d 39 1a 52 bd ea 40 c9 bd 60 54 fa ba
       0.058396515 -0.05129454 -0.098268345 -0.0019098632
0002f0 03 b8 80 3d 86 bf 80 bd 4c 1d d7 3b 44 f6 8d bd
       0.062850975 -0.0628653 0.0065647718 -0.06931737
000300 11 6e 75 bd e1 30 da 3a b2 0f 00 3e f1 dd 4c 3d
       -0.05991942 0.0016646647 0.12505987 0.050016347
000310 72 78 33 bd 56 19 2f 3d 43 d0 05 3c 04 e9 83 bd
       -0.043816037 0.04274877 0.008167329 -0.064409286
000320 2a 18 03 bd 19 ef ea 3b be 00 75 3d 9c 4d 4c bd
       -0.032005467 0.007169616 0.05981516 -0.0498787
000330 3d 67 5e bd 7d ae c1 3d 18 7d dd bd 6b 10 d7 bd
       -0.054297674 0.09457109 -0.10814875 -0.10501178
000340 80 67 dd 3d de 37 f4 3d b6 95 02 3e 3c ec 05 3e
       0.10810757 0.11924718 0.12752423 0.13078398
000350 3d a2 8d 3d 07 d8 f6 bd 15 e0 23 bd 65 df ba bc
       0.0691571 -0.12052923 -0.040008623 -0.022811601
000360 c5 03 37 3d 76 5f 99 bd a8 df 07 3d 3b e4 80 bd
       0.04468133 -0.07488911 0.03317228 -0.062935315
000370 8a 59 0d 3e 94 26 34 3d da 86 2e bd c0 ef 4d 3d
       0.13803688 0.043982103 -0.042609073 0.05027747
000380 ab b9 19 3d 22 0a c1 3d 2c fc bd bd 2d 22 a1 3d
       0.037530582 0.09425761 -0.092766136 0.07867847
000390 9f 95 ec 3d 86 a5 cc 3d 7b 67 ee bd 58 c2 c7 3d
       0.115519755 0.099925086 -0.11640831 0.09753865
0003a0 99 9d 59 bd ab 3e a5 3d a0 56 a7 3d 3e f8 cd 3d
       -0.053128812 0.080685936 0.08170819 0.10057114
0003b0 f0 38 d3 bd 9c 76 5a 3c d1 68 f9 bc bf 6e d6 3c
       -0.10313594 0.013333943 -0.030445488 0.026175855
0003c0 8d 53 a0 3d 88 c0 1d 3d d3 62 09 bd 1e ed 36 3d
       0.07828436 0.03851369 -0.03354151 0.044659726
0003d0 64 2b cd 3d 78 1f 4d 3d e9 9d aa 3d c3 7a 0f 3d
       0.10018042 0.05007884 0.083309 0.035029184
0003e0 de 15 96 bd da 02 0a 3e 8c 7f 31 3d 7d 61 cc bd
       -0.073283896 0.1347765 0.04333453 -0.09979532
0003f0 6e 0d 2b 3d dc 8b aa 3d 60 41 a8 bd 79 41 e1 3d
       0.041760854 0.08327457 -0.08215594 0.10998816

lstm.bias_hh_l0 f4 [256]
000000 88 c1 f1 3c f7 fb a8 3d 48 cc 6e bd 09 a6 aa bd
       0.029511228 0.082511835 -0.058300287 -0.0833245
000010 3b 01 85 bd 32 28 9f 3d 8e 91 d0 3d be 89 08 3e
       -0.06494375 0.077713385 0.10184012 0.13333794
000020 cf a6 80 bd 69 6a f7 3d 41 d9 75 bd ea 97 be bc
       -0.06281816 0.12080843 -0.060021643 -0.023265798
000030 70 f2 1d 3e 8f 66 0e 3d 96 8f b8 3d d7 d6 89 bd
       0.15424514 0.034765776 0.09011762 -0.067304306
000040 95 a9 84 bd 78 eb 85 3d 30 47 3a 3d 3a 02 6e 3d
       -0.06477658 0.06539053 0.045478046 0.058107592
000050 11 f1 93 ba dc ef c0 bc 6d 95 54 3d 61 dd d1 bd
       -0.0011287053 -0.023551874 0.051900316 -0.10247303
000060 72 a5 4f bd 11 43 db 3d c6 03 a5 bd 79 1c 05 3e
       -0.05069489 0.10706151 -0.0805736 0.12999143
000070 f2 e7 e5 bc c9 d7 df 3d 8f c5 f6 3a 82 60 eb 3d
       -0.028064702 0.109298296 0.0018827188 0.11493017
000080 ef 44 56 bd ea 1a fc bc 4a 73 42 3d bb d5 8c 3c
       -0.052311834 -0.030774552 0.04747323 0.017191758
000090 5e 81 97 bb da e7 e2 3d 9d c2 01 be cf 29 68 bd
       -0.004623576 0.110793784 -0.12671895 -0.056680497
0000a0 1a 1b 62 3d 8b 61 af bd 7a 68 87 bd 55 e4 07 bd
       0.055201627 -0.08563527 -0.06611724 -0.03317674
0000b0 d9 d1 33 3d fd fe 02 be 99 c5 78 bd 02 23 3e bd
       0.0439013 -0.12792583 -0.06073532 -0.046420105
0000c0 b1 2d 93 bd 71 90 e9 3c 37 b2 22 bd 28 bc 12 3d
       -0.07186449 0.028511258 -0.03972074 0.03582397
0000d0 9d ca d1 3d c2 2f ed 3d d1 03 9a bd 51 59 87 3d
       0.102437235 0.11581375 -0.07520259 0.06608833
0000e0 a6 1e ca bd 5f e9 4e bd 6a ad 1c 3e bf 39 0f bd
       -0.09869127 -0.05051553 0.15300527 -0.03496718
0000f0 16 2c 35 bd 72 b2 53 bd 1d ad 9a 3d 40 8d 27 bd
       -0.044231497 -0.05168385 0.0755255 -0.04090619
000100 70 1a cf 3d 56 c7 40 bc d1 55 ff 3d c1 ee 12 3e
       0.101124644 -0.011766275 0.1246754 0.1434889
000110 26 27 81 3d 81 ba b7 bd 7c 15 21 3d 8d b0 19 3c
       0.06306295 -0.0897112 0.03932713 0.009380472
000120 8f dd 18 bc 66 40 25 bd 51 f2 6c bd 42 c5 ef bd
       -0.009330167 -0.04034462 -0.05784828 -0.11707546
000130 a5 22 06 3e ab 61 69 bd 9b 71 dd 3d 9c e2 87 3c
       0.13099153 -0.05697791 0.10812684 0.016587548
000140 34 3a 8e 3d 42 50 d5 3d 43 0a 22 3d 26 fe 39 bd
       0.06944695 0.104156986 0.039560568 -0.04540839
000150 10 37 a1 3b 52 29 3f bd 57 71 ca bd 24 0c 99 3d
       0.004919894 -0.046670265 -0.09884899 0.07473019
000160 d6 f3 90 3c 44 3c 86 3d 1e a1 c7 bd d9 fc aa bd
       0.017694395 0.065544635 -0.097475275 -0.08349008
000170 e3 2b d7 bd 35 9a 3a 3d f7 21 ad 3d 34 50 b1 3d
       -0.105064176 0.04555722 0.08453744 0.08657876
000180 4d b7 af 3d f1 a6 f3 3d 62 58 e9 3c 1e 5f 7b 3d
       0.08579884 0.11897076 0.028484527 0.061370008
000190 e0 f2 96 bd 0b af 22 3d c6 b8 f5 3c b2 e3 aa bc
       -0.073705435 0.039717715 0.029995333 -0.020860527
0001a0 e7 c6 b4 bd 6f d2 69 3d 8f 9f a7 bd 33 55 52 3d
       -0.08827 0.05708545 -0.0818473 0.051350784
0001b0 bc 72 cf bd d2 d2 76 bc 07 ef af bd 65 19 9a 3d
       -0.10129306 -0.015064912 -0.08590513 0.07524375
0001c0 4f 93 d3 3d e1 e0 bd bd 8d e7 ca bc 01 16 e0 3d
       0.10330831 -0.09271408 -0.024768615 0.10941697
0001d0 bb 74 87 3c 32 2f bc 3d 92 02 e6 bd c7 b0 4f bd
       0.016535154 0.09188689 -0.11230959 -0.050705697
0001e0 c6 4a e0 3d 1f 84 8c bb 9f c4 bc 3c f7 93 0f bc
       0.10951762 -0.004288211 0.023042975 -0.008763305
0001f0 71 e0 f7 bc 2e 42 73 bd 31 41 e2 bd 57 d7 c5 bc
       -0.03025839 -0.059389286 -0.110475905 -0.024150534
000200 26 2b 20 bd 2b 74 82 bd 81 6f 91 3a 79 bc 9f bd
       -0.03910365 -0.063698135 0.0011095853 -0.0779962
000210 32 1b 96 3d 8e f5 1b 3d 20 d2 84 3b b1 3a b5 3d
       0.07329406 0.038075976 0.004053369 0.08849085
000220 a1 e2 a7 3d c4 ae 50 3d b6 30 ed bd 32 2e 5a bd
       0.08197523 0.05094792 -0.115815565 -0.05326671
000230 12 3d 5d bd d3 80 fc 3d 6e 02 4f bc 15 27 30 3d
       -0.05401332 0.12329259 -0.012634857 0.04300602
000240 4c 8e f8 bd b9 68 c0 3d b2 e4 c4 bd e0 8e f0 bb
       -0.12136516 0.09394974 -0.09613933 -0.007341251
000250 a9 53 43 3d 37 23 91 bd 83 49 a7 bd f3 0d f6 3c
       0.047687206 -0.07086795 -0.08168318 0.030035948
000260 9f 74 94 3d 1c c7 ca 3c f9 9f e8 bd 3b 95 d9 3c
       0.07248806 0.024753146 -0.11358637 0.026560416
000270 16 62 e8 3c a8 3a a6 bd 6a 23 72 bd 9d bc ab bc
       0.028367084 -0.081166565 -0.059115805 -0.020963961
000280 f6 60 c4 3c fd 46 e4 3c c6 23 59 bd 52 15 d6 3d
       0.023972016 0.027865881 -0.05301263 0.10453285
000290 7e b1 b5 3c 2d ca b8 bd 5c 14 c8 3d 0f 15 15 bd
       0.022179361 -0.09022937 0.09769508 -0.036397036
0002a0 25 32 cb 3b 57 d1 d8 bc df bd 1d bd 3c 16 b4 bd
       0.006201046 -0.026467009 -0.038511153 -0.08793303
0002b0 39 84 f4 3d 20 f6 b1 bd 3e 35 79 bc 7a 4c f0 bd
       0.11939282 -0.08689523 -0.015210448 -0.11733337
0002c0 b9 23 ca bd cc 56 eb bd ba b9 29 bd 79 d0 63 bd
       -0.09870095 -0.114911646 -0.04143689 -0.055618737
0002d0 3e 13 c1 bd 2a e1 92 3d 1c 66 4f bd a8 3a 19 bd
       -0.09427498 0.07171853 -0.05063449 -0.037409455
0002e0 fb 7c 95 3d 41 6c 1f 3e 44 30 f0 3d 82 49 dd bc
       0.07299229 0.1556864 0.11727956 -0.02701259
0002f0 61 e2 92 3d f6 26 5d bd d7 67 86 3d 1d 43 c0 3c
       0.071720846 -0.053992234 0.06562775 0.023469502
000300 51 ab 08 3e fc 38 93 bd 3b 55 df bd 07 94 4c 3b
       0.13346602 -0.07188603 -0.10904928 0.003121616
000310 34 0d a0 bd a6 cd 3f bc 5c 5a 31 bd 20 99 8f bc
       -0.07815018 -0.011706745 -0.043299064 -0.01752907
000320 de e9 7f 3a 2e 28 b9 3c f0 86 92 3d ac 2b ff bd
       0.0009762327 0.022602167 0.071546435 -0.124595016
000330 ae 7f 86 bd 1c 8f 06 3d 12 e1 9a 3d 3a bd 69 3b
       -0.06567322 0.032851323 0.0756246 0.0035665766
000340 46 39 3a 3d 3c 29 ad bd 28 44 94 3d 4a 08 29 bd
       0.045464776 -0.084551305 0.07239562 -0.04126767
000350 0f d0 bb 3d 64 13 60 3c 56 c2 02 3e 60 9a 1c 3c
       0.091705434 0.013676498 0.12769446 0.00955829
000360 51 0b 19 bd 3c 7c 89 bd fb 3c bb 3d 23 1d ea 3d
       -0.037364308 -0.06713149 0.091424905 0.11431339
000370 bf 2a ce 3d 09 af c2 bd 54 ce 29 3d 5a 8d f0 3d
       0.10066747 -0.095060416 0.041456535 0.11745711
000380 a1 97 b3 bb 31 5f 5b 3d d0 43 6e bd df 2a 95 bd
       -0.005480722 0.05355758 -0.05817014 -0.07283568
000390 8f 32 09 3e 20 39 e7 3c 3e aa 1b 3d 8d 61 0b 3e
       0.13398193 0.028225482 0.038004152 0.13611431
0003a0 9f 5e 1e 3d 9b 3c 12 3e 8f c4 0f bc 76 3d c0 3d
       0.038664456 0.14280932 -0.008774891 0.09386723
0003b0 5c 88 33 bd 6b 6f c7 bc bb 8d 3b 3d 02 d9 d1 bd
       -0.043831214 -0.02434512 0.04578946 -0.10246469
0003c0 30 e1 50 3d 20 54 48 bd 11 d3 46 bd bc cf d2 3d
       0.050996006 -0.048908353 -0.048541132 0.102935284
0003d0 e6 37 ef 3d ce 21 92 bb 33 86 1a 3c ed db a9 bd
       0.11680584 -0.0044595962 0.00943141 -0.08293901
0003e0 ad f9 df 3c d2 90 3b 3e 02 c7 33 bd 13 8a e2 bd
       0.027340734 0.18316963 -0.04389096 -0.11061492
0003f0 6a cb 49 3d 95 6a 17 3e 7a a5 01 be ff 6f 23 3d
       0.049266256 0.14786752 -0.1266078 0.03990173

lstm.weight_ih_l1 f4 [256, 64]
000000 58 ef 82 bd df e4 33 bd 41 d3 98 3d d5 ff bb 3d
       -0.063933074 -0.04391944 0.074621685 0.091796555
000010 8d b4 18 be 28 d9 a9 3d 51 86 62 bd d3 9f b6 bc
       -0.14912625 0.082933724 -0.055303875 -0.022293007
000020 c5 47 cf 3c 92 76 85 3d eb 7e 3a bd 43 60 50 3d
       0.025302777 0.06516756 -0.045531195 0.050873052
000030 3c 21 e0 bd e8 e2 d1 3c 6d 1d cd 3c 78 99 fd 3c
       -0.10943839 0.025620893 0.025038445 0.030956969
000040 c4 aa 41 bd fc 75 2d bd 45 62 a6 bd aa 0f 46 3b
       -0.047281995 -0.042348847 -0.08124212 0.003022174
000050 92 65 57 bc 6d b7 3e bc c2 56 84 bd 9f f7 e2 bd
       -0.013146775 -0.011640412 -0.0646186 -0.11082386
000060 5c 61 1e bd d7 a0 91 3d 3c 7b 82 bb 7b f1 2d bd
       -0.038667068 0.07110756 -0.003981976 -0.04246662
000070 0a 77 fa bc 7c 63 94 3d 76 1f 41 3d 58 3d 87 3b
       -0.03057434 0.07245538 0.047149144 0.004127186
000080 e8 7d 20 3d 97 e6 b1 3d 9a 96 fc bd 44 09 24 3d
       0.039182574 0.0868656 -0.123334125 0.0400479
000090 b8 48 b9 bc 45 fb ab 3d 0f 17 1d bd bb d1 04 3e
       -0.022617683 0.08397535 -0.03835207 0.12970631
0000a0 89 e6 4d 3b 56 26 4f bd 80 cc 96 3d 8a 88 41 bd
       0.0031417927 -0.05057367 0.07363224 -0.047249354
0000b0 cd ff 05 be 8b 22 61 3d b2 3c 97 3d 95 0b 7f bd
       -0.13085862 0.054964583 0.073846236 -0.062266905
0000c0 17 22 65 bd 8c 53 b6 bc 27 dd 74 3d 45 bb 65 3d
       -0.055940714 -0.022256635 0.05978122 0.056086797
0000d0 4b a4 07 3d 1b 0d dd b9 0a a0 f9 bc 20 0a 20 3b
       0.033115666 -0.0004216217 -0.03047182 0.0024420097
0000e0 b5 cb 00 be ac 65 96 3d 8a 68 67 bd db 7f af bd
       -0.12577708 0.07343611 -0.05649618 -0.08569308
0000f0 69 05 ee bd 1e 8e 83 3d 34 c8 b7 bd 64 69 e3 3d
       -0.11622126 0.06423591 -0.089737326 0.11104086
000100 ad 72 b2 bd 86 42 03 be 3d 3f be 3d 1d 74 ca bd
       -0.08713279 -0.12818345 0.092894055 -0.09885428
000110 d8 92 fe 3d 41 a9 d5 bc ac ad 41 bd bb 8e c1 3d
       0.12430352 -0.026081683 -0.047284767 0.09451052
000120 e3 e9 1c bd 77 79 ff 3d b8 31 a2 bd 51 61 14 3e
       -0.03830899 0.124743395 -0.07919639 0.14490248
000130 2e 9b a0 bd 3d 69 a5 bc 8c 68 be 3c 2b aa 08 bd
       -0.07842098 -0.020191783 0.023243211 -0.03336541
000140 6b 07 c5 bd 73 2b 83 bd d5 07 09 be d8 3d 20 be
       -0.096205555 -0.06404772 -0.13381894 -0.15648592
000150 99 77 ea bc ba af a1 3d 00 52 53 bd 97 d2 37 bc
       -0.028621482 0.07894845 -0.051591873 -0.011219642
000160 49 6c 8d bd c1 61 c2 3d 91 8f f1 3d 96 e5 06 be
       -0.069054194 0.09491301 0.11794961 -0.13173518
000170 5a 90 0b bd 68 04 eb bd ba 44 6c 3b 41 e8 31 3d
       -0.03407321 -0.1147545 0.0036051706 0.043434385
000180 74 e4 28 3e a8 ca 1c be 1b b2 0f 3e 6a 37 a4 bd
       0.16493398 -0.15311682 0.14032786 -0.08018382
000190 fe 46 31 3d b2 b9 0d be 95 8f c5 bb ea 95 ab 3a
       0.043280594 -0.13840368 -0.006029079 0.0013090943
0001a0 0a bf df bc bb 8f 51 bc 13 c1 af 3d 3f 4d c8 3d
       -0.027312774 -0.012790616 0.08581748 0.097803585
0001b0 d9 cc 7c 3d b4 33 4f 3c cd 40 f2 3d ee 9e 92 bc
       0.061718795 0.012646604 0.11828766 -0.01789805
0001c0 ef 32 b1 bd ba 99 99 bc f1 e6 cb bd 4c b2 64 bd
       -0.08652293 -0.01875006 -0.09956158 -0.0558341
0001d0 fa ac 6e bd 9c cd 72 bc 74 f0 e9 bc 60 0c 0e be
       -0.058270432 -0.014819529 -0.02855704 -0.13871908
0001e0 39 df a0 bd 37 29 81 3d bf 4d 20 3e 03 39 ea bd
       -0.07855076 0.06306689 0.15654658 -0.11436655
0001f0 c2 74 e7 bc ec f1 c0 bd 32 39 99 bd 42 0a 6a 3d
       -0.028253917 -0.09421143 -0.07481612 0.05713869
000200 de dc d2 bd 59 cc d5 bd a2 dd b6 3d b6 19 de 3c
       -0.10296033 -0.10439367 0.08928992 0.02711187
000210 47 b3 7c 3d f9 6a 5b bd 18 85 cb bd 02 6e 11 bd
       0.06169441 -0.053568814 -0.09937495 -0.035505302
000220 45 f9 ef 3c 88 00 bf 3c 04 4a c4 3d fb d3 ab 3d
       0.029293666 0.023315683 0.0958443 0.083900414
000230 37 a9 d0 3d a3 6c dd 3d 22 a5 e2 3d 68 fd 7b bd
       0.10188525 0.108117364 0.11066653 -0.061520964
000240 a2 3f bd bc 44 74 cd bd 23 ff 18 3c 95 80 19 3d
       -0.023101632 -0.100319415 0.009338173 0.03747614
000250 1b 20 66 3d a3 11 c9 bd d0 0d b6 3d ba 43 fd 3c
       0.056182962 -0.09817817 0.08889353 0.030916084
000260 60 6d af bd dc 5e c5 3c f8 ae 17 3c a1 b0 e7 3b
       -0.085657835 0.024093084 0.009258024 0.0070706164
000270 98 b4 fa bc 08 8d 96 bd b9 77 09 3e 4e 17 17 3d
       -0.030603692 -0.07351118 0.13424577 0.03688746
000280 9a ce 6c bd 6d e0 98 3d 31 b2 f3 3d 19 19 00 bd
       -0.057814218 0.07464681 0.11899222 -0.031273935
000290 04 32 15 3e 2d bf 03 be b3 50 1f bd 0a 36 02 be
       0.1456986 -0.12865897 -0.03889532 -0.12715927
0002a0 b7 42 3f 3d 51 b9 94 3d 95 29 d3 3c ac 94 bb 3b
       0.046694484 0.07261909 0.025776664 0.00572451
0002b0 2f 71 2b bd c7 14 85 3d 8a 8f c2 bd 16 03 99 bd
       -0.041855987 0.064981036 -0.09500034 -0.07471292
0002c0 54 b2 10 3d bf f8 af 3d ed b0 cc 3d 44 c5 7a 3d
       0.035326317 0.085923664 0.099946834 0.061223283
0002d0 61 ee 84 3d 02 b6 29 bd 44 9d 4f 3d 65 71 0f 3c
       0.0649078 -0.04143334 0.05068709 0.008755063
0002e0 96 04 47 3c db 8e 05 3c 04 d7 58 bc 58 05 ba 3d
       0.0121470895 0.008151735 -0.0132348575 0.090830505
0002f0 32 4c cd bd 99 36 26 3d bc 27 d7 bd a2 46 ab 3d
       -0.10024299 0.040579412 -0.105056256 0.083630815
000300 dd c8 2d be 7b fb 85 bc 78 b1 22 bd ef 02 1a 3e
       -0.16971155 -0.016355267 -0.03972003 0.15040182
000310 ff 0e 77 bd b3 81 78 3d 9b cb 7e 3d 51 0d e0 3d
       -0.060317036 0.060670566 0.062205892 0.1094004
000320 ec a2 5e 3c 10 da de 3d 96 94 bd bd 23 25 14 3a
       0.013588648 0.10881436 -0.09256856 0.0005651286
000330 13 f3 90 bd 3f 70 44 3d 52 60 1b 3c d9 ae fd 3d
       -0.07077613 0.04795861 0.009483414 0.12386865
000340 0c b1 c6 3d 65 2d e4 bc fa d0 84 3d ef 77 9f bd
       0.09701738 -0.027853677 0.064851716 -0.077865474
000350 04 ee 52 bd 91 6e 94 bc 8e d5 f8 3d 37 b6 f7 3d
       -0.05149652 -0.018119128 0.12150107 0.120953016
000360 de 2b 65 3d d9 f1 b9 3d ae e7 b1 3d 86 79 1d be
       0.055950038 0.09079332 0.086867675 -0.15378389
000370 01 5a 36 bd b9 7a a9 bd ea 54 4a bd 07 8a 67 3d
       -0.04451943 -0.082753606 -0.049397387 0.056528118
000380 87 26 2f 3e fb 25 10 bc 97 dd 66 bc fd 6b 25 3e
       0.17104541 -0.008798118 -0.014090917 0.16154476
000390 c5 50 a1 bd ca 58 cd bd 3a 51 b6 3d f8 a6 74 bd
       -0.07876734 -0.10026701 0.089022115 -0.059729546
0003a0 59 ee 8d 3d 7e d7 80 3d fc 7b 80 bd 01 1b 1a 3e
       0.06930227 0.06291102 -0.06273648 0.15049364
0003b0 6a 58 5f 3d ff 0f 1c be b6 7b c9 bd bf cc ee bb
       0.054527678 -0.15240477 -0.09838049 -0.007287591
0003c0 8a d3 e3 bc 21 c1 1b 3d ba b2 b3 bd d7 4e fb bc
       -0.02781083 0.03802598 -0.08774324 -0.030677242
0003d0 a4 93 a2 3d fc 4a 10 be 90 23 17 bd bd c0 89 bd
       0.079383165 -0.14091104 -0.03689915 -0.06726215
0003e0 07 28 f7 3d b0 b3 a0 bc 04 c8 f2 3d b5 bc ad bc
       0.120681815 -0.019616932 0.11854556 -0.021208147
0003f0 3a 88 a2 bd d5 2c ea bc 06 cc e7 3d c9 c7 ea bd
       -0.079361394 -0.02858583 0.11318211 -0.11463887

lstm.weight_hh_l1 f4 [256, 64]
000000 20 61 8d 3d ea e7 8b 3d 4a a3 93 bc 9e 9a a5 3d
       0.06903291 0.068313435 -0.018022198 0.080861315
000010 3d 44 c4 3b f9 dc 04 3e 41 e5 19 be c7 60 d0 bd
       0.00598958 0.1297492 -0.1502886 -0.10174709
000020 53 b7 34 3d f7 a3 d4 bd c6 ea 4a 3d ac 98 9d bd
       0.044120144 -0.10382836 0.049540304 -0.076951355
000030 40 ff d6 bd f3 8e d6 bd dd 0b 0e bd ed 3f ce 3c
       -0.10497904 -0.10476484 -0.034679282 0.025176967
000040 34 e9 d9 bc 97 37 cc bd 05 57 80 3d 39 7b 85 3d
       -0.026600458 -0.099715404 0.06266598 0.065176435
000050 90 95 1d bd 82 26 09 3d 80 6f d8 bd 14 f3 cb bd
       -0.038472712 0.03348399 -0.10568142 -0.09958473
000060 a9 04 33 bd 14 10 39 bd 08 f6 90 bd f8 11 b1 3d
       -0.043705616 -0.04518135 -0.07078177 0.086460054
000070 20 44 90 3d 77 6c d9 bd cd 60 7f bc a7 69 c0 3c
       0.07044244 -0.10616391 -0.015587044 0.023487879
000080 9e 5c 5d 3d a6 3f b9 bd a8 79 1f be 9d 2d 85 bb
       0.054043405 -0.09045343 -0.15573752 -0.0040642754
000090 58 a2 cd bd bb 2a 9c 3c a9 fd 62 3c 98 94 1a bc
       -0.1004073 0.019063344 0.013854423 -0.009434842
0000a0 84 52 d8 3d 95 17 15 bd 0a 4e b1 bd 13 15 9c bd
       0.105626136 -0.036399443 -0.08657463 -0.07621207
0000b0 f4 40 65 bd b5 b5 b7 3d d1 45 b6 3d a6 c7 65 bd
       -0.055970147 0.08970205 0.08900035 -0.056098603
0000c0 aa 82 dc bc f9 d3 0c 3e ed 3e 03 be 03 a4 ba 3d
       -0.026917774 0.13752736 -0.12816973 0.09113314
0000d0 e3 36 70 3d 82 7e bb bd b5 e6 a1 3c 10 c7 85 3d
       0.058646094 -0.09154989 0.01976333 0.06532109
0000e0 cd 34 15 3d 66 40 13 be fb d7 a4 bc b2 0d 50 3c
       0.036427308 -0.14380035 -0.020122519 0.012698578
0000f0 69 03 d7 3d 95 8a 71 3c 82 95 58 bd 68 d0 0e be
       0.10498697 0.014742513 -0.052876957 -0.13946688
000100 64 c8 01 3d 95 23 49 bd 32 4c 68 3d 21 72 cc 3c
       0.031685248 -0.0491062 0.05671329 0.024956765
000110 81 a8 82 3d fe 44 2f be af eb 14 3e 64 e9 85 3d
       0.06379796 -0.17116162 0.14543031 0.06538656
000120 f7 06 a6 bd f0 61 ba 3c 17 54 66 3a b3 f2 0b 3e
       -0.08106797 0.022751778 0.0008786334 0.13666801
000130 c0 30 05 be 5d fc 8e 3d 1a 67 13 3d 53 98 b1 bc
       -0.13006878 0.06981728 0.035986997 -0.02167908
000140 a1 8d a0 3d cc 42 98 3c c9 df bd bd 5e 71 4b 3d
       0.078395136 0.018586539 -0.09271199 0.049668662
000150 19 1f f8 3d 6b 60 7a b9 b6 4a b2 3d 27 1b 1c be
       0.121153064 -0.00023877776 0.08705656 -0.15244733
000160 0e dd 45 bd f4 ff a5 3d d6 37 5b bc 05 d0 1d 3c
       -0.048306517 0.0810546 -0.013380012 0.009632115
000170 b6 3c 82 3c 66 3b 03 3e 39 34 e0 bd f2 0a d1 3d
       0.01589809 0.12815627 -0.10947461 0.10207166
000180 1b 1a f7 bb 4c 07 41 bd 32 d7 22 bb af 12 57 3d
       -0.007540954 -0.0471261 -0.0024847505 0.052508052
000190 e5 ba 34 bd b0 17 2b bd 6d bd d6 bd 53 64 21 ba
       -0.04412355 -0.041770637 -0.10485349 -0.0006156612
0001a0 9b 7b 61 3d d6 56 4b be 7b 2e f4 3d a4 09 44 bd
       0.05504952 -0.19857344 0.11922928 -0.047860757
0001b0 a7 e2 18 3e b7 c2 dd bd dc da cc 3d 7a 1d 3d be
       0.14930211 -0.108281545 0.100026816 -0.18468276
0001c0 f2 75 f0 bc 28 9a 61 bc 06 fe a8 bc 4b 92 e3 3c
       -0.029353116 -0.013769664 -0.02062894 0.027779719
0001d0 a7 58 7b 3d f1 eb d0 bd 3f a6 9a bd 80 d6 bb bc
       0.061363842 -0.10201252 -0.0755124 -0.02292943
0001e0 57 a5 e9 3d 64 c3 00 bd e4 2b da 3d 85 32 1c 3d
       0.11408489 -0.03143634 0.10652903 0.038134117
0001f0 94 ea 8e 3d 9d 23 48 3d ed c7 85 3d 1d 1d 3d 3d
       0.06978336 0.04886209 0.065322734 0.046170343
000200 f7 ef e2 3d 28 04 95 3c 5b 47 46 3a 4a f5 75 bd
       0.11080926 0.018190458 0.00075637334 -0.06004838
000210 cb b2 bd 3d 4f fa 86 3d c2 a2 f5 3d 87 af a2 bd
       0.09262618 0.06590711 0.11993934 -0.079436354
000220 11 e1 db bd 9d 02 3d bd 9d 5b 06 3e f0 b9 78 3d
       -0.107362874 -0.04614507 0.13120885 0.0607242
000230 c4 56 d3 3c c4 16 1f bb c4 37 ee 3d 00 51 9d bd
       0.025798209 -0.0024275044 0.1163173 -0.07681465
000240 35 8a e6 bd d4 66 52 3d 0b b2 80 3c da 7d e9 bd
       -0.1125683 0.051367596 0.015709898 -0.114009574
000250 ce 89 0d 3e 3b 57 11 bd 9e e2 3c 3d 92 7c 00 be
       0.138221 -0.03548358 0.046114556 -0.1254752
000260 89 bf 2b ba 23 a2 89 3c 45 30 5f bd 2f 2c 20 3d
       -0.0006551673 0.016800946 -0.054489393 0.039104637
000270 ee 4d d1 bd e7 4f a5 bd ab 2e e2 3d fc ae 30 bd
       -0.10219942 -0.08071881 0.110440575 -0.043135628
000280 02 0d 0b bd c5 85 07 bc 01 b6 a0 3d c4 11 c5 bd
       -0.033947952 -0.008271639 0.078472145 -0.09622529
000290 51 57 fb bc bf 05 e3 3b 50 42 04 bc eb b8 c1 3d
       -0.030681284 0.006928175 -0.008072451 0.094590984
0002a0 71 d8 06 bc 05 d7 5e bd 96 9b 0a 3d f3 83 89 3d
       -0.008230315 -0.054404277 0.033839785 0.067146204
0002b0 30 14 e7 3d 15 b3 6b bd 9d 89 a6 3d c8 b6 28 3d
       0.11283147 -0.057543833 0.081317164 0.04118994
0002c0 3e d5 83 bd 05 44 1b bd 85 e3 67 3d 05 34 83 bc
       -0.06437157 -0.037906665 0.056613464 -0.016016016
0002d0 57 10 e7 bd c1 e6 2a 3d 3b 95 2b bd dd 8d 5d 3a
       -0.112824135 0.04172397 -0.041890364 0.000845162
0002e0 b8 51 c4 3d 1e 48 72 bd 7f a2 c1 3c 35 70 52 bd
       0.09585899 -0.059150808 0.023637054 -0.05137654
0002f0 3b 55 c0 3d a3 3d 35 bc 8a 2f 50 3c 66 e8 69 bd
       0.093912564 -0.011062059 0.012706647 -0.057106398
000300 62 59 a5 bd 23 26 a3 3d d8 91 19 3d a6 90 08 3d
       -0.08073689 0.079662584 0.037492603 0.033341072
000310 9b a8 9b 3d 88 a1 6d bd 12 ab 92 3d dc 8b 70 3c
       0.07600518 -0.058015376 0.07161535 0.014681783
000320 0d 13 83 bd 14 3d 11 3d d0 ff 04 3e 10 f8 85 3d
       -0.06400118 0.03545864 0.1298821 0.06541455
000330 93 30 c5 bd c2 b1 04 be 13 14 25 3d 0e a8 91 3d
       -0.096284054 -0.12958434 0.040302347 0.07112132
000340 d8 10 80 3d 6a 81 1f 3d 79 15 ff bd 38 c1 1a 3d
       0.06253213 0.03894178 -0.124552675 0.037781924
000350 7b c0 dc 3d a9 9a 8e bd 3b 29 c5 3a 41 f1 00 be
       0.107789 -0.06963093 0.0015042195 -0.12592031
000360 53 af ca bd 17 a1 2d 3d 3c e7 97 3d 9d 55 1c 3d
       -0.09896722 0.042389955 0.07417151 0.038167585
000370 14 45 27 3e 35 fd be 3d 86 36 f7 3d 0a 36 2a bd
       0.16334945 0.09325639 0.120709464 -0.041555442
000380 20 19 a4 3d 69 c3 a4 bd ad b4 44 bd 3e 00 fd bd
       0.08012605 -0.08045084 -0.04802387 -0.12353562
000390 c8 8d 9d bd 2c 4f e4 3d a9 ec 8f 3c b4 cc ea 3c
       -0.07693058 0.11147913 0.017568903 0.028662063
0003a0 10 d9 6c 3d 07 1e f4 3c dd bd da 3d 1e f5 0c bd
       0.057824194 0.029799474 0.10680745 -0.03441345
0003b0 6b 8e 2a 3b 57 85 72 3d de c7 d0 bd 20 3b 60 ba
       0.002602483 0.059209194 -0.10194372 -0.0008553732
0003c0 0a 48 94 bd 85 10 24 be c4 d3 a7 bd 9f ad 00 bd
       -0.07240303 -0.16021927 -0.08194688 -0.031415578
0003d0 14 1e 63 bd 1f 9c 13 3d b7 e8 c6 3d 6a af bd bd
       -0.055448607 0.03603756 0.097123556 -0.09261973
0003e0 df 61 49 3d 4e e4 51 bd 04 2e 5d 3c 80 3d 22 3c
       0.049165603 -0.05124312 0.0134997405 0.009902358
0003f0 ab 40 e5 bd 97 7b 3a be 09 ac aa bd 45 25 fb bd
       -0.11193975 -0.18211208 -0.08333594 -0.12262968

lstm.bias_ih_l1 f4 [256]
000000 8f 2a 36 bd 91 63 7b bd f9 eb d6 3c fc db d2 3d
       -0.04447418 -0.06137425 0.026235567 0.10295865
000010 80 68 cd 3d f2 e7 ef bd 1d ef b4 bd 9d 72 53 3d
       0.100296974 -0.11714162 -0.0883467 0.051622976
000020 2f 6e fb bd 43 d8 b5 3d 80 fa 80 3d d5 20 e6 3d
       -0.12276875 0.08879139 0.06297779 0.11236731
000030 f4 b8 d5 bc ff 8f 99 3d 27 0b 09 3d ca d9 41 3d
       -0.02608917 0.07498168 0.0334579 0.04732684
000040 2a f2 80 bd 17 df 6a 3d e1 4b 79 3d 05 ba b1 bd
       -0.06296189 0.05734166 0.06086338 -0.086780585
000050 5f 63 88 3d 60 04 48 bd ca dc bd 3d ad 10 fa 3c
       0.066595785 -0.048832297 0.09270628 0.03052553
000060 40 ff 2e bd 6b e9 e3 3c 2a b2 b2 3d 2a dc bb bd
       -0.042723894 0.027821263 0.08725388 -0.09172852
000070 72 a0 78 bd 9f 3c 45 bd 25 b5 b5 3d a7 ad 00 3e
       -0.060699888 -0.048153516 0.08872441 0.12566243
000080 aa 65 c5 3d 30 33 7e 3c ad 80 34 bd 89 6f 8c bd
       0.096385315 0.015515134 -0.044068027 -0.06857211
000090 49 21 31 3d 80 88 9d 3c 4e e3 a9 3d 82 21 02 3e
       0.043244634 0.019230127 0.08295308 0.12708095
0000a0 ed 67 85 bd 73 2f 37 3e 9c c2 64 bd 2c e2 c8 3d
       -0.06513963 0.17889194 -0.055849656 0.09808764
0000b0 87 a4 b1 3d bc e0 2c 3d 06 c8 f1 3d c6 4e 73 bd
       0.08673959 0.04220651 0.118057296 -0.059401296
0000c0 be f8 12 bd 45 d5 a5 3d e8 d2 f8 bc 19 d2 03 be
       -0.03588175 0.080973186 -0.030374005 -0.12873115
0000d0 d4 a0 3b 3d 16 c5 ef 3d 0e 69 e8 3c 29 73 fa bd
       0.045807675 0.11707513 0.028370406 -0.12228996
0000e0 5b 6d 4b bd c8 99 b5 3d 61 7e cd 3c c3 5a dd 3d
       -0.049664836 0.08867222 0.025084676 0.10808327
0000f0 24 d6 2f bc 9f d3 8a 3d 67 db 04 3e 04 bb 36 3d
       -0.010732207 0.06778645 0.1297432 0.044611946
000100 f7 bc 33 3c d2 cc 05 3c 4b e3 e7 bd 4c 43 3d 3d
       0.010970346 0.008166509 -0.113226496 0.046206757
000110 04 91 4b bd 16 82 d8 bd 7b 41 cf ba 01 3e d5 bd
       -0.049698845 -0.10571687 -0.0015812361 -0.10412217
000120 96 e8 db bd d5 43 90 bd 51 a0 d7 bd 4f 5e 2f bb
       -0.107377216 -0.07044188 -0.10528625 -0.0026759093
000130 59 65 99 3c 3b 28 7b bd d8 02 08 bd d3 0e 46 3d
       0.018725084 -0.061317664 -0.033205837 0.04835398
000140 90 91 dd 3d 19 83 80 bd fc bc b1 bd ac c2 61 bc
       0.108187795 -0.06275005 -0.08678624 -0.013779324
000150 3b de fc 3d 32 a7 47 3b d5 f0 99 bd 70 a9 14 bd
       0.123470746 0.0030464646 -0.07516638 -0.0362944
000160 e6 9b 3e bd c9 61 5c bd e5 27 e7 bd 73 64 da 3d
       -0.046535395 -0.053804193 -0.11286906 0.106636904
000170 90 88 9e 3d 78 b9 d4 bd b2 9f fd 3d 49 89 9d bd
       0.07740891 -0.10386938 0.12383975 -0.07692201
000180 9f a8 9d 3d 3b f6 9c bd 3f 68 b0 bd 7b 17 fb bc
       0.076981775 -0.07664152 -0.08613633 -0.030650845
000190 a4 1d 2b bd 63 7d df bc af ec eb bd 27 d9 2f bd
       -0.041776314 -0.027281469 -0.11519753 -0.042931702
0001a0 a9 10 27 3b 14 82 fc 39 fa 05 08 bd ed 0f 06 3b
       0.0025492108 0.000481621 -0.033208825 0.002045627
0001b0 b1 42 b3 bd e7 47 b1 bd bf bd 43 bd d0 93 03 3e
       -0.08752955 -0.086562924 -0.047788378 0.12849355
0001c0 2c 29 9c 3d 18 93 84 bd ae 1c 8d 3c 1c 9b 72 bd
       0.076250404 -0.064733684 0.01722559 -0.059229955
0001d0 66 e0 5c 3d 88 fb 42 3d 17 c7 ba bd 77 f4 0a be
       0.05392494 0.04760316 -0.091200046 -0.13569818
0001e0 2a c1 81 3b aa 7d 70 3c 1c fc 8b bd 23 01 fe 3b
       0.0039597945 0.014678398 -0.068351954 0.0077516004
0001f0 b1 a4 2a 3c fa 70 03 bd 94 ef 8e bd 27 4a 6d 3d
       0.010415242 -0.032090165 -0.0697929 0.057932045
000200 46 0d 63 bd a5 da db 3d 98 4e b9 3b b8 90 58 3d
       -0.05543258 0.107350625 0.005655121 0.05287239
000210 b6 d0 f0 3d 3f 51 21 3d df ce 40 3d f3 6a 93 bc
       0.117585585 0.039384123 0.047072288 -0.017995333
000220 cb d0 50 bc d9 32 5e 3d c4 76 e3 3c 4b c4 ab 3d
       -0.012745093 0.05424771 0.027766593 0.08387049
000230 85 f7 6a 3d 15 b7 d6 bb 90 8f b1 3d 93 31 67 bd
       0.05736496 -0.006552587 0.086699605 -0.056443762
000240 d7 4e 37 3c 92 a4 f0 3d 27 5f ce bd 7b 75 bf bc
       0.0111882305 0.11750139 -0.100767426 -0.023371449
000250 21 9c 85 3b 8d ff 20 3d d9 af d6 3d 61 7d 89 bc
       0.00407745 0.039306212 0.10482759 -0.016783418
000260 18 d6 03 3d 92 03 60 3d 4a 85 0c 3d 47 45 b0 bd
       0.032186598 0.054690905 0.0343068 -0.086069636
000270 cc 0b bb bd 66 9d 18 3d 10 2f e9 3d 41 bf 35 3d
       -0.091331095 0.03725948 0.113859296 0.044371847
000280 52 e7 d2 3d 1d 51 f3 3d 89 16 6b 3b a3 e6 c6 3d
       0.10298027 0.118807055 0.0035871586 0.09711959
000290 8b d4 bb bd 14 38 83 3d 97 5f b3 bd dc 57 f6 b9
       -0.09171399 0.064071804 -0.08758467 -0.00046986237
0002a0 52 ac b6 bd 72 7b 0b be 02 54 5b 3d ec 7c 12 3d
       -0.08919586 -0.1362131 0.053546913 0.035763666
0002b0 22 0b 6d bd b6 f8 f4 bd a5 56 fa bd 37 80 b3 bd
       -0.057871945 -0.119615 -0.122235574 -0.087646894
0002c0 0a 51 9e 3d 93 06 15 3d f3 cf 94 3d 40 c6 2e 3d
       0.07730301 0.036383223 0.07266226 0.042669535
0002d0 9e 8e ac bd 5b ca fa 3d ae 20 bb bd c1 ef 97 bd
       -0.084256396 0.122456275 -0.091370925 -0.07418776
0002e0 26 e8 02 3d 82 16 ba 3c ad fd 04 bd 0b c2 89 3d
       0.031959675 0.02271581 -0.032468487 0.06726464
0002f0 44 b2 a6 bd 5b 01 9f bd d2 dc b9 bc 5b 56 89 3d
       -0.0813947 -0.077639304 -0.022688303 0.06705924
000300 d1 8a 50 3d 1e 3f f0 3d ac eb 89 bd c2 3e 83 3d
       0.050913636 0.11730789 -0.06734404 0.064084545
000310 1a a2 56 3d b7 a4 d8 3d 84 84 89 bd 0d 04 a3 3d
       0.052400686 0.10578292 -0.067147285 0.07959757
000320 58 56 46 bc 53 9f a7 3d 15 4d 90 bd 00 a6 a8 bd
       -0.012105547 0.081846856 -0.07045952 -0.08234787
000330 e8 65 7e 3d cb dd f2 3d 38 b7 96 bd 68 63 3d 3d
       0.062108904 0.1185871 -0.07359165 0.04623738
000340 fa c3 b1 3d 77 38 6e bd 0f 0f 97 bd e6 61 5f 3c
       0.08679958 -0.058159318 -0.07375919 0.013634181
000350 06 57 d6 3d e2 12 a1 3d 7b 5a 4e bd 7b f3 d4 bd
       0.10465817 0.0786493 -0.050379258 -0.10398003
000360 1d 40 96 bd e3 24 7e bd ab c6 9a 3d ce 4e b9 bd
       -0.073364474 -0.062046897 0.07557424 -0.09048234
000370 e9 85 6e bc 76 c3 e8 bd b5 cb 1a bd 2d 08 88 3d
       -0.014558294 -0.11365406 -0.037791926 0.066421844
000380 38 1f a5 3d 42 71 d7 bd 6a 8a 70 bd eb 5f a8 bd
       0.08062595 -0.10519649 -0.058725752 -0.0822142
000390 d9 b2 74 bd df 2c 96 bd 07 ea 0c 3d 98 e6 50 bd
       -0.059740875 -0.07332777 0.034402873 -0.05100116
0003a0 cb e3 ab bd ae f7 e8 3d 77 fe 8c bc f1 72 d2 bd
       -0.083930574 0.11375366 -0.017211182 -0.102758296
0003b0 d1 f8 31 bc d2 13 00 3e a6 33 bf 3b 27 d0 8c 3d
       -0.010862545 0.12507561 0.0058350144 0.068756394
0003c0 d2 b7 f0 bc 32 88 91 3c e9 63 81 3d f7 8c 6f 3d
       -0.029384527 0.017765138 0.063178845 0.058484044
0003d0 6e e4 9f 3c 68 4b a5 bd 7b b1 6b bd b4 c8 b0 bd
       0.019518103 -0.08071023 -0.057542305 -0.08632031
0003e0 bf e9 0c bc 15 3c b7 3d 45 f3 bb 3c d0 20 c1 3d
       -0.008600651 0.089470066 0.022943148 0.094300866
0003f0 7c 66 0b 3e 2f 55 2f 3d d9 ee 0b 3e 55 0d 47 3c
       0.13613313 0.042805847 0.13665332 0.012149175
