spx_ohlc_lstm_multistep.pt (torch, 217029 bytes, 10 tensors)

lstm.weight_ih_l0 f4 [256, 4]
00000000: eb31 17bd cadf 69ba ce06 ca3d 066f c33d
00000010: aa90 603d 7a31 7bbd 7390 e4bd bbe7 35bc
00000020: 485c 203d 8af7 2cbd 7619 5d3d 46f5 6cbb
00000030: e441 ca3d 6dca c63d 2fa2 a0bc 89d8 8a3b
00000040: 2353 43bd d157 ec3d 6b58 a53b b7cf 88bd
00000050: 2d40 3e3e 7c45 963c 7948 3b3e a101 f23d
00000060: 5ad1 50bc 1236 423b 4b3d d73d 5f17 023d
00000070: da12 ad3d 0d22 cebc 783f 3f3d 7d9d c93d
00000080: 1d41 9c3d d06b 86bd 68c9 0f3e 70e7 5bbd
00000090: de62 db3d 361f 92bd 2d0c 313d c0cb 0f3e
000000a0: c1bc 2cbd 5eec 333e ae96 1f3e 07c5 4e3e
000000b0: be6b cb3b 0c3b 883c 0393 21bd 00e1 93bc
000000c0: 1aca 4e3d ce80 93bd ef86 013e 8778 473d
000000d0: f2b3 123e 4717 683c 2066 323d 3e43 bebb
000000e0: cad2 e43d b757 e33d a0f8 b6bb efff 143d
000000f0: 0a50 613b 9d7d e7bc f34d 193e 10a1 b5bb
00000100: 4f45 2b3e 6eb6 0d3e d9f6 d63d a28f 123e
00000110: 42f2 f33d 26c4 563c 7cc9 db3a 8bda 42bd
00000120: cbf7 00bc e071 2c3e f098 343e 9654 343e
00000130: 2aac 333d db6a 6cbd c3e1 b33d bce4 13be
00000140: 1fb8 803d a1f3 dabb 54b4 5ebc ca85 963d
00000150: 6105 343e fdb9 8ebc f934 173e 5d9e 973d
00000160: d480 a53d 77f4 3ebd 5da8 2b3e 1bdc 093e
00000170: f088 773c 6210 a13d 6dbe b83d 873c 163e
00000180: af19 003e 459d b03d 646d e63d 2742 d839
00000190: c01b e93d 8c65 013d ba2e df3d 90a4 68bd
000001a0: 43e1 583e 5d4e d03c 3e04 183e 2a88 293e
000001b0: 9401 0a3e ed9c 643d 2c34 e1bc 18e1 de3d
000001c0: f0d0 aa3d e6de 003e b141 e53d 69a9 2ebd
000001d0: cb8a 853c 3106 093e c798 d23b d409 103e
000001e0: 5b00 323e 231f 363e 1d36 3b3e 695b 5f3e
000001f0: a493 dabc 3a4c a03a 7c35 e63d 87a5 3b3e
00000200: bb3b 3f3e d942 ee3c 6179 183a d7e8 f0bc
00000210: 0101 c2bc 171d 213d fe5a 313e 1f7e 85bc
00000220: c4b1 39bd 6c4a e83d 5b63 0f3e 4cfb e33d
00000230: 7129 86bd ea45 dcbc d337 41bc bc32 e63c
00000240: 9987 2b3e 452c d53d 3829 e63d b1ce 413e
00000250: 7e3f b93b ef97 363e c888 0fbc 0e1a 4f3e
00000260: aa64 84bd 8755 97bd 124e a1bd 8c34 9dbd
00000270: 5689 ccbc d48d c73d b8c9 e43d 8620 33bd
00000280: b271 e13d 147d 37bd f519 d03d 8322 813d
00000290: 6d11 873d 2efa 15be c968 79bd 4094 213d
000002a0: 9a17 063e 0d1f 90bd 9663 bc3d 0753 753d
000002b0: 60c1 5d3d eb81 313e e95d 3f3d 324b 483e
000002c0: a13a 353c e150 0fbd c025 743b f5c0 d43d
000002d0: b03d dfbd f00c b23c 13c8 933b 70ac 903d
000002e0: 75be 643c fb08 29be 6f99 51bd cf36 c8bc
000002f0: 4ea5 603d 3c2f 233e e1cd 233d 7766 c73d
00000300: 278f 043d 9c16 4cbd 0a9c 993d 71eb 203e
00000310: da92 663d 2e49 9b3d 0f6f a6bd 3d83 86bc
00000320: ba6a f53d 4185 673d 076a d53d 221e 9a3d
00000330: fede a8bc e87b 963d baaa 363d a017 81bd
00000340: a86f 223e 8437 b2bc b816 90bd e9b3 143d
00000350: d94c 9dbc 11d7 b2bc 063f 863d 6783 b73d
00000360: a89b de3c 78a2 f9bc caf5 2dbc 8bac bb3d
00000370: 83ca c13c 93b3 8d3d b9bf 0e3e 5939 da3c
00000380: e4ac 1cbd cb9d a33d a187 26bd c52d d33c
00000390: 20d1 1b3c 6d77 a83d 1b03 1a3d 47a2 c83c
000003a0: 7f8d 5fbd 616a f8bc 2431 2f3e da33 233c
000003b0: 0ec0 4bbc de07 97bd 03a1 173e 17cd e43d
000003c0: 5f13 aebd 5329 513d 8e07 153d c818 043d
000003d0: 04b7 bf3d dcfc 07bd c003 2b3e 8b31 e639
000003e0: 618b 393e 8e35 c13d 8165 303e 9b13 043e
000003f0: 4add c4bb 790f d7bc 084f f2b9 857f 8d3c
-0.03691284 -0.0008921592 0.09864579 0.095426604 0.054825462 -0.06132648 -0.11160364 -0.011102612
0.039150506 -0.04222826 0.05397936 -0.0036156937 0.09875849 0.097065784 -0.019608585 0.004237239
-0.047686707 0.11540187 0.0050459406 -0.066802435 0.18579169 0.01834368 0.18289365 0.11816717
-0.012745226 0.002963428 0.105097376 0.03176057 0.08450861 -0.025162721 0.046691388 0.09844492
0.07629607 -0.06563532 0.14041674 -0.053687513 0.10712217 -0.07134859 0.043224502 0.14042568
-0.042172197 0.17570636 0.15584823 0.20192347 0.006207912 0.016629718 -0.039446842 -0.018051624
0.050485708 -0.07202302 0.1264913 0.04869893 0.14326456 0.014165706 0.043554425 -0.0058063557
0.11173017 0.11100715 -0.0055838376 0.03637689 0.0034379982 -0.02825814 0.14971142 -0.005542882
0.16725658 0.13839123 0.10496301 0.14312604 0.119114414 0.013108289 0.0016768421 -0.0475717
-0.007871578 0.16840315 0.17636466 0.17610392 0.04386536 -0.057719093 0.08783295 -0.14442724
0.06285118 -0.006681875 -0.013592798 0.07349737 0.17580177 -0.01742267 0.14766301 0.07403252
0.08081213 -0.04661986 0.16763444 0.1346287 0.015108332 0.07864453 0.09020696 0.14671527
0.12509798 0.08623747 0.11251333 0.00041248018 0.11382246 0.031590983 0.10897584 -0.056797564
0.2117968 0.025427992 0.14845368 0.16555849 0.13477165 0.05581372 -0.027490698 0.10882777
0.08340633 0.12585029 0.1119417 -0.04264203 0.016301533 0.13381268 0.006426904 0.14066249
0.17382948 0.17785315 0.18282361 0.21812214 -0.026681729 0.0012229749 0.1124067 0.18324862
0.18675129 0.02908461 0.0005816427 -0.029407902 -0.02368212 0.039334383 0.17319867 -0.01629549
-0.045335546 0.1134232 0.14002745 0.111319155 -0.06550873 -0.026888806 -0.011793095 0.028100364
0.16750945 0.10408834 0.112383306 0.18926503 0.005653321 0.17831396 -0.008760639 0.20224783
-0.06464513 -0.0738936 -0.07876219 -0.07676038 -0.02496783 0.097438484 0.11171287 -0.04373219
0.11008014 -0.04479702 0.10161201 0.06305411 0.065951206 -0.14646217 -0.060890947 0.039448023
0.13094941 -0.070371725 0.09198682 0.059893634 0.054139495 0.17334716 0.04672042 0.19559935
0.0110613415 -0.03498924 0.0037253946 0.10388366 -0.10900438 0.021734685 0.0045099347 0.0706414
0.013961424 -0.16507332 -0.051171716 -0.024440197 0.054845147 0.15935987 0.039991263 0.097363405
0.032363083 -0.04982625 0.07500465 0.15714814 0.056292392 0.07582317 -0.081266515 -0.016420001
0.11983247 0.056523565 0.10420614 0.07525279 -0.020614143 0.07347852 0.04459641 -0.06303334
0.15862906 -0.021754988 -0.07035583 0.03630439 -0.019201683 -0.021831067 0.065549895 0.0896061
0.027173832 -0.030472979 -0.010617683 0.09163769 0.023656135 0.06919017 0.13940324 0.026638674
-0.03825082 0.07989081 -0.04065669 0.02577866 0.0095103085 0.08225904 0.037600618 0.024491442
-0.0545783 -0.030324163 0.1710859 0.009961093 -0.012435926 -0.073745474 0.14807515 0.1117193
-0.084997885 0.0510648 0.036384158 0.032250196 0.09361079 -0.03320013 0.1670065 0.0004390593
0.18119575 0.09434043 0.1722622 0.12898104 -0.006007825 -0.026252495 -0.0004621672 0.01727272

lstm.weight_hh_l0 f4 [256, 64]
00000000: 2ac5 26bd 8e9c 893d 4673 be3d d8d6 1fbd
00000010: dacc e8bc 8d08 473d eab8 d1bd c5a6 89bd
00000020: a909 6bbd cbcf f9bb c7ab 24bd 2748 853d
00000030: 8415 77bd 03d0 a43d 88a8 12bd c9c1 70bd
00000040: 3adb 8b3d bddc a43d 5100 813d 8662 c8bd
00000050: a44f 80bd 5252 85bd fd41 44bd 1b3e c3bb
00000060: 4ae4 86bd c5c9 5d3d 1871 31bd c0e2 8c3c
00000070: 72b4 f4bd 6594 dc3b 8afe d53c cf1b e9bc
00000080: 6a1f cf3b c927 06bd 843d 263d a33e edbd
00000090: d837 e5bd e2de 943c e7c1 253d efc0 08bd
000000a0: c94a 52bd bfe4 f4bd 6e49 70bd ef0a d0bd
000000b0: d8a8 acbd 5ee5 89bd 314a 423c e68c 563d
000000c0: 8b7b ae3b dcbe 763d faac 263c e601 b5bd
000000d0: bc24 c63d 0960 463d a0f6 d9bd 4f42 5d3d
000000e0: 3f68 13bd 9256 b4bd 32bd 963d b754 4bbc
000000f0: a061 013e 5edc d43c b6e9 76bd 20f7 9bbd
00000100: 2321 dcbd 939e b4bd d874 53bc 1ccf c73d
00000110: 9254 c53d c3c4 d5bd e9d1 e1ba c87e c2bd
00000120: 5573 ad3d 7cf1 cd3d 11be fe3d ab64 e1bd
00000130: 99a1 833c b9fa d9bd ec4d 00be d70f 8dbd
00000140: 8d00 eb3d 4c10 c4bd 166a c0bd 82d7 f53d
00000150: 350e 85bc 38ca 52bc dabe 1a3d 3a62 f0bd
00000160: a8a4 c93d 3251 053e be2c c6bd b668 00be
00000170: ccf5 81bd f98d f93d 015e db3c fc42 663d
00000180: 45cf 77bd e556 043c 48de a7bc 5b00 b8bd
00000190: ce0b 67bd dc86 1e3d d90c b53d 32e0 f1bc
000001a0: e1cd 9cbd c788 933d 9e79 de3d 5e45 b13d
000001b0: 0681 cdbd f9e0 723d 851e efbd a95f 9f3d
000001c0: 2188 85bd c931 cbbd be32 abbd 5af6 d7bd
000001d0: 85e5 95bc b0a9 01bd 75d0 d63c ed56 21be
000001e0: 827f 8bbd 1d63 74bd 90a9 f5bd 3a99 f2bd
000001f0: 5fe1 a4bd 0665 84bd d888 b63d d230 a1bd
00000200: 46c9 37bd 181f e1bc 4976 d0bc 7be8 1b3d
00000210: 1a4c b13d ab91 cf3d 0f1e a13c 5b12 b5bd
00000220: f1a0 bd3d cc5b dc3d 049a 68bd 8b1a ea3d
00000230: b20c 25bb fcf3 f83a b8ea debd 872a d13d
00000240: 091d 2dbd 633d 20bd 191c 833c 456a ad3d
00000250: 2abf 8e3c 9e12 963d 0292 58bd d22d dc3d
00000260: cb44 1d3c 1ff6 e1bc c74b d8bd 7b66 b93d
00000270: cfbd 503d 070b c53d 30b1 8ebd 57fc 91bc
00000280: 247e 203d 1aed c03d 2aef bebc 7eb0 d3bd
00000290: 4318 733d 87d8 87bd e408 e33b e3ff 1e3d
000002a0: fe69 c53d 59aa 97bd 74e2 f53d 1d84 133d
000002b0: 4b65 c2bd 88f4 cfbc 3c16 d83d 55cb bd3d
000002c0: ccb1 843b 80bc 27bd 3303 543d 2b68 33bd
000002d0: 0978 7d3d a62e d8bc 1ccf 4b3d 150a d73d
000002e0: 5ab0 77bc da78 833c 2f9f 8f3a dd93 edbd
000002f0: 091b b4bd cea2 963c 29af d83d ac40 a9bd
00000300: c378 95bc 42b0 043e e075 93bd ab72 8bbd
00000310: e881 8d3d 383e 93bd 1f80 adbd fa81 31bc
00000320: 4739 413d 7c97 8a3d c0cf e23c e5ec 013e
00000330: 86c0 c5bd 35a1 363d e9be 813d fac5 613c
00000340: acdf 41bd 62c8 ffbd 5d1e 2abd 6d16 ba3d
00000350: 636d ac3d 1fbb d33d ea42 e4bc fa7b 8f3d
00000360: 18c1 493d c549 89bd a9d1 75bd d0eb b2bd
00000370: a44e 83bc 23d7 c0bd 405e 37bd 9371 a7bd
00000380: 1d90 803d d60a b23c 842c 4ebd 5e1b 2d3d
00000390: 0703 a0bd cdf4 da3b cbb1 2cbd cdeb 02be
000003a0: 1983 ac3c 329e 293d 1150 a63d 34e1 923d
000003b0: 41b4 df3c 0250 a8bc 4a42 883c a165 87bd
000003c0: efb8 c63c c5fa c73d e3fd 79bd 24c1 433c
000003d0: b148 2d3d 7fc9 f3bd 19b2 093d f807 03be
000003e0: 2133 86bd d47d a93c 397f e6bd bcd8 27bd
000003f0: e29d 613d 77ca 08bd 5432 d33d 459a 01bd
-0.040715374 0.067193136 0.092993304 -0.03902325 -0.028417993 0.04859214 -0.10240348 -0.06721262
-0.05738226 -0.007623648 -0.040202882 0.065079026 -0.060323253 0.080474876 -0.035805255 -0.058778558
0.068289235 0.08049915 0.062988885 -0.09784417 -0.0626519 -0.06509842 -0.047914494 -0.0059583313
-0.065865114 0.0541475 -0.043320745 0.017197967 -0.1194848 0.006731557 0.02612235 -0.028455643
0.0063208835 -0.032752786 0.04058601 -0.11584213 -0.11192292 0.018172685 0.040468123 -0.03338712
-0.051340852 -0.11957692 -0.058663778 -0.101583354 -0.08430642 -0.067332014 0.011858509 0.052380465
0.005324786 0.06024061 0.010173077 -0.08838253 0.09674975 0.04843143 -0.10642743 0.054018315
-0.03598809 -0.088055745 0.07360305 -0.012410334 0.12634897 0.025983986 -0.060281478 -0.07615495
-0.10748508 -0.08819308 -0.012906276 0.097563 0.09635271 -0.1043792 -0.0017228696 -0.09496838
0.084692635 0.10055825 0.12438596 -0.11005529 0.016068267 -0.10643525 -0.12529725 -0.06887787
0.114747144 -0.09573421 -0.09395234 0.120039955 -0.016242126 -0.0128655955 0.037779666 -0.11737485
0.09845859 0.13019255 -0.09676503 -0.12539944 -0.0634571 0.12185282 0.026778223 0.056216225
-0.060500402 0.008077358 -0.020491734 -0.08984443 -0.056407742 0.03870283 0.08840341 -0.02952585
-0.07656456 0.072038226 0.108630404 0.08655809 -0.10034375 0.059296582 -0.11675743 0.077819176
-0.06520105 -0.09921605 -0.08359288 -0.10545035 -0.01829792 -0.031655967 0.026222447 -0.15755816
-0.068114296 -0.059664834 -0.11995232 -0.11845632 -0.080507986 -0.06464581 0.089128196 -0.0787064
-0.044869684 -0.027480647 -0.025447028 0.038063508 0.08657093 0.10135206 0.019667653 -0.08841392
0.09259213 0.10759696 -0.056787506 0.11430844 -0.002518457 0.0018993611 -0.10884613 0.102131896
-0.04226402 -0.039121043 0.016004609 0.08467535 0.017425139 0.0732777 -0.05287362 0.10750927
0.009598921 -0.02758318 -0.105613284 0.0905275 0.050962266 0.09621244 -0.069673896 -0.01782052
0.039182797 0.094202235 -0.023307402 -0.103363976 0.05934931 -0.06633096 0.00692855 0.03881825
0.09639357 -0.07405538 0.12006083 0.036014665 -0.09491976 -0.025385156 0.10551116 0.09267298
0.0040495154 -0.040951252 0.051760864 -0.043800514 0.061882053 -0.026389431 0.04975806 0.1049997
-0.015117729 0.016048837 0.0010957475 -0.11600468 -0.08794219 0.018388178 0.10580284 -0.08264288
-0.01824606 0.12957862 -0.07200217 -0.068089806 0.06909543 -0.07189602 -0.08471703 -0.0108342115
0.047173765 0.067671746 0.027686954 0.12688024 -0.096558616 0.044587333 0.06335241 0.013780111
-0.04733245 -0.12489392 -0.041532863 0.09086309 0.08419301 0.10338425 -0.027863938 0.070060685
0.049256414 -0.067035235 -0.0600144 -0.08736384 -0.01602871 -0.09416034 -0.04476762 -0.081759594
0.062774874 0.021733683 -0.050335422 0.042262428 -0.078130774 0.0066820146 -0.042161744 -0.12785263
0.021058606 0.041410632 0.0812074 0.0717186 0.027307631 -0.020545963 0.016633172 -0.06611181
0.024258105 0.09764627 -0.06103314 0.011947904 0.042305652 -0.11903667 0.033617113 -0.12796009
-0.06552721 0.020689882 -0.112547345 -0.04097818 0.05508221 -0.03339621 0.10312334 -0.031641264

lstm.bias_ih_l0 f4 [256]
00000000: a425 d23d da4d aabd 0dae 10bd 7635 a33d
00000010: a24e 60bd 8861 3e3d 4e9c c8bd 1d31 e33d
00000020: e7c2 88bd f775 be3d 4de0 96bd a710 f53d
00000030: c752 e6bd ddf1 043d c2a6 a73d 64b0 8d3d
00000040: cfdb 4abd 9943 1dbd 4a5b 23bc c5f3 a83b
00000050: 4bf1 0a3e de6a 0f3e cd99 853d 1b31 e0bd
00000060: 8c01 9a3d 4574 1fbd 4e54 d63d 7703 c53d
00000070: 21fa 1cbd 70fa b43d 4d59 1d3d ab0d a33d
00000080: 9cc5 423e fee0 96bc 1df9 0bbd 2585 aa3d
00000090: 37d3 e73d b366 2c3d 8cc2 d1bd 54a6 1abd
000000a0: 628b 803d d0d8 f73c 6f91 2e3e 331b 7dbd
000000b0: e3b5 b3bd 57b8 09bc f9b0 49bd 8c8e 2d3e
000000c0: 3dd5 d73d 2446 443d 4cc8 0ebd 966d e83d
000000d0: d278 7d3d 863f a03d 5ccf b53d ce5c 0c3e
000000e0: 33cf 92bd bedf f23d 2d64 9ebd 2e97 e03c
000000f0: 2665 7d3d 51fe d3bd 83e5 e2bc c408 fe3d
00000100: 0a9d 853d 2519 96bc 2603 c5bc bd44 b43c
00000110: 0639 29bd 59ea f1bd 376d afbd 1e8a bfbd
00000120: 28eb 273d a519 413d 4b6b d93d 689d 743d
00000130: 805a 88bd 03e6 3cbd d4ac 4c3c a1da 65bd
00000140: c6ca 60bd e89d f63d d946 f73d 42a7 cc3d
00000150: 99f8 883d 9426 efbd fda7 273d 5ba4 123d
00000160: 992b 91bb 0fc3 113d 3a33 c0bd bf02 9a3d
00000170: 2eba 4dbd 1af2 95bd a19e a3bc 6047 553d
00000180: 1b77 7dbb 9f5a 043e 43a1 b5bc cad7 8f3c
00000190: acd0 d63d 6fb0 a03d bb38 b23d 1a09 90bc
000001a0: 99c2 8ebd ae5c 07bd bb76 f2bc 9607 b03d
000001b0: 080e 5fbd 97d7 ddbd e3ab 693d 68c0 cabd
000001c0: 52b8 913d 5fae da3d fe91 cf3d 304b 923d
000001d0: ec84 dabd 0336 b1bc 6ce2 4cbc ba07 7bbd
000001e0: 2b3f 79bd 4ace bfbb d1d0 96bc 1349 06bd
000001f0: f443 92bc 78ce 8f3c b90d 67bd 689d 43bd
00000200: a7f5 1d3d 93cf e5bd 028d 3cbc d8fe 76bc
00000210: 6eec 66ba e409 633d 0dcc 4e3d 3e1c bb3d
00000220: e151 97bd 76a0 bebd 9a83 d4bc 7940 b43d
00000230: 7c4a ddbc 3761 b63d 5834 bebd af78 1f39
00000240: 54a3 a9bd 1b80 6a3b 2357 babd 94c4 02be
00000250: b753 8ebd 330a 49bc 1bdb febc 562e d1bd
00000260: bf65 cdbd e3aa 18bd bae3 873d 2fff 063d
00000270: 7e93 ba3d ae38 acbc 0c1f abbc f078 ce3d
00000280: 26de 453c 3fd7 e2bd 515f d0bd 52d0 b73d
00000290: ad98 b7bd 0439 c1bd 85a2 923d db06 a03c
000002a0: 2c9f a33d a665 8dbc 15b0 26bd 105c 253d
000002b0: 454f 183b f7d1 1dbd 7751 c63d c697 b6bd
000002c0: e766 8fbc 39fd 663d dc3a ef3b 3745 b3bd
000002d0: 52b9 d4bd 2cf5 9fbd 676f cabd 7283 843d
000002e0: 77ab c73d 944b 5cbc c1cf d23d 02b5 e1bd
000002f0: 5bfa 3b3d d80d 08bc 94ad 88bd e660 ea3d
00000300: 09e4 163e 844a cf3c 213e 913d f133 a33c
00000310: f30a 223e 51ad c5bb 3ade ea3c 8d2a fe3d
00000320: 5440 eabd 3cb8 023d 1ebb 45bd e24a 87bb
00000330: 79e0 843c ca2e f4bd 360d 703c 708b 05bd
00000340: 59e0 bd3d 9078 d3bc 6a9b 48b9 f55b 5a3d
00000350: c033 413e 4fd1 a73d 30a6 a33d 5251 6fbd
00000360: 1810 a3bc ff5e a23d b44c 85bc 10e9 1a3e
00000370: 1394 0d3e 9f85 ac3d 5ccd 0d3e 7ee9 b0bd
00000380: 1339 cf3c 4728 ba3c d973 643d 48ed ba3d
00000390: ac78 053e 451e b43d d23d b23d 37dd 293d
000003a0: 2fdf 6abd d8ba 3cbc 46f4 283e 466e ef3d
000003b0: 730c e83d 6ba6 143c efa2 10bd 9566 d13d
000003c0: 2bf5 103d 4df5 ef3d b937 23bd 7eb0 663d
000003d0: 4849 8e3d 7bd3 5abc 3454 7a3c df6c a33c
000003e0: 217d 4f3d 3977 92bd beb5 4b3d c672 973c
000003f0: 4003 1d3d 36c3 ed3d 5e8a 1a3e 72b6 c6bd
0.10261086 -0.0831563 -0.035322238 0.07969181 -0.05476249 0.04647973 -0.09795438 0.11093352
-0.066778 0.09299844 -0.07367001 0.11966067 -0.11246257 0.03245722 0.081861034 0.069184095
-0.049526032 -0.038394544 -0.0099704955 0.0051560127 0.13568608 0.1400561 0.06523476 -0.10946866
0.07519826 -0.038929243 0.104652986 0.096198015 -0.03832448 0.0883683 0.038415242 0.07961591
0.19020694 -0.018417832 -0.03417312 0.083261766 0.11319583 0.04209013 -0.10242185 -0.03775628
0.06276585 0.030254751 0.17047666 -0.061793517 -0.087749265 -0.008405766 -0.04924104 0.16948909
0.10538719 0.047918454 -0.034858987 0.11349027 0.0618828 0.07824616 0.08877441 0.13707277
-0.07168426 0.11859082 -0.07733951 0.027415838 0.06186404 -0.103512414 -0.02769733 0.12404016
0.065240934 -0.018322537 -0.024049353 0.022005433 -0.041314147 -0.118122764 -0.08565753 -0.09352516
0.040995747 0.047143597 0.10616168 0.059720427 -0.066578865 -0.046117794 0.012492377 -0.056116704
-0.05488088 0.12041837 0.1207406 0.099928394 0.06688041 -0.1167728 0.04093169 0.035801273
-0.004430246 0.035586413 -0.09384771 0.07520055 -0.050226383 -0.07321568 -0.019973101 0.05207002
-0.0038675729 0.12925194 -0.022171622 0.01755895 0.1048902 0.07846152 0.08702227 -0.017582465
-0.0697071 -0.03304737 -0.02959763 0.08595197 -0.05445674 -0.10832136 0.05704869 -0.0989998
0.071152344 0.1067779 0.10135268 0.07143247 -0.10669884 -0.0216322 -0.012505155 -0.061286665
-0.060851257 -0.005853449 -0.018410118 -0.032784533 -0.017854668 0.017554507 -0.05640957 -0.047757536
0.03856435 -0.11221232 -0.011508228 -0.015075408 -0.00088090345 0.055429354 0.050487567 0.09136246
-0.07388664 -0.09307949 -0.025941659 0.0880136 -0.027013056 0.08905261 -0.092873275 0.0001520838
-0.082831055 0.0035781923 -0.09098651 -0.12770301 -0.06949561 -0.012270498 -0.031110337 -0.10213916
-0.10029172 -0.037272345 0.06635232 0.032958206 0.09110163 -0.02102312 -0.020888828 0.10081661
0.01207689 -0.11076211 -0.1017443 0.08975281 -0.089646675 -0.09434703 0.071599044 0.019534519
0.07989344 -0.017260384 -0.04069527 0.040371 0.0023240608 -0.038530316 0.09683507 -0.08915667
-0.017505122 0.056393836 0.0073007178 -0.08753436 -0.103869095 -0.07810435 -0.098845296 0.06470384
0.09749501 -0.013445754 0.10293532 -0.110208526 0.045893054 -0.008304082 -0.066737324 0.11444263
0.14735426 0.025304087 0.07091928 0.019922229 0.1582449 -0.006032624 0.028670419 0.1241046
-0.11438051 0.03191398 -0.048274152 -0.0041288 0.016220318 -0.11922987 0.014651587 -0.03260368
0.092713065 -0.025814325 -0.00019131383 0.053310353 0.18867397 0.08194219 0.07990682 -0.058427162
-0.019905135 0.07928275 -0.016271926 0.15127969 0.13826017 0.08423924 0.1384787 -0.08638285
0.02529577 0.022724284 0.055774543 0.09127289 0.13034314 0.08794836 0.087031975 0.041470733
-0.05734175 -0.011519156 0.16499433 0.11690955 0.113304995 0.00907288 -0.035311636 0.10224644
0.03539006 0.11716709 -0.039848063 0.05632066 0.06947571 -0.013356085 0.015278865 0.019949375
0.05065644 -0.07151646 0.04973387 0.018487345 0.038333178 0.11609499 0.15091845 -0.097027674

lstm.bias_hh_l0 f4 [256]
00000000: 4581 863d 6a62 783d 4f45 d9bd 855f 0d3d
00000010: 5a17 373e ba1b 9b3d 47ad c43b c9df b5bd
00000020: bd60 ca3d 4625 453d 7bbe bcbd 73d4 a13d
00000030: 5bfd 40bc d4b8 e03d 4aa1 bc3d 882f 9dbd
00000040: a320 073d 8bc9 833d c232 833c 00b9 cdba
00000050: 227a e63c db85 36bc 10bf 1d3e dd02 43bd
00000060: 4c28 10bd ef2a 46bd 86bd 213e f658 c83d
00000070: 1197 db3d 1d25 083c 76cc 633d 6115 82bc
00000080: b367 0f3e 46c8 943d e7bc 833c 8ff9 82bd
00000090: 43ab aa3d ca9f e0bc 0eef 71bd 971b e33d
000000a0: ccc6 fa3d 535a af3d b5a2 303e 0511 fa3d
000000b0: 5ae9 173d ff6c 7abd 4945 143d 4c52 d23d
000000c0: adce d83d d083 f83d 0f9c 0dbc 8de6 88bc
000000d0: 82d7 c2bd bce3 afbd c378 30bd b8c6 ab3d
000000e0: f546 cf3d d6f0 723d 45da b13b 0963 ef3d
000000f0: 45b1 163c b079 073e f61e 033e 7158 083e
00000100: e8b8 9a3d deda e8bd de82 d8bd 43f5 a33d
00000110: b2b4 9a3d f605 77bd 29ff 093d 724f e2bd
00000120: defb 7c3c 769c dfbc 3bd4 e43d abab ef3d
00000130: 4bbb 163d 2bbc 973d 6f57 a4bd 7522 9cbd
00000140: a112 8f3d a4e0 123d 925f ec3c 0ec2 a83d
00000150: df89 513b ee0c 173d 5966 dcbc b028 a1bd
00000160: 6659 c73d e29b bdbd 42d7 d53c 7333 813d
00000170: 9683 77bd 30ee fa3b c6c0 f53d 31f6 87bc
00000180: 527d 65bd fcc1 a3bd d04f ee3d e4d7 443d
00000190: 68a1 adba c16a af3d bde2 8c3d 6b57 ad3c
000001a0: 3d1a bdbd fe6f 0ebd d154 2f3d 3aaf 9abd
000001b0: 1cb6 fbbd 9e09 edbc eeb0 ecbd a4d1 bcbd
000001c0: 9e11 b8bd a68c 813c 10e0 a3bc 4eb3 ecb9
000001d0: 3d2e 0cbe d1a4 f2bd 3523 983d 2e2f a4bd
000001e0: 3df5 4b3d f6d8 d8bd 5f3a d23d da59 95bd
000001f0: a0db 743d 852b 773d 6138 74bd 9a4a e83c
00000200: 5aad a33d 0b91 97bc 18be c03d 1fc5 a9bd
00000210: 1df4 e1bd 9cb0 1abd f112 803c 8cb8 033e
00000220: 2cf8 7fbd a5ba 4abd 4f61 fabd e98d f3bd
00000230: 0d73 763c 4ebf 653d 8355 e4bc bed8 d6bd
00000240: 07a4 4b3d 7a57 d9bd 3124 cb3d 4cae 963d
00000250: 1ced c9bc eead c03c eb12 353d 361a a0bd
00000260: 3879 053d 4d04 5b3d c280 2bbd 0b82 11bd
00000270: eef0 b7bd 8f7c 8c3d 18d6 423d dc86 34bc
00000280: c441 023c 95a0 fa3d bf94 54bc 6fe4 4dbd
00000290: fb9e cbbc ca96 c23d ad2e a73d c1ae 99bd
000002a0: 8637 063d 3c5f 8fbd 110c 4dbd 1ff2 b2bc
000002b0: 5338 9dbd cfbd 863c 4e84 513d e869 bb3d
000002c0: a58c 873c 473f 6c3d 97d8 f7bc 7f6d 933c
000002d0: c867 d63d 3293 e43d 700a 3f3c 63fa 2fbd
000002e0: 3d06 b43d f606 b0ba df6a cebc cc60 db3d
000002f0: 4d02 073d d4b7 6f3d 8272 ee3d 773d 2a3a
00000300: 6080 bfbd 6698 ba3c 216c a33c 2f7b 543d
00000310: b702 493e 4022 bfbd 2f75 1c3d c9c5 c63d
00000320: c83d eb3d 6917 f3bc 2162 d2bd f5eb 283c
00000330: 6021 cdbb 1e38 8f3d 9509 ab3d d60e bebd
00000340: ebde a93d 4eb8 f6bd f88b 283d 6c90 6dbd
00000350: c493 483e bb39 ae3d 3b27 613d 770f 843d
00000360: c148 1c3e b492 203d 1e1e b1ba dd41 a03d
00000370: d59d 103e 848c fcbc 233f aa3d 2e90 843d
00000380: 6636 753d 5ad5 733c 6dbf 5cbd 3097 f63d
00000390: 1f3b 0c3d 662d 0e3e 640f 1ebd ac52 b73b
000003a0: 1f65 94bb 631a 913b 573e bf3d ad45 62bd
000003b0: ff6d 5a3d 7571 d03d ee92 d63d a310 f83d
000003c0: a205 8bbd f867 633d a346 9e3d fcbf 183d
000003d0: 5a86 a7bd 7a34 8f3c 8d64 8f3d 2f10 113e
000003e0: ed55 293d 6d3b 633c 5a65 e03c 0ffb 7c3d
000003f0: 2acc fbbd 4c2a e23d b04a 033e 3690 3d3d
0.06567625 0.06064073 -0.10608923 0.034514923 0.17880002 0.07573648 0.0060021016 -0.08880574
0.098817326 0.04813125 -0.09216019 0.079018496 -0.011779155 0.10972753 0.09210451 -0.076750815
0.03299011 0.06434926 0.016015414 -0.0015695393 0.02813441 -0.011140312 0.15404916 -0.047610153
-0.03519468 -0.04838079 0.15794954 0.09782593 0.10722173 0.00830963 0.05561491 -0.015879335
0.14004402 0.072647616 0.016081287 -0.06395256 0.08333447 -0.027419943 -0.05906587 0.11089247
0.12244949 0.0856215 0.17249568 0.122102775 0.037087776 -0.061139103 0.036198888 0.10269603
0.10586295 0.12134516 -0.008643164 -0.016711498 -0.09513761 -0.08588359 -0.043083917 0.08387512
0.10120956 0.05931171 0.005427631 0.11688811 0.009197538 0.13230014 0.1280478 0.13314988
0.07554799 -0.113698706 -0.10571836 0.08005764 0.07553996 -0.06030842 0.033690605 -0.11050309
0.015440909 -0.027296286 0.11173292 0.11702665 0.03679971 0.07408937 -0.08024489 -0.0762376
0.06985975 0.035858765 0.028854165 0.08240138 0.0031973047 0.036877565 -0.026904272 -0.07869089
0.09733848 -0.09258248 0.02610362 0.06308641 -0.060428225 0.0076577887 0.11999659 -0.016596885
-0.056027718 -0.07995984 0.11636317 0.04805745 -0.0013246955 0.085652836 0.068791844 0.021159848
-0.0923352 -0.034774773 0.042805497 -0.07552953 -0.12290594 -0.02893525 -0.11557184 -0.09219673
-0.08987735 0.015814137 -0.020004302 -0.0004514702 -0.13689514 -0.118478425 0.0742859 -0.08016811
0.049794424 -0.10588257 0.1026504 -0.072925285 0.059779763 0.060344238 -0.05962408 0.028355885
0.079920486 -0.018501779 0.094112575 -0.08289551 -0.11032889 -0.037766084 0.015634032 0.12863368
-0.062492535 -0.049494404 -0.122255914 -0.118923016 0.015042079 0.056090645 -0.027872806 -0.10490559
0.049716976 -0.10612388 0.09919012 0.07357463 -0.024649195 0.023520436 0.044207495 -0.07817499
0.032586306 0.0534709 -0.04187084 -0.03552441 -0.089815006 0.06859695 0.047567457 -0.011018481
0.00795025 0.1223766 -0.012974917 -0.05026668 -0.024856081 0.09501417 0.081631996 -0.07504035
0.032767795 -0.070005864 -0.050060336 -0.021843968 -0.076767586 0.01644793 0.051151566 0.091510594
0.016546557 0.057677533 -0.030254645 0.017996548 0.104690135 0.11160888 0.011660203 -0.042963397
0.08790252 -0.0013429809 -0.025197444 0.10711822 0.03296118 0.05852492 0.116429344 0.00064941443
-0.093506575 0.022777747 0.01994902 0.05187529 0.19629942 -0.093327045 0.038197692 0.09705693
0.11486393 -0.029674249 -0.10272623 0.010310163 -0.006260082 0.069931254 0.08351437 -0.092801735
0.08294471 -0.12046872 0.04114911 -0.05799906 0.19587618 0.08507105 0.054969054 0.06448262
0.15262128 0.039202407 -0.0013513004 0.078250624 0.14122708 -0.030828722 0.083128236 0.064728126
0.05986633 0.01488241 -0.053893495 0.120405555 0.03423607 0.13884506 -0.038588896 0.005594572
-0.004528656 0.0044281944 0.09338062 -0.05524223 0.053327557 0.1017789 0.10477243 0.12112548
-0.06788184 0.055519074 0.07728317 0.037292466 -0.081799224 0.017481077 0.070016004 0.1416633
0.04134171 0.013869149 0.027392078 0.061762866 -0.122948006 0.11043224 0.1282146 0.04628011

lstm.weight_ih_l1 f4 [256, 64]
00000000: 3982 8dbd 0109 8f3d 2b01 0ebc 5ba4 003d
00000010: 66d4 303e 4d35 18be 3e32 b93d 77b6 df3d
00000020: 31a9 46bd fde1 873d 384b c23b 60f3 64bd
00000030: 9e59 133c cc2b 5f3d 30a1 cfbd 99a7 0ebc
00000040: f1da ba3d 24ba 113d 81b6 cd3b f56e df3c
00000050: 3a48 a33c 54bb 38bd 80e6 5c3b da52 f2bd
00000060: ef13 b5bd 5070 0c3e 9d30 13be 605e a4bd
00000070: f765 aa3d 1d9d 1abd ff18 f63c 6204 7bbd
00000080: d95e 80bd 6e49 9fbb 5059 debd bfc4 5bbd
00000090: c0ab 2e3d 0faa 35bd 9cb2 07bd 6de2 d1bd
000000a0: 1c2a f33d 06c4 0bbd 4edc c7ba 6b2e dbbd
000000b0: 44d8 8a3d 095b 823d 1bf9 ecbd 9128 dfbc
000000c0: 0c4d 3ebd 8e1c 95bd 8316 84bd 70d5 413c
000000d0: fe7c 7abd cbf5 c23d 2367 05be 5480 b1bc
000000e0: cf4f 71bd 9f55 5bbd b34d 6c3d 1ac2 583c
000000f0: bc27 8cbd 3e60 a33d 8084 50bc 75ca b93d
00000100: 4c18 15be b958 a03d 264a bb3d d176 bb3c
00000110: 7a86 c3bc 36b8 9fbd c44f b03d 70d9 cdbd
00000120: 583c f53c 07bc a03d de17 bcbd 310e 3fbd
00000130: 5ef7 4e3d 147d ef3d 3a7a 5b3d 9887 ac3d
00000140: 9959 bc3b 172e 563d ddad 453d c86d 383e
00000150: 845b 08bd 320e 213d 60e0 cbbd 17b2 7ebc
00000160: 6ab3 9fbd ec44 a3bd 2718 d0bd fbf1 9ebd
00000170: 4fd7 bc3d 30e9 5e3b dcf0 873d 67a9 f1bc
00000180: 27e0 d7bc 2272 64bd dbce 243d ee84 9e3c
00000190: cbce f5bc 67ec 583d fab0 3c3d 07b0 163d
000001a0: 41fe 75bd bfcc a33d 5830 243e 2a4d 46bd
000001b0: bbdc 99bb 1b27 86bd e1c2 0bbd a6f2 dc3d
000001c0: f35a a53b 10a1 2ebd abaa a83d 8142 c6bd
000001d0: be98 d9bb 2123 0c3e c71d 52bc 7ac7 e5bc
000001e0: e4b5 ed3c 3e08 813d a233 963d 913f 433d
000001f0: 6e54 1b3c adb4 ebbd 99d2 da3c 1d7e 9e3d
00000200: a33d 403d ca19 703d 82ee 393d 37a9 f83d
00000210: ab10 ae3d ec5c 883d 7434 0ebd e7f3 a8bd
00000220: fa9a a63d 360a 8bbd 9920 9b3d 21e7 05be
00000230: af07 14bd b91a b13d d663 e2bc a3f3 86bd
00000240: 1154 efbd de75 2a3d 4e84 19bd 2226 5e3d
00000250: 4c04 e8bd 204e 88bc 230a 183c a224 863d
00000260: d3ee b83d 5f97 58bd 1f58 6abd 1c13 f33d
00000270: fbec e83d efc4 8abd 9b86 b8bc ec83 c23c
00000280: 120b 0b3c d065 ef3d 418d d8bd 3386 183d
00000290: d2a9 113e eeb3 aa3b ea77 0a3a 0438 26bd
000002a0: e325 da3d 396a abbc cdbc cabd b988 71bd
000002b0: b565 98bd 5550 2f3d 4906 c2bd d5c0 d6bd
000002c0: 6e35 4fbd 4052 06be 4905 cb3d 76f0 9d3d
000002d0: 2aeb a73d 0b63 b7bd 1a05 963c 120a 793d
000002e0: 5199 e93c e3a2 1bbb 0cf2 743d 05fc fdbd
000002f0: 1803 9fbd 0167 aebd 339a 7bbc 80a9 e63d
00000300: 3590 4e3c f470 243b ff76 ee3d 995b ad3d
00000310: 4b4a 1f3e 8b9d b5bd 559b b2bc 55cd c63d
00000320: f82a 96bd 7b08 ca3c 536b 3b3d fc51 013e
00000330: b5d1 d7bd 0f8f 893d a4b2 91bd 9a41 f03c
00000340: 3bbf 2f3b a0d6 0cbe ebf7 853d b0ca 36bd
00000350: aef9 afbc e0f6 07be 3be3 1fbe 420a 1bbd
00000360: 69b7 a53d 8bd0 4dbd cd83 9b3d b2f2 cd3c
00000370: 23e4 223c 26d5 5e3d c418 093c 8ac3 54bd
00000380: f8fe 8f3c a050 96bd a319 eabd a61e 1e3c
00000390: d758 87bd d993 363d 407b e03c 131e 97bd
000003a0: eb2c bf3c 94b6 913d ee28 a63c 0ae6 dfba
000003b0: 6818 9d3d 3299 4ebd c6d6 b8bd a71a 38bd
000003c0: bacf 7fbc 21a5 873d 721d 023d 36de 723d
000003d0: f3fa f93c 4fdf 993d 127a cfbc b55f 52be
000003e0: 7d7c 00bc 2b8d 66bd f504 f73d 2047 0fbd
000003f0: dc91 40bd 8174 8d3d dfd9 2e3b 420b c43d
-0.069096036 0.06984139 -0.008667271 0.03140674 0.17268524 -0.14864083 0.09042786 0.10923474
-0.048501197 0.06634901 0.005929377 -0.055896163 0.008993534 0.054485127 -0.10138166 -0.008706951
0.09123791 0.03557791 0.0062778597 0.027274588 0.019931901 -0.045100525 0.0033706725 -0.11832209
-0.08841693 0.13714719 -0.14374013 -0.08025813 0.083202295 -0.03774749 0.030041216 -0.061283477
-0.06268091 -0.0048610484 -0.10856879 -0.05365443 0.042644262 -0.044351634 -0.03312932 -0.102482654
0.11873266 -0.03412249 -0.0015248151 -0.10702213 0.06779531 0.0636502 -0.115709506 -0.027241023
-0.046460196 -0.07280837 -0.06449606 0.011830673 -0.061154358 0.095195375 -0.13027625 -0.021667637
-0.058914002 -0.05354845 0.057691287 0.013229871 -0.06843516 0.07977341 -0.012726903 0.09071819
-0.1456005 0.078294225 0.09145002 0.022883805 -0.023867834 -0.07798807 0.08608964 -0.100512385
0.029936 0.07848363 -0.0918424 -0.046644393 0.050528876 0.11693779 0.05358336 0.084243
0.0057479856 0.05229005 0.048261512 0.18010628 -0.0332904 0.03932018 -0.099549055 -0.01554539
-0.077978924 -0.0797213 -0.10160857 -0.07760998 0.09220754 0.0034013502 0.06637737 -0.029499723
-0.026352001 -0.055772908 0.040236335 0.019350495 -0.030005833 0.052959826 0.046067216 0.036788967
-0.06005693 0.079980366 0.16034067 -0.048413433 -0.0046955026 -0.065504275 -0.034121398 0.10788469
0.0050462424 -0.04263407 0.08235677 -0.09680653 -0.0066405227 0.13685276 -0.012824482 -0.02804922
0.029017396 0.063004 0.07334067 0.047668044 0.009480579 -0.115090705 0.026711749 0.07738898
0.04693378 0.058618344 0.045393474 0.1214165 0.08499273 0.066583484 -0.034717992 -0.08249646
0.08135028 -0.06789057 0.07574577 -0.1307645 -0.03614014 0.08647675 -0.027635496 -0.06589439
-0.11685956 0.041616313 -0.03747969 0.054235585 -0.113289446 -0.016638815 0.0092797605 0.06549956
0.09029927 -0.052878734 -0.057212945 0.11868879 0.113733254 -0.06775843 -0.022525122 0.023744546
0.008486526 0.11689341 -0.10573817 0.037237357 0.14224938 0.0052094376 0.0005282151 -0.040580764
0.106517576 -0.020924674 -0.09899292 -0.05896828 -0.07441274 0.04280122 -0.09473855 -0.104859985
-0.050588064 -0.13117313 0.099131174 0.0771188 0.08199151 -0.08954438 0.01831298 0.06080062
0.02851549 -0.002374821 0.059801146 -0.124015845 -0.07764262 -0.0851574 -0.015356588 0.11262798
0.012607624 0.002509174 0.116437905 0.084647365 0.15555684 -0.088679396 -0.021802584 0.09707133
-0.073324144 0.024662247 0.04575665 0.12628931 -0.10538045 0.067167394 -0.07114151 0.029328156
0.0026816863 -0.13753748 0.06541427 -0.04462689 -0.021481361 -0.13277769 -0.15614025 -0.03785158
0.08091623 -0.05024771 0.075934984 0.02514014 0.009942087 0.054402493 0.008367721 -0.051944293
0.017577633 -0.07339597 -0.11430671 0.009650862 -0.06608742 0.044574592 0.02740252 -0.07378783
0.023336848 0.07114902 0.020283189 -0.0017082107 0.07670671 -0.050439067 -0.0902534 -0.044947293
-0.015613491 0.06623293 0.031766362 0.059293948 0.03051517 0.07513296 -0.025326762 -0.20544322
-0.00784218 -0.056286972 0.12061492 -0.03497994 -0.047014102 0.06906987 0.0026680154 0.0957246

lstm.weight_hh_l1 f4 [256, 64]
00000000: d723 37bb ef48 473d bab6 e8bd 2be3 ae3d
00000010: 55d2 3ebd f94f 63bd 1e11 4d3d af82 b93d
00000020: 55fe 583d 57ba c03d 21f4 4e3d 08e4 83bd
00000030: 07e9 1ebd 471a b23d bd94 003e 2f30 e3bc
00000040: 8c8a 4d3d f786 d4bc 910a 633c 77b4 e1bd
00000050: 35ae c43c af8f 803d edda bcbc 2c17 4cbd
00000060: 6768 983d 92d1 8ebb f446 c4bd 8833 0cbe
00000070: 77ac 96bd a7ca 693d a045 9cbd 5d15 5cbd
00000080: 533b febd de31 1dbd 4566 993d 00f1 fabc
00000090: 4e5d 7abc 4d2b 023d 04d4 d2bd f84b 6cbd
000000a0: e1c0 823d cb5c 00bd c1d6 f63c 9c4a f13c
000000b0: b33f 353d 7e83 8dbc e8c6 e13d effa cbbd
000000c0: b0e4 fdbd 3bf8 873d 44e9 c5bd 7049 f1bd
000000d0: ee99 cebd 03bc a0bd a445 93bd fc49 f4bd
000000e0: 3d41 61bd 2184 b1bc 8df7 ec3d 5d59 e4bd
000000f0: bc35 03bb 0943 c43d 4733 b63d b602 76bd
00000100: 5936 a33d 9e6d 853d f0d1 ef3d 4baf 89bd
00000110: 1008 433d db22 9ebd d945 10bd 034d efbd
00000120: 9054 2a3d 1979 fd3d cb1c 75bd 5813 adbd
00000130: a4f4 9a3d 552f b3bb 1c2b d4bd f633 113c
00000140: e0e4 1c3d ddf0 583d 465d 833d 971c e2bd
00000150: ea7f a03d fea3 d43d 39ce 643d 3b0d d8bd
00000160: 587b f9bd dcc4 de3d 6bdc 953b 4a85 afbd
00000170: aef2 59bd 4bb3 34bc 06d4 be3d 1535 433d
00000180: 24a6 26bd 3db9 d1bc f033 a93c 1cad 8bbd
00000190: 5674 b1bd 092c 94bd e02c 8b3b 830d a33d
000001a0: beb9 a3bd 5719 dabd a388 a43d 9a60 ca3d
000001b0: 93ed 42bd 330e 89bd 5c1a 56bc 1578 a53d
000001c0: 3e48 f6bd 56ff d4bc df38 55bc 487f ea3d
000001d0: 7b5d 57bd 21e8 01bd 6775 6abd 9481 dfbd
000001e0: d905 823d 877a 07bd 2757 293d 4f9f 92bd
000001f0: 866f a13d 40de 6ebc 8175 fdbd 3429 f0bd
00000200: a7af b63d 4a71 22bc f0f6 b7bd ac36 f33d
00000210: a47e b2bd 6f7e e5bd fd6e 82bd fda8 413d
00000220: 322c f73d 0efc 333d 93b5 0e3d a35e 9dbd
00000230: 9bb7 ffbd aaad ff3d 3edc f1bd 6f56 b63c
00000240: 3061 91bd 83ac b83d fb62 153e a555 ad3c
00000250: ce14 03bb e7fb 28bd cb5c f83d 2ce5 2bbc
00000260: 742f e33c fd3e e7bd f214 ddbd 14e1 f8bd
00000270: d2ed bb3d b786 4dbd 371e 963d 7e9a 24bd
00000280: 600f e8bb beec 90bd 62ce f43d 44dd b83d
00000290: b561 2f3b c53c a33d 449c c83d 3a82 04bd
000002a0: 4c3b a5bc 6884 06bc be37 84bd a30c bebd
000002b0: 75d4 41bd f4ed c0bd d75e a7bd 2c59 dc3c
000002c0: 5907 f33c 45b4 3f3d 9657 9c3d fb33 c2bd
000002d0: 9a7e abbd 89cb 76bc 2e08 84bc 7631 95bd
000002e0: f291 ab3d 44bb 5bbd 0e2e a8bd 3865 a7bd
000002f0: 14ba 3cbd fc73 d83d 2a9f d93d 8072 8d3d
00000300: f0ca 41bd 23c5 063d 17bb a3bd 0c55 a93d
00000310: 92e4 6bbc 8662 dfbb 2d46 013e fc15 65bc
00000320: f703 abbc c5ff b7bd ca33 573d 9498 bdbd
00000330: 6f21 f7bd 53b4 eabb 40c6 5bbd e008 3cbd
00000340: ce19 b7bd 7b2f 3d3d 6243 593d d0f9 eabc
00000350: a845 92bc d6b5 b63d 12c2 65bd 3114 02be
00000360: f5aa 033d 7f88 893d 3944 00bd 5ddf f7bd
00000370: 5dfb 43bd 50d0 e9bd 2121 49bd 7b33 65bd
00000380: 47dc e33d 2f8f 1e38 92eb 04be 5f75 80bd
00000390: 5d99 15bc 8bd1 b5bd 6b9a e1bc 2b1d 323d
000003a0: 70ef 07bd 81a8 b2bc ab77 3dbc 26c4 013e
000003b0: 8928 36bd cbf4 cc3d c4a6 a8bd e765 efba
000003c0: 7e3e ce3d f0e1 3c3d cb52 43bd a808 06bd
000003d0: 9257 cfbd 2125 8d38 cab9 e8bd 22de 083d
000003e0: 5b64 c8bc cc90 843a 0a2c de3c 53ae dd3d
000003f0: 48cd a23c ea1e 7ebd ac33 5d3c 9c9a a4bd
-0.0027944946 0.04865354 -0.11362977 0.085394226 -0.046587307 -0.05549619 0.050065152 0.09058129
0.052976925 0.094105415 0.05052579 -0.06439978 -0.03879645 0.08696418 0.12556739 -0.027732937
0.050180957 -0.025943263 0.0138575 -0.11020749 0.02400885 0.062774055 -0.02305361 -0.049826786
0.07441788 -0.004358479 -0.09583846 -0.13691533 -0.07357114 0.05707803 -0.076304674 -0.05373131
-0.12413659 -0.038377635 0.074902095 -0.030632496 -0.015281035 0.031779576 -0.10294345 -0.057689637
0.06384445 -0.031338494 0.0301317 0.029454522 0.0442502 -0.017274614 0.110242665 -0.09959971
-0.12397134 0.06639143 -0.096636325 -0.11781585 -0.100879535 -0.078483604 -0.07191017 -0.11928174
-0.054993857 -0.02166945 0.11570654 -0.11149857 -0.0020021042 0.095830984 0.08896499 -0.06006118
0.0796935 0.065150484 0.11709964 -0.067228876 0.04761511 -0.07721492 -0.035222862 -0.11684611
0.04158455 0.12376613 -0.059841912 -0.08450955 0.07566193 -0.005468289 -0.10359785 0.008862486
0.03830421 0.05296408 0.06414275 -0.11040609 0.07836898 0.103828415 0.05586073 -0.105493985
-0.12181729 0.10877392 0.004573395 -0.08570345 -0.053209953 -0.011029075 0.09317784 0.047658045
-0.040685788 -0.025601024 0.020654649 -0.06820127 -0.086647674 -0.072349615 0.004247293 0.079615615
-0.07994412 -0.106493644 0.08033874 0.098817065 -0.04758985 -0.066921614 -0.013067808 0.080795445
-0.12025498 -0.02600066 -0.013014047 0.11450058 -0.052579384 -0.031715516 -0.05724087 -0.10913387
0.063487716 -0.033075836 0.04134288 -0.07159292 0.078825995 -0.014579356 -0.12375928 -0.11726609
0.08920222 -0.0099147055 -0.089826465 0.11875662 -0.08715561 -0.11205756 -0.063688256 0.0472803
0.120689765 0.04394155 0.03484113 -0.07684066 -0.12486192 0.12484296 -0.11809586 0.022258012
-0.07098615 0.09017279 0.1458854 0.021159003 -0.0020001414 -0.041255858 0.12127074 -0.010491651
0.027732588 -0.11291311 -0.107950106 -0.12152305 0.0917622 -0.050177302 0.07329982 -0.040186398
-0.007081911 -0.07076405 0.11953427 0.09026578 0.0026761119 0.07970575 0.0979543 -0.032350756
-0.020169877 -0.008210279 -0.064559445 -0.09279754 -0.047321755 -0.09420386 -0.08172386 0.02689799
0.02966659 0.046802778 0.07633893 -0.09482571 -0.08373757 -0.015063175 -0.016117182 -0.072848246
0.08377446 -0.053645387 -0.08211909 -0.08173603 -0.046075895 0.10568997 0.10626061 0.06906605
-0.047312677 0.032902848 -0.07994669 0.082681745 -0.014397757 -0.006817165 0.12624426 -0.013982292
-0.020875914 -0.08984331 0.052539624 -0.092576176 -0.12066924 -0.0071626096 -0.053655863 -0.0459069
-0.08940469 0.04618786 0.053042777 -0.028683573 -0.01785548 0.08921401 -0.056093283 -0.12703015
0.03214546 0.06715488 -0.031315062 -0.1210315 -0.04784714 -0.114166856 -0.04910386 -0.0559573
0.11125999 3.7803486e-05 -0.12980488 -0.06272387 -0.009130803 -0.08877858 -0.027539453 0.043484848
-0.03318733 -0.021808865 -0.011564176 0.12672481 -0.04447225 0.10007628 -0.08234933 -0.0018264622
0.10070513 0.04611391 -0.04768638 -0.0327231 -0.101241246 6.73032e-05 -0.113635615 0.033414967
-0.024461916 0.0010113954 0.027120609 0.10824265 0.019873276 -0.0620412 0.013501089 -0.08037302

lstm.bias_ih_l1 f4 [256]
00000000: ee10 2fbd 75c8 b5bd b071 2bbd 4390 b53d
00000010: a395 eb3d f7e1 8e3c f0c0 043e 11ff b33d
00000020: 8fbf 0abb 27c5 b73d 2c83 abbd 8ef3 aebd
00000030: 2b8c 91bd 7acf ba3d 454e e93d e13e e6bc
00000040: d93d e93d 14da 0b3e a38a 4bbd 2eb0 e9bd
00000050: 3807 d8bd e388 bb3d 05f0 8a3d 39c8 a43d
00000060: c866 32bd 4d45 223b c19b 4ebd 46cb f6bd
00000070: cfcb dc3d fc12 9b3d 12a4 c73d caa6 d5bd
00000080: cd3a 85bc 6272 9abd c6a7 9dbc 9b4a cc3d
00000090: 39ea 083e 516c a03d fb2b 7e3d c919 033e
000000a0: f790 3e3d 3367 5cbd 80c5 a1ba 9bc1 8b3d
000000b0: 802d 463d 2616 ec3c b164 b6bd e485 f8bd
000000c0: f150 553d 6bc4 29bd f4af bc3c 7f05 593d
000000d0: ad9a f6bd 30e8 7c3c 0bbc f8bd 2983 d6bd
000000e0: 7797 05bd ea18 c63d d6b6 a03b ad1a 70bd
000000f0: b19f 403d 6e64 e1bd 6a90 bdbd 46b9 543d
00000100: 79f6 a93d 3eca de3c 1a23 82bd f8ba d9bd
00000110: 1e66 9bbd 8e65 abbd a0d1 cabd cd59 393c
00000120: 5a2a f6bc 65f9 f2bb b5c7 043d 5472 d63d
00000130: 5434 6c3b d403 93bd 9a7d 96bc 313a e0bd
00000140: eabd f1bd 516d cd3d 837e d7bd c894 dabd
00000150: 3235 edbd 024b e43d a1b6 673d 75a0 1e3c
00000160: 0cde a33b 9996 92bd 78a7 d6bd 0e40 66bc
00000170: a3a7 5ebd 2b71 b83d 7e4a a7bd 2f31 febc
00000180: df8e a13d 80f5 56bd 1af0 d6bb 1eb7 163c
00000190: 627f c83d 4e03 db3d b357 c33d a057 d5bd
000001a0: 3b74 af3d b290 dabd 04ea 26bd eaab 99bd
000001b0: 8914 183e a2f8 933a 32f8 a0bd 5398 debc
000001c0: b5ef 503d 515d 1a3d 3e94 6b3d b251 5eba
000001d0: dad6 983d 8e65 fa3d 31a5 cf3a 6889 853d
000001e0: 28d6 e6bc c375 263d 4c77 cd3d eaf7 f63c
000001f0: 0bd1 1fbe 3bea a33c 08b9 9f3d c4d1 b93d
00000200: 2e6b b13d bd0e 5d3c 3424 a2bd 46ef a5bd
00000210: 7280 44bd 1de7 6e3d c523 0f3e e716 00be
00000220: df41 7fbb 3e4a 97bd 560c 433d 5475 63bd
00000230: c783 4dbc a0ca d6bd e0ae a23c adb3 213d
00000240: e980 0fbd aa5f 8dbd 82be fabc 82b0 cc3c
00000250: 15b1 e03d 7ce5 28bd 51fa d9bd e167 ae3d
00000260: 2a12 0ebc a734 bf3c c6e5 9abd 2ef6 b53d
00000270: a8de 95bd fd33 b5bd 0c26 05bc 14fb a13d
00000280: 6e45 083d 0bf5 203d 7425 33bd 4d38 d83d
00000290: cdff 843d e99d b6bd 4681 b03d 3cd8 a33d
000002a0: 285e 153b 1aa8 403d 1d78 093e 1a44 f93d
000002b0: 45be bc3d 6e6a 9b3d 3f26 923c a926 36bd
000002c0: c38b e9bc b4d4 cebc 9c95 f83d 7bf5 693d
000002d0: 568d dcba 6929 3c3d b2c6 38bd b5b6 84bc
000002e0: e7b1 a73c 9972 63bd be3a efbd fd9d efbc
000002f0: c5f9 c7bd bb43 0fbd df06 0abe 2ec0 93bd
00000300: 2a49 80bc bf9d ecbd b43e 30bd d553 9fbd
00000310: a6e9 cfbc c479 a03d 9138 733d 1ba1 1cbd
00000320: e475 d13c 0dd6 6fbd 86a9 2cbd e084 c9bc
00000330: f4d0 e8bd 51b2 973d 9d99 103e 4cd9 5ebd
00000340: 5a2a 193c c85c e33d 9a62 933d 6e06 40bb
00000350: e1a6 a0bd 3821 67bc fe19 cbbd 4ac5 8ebd
00000360: 1690 4c3c 17ca b5bd d0e9 be3d 45f9 afbd
00000370: b459 d3bd dfe5 1ebd 3827 1e3d 3afe 893d
00000380: 9c04 b9bd c604 36bc 4025 163e 4c93 a43d
00000390: e7e0 6a3d 2d9b edbc f310 853d 45b9 a03d
000003a0: 4305 f0bd 4b07 523c 7988 d6bb aadd bdbd
000003b0: 57da 883d b61e 553c 0291 f1bc a559 c2bd
000003c0: 9e61 243e 0e11 e23c c91a b23d ac8d cb3d
000003d0: 8feb 623d 4acf f5bc 67f1 f5bd dc85 043c
000003e0: aeba b8bd 69cc 073e ba43 d63d bcde 05be
000003f0: a8c4 2abd 3dc5 c93c 70b2 6e3d 5c09 5a3d
-0.042740755 -0.08876125 -0.041856468 0.08865406 0.1150315 0.017441733 0.12964225 0.087888844
-0.0021171307 0.08973151 -0.083746284 -0.08542548 -0.07106813 0.09121604 0.11391882 -0.028106155
0.1138875 0.13657409 -0.04969276 -0.11410557 -0.10548252 0.091569684 0.06784061 0.08046002
-0.04355505 0.0024760545 -0.050441507 -0.1205049 0.10781061 0.0757198 0.09748091 -0.10432203
-0.01626339 -0.07541348 -0.01924504 0.09975167 0.13370599 0.0783316 0.06205366 0.12802805
0.046524968 -0.053809356 -0.0012342185 0.06824037 0.048383236 0.028819155 -0.08905924 -0.121349126
0.052079145 -0.041447084 0.02303312 0.052983757 -0.12041221 0.015436217 -0.12145241 -0.104742356
-0.03261515 0.09672721 0.0049046082 -0.05861919 0.047027294 -0.110054836 -0.092560604 0.051934503
0.08298964 0.027196046 -0.06354351 -0.106313646 -0.07587837 -0.083689794 -0.09903264 0.011312914
-0.030049492 -0.007414984 0.032417018 0.10471025 0.0036041932 -0.071784645 -0.018370438 -0.10948599
-0.11803801 0.10030616 -0.10522177 -0.10672909 -0.11582412 0.11147119 0.056570653 0.009681811
0.0050008353 -0.071576305 -0.10481161 -0.014053358 -0.05435909 0.0900596 -0.08168505 -0.031029312
0.078885786 -0.05248022 -0.006559384 0.009198932 0.09789921 0.1069399 0.09538212 -0.10417104
0.08567091 -0.1067213 -0.04075052 -0.07503493 0.14851584 0.0011289308 -0.078598395 -0.027172243
0.051009852 0.03768665 0.05751442 -0.00084808015 0.07462855 0.12226401 0.0015842078 0.06520349
-0.02817829 0.04063965 0.1003252 0.030147512 -0.15607087 0.02000915 0.07798964 0.09073213
0.08663021 0.013492283 -0.079170614 -0.081022784 -0.047974057 0.058325876 0.13978489 -0.12508737
-0.0038949174 -0.073872074 0.047619186 -0.055531815 -0.012543625 -0.104878664 0.019858778 0.039477993
-0.035035048 -0.06903012 -0.03060842 0.02498651 0.10971276 -0.04123448 -0.10643447 0.08515907
-0.008671323 0.023340536 -0.07563357 0.08884846 -0.07317859 -0.088478066 -0.008126747 0.079092175
0.03326934 0.03929619 -0.04373689 0.105576135 0.064941026 -0.08916838 0.08618407 0.08000228
0.0022791717 0.047035314 0.13424726 0.121711925 0.092159785 0.07588659 0.017840503 -0.044470463
-0.028509026 -0.02524791 0.12137911 0.057118874 -0.0016826789 0.04593793 -0.045111366 -0.016200403
0.020470573 -0.05552921 -0.11681126 -0.02925014 -0.09764437 -0.034976702 -0.13479184 -0.0721439
-0.015659887 -0.11553525 -0.04302855 -0.077796616 -0.025379967 0.07835725 0.059380118 -0.03823958
0.02556891 -0.058553744 -0.042153858 -0.024599493 -0.1136798 0.07407058 0.14121099 -0.05440645
0.009348476 0.11101681 0.07196541 -0.0029300707 -0.078443296 -0.014107041 -0.09917067 -0.06971224
0.012485525 -0.08876436 0.0932194 -0.08592466 -0.10319844 -0.03879344 0.03861162 0.06737943
-0.09034082 -0.0111095365 0.14662647 0.08035907 0.05734339 -0.029004658 0.064973734 0.07847837
-0.117197536 0.012819122 -0.0065470305 -0.09270795 0.0668227 0.01300781 -0.02948809 -0.094897546
0.16052863 0.027596023 0.08696515 0.09939131 0.055400427 -0.03000607 -0.120089345 0.008088555
-0.09019981 0.1326157 0.104621366 -0.13073248 -0.041691452 0.024630183 0.05827564 0.053231582
