spx_ohlc_lstm_multistep.pt (torch, 217029 bytes, 10 tensors)

lstm.weight_ih_l0 f4 [256, 4]
000000 7f df c2 3c be 50 98 3d 21 85 2e bc dc ea ef 3d
       0.023788212 0.07437275 -0.010651858 0.11714718
000010 38 ab 00 be e7 a1 aa bd 5f c9 0f bd 59 88 ec bd
       -0.12565315 -0.08331662 -0.03510415 -0.11549444
000020 86 d9 6f bd ac 7d 07 3e 7c 9d 31 bc 86 74 f0 3d
       -0.058557056 0.13231534 -0.01084077 0.11740975
000030 ac 2d b4 3d ae da 2d 3d 53 34 c6 3d 19 90 14 3e
       0.08797774 0.042444877 0.09677949 0.14508094
000040 08 c1 58 bd 71 a4 ba 3d 0e c7 22 bd 13 4d e7 3d
       -0.052918464 0.09113396 -0.039740615 0.112939976
000050 69 0a 43 bd e8 89 19 3e 3e 94 bc 3d f8 17 9c 3d
       -0.04761735 0.14994013 0.092079625 0.07621759
000060 7b ea 99 3d 82 8a 85 bd 06 2e 01 3e c3 87 b6 3d
       0.07515427 -0.06520559 0.12615213 0.08912613
000070 81 f4 fc 3d 37 6d bc 3d 7a dd 1c bc 0e 61 b4 3d
       0.12351323 0.092005186 -0.0095742885 0.08807574
000080 84 61 99 3c a4 ee 9b 3d c3 f3 77 3b 00 18 9a 3d
       0.018723257 0.076138765 0.0037834502 0.07524109
000090 f5 97 ac 3d e6 35 29 3d 8f e5 d5 bc 24 53 dd bd
       0.08427421 0.041311167 -0.026110439 -0.108068734
0000a0 f9 80 72 bd be 57 34 bd 61 14 c2 3d 58 c5 00 3e
       -0.05920503 -0.04402899 0.09476543 0.1257528
0000b0 a3 64 b9 3d 10 c0 be 3d 8b a9 f0 3d 6f 69 81 bd
       0.09052398 0.09313977 0.11751088 -0.06318938
0000c0 fd bb af 3d 75 c4 28 3e d9 11 4c 3d 0d 28 93 3d
       0.08580778 0.16481192 0.04982171 0.071853735
0000d0 23 24 11 3e 8d d2 58 bd aa 81 ee 3d 44 cb 90 3d
       0.14173941 -0.052935172 0.11645825 0.0707002
0000e0 1f 15 b6 bd dd 77 cf 3d dc ee 65 3c d4 f6 12 3e
       -0.08890747 0.10130284 0.014033999 0.1435197
0000f0 0b 07 08 3e 9a 83 69 bc a5 9b f2 3d 6c e1 bc 3c
       0.13283937 -0.014252568 0.11846093 0.023056708
000100 2e 84 29 bd 1b af f3 3b 17 8d ad 3c 5e 65 ad 3d
       -0.041385822 0.0074366457 0.021185441 0.084666
000110 d7 b4 b9 3d 8c 01 af 3c c1 01 95 3d 80 e5 e7 3d
       0.090676956 0.021363042 0.07275725 0.113230705
000120 25 1a e5 3d 72 ff 82 3d d1 04 09 bd aa 9e 59 bc
       0.11186627 0.063963786 -0.03345186 -0.013282457
000130 16 64 ef bd ce 57 07 bd 6a af c6 3d 4f 19 59 bd
       -0.11689012 -0.03304272 0.09701426 -0.05300265
000140 3b bd 0d 3e e2 a1 96 ba f9 ef aa 3d 6c d9 db 3d
       0.13841717 -0.0011492337 0.083465524 0.10734829
000150 d5 df c4 3c d9 ed 49 bc 66 92 48 bd ec e6 06 3e
       0.024032513 -0.012324774 -0.04896774 0.13174027
000160 d1 fe b9 3d d8 4e 17 3e db 58 a6 3d cc 65 45 bd
       0.090818055 0.1477617 0.081224166 -0.048192784
000170 93 73 d3 bc 8b 40 49 bd 27 45 22 3e e1 cd 86 bd
       -0.025811946 -0.04913382 0.15846692 -0.06582237
000180 41 56 13 3e ea a3 ac bd ce 1a 12 3e 95 7a 6d 3d
       0.14388372 -0.084297016 0.14268038 0.05797823
000190 9d 5e 11 bd 93 d5 91 bd 8a 86 5d 3d f1 c0 1d bd
       -0.03549062 -0.07120814 0.054083385 -0.03851408
0001a0 cb 89 57 3c 33 4a 6c 3d 7d 55 30 3e 33 d1 20 3d
       0.013155411 0.05768795 0.17220111 0.039262008
0001b0 56 3b 01 3e 54 51 ab bd b8 a0 f0 3c 1c 5b cd bb
       0.12620291 -0.083651215 0.029373512 -0.0062669646
0001c0 3c 35 5a 3d 09 ac 26 bd 8e fd a1 3d 37 92 bc bd
       0.053273425 -0.04069141 0.0790969 -0.09207576
0001d0 2a aa a4 3b 94 98 67 3c 3b 33 2b 3d 97 fc 59 3d
       0.005025168 0.014135499 0.041796904 0.053219404
0001e0 41 1c 45 bd 87 68 ff 3d bf 91 ef bc f5 0d 8e 3b
       -0.04812265 0.12471109 -0.029244302 0.00433516
0001f0 7f 5c 3e bd 8e a9 07 3d 2f c2 00 bc a5 86 8b 3c
       -0.04647493 0.033120684 -0.007858797 0.017031977
000200 8f fe 67 bb 15 c9 83 bd c5 87 e3 3d a4 94 f3 bb
       -0.0035399531 -0.06434838 0.1110988 -0.007433491
000210 99 22 81 bb 2f 55 87 3d 15 37 5b 3d 2d fb f3 3d
       -0.003940892 0.06608044 0.053519327 0.11913142
000220 db ce b3 3d c5 b2 37 3d 80 9b 81 bd b5 9e 00 3e
       0.08779689 0.044848222 -0.063284874 0.12560542
000230 5a 6f e0 bc 9c ac 25 3e c7 9e 6e 3d 2f db 0a 3e
       -0.027396847 0.16179127 0.05825689 0.13560174
000240 81 07 1a 3e d3 5e 5a 3c 45 b6 b8 3d 73 13 18 3e
       0.15041925 0.013328272 0.0901914 0.1485117
000250 99 1e 6c bd e5 df d3 bd 84 b4 93 3d 0f 1f ed 3d
       -0.057646368 -0.10345439 0.07212165 0.115781896
000260 4e 14 9b bd d4 36 24 3d 9a bd b0 bc b5 60 0d 3e
       -0.07572232 0.04009135 -0.021574784 0.13806422
000270 43 25 4e 3d 04 49 9e 3d bb 86 62 bd 23 9d 00 3d
       0.050328504 0.077287704 -0.05530427 0.031399857
000280 66 57 74 3d 14 51 a2 3d cc dd a7 bd 1d 71 5d bd
       0.059653662 0.07925621 -0.08196601 -0.05406295
000290 21 ab b3 3d 7b 3a b4 3d 83 aa 39 3d 14 52 15 bb
       0.087728746 0.08800217 0.04532863 -0.0022784518
0002a0 ef ff 90 bd cf 99 58 3d 08 40 95 3d e0 b5 be 3c
       -0.070800655 0.05288106 0.072876036 0.023280084
0002b0 8f e1 58 3d 9e 8a 0c be 2c b3 da 3d 8b ac 60 3d
       0.052949484 -0.13724753 0.106787056 0.05485205
0002c0 1d be c1 3d 23 c2 05 3e 23 5b e2 bc 41 30 b5 3d
       0.09460089 0.13062339 -0.027631348 0.08847094
0002d0 f6 1b d3 bd 08 7b 30 3d 03 6f ec bd c9 92 e1 bd
       -0.103080675 0.04308608 -0.11544611 -0.11014325
0002e0 a8 20 5b 3d cf ae f0 3d be c6 a5 3d 3d b1 13 3d
       0.05349794 0.11752092 0.08094548 0.0360577
0002f0 e8 97 d2 3c f2 5b 10 3e 74 4d b0 bc bb 2b 87 bd
       0.0257072 0.14097574 -0.021521308 -0.06600138
000300 45 8e 51 3d f2 9d 0c bd cd 0d ee bc e9 e1 a6 bd
       0.05116107 -0.034330316 -0.029059315 -0.08148558
000310 71 e9 3f bd ad 04 e7 3c 8f f1 41 3d fd d1 b2 3d
       -0.046853486 0.028200472 0.04734951 0.08731458
000320 c8 c3 c8 bd d7 59 64 bd 3e fa d4 3d 36 cd 5d 3d
       -0.09802967 -0.05574974 0.103992924 0.054150783
000330 b5 76 9c 3b cf ba f3 3c 54 d3 e4 3d 55 df 36 bd
       0.004774893 0.029752163 0.1117312 -0.04464658
000340 d2 0b d0 3d 51 f0 e9 3d 5b b7 fc 3d af 31 58 bd
       0.101585045 0.1142279 0.1233966 -0.052781757
000350 80 82 a2 3c 6e 3e 73 bd 5f 93 e7 bd b2 f2 9a 3c
       0.019837618 -0.05938571 -0.11307406 0.018914554
000360 3e 79 89 3d 73 46 bb bd 63 5e cd 3d 82 b1 83 3b
       0.06712578 -0.091442965 0.100277685 0.0040189633
000370 6f fe 90 3d 7d fc 9b bd 2b f9 9f 3d 4d 8c 8f 3a
       0.07079779 -0.07616518 0.07811197 0.0010951847
000380 ce d7 a7 bc a1 4f 59 bd 5d 6a 97 bd 77 93 97 3b
       -0.020488646 -0.053054456 -0.07393334 0.0046257335
000390 84 2c 81 bd 27 91 ec 3c 91 be 3b 3d 08 3f e1 bc
       -0.06307319 0.028877808 0.045836035 -0.027495876
0003a0 b1 42 90 3d 3d f6 e6 3d c7 22 a6 bd da af 6a 3d
       0.070439704 0.11277435 -0.08112102 0.05729661
0003b0 ad 1f b1 3c d1 56 4e bd ce 0d 11 3e db 43 6f bd
       0.02162155 -0.050375763 0.14165422 -0.05841432
0003c0 57 15 f2 bc 32 e3 8e 3d f0 40 d3 bc b5 20 fd 3d
       -0.029551191 0.06976928 -0.0257878 0.12359754
0003d0 68 a9 71 bb 7a 8f 91 3d 1c 5d 20 3e 1e c9 74 bd
       -0.0036874656 0.07107444 0.15660518 -0.059762113
0003e0 09 79 ae bc 31 2e f7 bc 74 d2 aa 3d e8 f5 91 bd
       -0.021297948 -0.030173393 0.08340922 -0.07126981
0003f0 55 8c a7 ba 15 9c 9e 3d 77 2e a4 bd 83 59 38 bd
       -0.0012782911 0.07744614 -0.08016675 -0.04500724

lstm.weight_hh_l0 f4 [256, 64]
000000 cb 3c 04 3d e5 58 36 bc 0f bc de 3d c4 71 ea 3d
       0.03228454 -0.011129593 0.10875713 0.1144748
000010 a2 a8 76 3c 43 a5 a6 bc 6d 4a f3 bd 53 f0 8e 3d
       0.015054854 -0.020342475 -0.1187943 0.06979432
000020 bf 83 52 3d da 6a da 3d 3b 77 d9 3c 9b 1b 5a 3d
       0.051395174 0.106649116 0.026546111 0.053248983
000030 76 cb ee 3d 3a e0 be bd 7b a8 cf 3d c4 29 ac 3d
       0.11659901 -0.093201116 0.10139557 0.08406404
000040 a4 72 8b bd 8c 0f b9 bd 4d 69 71 bd a3 b6 85 bc
       -0.06808975 -0.090361685 -0.058938313 -0.01632244
000050 fc 86 19 bd 03 f9 b2 3d dd bd bf bc 1a 74 ec bc
       -0.037482247 0.087389015 -0.023405964 -0.028863955
000060 09 ef 9e 3d 80 fa b9 3d 87 6a 1a 3d 09 d7 d6 bb
       0.07760436 0.09080982 0.03769925 -0.006556396
000070 e7 1d 2f 3d ae ae 6d bd d7 e8 b1 bc b1 c6 7f 3b
       0.042753126 -0.058027916 -0.021717472 0.0039028341
000080 3d bd d5 bd 2d e7 de 3c 68 90 52 3d 5b 3d 16 bb
       -0.10436485 0.027209843 0.051407248 -0.0022924754
000090 30 b0 da 3c 6e 91 cf 3d f4 61 00 3e d9 e4 cb bd
       0.02669534 0.101351604 0.12537366 -0.099557586
0000a0 03 21 6c bc d2 ef 81 bd eb 7b b5 bd 0c 4b ed bd
       -0.0144121675 -0.0634457 -0.08861526 -0.1158658
0000b0 fd 33 ad 3d d3 72 9b bc 25 01 81 bd 71 b1 f8 bc
       0.084571816 -0.01897565 -0.062990464 -0.030358048
0000c0 2e 0e d6 bc 2e 7f e5 3d 61 85 d4 bd 30 14 7c 3d
       -0.026129808 0.11205898 -0.103770025 0.06154269
0000d0 57 26 44 bd 84 9e f5 3d e0 c3 cc 3d a1 f1 a9 bc
       -0.047888126 0.11993125 0.09998298 -0.0207451
0000e0 01 ad e5 bd bd d8 b0 3d b5 e0 83 3c 9f f6 59 3d
       -0.112146385 0.086350895 0.01609836 0.05321371
0000f0 a3 88 76 bd 94 18 d2 3c 8e 9e b2 3c 8a 9a ae bd
       -0.0601889 0.025646485 0.02180412 -0.0852557
000100 cf 51 13 be 0d 09 be 3d 5b 5d 5c 3d a3 2d 96 bd
       -0.14386676 0.0927907 0.05379997 -0.07332923
000110 c8 7a 98 3d d0 43 9e 3d 64 a3 a2 b9 be fc f0 bd
       0.07445294 0.07727778 -0.00031020783 -0.11766957
000120 08 00 da bc fe 43 e4 bc e8 36 a3 bd c0 bd 88 bc
       -0.026611343 -0.027864452 -0.07969457 -0.016692042
000130 69 22 61 3d 3e a9 df 3d 9f 98 bb 3d 0f 3a 34 bc
       0.054964457 0.10920952 0.091599695 -0.01100017
000140 54 e9 4e 3d 76 75 43 3d c8 47 56 3d e9 0a c9 bd
       0.050515488 0.04771944 0.05231455 -0.09816534
000150 f8 12 aa 3c 2f 29 21 3c 98 bc c5 bc 34 bc aa 3b
       0.020760998 0.009836479 -0.02413778 0.005210424
000160 97 12 93 3d d2 0a bb 3d 97 90 ac 3c 7e 3b 6d bd
       0.0718128 0.09132923 0.02106504 -0.057918064
000170 07 28 08 be bc 75 be 3d b4 b5 9e 3c ad a6 26 bc
       -0.13296519 0.092998 0.019373752 -0.010171575
000180 ff 64 e4 ba 00 14 0b 3a d0 d6 29 3c 8e b9 c7 3d
       -0.0017425119 0.00053054094 0.010366157 0.097521886
000190 ee 84 a4 bc 18 c8 50 3c 92 5f cb bd cd 7e b6 3d
       -0.020082917 0.012743019 -0.09930338 0.08910904
0001a0 26 49 0d 3e 54 d3 82 3c 48 94 05 3e 99 61 b7 3d
       0.13797435 0.01596991 0.13044846 0.08954162
0001b0 94 7d c2 bd ab e5 3b bc da 4a ba 3b e4 5d 4c bd
       -0.094966084 -0.011468331 0.0056851925 -0.04989423
0001c0 b9 9a a8 3d 91 d1 a3 bd 46 87 de 3d 91 37 6c bd
       0.08232636 -0.07998956 0.10865645 -0.05767018
0001d0 1a 40 22 3d 88 a9 d4 bb 02 37 1f bb 78 82 be bd
       0.039611913 -0.0064899363 -0.0024294262 -0.09302229
0001e0 19 bd e4 bc 9f 66 d3 bb 10 7a e1 bd 41 86 d8 bb
       -0.0279222 -0.0064514424 -0.1100961 -0.006607801
0001f0 81 a3 a5 bd 31 fd 03 bd 4f e0 d3 bd 9e 4f 05 3c
       -0.080878265 -0.032223884 -0.10345518 0.008136658
000200 d2 db cf bd b5 e8 2c bd 72 ce d7 3d ec 9c 5d 3c
       -0.10149349 -0.042214114 0.10537423 0.013526183
000210 4d 20 9a 3b 30 79 4a bc 3e 09 88 bd 08 22 b4 bd
       0.0047035576 -0.012357995 -0.06642388 -0.087955534
000220 14 5d d7 bd ae f6 18 3d d4 85 82 bd 26 1b fe bc
       -0.105158 0.037344627 -0.06373182 -0.031018805
000230 28 07 1c 3d 11 66 b9 bd d1 2e 91 bd 9d 33 d0 bc
       0.038092762 -0.09052671 -0.07089008 -0.025415236
000240 08 34 2b bc 44 3b 9f bd d4 f0 68 3d 66 f8 7d bc
       -0.010449417 -0.07774976 0.056870297 -0.015501117
000250 f3 e6 75 bd 4e af 07 be 77 0a 08 be 10 98 be 3c
       -0.060034703 -0.13250467 -0.13285242 0.023265868
000260 03 ee 9a bd e2 28 c8 bd 95 3a f3 bd 0a 8b aa 3d
       -0.075649284 -0.09773423 -0.11876408 0.08327301
000270 91 f6 d8 3d 60 53 cc 3b c8 34 fe 3d 13 50 75 bc
       0.10593904 0.006235525 0.12412411 -0.014972704
000280 99 de d5 3c 8e ea 91 bb a6 15 13 3d ab 1c 1b 3d
       0.02610712 -0.00445301 0.035909317 0.037869137
000290 e3 2f cd 3d dd 14 9d 3d ea 07 c8 bd 0e f2 43 bd
       0.10018899 0.07669995 -0.097671345 -0.047838263
0002a0 6e f9 1c 3d 8c 9d cc bd 79 0e a0 3d 9a e8 02 be
       0.038323812 -0.09990987 0.078152604 -0.12784043
0002b0 22 2d a8 bd f7 b2 94 bd 64 0c 58 bd 91 32 b3 bd
       -0.082117334 -0.07260697 -0.05274619 -0.08749879
0002c0 82 55 0b be 97 f3 e8 bd dc 74 1f bd 0e 8c 9b 3d
       -0.13606837 -0.11374586 -0.038929805 0.07595073
0002d0 80 b6 f1 3c 60 f2 88 3c eb 22 a1 3b bf c8 22 3b
       0.029505968 0.016717136 0.0049174926 0.0024838892
0002e0 98 db 83 bd 4f cd be 3d a4 57 95 3d ad 41 03 3e
       -0.064383686 0.09316503 0.07292107 0.12818022
0002f0 a9 05 fd 3d eb 9d be 3d dc 05 7f bd 9f 4e 06 be
       0.12354595 0.09307464 -0.062261447 -0.13115929
000300 fb 6d 24 3d 87 3a c0 bc b2 85 f3 bd f7 62 74 3d
       0.040143948 -0.023465408 -0.11890735 0.059664693
000310 13 f7 e8 bd 5e 00 a5 bc a7 d1 c1 bd e9 f6 e6 3c
       -0.11375251 -0.020141777 -0.09463816 0.028193908
000320 7a 0d 8f bd 3a c8 18 3d 32 a4 41 bd ea 85 9e 3d
       -0.06984992 0.037300326 -0.04727573 0.07740386
000330 5f 2b de 3d 5b 3e aa 3d 51 f0 af 3d 90 47 07 3e
       0.10848116 0.083126746 0.085907586 0.13210893
000340 00 33 0d 3d cb 41 f9 bd c7 89 c7 bd 55 3c 1d 3d
       0.034472466 -0.12170752 -0.09743076 0.038387615
000350 c5 4f 73 bd 3b 4a 95 3c 94 4b 87 3d 64 11 c5 3d
       -0.059402246 0.018223872 0.06606212 0.096224576
000360 e5 a8 ae bc 81 3f 54 3d 6d d1 1b 3d 3b ae eb bd
       -0.02132077 0.051818375 0.03804152 -0.11507841
000370 4e 4b 0f bd 90 4c 12 bd ba 1b 4d bd 58 dd 9e bd
       -0.034983926 -0.035717547 -0.05007527 -0.07757062
000380 40 01 38 bd ef bc 01 3e ee 6a 70 3d 2c 5a 24 bb
       -0.044923067 0.12669729 0.058695726 -0.002507816
000390 05 a0 e2 3d 07 bd b0 bd 3a 78 d7 bd 33 c2 a4 bc
       0.110656776 -0.08629804 -0.10520978 -0.020112133
0003a0 a8 09 da bc ed bf 3a 3d 4b c4 35 bd e2 4d 48 bc
       -0.026615933 0.04559319 -0.044376653 -0.0122256
0003b0 8c 41 08 bc 03 9f b2 ba 85 7c 89 3d b0 f0 ff bd
       -0.008316409 -0.0013627711 0.06713203 -0.12497079
0003c0 e9 5c 31 bc a8 a1 53 3d 55 5b d3 bd ac 78 9d 3d
       -0.010825374 0.05166784 -0.103201546 0.07689032
0003d0 69 e2 81 3d e5 0b 8f bd c8 73 3d 3d 6e 60 25 3d
       0.063420124 -0.069846906 0.046252996 0.040375166
0003e0 68 f4 c6 3d b7 ac 68 3c f6 ea 59 3d d9 7e bd 3d
       0.097145855 0.014201335 0.05320259 0.0925271
0003f0 03 87 3b 3d 8a e4 b8 bd a8 1c f8 3d 58 01 a3 bd
       0.045783054 -0.09027965 0.12114841 -0.07959241

lstm.bias_ih_l0 f4 [256]
000000 a2 1d d9 bc bb 76 9f bd 07 aa fb ba 39 70 76 bd
       -0.026503388 -0.07786318 -0.0019200452 -0.060165618
000010 03 3a 92 3d 13 b8 f7 3d a9 31 43 3d ed c8 b9 3c
       0.07139971 0.12095656 0.04765478 0.022678817
000020 88 69 ed 3d 8d 7f a0 3d 39 31 d0 bd ef 72 b2 3b
       0.11592394 0.078368284 -0.101656385 0.00544583
000030 02 93 df bb 37 79 10 3e 3d 3e 1f 3c c8 f5 5b 3d
       -0.0068229446 0.1410874 0.009719429 0.053701192
000040 f7 48 2e 3d 0f 75 97 bd 8d e7 c9 bd e6 1f b7 bd
       0.042550053 -0.07395374 -0.09858618 -0.08941631
000050 b8 42 90 bb 22 d5 2e 3d cc 8f 5f 3d 94 bb d7 3c
       -0.0044024847 0.042683728 0.054580495 0.026334561
000060 ff 39 9d bd 0b 13 fd 3d 15 98 eb bc 29 d7 77 bd
       -0.076770775 0.12357148 -0.028759042 -0.060507927
000070 81 30 76 bd a3 28 10 be 87 6d 4a bd 8a f9 0e 3e
       -0.06010485 -0.14078002 -0.04942086 0.13962379
000080 0c 4f 3d bd f5 58 ad bc 92 0d a1 3b 38 6d 4c 3d
       -0.046217963 -0.021160582 0.004914948 0.049908847
000090 96 91 ed 3d 70 c8 0c bd 57 72 8a bd 10 ec 98 3d
       0.11600034 -0.03437084 -0.0676009 0.074669
0000a0 31 96 9b bd 38 ca 83 bc 66 de 3e 3d 2f b0 81 3d
       -0.07597006 -0.016087636 0.046598814 0.063324325
0000b0 7b 42 d7 3d f7 97 b3 3d b6 d1 d6 3d 59 51 83 3d
       0.10510727 0.08769219 0.10489218 0.06412
0000c0 d1 cb 84 bd 6c 0d b1 3d 5c 4f bb 3c 5b 1d 04 bd
       -0.064841874 0.08645138 0.02286499 -0.032254558
0000d0 45 e7 cd 3d ab bb c8 bd f8 5f d6 bc ac c9 c7 3d
       0.10053877 -0.0980142 -0.026168808 0.09755263
0000e0 7d d4 08 bd 63 b5 d5 bd e4 4e 8a 3c 5a 8e b0 bd
       -0.03340577 -0.104349874 0.016883321 -0.086209014
0000f0 39 ca 4f bd 80 c5 06 3e 82 4e 35 3d 33 4d 9d bd
       -0.050729964 0.13161278 0.044264324 -0.0768074
000100 c5 b8 cd bc 9d 35 82 3d 3e 45 2c bd f6 85 4c bd
       -0.025112519 0.06357882 -0.042058222 -0.049932443
000110 aa e8 2c 3d 5b 44 5c bd df 0f 49 3d ad cb d1 bd
       0.042214073 -0.053776126 0.0490874 -0.10243926
000120 63 01 6a bc de 16 e1 bd 5a be 82 3d fb 37 b5 3d
       -0.014282557 -0.1099069 0.06383963 0.08848568
000130 69 5d 44 3d e5 66 28 bc 15 53 6f bd a8 3b db bd
       0.047940645 -0.010278438 -0.058428843 -0.10704738
000140 77 80 be 3d 55 1f 3c bd 5e 64 80 bd b6 59 15 bd
       0.093018465 -0.045928318 -0.062691435 -0.03646251
000150 8f 71 47 bd b9 f4 29 bd 2c 7c 76 bc 12 3b 7a bd
       -0.048692282 -0.04149315 -0.015044253 -0.06109149
000160 89 92 bb 3d e7 b6 f8 3a 05 b8 f9 3d 2a 6d 94 bd
       0.09158809 0.0018975408 0.12193302 -0.07247384
000170 77 ec 1b 3d 35 b8 ed bd 54 3c bf 3d 4e c1 e7 3d
       0.038067307 -0.116074 0.093376786 0.11316167
000180 49 5f 3b 3c d5 fa ca bd c5 fc 0f bd 14 42 cf bc
       0.011436292 -0.09911124 -0.03515317 -0.025300063
000190 82 2a 14 bd bc 81 1a 3d bb d4 e3 3c cd 13 48 bd
       -0.03617335 0.03772138 0.027811399 -0.04884701
0001a0 56 5d cd bc f0 8c 60 3d 5a e7 88 bd 31 c5 de bc
       -0.02506892 0.05482191 -0.06684752 -0.027193638
0001b0 4d 01 02 3b 98 69 e0 bd fe 27 af 3d 9f 93 94 bc
       0.00198372 -0.109576404 0.0855255 -0.018136797
0001c0 f5 73 b1 bd 4a c9 29 bd c8 41 9d 3d 45 6d 60 bc
       -0.08664695 -0.04145173 0.076785624 -0.013697927
0001d0 1d 55 0b 3c ab 2d ab 3d 37 94 04 3d 18 c5 01 3c
       0.008504179 0.0835832 0.03236791 0.007920526
0001e0 18 4a ed bd a7 82 84 bd 19 7a af bd 8d d4 a5 3d
       -0.11586398 -0.064702325 -0.0856821 0.080971815
0001f0 5d 5e eb 3d 39 34 70 bd ea 11 ee bd e3 27 b7 3d
       0.11492608 -0.058643553 -0.116245106 0.08943155
000200 82 96 bb 3c b5 f7 e8 3c 71 5e 9c bc 14 45 d9 3d
       0.022898916 0.028438428 -0.019088002 0.10608879
000210 73 e0 ee 3d c8 95 f3 ba 62 a9 c4 3d 7d 79 84 bd
       0.11663904 -0.0018584067 0.0960262 -0.064684846
000220 e2 db 85 3c b9 fc c2 3a 28 a6 ef bb 8e 9e 2c bd
       0.0163402 0.0014876343 -0.0073135085 -0.042143397
000230 2a 61 56 3d 3d a9 c2 bd 95 b5 4c 3d 51 30 aa bb
       0.052338757 -0.09504936 0.049977858 -0.005193748
000240 b5 bd f1 3d 94 11 b4 bd e5 c1 01 3d 79 fe af 3d
       0.11803762 -0.08792415 0.031679053 0.08593459
000250 51 85 94 3d 4a 65 ec bd 20 fc 17 bd b3 84 cb bd
       0.072519906 -0.11542757 -0.03710568 -0.0993742
000260 fe 69 da 3d f4 0a ea bd 85 fb bf 3d 23 0b 75 bd
       0.10664748 -0.114278704 0.093741454 -0.059825074
000270 35 15 9e bd 22 b0 ae bd d7 c6 e6 3d 9c d3 d3 bc
       -0.07718889 -0.085296884 0.112683944 -0.02585774
000280 fa 71 15 3d 67 64 a7 bc 3b 58 c6 bd df c1 ac bd
       0.03648565 -0.020433618 -0.096847974 -0.084354155
000290 b7 13 bd 3b 1f 4a 9e 3c 50 db 85 3d 2f 70 11 3d
       0.0057701725 0.019322453 0.06535971 0.035507377
0002a0 23 46 1b 3d 7a 90 c7 bd 7c 67 b1 3d f8 09 ac bd
       0.037908684 -0.097443536 0.08662316 -0.08400339
0002b0 c4 0b c5 3d 02 d4 b2 3d 5c 4d 65 bd c6 19 1c bd
       0.09621385 0.087318435 -0.05598198 -0.038110517
0002c0 04 50 17 bd 57 35 08 be ed db 89 bd 72 a1 d9 bd
       -0.036941543 -0.13301598 -0.06731401 -0.106264964
0002d0 0c 63 d1 3d b9 e6 86 3d 61 6d 59 3d 47 6f d3 bc
       0.1022397 0.065869756 0.053082827 -0.025809897
0002e0 02 78 62 3d 01 3c 39 bd 06 e1 7a 3d fc 50 d3 3d
       0.05529023 -0.04522324 0.061249755 0.10318181
0002f0 7f 8c b5 bd e7 93 4a 3d 23 65 bc 3c f2 04 50 bd
       -0.08864688 0.049457457 0.022997444 -0.050785966
000300 01 15 8a 3d 5f d2 b3 bd c9 0c a6 3d 88 a2 7f bd
       0.067422874 -0.087803595 0.08107907 -0.06241086
000310 ca db 8d bc b2 67 98 3d 7e 2f 0e 3b 2d 81 64 3c
       -0.017316718 0.07441653 0.0021695788 0.0139468135
000320 46 7a cf bd 24 c3 06 be d6 e9 a4 3d fc 18 b8 3d
       -0.10130744 -0.13160378 0.08052413 0.089891404
000330 16 bf 09 3e 60 e2 c2 3d 6d 2f 01 be 5f 23 f4 3d
       0.134518 0.09515834 -0.12615748 0.11920809
000340 65 a9 8c 3d 07 18 5d bd dd e6 27 3d 73 75 bc 3b
       0.06868247 -0.053977992 0.040991653 0.0057513057
000350 ca 20 20 bd 24 cc 88 3d e5 26 57 bc c6 e4 98 bb
       -0.03909377 0.06679562 -0.013131832 -0.004665944
000360 63 83 d8 bd 92 30 04 bd 22 46 a3 3d 0d c3 9d 3b
       -0.10571935 -0.032272883 0.07972361 0.0048145116
000370 6d b3 bd bd cc 69 cd 3c a6 7a ac 3c ce 76 f6 3b
       -0.092627384 0.025074862 0.021054577 0.007521487
000380 1b 0c d7 bc 29 a1 aa 3c 6e 75 b0 3d 3c 4f a0 bd
       -0.02625089 0.0208288 0.08616148 -0.07827613
000390 f9 97 7d bd fc 02 e2 3d d6 80 aa bc 5b bd cd bb
       -0.06191251 0.110357255 -0.020813387 -0.0062786764
0003a0 b8 89 af 3c da 5e a6 bc 60 8c d2 3c 7d d3 5b 3d
       0.021427974 -0.0203089 0.025701702 0.053668488
0003b0 c9 f3 d5 bc f9 2a 48 bd 95 2d b6 3c 92 ad 80 3c
       -0.026117222 -0.048869107 0.022238532 0.015707765
0003c0 74 c8 8c bc cb a4 ff bd c8 5a 89 3d e6 b7 f6 3c
       -0.017185427 -0.12482604 0.06706768 0.030116986
0003d0 03 55 de 3d 15 7f e0 3d 07 d8 e4 bd c3 4e b8 3d
       0.108560584 0.10961739 -0.111740164 0.089993976
0003e0 7b e1 48 3c 86 30 64 3d 95 50 e6 bd 54 62 97 bd
       0.01226079 0.055710338 -0.112458386 -0.073918015
0003f0 01 3f a1 3d 60 2d d3 bc a9 6e a0 bd a5 50 dc 3d
       0.07873345 -0.025778472 -0.07833607 0.10757569

lstm.bias_hh_l0 f4 [256]
000000 80 6a dc bd 05 86 73 3d 63 84 a2 3c 18 48 c8 bd
       -0.10762501 0.059453983 0.019838518 -0.09779376
000010 51 01 1a bd 3c 92 70 bd 9b 81 e6 3d af 0d 82 3d
       -0.03759891 -0.05873321 0.11255189 0.06350266
000020 18 76 03 3e 19 9d c2 bd a5 ea 8b bd ec 70 11 be
       0.12838018 -0.0950262 -0.06831864 -0.14203233
000030 4f 1a 02 3c 8c 8c d4 3d 1d db 8a 3d 75 b2 10 3e
       0.007940843 0.1037837 0.06780074 0.14130576
000040 b4 6f 86 3d 34 e3 e8 3d 9e 7c 34 3d 46 90 b4 3d
       0.065642744 0.113714606 0.044064157 0.088165805
000050 3e 09 4e 3d 94 bc 58 bc e5 e5 98 bb 16 30 18 3c
       0.050301783 -0.013228554 -0.0046660774 0.009288808
000060 91 48 a1 3d 41 2d a9 3d 6f ad e4 3d 9b fa 11 bc
       0.07875169 0.082605846 0.11165892 -0.008909847
000070 e4 be 33 bc f7 02 fb 3c f4 1d 6b bc 5d a9 6a 3c
       -0.010970805 0.030641062 -0.014350403 0.014322606
000080 45 05 a6 3d 50 9b 8d bd dc 6a ee 3d 27 e6 df bd
       0.08106474 -0.06914389 0.116414756 -0.1093257
000090 0e 34 86 3d f2 2b 98 bd e7 36 8d bd 18 8d f4 3c
       0.065528974 -0.07430257 -0.068952374 0.029852435
0000a0 a5 a0 a1 3d 89 06 bc bd f6 06 0a 3e 27 c2 9c bd
       0.07891969 -0.09180934 0.13479218 -0.07654219
0000b0 35 07 c0 3d b7 88 fd bd 6c d0 9f bd e6 79 e6 3d
       0.09376375 -0.12379592 -0.07803425 0.11253719
0000c0 c3 59 6f bd ee 3a 5e bd 4e 59 5a 3c c9 a7 99 3d
       -0.058435213 -0.05425542 0.013326956 0.075027056
0000d0 e1 4d 44 bd 2d 9b ec 3d 1c 69 90 3d 20 05 ff 3d
       -0.047925834 0.11553035 0.07051298 0.124521494
0000e0 6d 93 f5 bd e1 bc 1a bd ef 68 aa bd 6a 29 cd 3d
       -0.1199101 -0.037777785 -0.08320796 0.10017665
0000f0 10 f1 df ba c9 9e e4 3d b5 63 cb 3d 40 2e 48 3d
       -0.0017085392 0.11163098 0.09931127 0.048872232
000100 a4 06 8b 3d d6 de f3 bd bd 7e fb 3c c2 bd 3a bd
       0.06788376 -0.11907737 0.030700082 -0.045591123
000110 d9 0c 67 3b 1e 16 8e bd bc 10 42 bc 09 27 4f bc
       0.003525546 -0.06937812 -0.01184481 -0.012643584
000120 d6 a0 db bc e5 f1 d1 bc 59 ae 32 bd a7 a0 b6 3d
       -0.026810091 -0.02562804 -0.043623302 0.08917361
000130 06 cd b2 3d 51 c1 b1 bd c0 65 c7 bd c9 27 0d 3e
       0.08730511 -0.0867945 -0.09736204 0.13784708
000140 77 35 90 3d 45 9f 62 bd e1 bf 02 3c ac f2 09 3e
       0.070414476 -0.055327673 0.007980318 0.13471478
000150 07 ce 85 3d 57 02 ee 3d 1c f2 09 3c 84 f2 1d 3d
       0.06533437 0.1162154 0.00841954 0.03856136
000160 e1 17 16 bd 4e b8 f1 3c f0 33 17 3d 0e d7 5e bd
       -0.036643866 0.029506829 0.036914766 -0.05440431
000170 6f 49 d0 bd c7 ab 11 be 9e 86 bb 3d 5a f1 fc 3d
       -0.10170256 -0.14225684 0.091565356 0.12350722
000180 04 f1 f5 3d 5a 56 98 3b eb 67 cf bc 0b 73 9d bd
       0.12008861 0.004648966 -0.025318107 -0.07687958
000190 48 b9 91 bc 60 05 83 3d 4a dd e7 3c 16 34 91 bd
       -0.017788544 0.063975096 0.028303761 -0.07090013
0001a0 73 c7 86 bd b0 85 2a 3c f4 eb 87 bd 2f 29 ca 3d
       -0.06581011 0.01040785 -0.06636801 0.098711364
0001b0 67 d1 a4 bc 98 39 44 bd 85 ab e3 bc 5f 58 60 bc
       -0.020119382 -0.04790649 -0.027791748 -0.013692944
0001c0 54 72 4b bd 18 0e f7 3d 6e 00 90 3d 9a 81 b7 3d
       -0.04966958 0.12063235 0.07031332 0.089602664
0001d0 32 99 0d 3d 49 f6 d7 3d c6 18 a2 bd 9f c4 e8 bd
       0.034569927 0.10545022 -0.079148814 -0.113656275
0001e0 2e c4 a8 bd b6 ea 38 3d 8b 49 01 be d3 7c a5 3d
       -0.08240543 0.045145713 -0.1262571 0.08080449
0001f0 65 f6 d2 bc b1 e1 05 3e 25 7d 71 3d db a0 da 3d
       -0.025752256 0.13074376 0.058957238 0.10675212
000200 b5 92 13 3d e5 f0 f4 3c 74 b9 4e bd fc c9 0d 3d
       0.036028583 0.029900024 -0.05046983 0.034616455
000210 47 84 7a bc 67 51 3a bd 1a c6 83 bd 77 1f f7 3d
       -0.015290326 -0.045487788 -0.06434269 0.12066548
000220 5f 16 6f bd 1d f2 d0 3c e1 01 d3 3d e0 50 53 3c
       -0.058370944 0.025506074 0.10303093 0.0128977
000230 20 88 4a bd e6 e2 35 3d 5c 19 e9 3d 11 c8 aa bb
       -0.049446225 0.04440584 0.1138179 -0.005211838
000240 75 5d 2a 3d 5c d4 ed bc 75 c9 8f 3c ce c4 d8 3c
       0.041593034 -0.029031925 0.017552117 0.026461031
000250 7a e1 d0 bd cc b4 8d bc b4 8e d0 3d cf 12 ff bd
       -0.10199256 -0.017298125 0.101834685 -0.12454759
000260 b0 64 02 3e 94 90 96 3d 13 76 98 bd d7 ce df 3d
       0.12733722 0.07351795 -0.07444396 0.109281234
000270 21 d2 9d 3d 75 29 48 bd 6f cc ce bd a4 f8 b6 3c
       0.077060945 -0.04886766 -0.10097586 0.022335358
000280 e6 ad d6 3d 6c af 77 bc 9d c4 43 3d a7 ec 17 3c
       0.10482387 -0.015117507 0.047794927 0.009272731
000290 17 15 bd 3b 18 d0 c3 3d 28 c3 d5 3d 05 f9 cf bd
       0.0057703364 0.09561175 0.10437614 -0.101549186
0002a0 51 7f cb 3a 42 b1 16 3d 7f 90 89 bd 54 69 4d 3c
       0.0015525614 0.03679014 -0.067170136 0.012537319
0002b0 e2 97 df bd 9e 52 ed bd 24 93 d0 3b 3a 93 12 bd
       -0.10917641 -0.115880236 0.006365197 -0.035784937
0002c0 e0 7b 28 bd 1d 64 0b 3d 37 1c c6 bd b0 3d aa 3d
       -0.04113376 0.034031022 -0.0967335 0.08312547
0002d0 13 95 6c bd b7 7e f5 3d be fc f6 3c 0c a9 32 bd
       -0.057759356 0.119870596 0.030149814 -0.043618247
0002e0 71 b1 9f bd 9e 9d c4 bd f9 e9 a4 bc 39 12 e3 3b
       -0.07797516 -0.096003756 -0.020131098 0.0069296625
0002f0 0f 5c 7f 3d 5d 36 7f bd 93 04 a5 3d b9 cc ba bd
       0.062343653 -0.062307704 0.08057513 -0.09121079
000300 ac 75 09 3e 54 a5 3a 3d 6b fc 0e 3e 59 86 1c bc
       0.13423795 0.045567825 0.13963477 -0.009553515
000310 fb a4 49 bd e4 76 c1 bd 1d 1e c6 3d 4d be b5 bc
       -0.049229603 -0.09446505 0.096737124 -0.022185469
000320 54 1a cb bd d8 c2 d3 3c 6f c8 36 3d a0 53 11 be
       -0.09917131 0.025849745 0.044624742 -0.14192057
000330 49 4e 5c bd 0e 57 f6 bc 02 c3 a2 bd 9d b1 a6 3d
       -0.053785596 -0.030070808 -0.07947351 0.08139346
000340 a9 68 58 3c 3f 47 f9 3d 56 ea d6 3d 75 5a ee 3c
       0.013208547 0.12171792 0.10493915 0.029095868
000350 76 b3 38 bd aa 2b d3 bd a9 fb 1a 3e a2 e6 e0 3d
       -0.045093022 -0.10311063 0.15135063 0.1098149
000360 61 14 0f bc a9 cd 1d bb 1d 33 87 bd 4c 55 06 bd
       -0.008732886 -0.0024078882 -0.06601546 -0.03279619
000370 c3 f1 fd 3d 7b 6c db 3d d4 b1 1c bd 50 8c ca 3d
       0.12399628 0.107140504 -0.038255528 0.09890044
000380 4b 71 d7 3d 6a 51 83 bd 93 6b 06 3e 67 b1 92 bd
       0.10519656 -0.06412013 0.13126974 -0.07162743
000390 4b 6f a5 3d 26 c5 90 3d 48 27 c0 bc 31 34 31 3d
       0.08077868 0.07068853 -0.02345623 0.043262664
0003a0 5e fc 8b 3d 93 8f 21 bd 25 08 b8 3d 6c af 5a bc
       0.068352446 -0.039443564 0.089859284 -0.013347488
0003b0 95 33 56 3c 36 a6 da 3d c8 ce b4 bd 62 a2 07 3e
       0.013073822 0.106762335 -0.08828503 0.13245538
0003c0 b1 c5 5c bc 01 71 88 bd 06 6f 0b 3d c2 b1 a8 bc
       -0.013474868 -0.06662179 0.034041427 -0.020592574
0003d0 83 3a d5 3d 56 ca 70 3d a0 fe 18 3c a4 a3 81 bd
       0.10411551 0.058786713 0.009338051 -0.0633004
0003e0 d6 4a cf 3c 47 d7 80 3c 2b c1 c8 3d df 58 3f bc
       0.02530424 0.015727652 0.09802469 -0.011678903
0003f0 68 43 ff bd 92 b7 27 3d a9 37 c6 3d 2a 9c 3e bd
       -0.124640286 0.04094655 0.09678585 -0.04653565

lstm.weight_ih_l1 f4 [256, 64]
000000 5d 95 b7 3d 89 15 e8 3d a0 60 11 3e 94 d8 ef bc
       0.08964036 0.113322325 0.14197016 -0.029278077
000010 65 75 36 bd de 26 be 3d ac 03 55 3d 17 f2 96 3b
       -0.04454555 0.09284757 0.052005455 0.004606496
000020 50 37 7a 3c f5 2e 33 3d f5 fb d7 bd a6 13 8e bc
       0.015271977 0.043745954 -0.10546104 -0.017343353
000030 09 4c 89 bd a2 60 3b 3d 35 02 b2 3d fc 67 06 be
       -0.06703956 0.045746453 0.08691827 -0.13125604
000040 e7 8c aa bb d1 bb 82 bc 78 e2 f6 3c c8 69 c2 bc
       -0.005204785 -0.015958698 0.030137286 -0.023732081
000050 5d a8 ab 3d 4a 96 4a bc 42 65 be 3c a7 1c b9 bd
       0.08381722 -0.012364933 0.023241643 -0.09038668
000060 18 ff c8 3d 8e d5 0a be fc 3d 18 3d 6d 50 0f be
       0.0981428 -0.13558027 0.037168488 -0.13995524
000070 e3 a3 f8 3c 93 8c 75 3d e3 ed cb 3d b7 95 00 be
       0.030351585 0.059948515 0.09957483 -0.12557112
000080 4c 5b 1d 3c 3b a0 15 be 7d bd de bd eb f5 c4 bc
       0.009604286 -0.14611904 -0.10875986 -0.024043044
000090 63 50 8b 3d 2a a1 a8 bd 13 7a 2b bd e1 52 76 3d
       0.06802442 -0.082338646 -0.041864466 0.060137633
0000a0 55 b4 c9 bd 32 1e c2 3d df 63 a9 3b bc a8 2e bd
       -0.09848849 0.094784155 0.0051693763 -0.042641386
0000b0 91 fe 4d 3d 6f 80 e3 bd 85 3a 0a 3b b8 4a a6 bd
       0.0502916 -0.11108481 0.002109201 -0.0811972
0000c0 d0 ae 62 3d 2c 07 25 bc dd 9d 9f 3d a4 7f e6 bd
       0.055342495 -0.010072511 0.07793782 -0.11254814
0000d0 e3 e2 92 bd 97 58 26 3d 28 06 9a 3d 93 3e cb bc
       -0.071721815 0.04061183 0.075207055 -0.024810111
0000e0 73 4a 98 3d 85 67 0a bd ed c3 d8 bd c2 bf c0 bc
       0.07436075 -0.03379013 -0.10584245 -0.023528937
0000f0 0d 7f 02 be 59 bb c4 3d ff 09 29 3c 16 3b f2 3c
       -0.12743779 0.09606046 0.010317325 0.02956919
000100 2b 9e b4 bc 1a 6e 44 bd f6 8a 21 bd a5 6b 05 be
       -0.022048077 -0.047956564 -0.039439164 -0.13029344
000110 dc a5 73 3d 70 98 70 3c b0 a0 02 3e 65 c7 1a bd
       0.059484348 0.014684781 0.1275661 -0.037787814
000120 19 4f 97 bd a2 25 8d 3d ee 27 b2 bd 37 2b 93 bd
       -0.073881336 0.068919435 -0.08699022 -0.07185977
000130 52 0b 0d be 8d 7d 10 bd b7 6a 78 bc ba 67 b0 3d
       -0.1377385 -0.035275985 -0.015162162 0.08613534
000140 d6 94 ca 3d 3c f9 24 bd 9d db bd bd 36 b8 5e 3d
       0.098916695 -0.04027675 -0.092704035 0.054374896
000150 b4 e0 03 bd 3d 12 00 3e 4e 67 0a 3e 7e 5f 05 3e
       -0.032196715 0.12506957 0.1351597 0.13024709
000160 ad bb c9 3d bf ad 11 bc 73 eb e2 3b a5 ad f2 bd
       0.098502494 -0.008891522 0.0069250404 -0.11849526
000170 57 b8 92 3d 20 cb d1 bd 4f e9 25 3d 04 cd 9f bd
       0.07164066 -0.10243821 0.040505704 -0.078027755
000180 94 e2 c4 bd cb 61 29 bd b5 9f 91 bd f7 47 92 bc
       -0.09613529 -0.04135303 -0.0711054 -0.017856581
000190 20 42 01 be 02 44 96 3d 98 29 b6 3d 7d 43 85 3d
       -0.12622881 0.0733719 0.08894652 0.06507013
0001a0 a8 88 bf bd 2f 9c 6a bd 5a 9e 9a 3d 66 ad 41 bd
       -0.09352237 -0.057277855 0.075497344 -0.047284506
0001b0 7f a0 c0 3d e5 2a ae bc 69 84 63 bb 5d 63 a9 bd
       0.09405612 -0.021260688 -0.0034716374 -0.08270905
0001c0 b9 eb 07 3e cc cd e4 3c 05 2d bc bb c4 f7 83 bc
       0.13273515 0.027930163 -0.0057426714 -0.016109355
0001d0 5f c4 81 3d 92 f2 e3 bd 86 0e 8d bc 16 70 e2 3d
       0.06336283 -0.11130251 -0.01721884 0.11056535
0001e0 32 f3 48 bd 5b 20 cf 3d 71 16 c4 bd 40 b8 ef bb
       -0.049060054 0.10113593 -0.09574593 -0.0073156655
0001f0 08 7c f1 3d 84 2a 00 3d 87 7c af bc 7e 32 cb bd
       0.11791235 0.031290546 -0.021421684 -0.0992174
000200 1e 7f ed 3d 1a 49 b3 bd e8 65 c7 3d b2 91 82 3d
       0.11596511 -0.087541774 0.09736234 0.063754454
000210 80 3f 21 be 8b e6 78 3c bb 82 a8 bd df d2 05 bd
       -0.1574688 0.0151916845 -0.0822806 -0.032671805
000220 8d 80 e2 ba f5 14 1f bd 3a 2e fd 3d e2 df a0 bd
       -0.0017280743 -0.038838346 0.12362333 -0.07855202
000230 b2 cb 9f 3d 87 b9 8d 3c d7 77 09 3d be 6f 3e bd
       0.07802524 0.01730038 0.033561554 -0.046493284
000240 92 7b d2 3d 99 6b f1 3d ee a9 83 bd d2 b4 17 3d
       0.102774754 0.11788101 -0.06428896 0.037037678
000250 43 af df bd ce be 87 3d f0 48 82 bd b2 5a 9e 3d
       -0.109221004 0.0662819 -0.06361568 0.077321425
000260 7c 83 53 b7 9e d6 98 3d 28 64 fd bd 20 06 61 3c
       -1.2607194e-05 0.0746281 -0.12372619 0.0137343705
000270 78 da 01 bd 2c 5f 34 3c b7 0c 3a 3d 7e 9d a0 bd
       -0.03170249 0.011009019 0.045422282 -0.07842539
000280 e1 2e 03 3d 34 92 12 3d ca 5d 19 3e 9e 8b a7 bd
       0.03202713 0.03578396 0.14977184 -0.08180927
000290 e9 42 f6 3d 3e d5 a8 3d 92 87 49 bd cb d4 33 bd
       0.12024481 0.08243798 -0.049201556 -0.043904107
0002a0 36 00 b7 bd f1 f1 5c 3d c8 4d ef 3c 09 0f 28 bd
       -0.08935587 0.05394167 0.029211894 -0.041029964
0002b0 ee fd b1 bb a7 3c eb 3d fa 70 21 bd 57 24 2d bd
       -0.005431882 0.11486178 -0.039414383 -0.042270985
0002c0 e3 43 e6 bc 0d 2e 4e bb fa f2 dd bd 6b d7 73 bd
       -0.028108543 -0.0031460554 -0.1083736 -0.05953161
0002d0 91 a1 de bd 51 c3 d1 bd 17 fc c2 bc 7d 27 1b 3d
       -0.1087066 -0.10242332 -0.023801846 0.037879456
0002e0 91 73 f0 3c 82 40 4b 3d e4 e4 f1 bc 93 aa ef 3d
       0.029351981 0.049622066 -0.029528089 0.11702456
0002f0 07 01 ef 3d de 10 32 bd 85 6a 22 bd 93 aa c4 bc
       0.11670118 -0.043473117 -0.039652366 -0.024007117
000300 ee a7 ca bc 72 fb b0 bd 6a 1b c6 3d f8 21 d7 bd
       -0.024738278 -0.086417094 0.096731976 -0.10504526
000310 42 37 85 bd 21 40 02 be f2 1d ea bd f3 77 be 3c
       -0.0650468 -0.12719776 -0.11431493 0.023250556
000320 82 45 f8 bc 81 1e e7 bd 7c f9 c7 3d 89 16 c3 3d
       -0.030306581 -0.11285115 0.09764382 0.095257826
000330 a3 40 13 bd 88 31 11 bd 1d 2b 01 bd ac 3f 43 3d
       -0.035950314 -0.035447627 -0.031535257 0.047668144
000340 fb 5c a1 bd 65 42 06 be 47 04 87 bd 1c 20 ff bc
       -0.07879063 -0.13111265 -0.06592613 -0.03114324
000350 a0 41 02 be ea ea 13 3b 5f 62 dc 39 29 03 ac bd
       -0.12720346 0.002257044 0.00042034962 -0.0839904
000360 7b 9d 04 3e d5 a9 11 3e 1b 6e 0e bd b8 74 c7 3d
       0.12950699 0.14224942 -0.034772974 0.09739059
000370 58 8f 23 ba ba c8 d1 bd 0c 13 c0 3d 8e 16 83 3d
       -0.00062393164 -0.10243364 0.09378633 0.06400786
000380 f3 90 10 3e 26 2b a0 bb ec e1 83 bd 0f 94 ce bd
       0.14117794 -0.004887956 -0.064395756 -0.10086834
000390 82 ce 8d 3d ab 07 31 3d fa 71 b4 3c 38 96 74 3d
       0.06924154 0.043220203 0.022027005 0.059713572
0003a0 8a 4b c6 bc 25 ac a6 bd af c3 7b bd 66 83 a5 3d
       -0.024205942 -0.08138303 -0.061465915 0.08081703
0003b0 33 f4 bb bd 79 f1 d6 3d 1e 32 47 bd 18 f3 d0 bd
       -0.09177437 0.10495276 -0.04863178 -0.102026165
0003c0 01 ee 8b 3d 85 db 5e bd 5b 10 94 3d 80 b7 bb bd
       0.06832505 -0.05440857 0.07229682 -0.09165859
0003d0 d8 8a 96 3d 5b c8 b6 bc 8d 66 cb bd 08 b1 96 bd
       0.07350701 -0.022312334 -0.099316694 -0.07357985
0003e0 34 2a 45 3d 2f ce 07 3d da ff a0 bc 86 9f c6 3d
       0.04813595 0.033155616 -0.01965325 0.096983954
0003f0 5f 2a b7 3c de 6d 93 3d b5 76 17 3d bc fb 3b bd
       0.022359071 0.0719869 0.036978442 -0.04589437

lstm.weight_hh_l1 f4 [256, 64]
000000 81 65 ea 3d 1c 52 b2 bc 92 7d 2c 3d ac 05 31 bc
       0.114451416 -0.021767668 0.04211194 -0.010804575
000010 c3 43 82 3d fd 8d f9 3c c8 f0 8d bc ea ed bb 3c
       0.06360581 0.030463213 -0.017326728 0.022940595
000020 e2 d4 27 bd 55 b9 ca bd 13 4a 28 3d 62 de ad bd
       -0.040974505 -0.098986305 0.041086268 -0.08489682
000030 f1 8b b1 3d d0 12 d4 3c 70 61 da 3d 4a a6 72 bd
       0.0866927 0.025887877 0.10663116 -0.059240617
000040 54 dc ed bd b4 15 51 3d 42 3b 9f 3d 9a 13 df bd
       -0.1161429 0.05104609 0.077749744 -0.108924106
000050 61 a6 af 3d 08 48 78 3d f5 75 b6 bd 49 04 0f 3e
       0.08576656 0.06061557 -0.08909217 0.13966478
000060 80 09 f7 3c 9a 22 19 bd af 82 f6 3d 06 62 47 bd
       0.030155897 -0.037386514 0.12036645 -0.048677467
000070 36 fa 8a 3d de df c2 ba e1 10 3a 3d 93 7b 04 3d
       0.06786005 -0.0014867743 0.045426253 0.032344412
000080 36 75 44 bd 10 4f 34 bd a6 45 f2 bb 29 b5 ef bd
       -0.047963344 -0.044020712 -0.0073935566 -0.117044754
000090 d0 36 77 bd 00 37 e8 bd f3 4f d9 bb 87 fb d3 bd
       -0.060355008 -0.113386154 -0.006631845 -0.103507094
0000a0 f2 4e ef bc 3e 7c ed bd a4 2d bb 3d 20 58 77 bc
       -0.029212449 -0.11595963 0.09139565 -0.015096694
0000b0 39 81 cd bd f5 c1 72 bd 18 d4 97 3d e4 59 04 3e
       -0.10034413 -0.059267003 0.074135005 0.12924916
0000c0 ea b1 a0 3d 44 9a be bd 26 db 22 3d cd 33 4a 3d
       0.078464344 -0.093067676 0.039759777 0.049365807
0000d0 2d 26 1e 3d ab 5c c1 bc 9b 7b 27 3d 29 d3 61 3d
       0.038610626 -0.023603758 0.040889364 0.05513302
0000e0 38 ce ec 3d ce 00 e4 bc 76 db 91 3d 89 ca 8f 3d
       0.115627706 -0.027832415 0.07121937 0.070210524
0000f0 f2 71 95 3d db 48 bf 3d 81 31 ce bd 21 36 e7 bd
       0.07297124 0.09340068 -0.10068036 -0.11289621
000100 52 62 91 bd af af cc bd cc ae b7 3c dd 4b 93 3d
       -0.07098831 -0.099944465 0.022422217 0.07192204
000110 84 da 6b 3d 2c 4d 7a bd dd 3f e8 bb 9d 37 c9 3b
       0.05758144 -0.061108753 -0.007087691 0.006140663
000120 b7 02 a6 3d f0 34 c0 3d 28 d1 c2 bd 66 d4 07 3e
       0.081059866 0.09385097 -0.0951255 0.13264617
000130 33 e3 79 3d 80 c7 a5 bd cc 13 a4 bd ac 14 82 3d
       0.06100769 -0.08094692 -0.080115885 0.06351599
000140 de 07 06 be 48 cb a7 3c b0 03 ae 3b 9a 36 ab bd
       -0.13088939 0.020482674 0.005310498 -0.08360024
000150 ce e2 87 bd 3a 10 bc bd b7 43 ce bc d9 93 eb 3d
       -0.066350564 -0.091827825 -0.025178773 0.11502809
000160 8e ad 06 be b2 5a f0 bd 59 b3 61 3d d8 99 14 3e
       -0.13152143 -0.11736049 0.05510268 0.14511812
000170 13 36 83 bd 91 5f 7f bd 0b de 9c bd 63 0e d1 bd
       -0.06406798 -0.062347 -0.07659539 -0.10207822
000180 c7 cf ea bd dd 6c af bd 18 48 2e bd e0 de 07 3a
       -0.11465412 -0.08565686 -0.042549223 0.0005183052
000190 85 84 b7 3c ad 31 36 bd 23 67 2d bd 19 5c 3c 3d
       0.022402057 -0.04448097 -0.042334687 0.04598627
0001a0 7d de 04 3e 55 a1 b6 bd 31 25 21 bd ea b3 a0 bb
       0.12975498 -0.089174904 -0.03934211 -0.00490426
0001b0 0c 6d 81 bd 22 64 c5 3d de b5 ba 3d 1a 5e 89 bd
       -0.06319627 0.096382394 0.0911672 -0.067074016
0001c0 e5 01 ae 3b 8e 68 ef bd ee 05 b0 3d ee 82 00 bd
       0.0053102844 -0.11689864 0.08594881 -0.031374864
0001d0 d7 a8 05 bd 06 24 b4 bd ea 53 ee bd 93 6f 96 3c
       -0.03263172 -0.087959334 -0.11637099 0.01836375
0001e0 3a 69 ea 3b e7 73 f4 3d a8 30 dd 3c c1 4c 64 bc
       0.0071536573 0.11936169 0.02700074 -0.013934315
0001f0 1c 14 25 bd c9 ea 80 3d e2 2d 95 bd 2d 6d 85 3d
       -0.04030238 0.06294782 -0.07284142 0.06514964
000200 c7 9a 95 3d b5 bd 6e 3d 0d 55 8c bb e2 9f 6a bd
       0.07304912 0.058286387 -0.0042826 -0.057281382
000210 cf 1c f8 3c 98 c9 8b 3d 51 92 c7 3d e1 a1 d2 3c
       0.030287175 0.0682556 0.097447045 0.025711956
000220 e5 06 ef 3b f4 c5 05 be 30 12 b9 bd 7c 6a 09 3d
       0.007294523 -0.13063794 -0.09036672 0.033548817
000230 1f 59 9b bd 90 ba 26 3c 79 cb fb 3d cf eb 9c 3d
       -0.07585358 0.010176316 0.12294669 0.076621644
000240 ea c5 9c 3d ba 7b 4c bd e7 c5 8c 3d 4a 0c ce 3d
       0.076549366 -0.049922682 0.068736844 0.10060938
000250 a6 b7 5e 3d c8 1c c2 bd 40 5a e7 3d e6 27 64 bd
       0.05437436 -0.09478146 0.11296511 -0.055702113
000260 4e d2 aa bd ee bd 9d bd 92 e5 e0 3d 2b 9a 19 bd
       -0.08340894 -0.07702242 0.10981287 -0.03750054
000270 90 89 55 3d f7 4d c2 3d b5 60 c8 3c d1 89 f1 bd
       0.052133143 0.09487527 0.024460176 -0.117938645
000280 85 63 0d bd 7f 9f 7b 3d 4c c3 bd bd 67 f4 23 bd
       -0.034518737 0.061431404 -0.092657655 -0.040028002
000290 04 96 91 bd 0d 6f f5 bc b7 86 af bd d1 fc 70 3c
       -0.07108691 -0.02996018 -0.08570617 0.014708714
0002a0 87 f8 9b bd 25 ca 1d 3d 72 fb 79 bd d7 3a 30 3d
       -0.07615762 0.03852286 -0.061030813 0.043024864
0002b0 64 a5 20 bd 2e a2 32 bc 8a 26 e3 bd 8a dc de bb
       -0.03922023 -0.010902924 -0.11091335 -0.0068011926
0002c0 77 bc 6e bd e5 92 aa 3d 0e eb c1 3d a9 e0 51 3d
       -0.058285203 0.08328799 0.09468661 0.051239643
0002d0 4d 2c 8a 3d 81 7f fe 3d 63 12 0a bd 1e 2b 9a 3d
       0.06746731 0.12426663 -0.03370894 0.07527755
0002e0 58 81 a8 3d 21 5c 28 bc ea e6 12 3d f8 85 5f 3d
       0.08227795 -0.0102758715 0.035864748 0.054571122
0002f0 e8 88 a4 3d ce 55 38 bc d2 46 11 bd b0 55 01 bd
       0.08033925 -0.011250926 -0.03546793 -0.03157586
000300 1b 93 c0 bd ee 48 5f bd 1d cc fb 3d bc 5c ff bd
       -0.09403058 -0.05451291 0.12294791 -0.124688596
000310 fa c6 9f 3d e4 6e ea 3d 5e e9 b3 3b e5 e6 d2 3d
       0.07801624 0.11446932 0.005490466 0.10297946
000320 b1 f2 c6 3d 58 89 32 3d 81 4c 86 3d b1 cb 09 bc
       0.097142585 0.043588012 0.06557561 -0.00841038
000330 0a 47 0e bd 23 8e 77 bd 91 ef c7 3d 87 ba 6a 3d
       -0.034735717 -0.060438287 0.097624905 0.057306793
000340 65 6a d4 bd 70 28 7a 3d 0b cc cc bd cf 70 e0 39
       -0.10371856 0.06107372 -0.099998556 0.00042808658
000350 ae b0 53 3c a6 b9 4e 3d e8 35 c9 bc 36 5b ac 3d
       0.012920542 0.050470017 -0.024561837 0.084158346
000360 39 50 e3 3c b6 3d d2 ba b8 50 0a bd 5e 43 88 bd
       0.027748214 -0.001604012 -0.033768386 -0.06653474
000370 db 81 cd 3c 7a 5a a3 3d e4 a5 95 3d 23 1d a1 3d
       0.025086334 0.079762414 0.07307032 0.078668855
000380 c0 bf 5c 3d 56 ea 46 bd fe ab 04 3d f2 24 27 3d
       0.053893805 -0.048563324 0.032390587 0.04080672
000390 cc 42 32 bd 99 6c a5 3d 2d 51 a6 3d b0 8e 5c 3d
       -0.043520734 0.08077354 0.08120952 0.053847015
0003a0 40 c0 e5 3d 0d 78 93 3d 11 39 94 bc 40 9c 16 3d
       0.112183094 0.07200632 -0.018093618 0.036770105
0003b0 3c 19 f8 bd 8b d2 de 3d ab fd 7b 3c 2a c0 d7 bd
       -0.12114188 0.10880002 0.015380303 -0.10534699
0003c0 a8 1b 31 bb d1 61 75 bd 4e e0 dc bd cb 12 89 bd
       -0.002702454 -0.059907738 -0.1078497 -0.066930376
0003d0 55 2e 58 bd 6f 9d 94 3d 2f 69 58 3d 50 fd 8b bd
       -0.05277856 0.072565906 0.052834686 -0.06835425
0003e0 a3 a2 be bd 65 e7 38 3d 18 f7 84 bd be 68 cd bd
       -0.09308364 0.04514255 -0.06492442 -0.100297436
0003f0 92 fa 72 3c 00 26 21 bc d4 78 0c bd ad 55 18 bd
       0.014830248 -0.00983572 -0.03429492 -0.03719108

lstm.bias_ih_l1 f4 [256]
000000 f3 54 c7 3d 6d 0e 22 bd 71 f8 97 3d 30 73 8a 3d
       0.09733 -0.03956454 0.07420433 0.067602515
000010 47 e8 d5 bc 88 12 1c 3d ba dc 05 3e 2c 03 d2 bc
       -0.026111735 0.03810361 0.13072482 -0.025636278
000020 c6 3d 8f 3c 17 45 a2 3c a6 f2 a4 3d a2 42 5d bd
       0.01748551 0.019808335 0.08054094 -0.054018624
000030 5e 07 d9 3d d0 fa b2 3d af 60 85 bd e1 f6 ce bd
       0.10597108 0.08739245 -0.065125816 -0.10105682
000040 b1 bb 16 bd 66 e5 5e bc 39 9c 0e bd 3d ea c1 3d
       -0.03680009 -0.013604498 -0.034816954 0.094685055
000050 7d 41 95 3d 95 54 a2 bd f5 35 e7 3c f1 4b 3d 3c
       0.072878815 -0.07926289 0.02822397 0.01155375
000060 32 50 c6 bd 56 c2 cc bd 8b 44 5f 3c 90 e5 f8 3b
       -0.09683265 -0.09998004 0.013627182 0.0075957254
000070 01 0c 0f 3d a4 c8 33 3d d2 74 8b bc 95 70 dd bd
       0.034923557 0.043892518 -0.017023478 -0.10812489
000080 89 bd ee 3d bd c3 c2 3d 1b 5e 8f 3d 25 34 09 be
       0.11657245 0.0950999 0.07000371 -0.13398798
000090 2e 40 e0 3d aa ab b7 3d f3 ce fd 3d 28 6d 9b 3d
       0.10949741 0.08968289 0.12392988 0.07589179
0000a0 a1 c8 b1 bd 93 36 9b 3c b4 33 b8 bd d4 9c 9a bd
       -0.08680845 0.018946921 -0.089942366 -0.07549444
0000b0 bb ab f7 3d 1a 49 68 bd a1 c2 60 3d b9 28 a8 bd
       0.12093302 -0.05671034 0.054873113 -0.08210892
0000c0 a7 75 2e 3c 4a 77 52 3c 14 ae e2 3d 25 d6 c9 3d
       0.010648168 0.012845824 0.11068359 0.09855298
0000d0 c1 f7 87 3d bb 66 08 be 81 06 58 3d a5 2d e8 3c
       0.06639052 -0.13320439 0.052740578 0.028342078
0000e0 f1 47 7b bc e3 52 17 bd 9a e6 21 bd 24 77 fc 3b
       -0.015336976 -0.03694428 -0.03952656 0.0077046324
0000f0 34 f0 e3 3d 21 82 01 bd ef a5 75 3c 3a 47 bd bd
       0.111297995 -0.03161824 0.014993175 -0.09242101
000100 61 cc 36 bd dd 96 07 be e7 7a 3b bd 8b b2 11 3d
       -0.044628505 -0.13241144 -0.045771506 0.035570662
000110 0b 7a 35 3c 26 9d e5 bd 6f 21 98 3d d7 2f 94 3c
       0.011076461 -0.11211614 0.07428252 0.018089218
000120 e7 59 9d bc 09 53 c6 3c 97 62 dd 3d 10 2e 4b bd
       -0.019207908 0.024209516 0.1080982 -0.049604475
000130 c4 3d 61 3d 5b 49 bb 3d 26 a7 82 bd 50 66 36 3d
       0.054990545 0.09144851 -0.06379537 0.044531167
000140 6c a2 de 3d da 57 9e bb 91 18 96 bc 4c 8f d3 bd
       0.10870823 -0.00483225 -0.018322261 -0.10330066
000150 d4 92 02 bd 65 39 ec bd 54 2b 6f bd 01 c2 a3 3d
       -0.031878307 -0.11534385 -0.05839093 0.07995988
000160 c3 d3 c0 bd 70 64 5c bd 93 71 b3 bd b5 29 b1 bd
       -0.0941539 -0.053806722 -0.08761897 -0.08650533
000170 8a f6 e5 bd 5e 54 54 3c f5 10 da 3d ba ee 6a bc
       -0.11228664 0.012959568 0.106477655 -0.014339143
000180 bd 6c cc bd b8 f8 ca 3d 31 1c a7 3c 84 07 df 3d
       -0.09981678 0.099107206 0.020399185 0.10890105
000190 9d 50 bd bd 1c ca b3 bd 97 b4 a4 bd 74 4b 1e 3d
       -0.092438914 -0.08778784 -0.08042257 0.038646176
0001a0 7a 00 bb 3d 9d 08 28 3d 45 e0 10 bb 26 85 65 bd
       0.0913095 0.04102384 -0.0022106331 -0.056035183
0001b0 b3 db 88 3c ea 1d c6 bd 0c 74 d9 bd d8 79 49 3d
       0.016706323 -0.096736744 -0.10617837 0.049188465
0001c0 2e b0 69 bd 8f 51 36 bd 95 f0 ff 3d 42 19 c9 bd
       -0.057052784 -0.044511374 0.12497059 -0.09819271
0001d0 f5 28 c0 3d 2f 00 6c ba c7 b6 97 bd dd c6 53 bd
       0.09382812 -0.0009002713 -0.07407909 -0.051703323
0001e0 12 66 23 bd 18 bc b8 bd e0 94 41 bb d6 1e 82 3d
       -0.039892264 -0.09020251 -0.00295382 0.06353538
0001f0 7c 7a 2c bc bb ca 03 be 9b d6 13 3d 6a 00 06 be
       -0.010527249 -0.12870304 0.036093336 -0.13086095
000200 95 a2 d7 bd a9 d3 cc bd 2e 3b eb bb 9f fd fa bd
       -0.10529057 -0.100013085 -0.0071786856 -0.12255406
000210 ac 21 ac 3d e5 0e d3 3d bf d1 79 bc ac 37 98 bb
       0.0840486 0.10305575 -0.015247761 -0.0046453085
000220 2a 12 aa 3d 22 eb f9 ba a3 16 bf bd 42 32 57 bd
       0.08304246 -0.0019067267 -0.093304895 -0.052538164
000230 7e cc 52 bd 63 ed eb 3d e6 d0 bd bc d8 a6 83 3d
       -0.05146455 0.11519887 -0.0231709 0.06428307
000240 c9 d0 18 3d 84 e2 03 be 9c 19 59 3d 3a bf b7 bd
       0.037308488 -0.12879378 0.05300294 -0.089720204
000250 59 c4 a9 bc f5 c4 29 bd bc fd ca ba d3 ac 69 3d
       -0.020723509 -0.0414476 -0.0015486996 0.057049584
000260 97 73 83 3d 2d a3 69 3d e0 99 51 bd 20 ba 52 bd
       0.064185314 0.057040382 -0.051172137 -0.051447034
000270 80 a4 e1 3d a0 f3 32 3c 2a 71 a2 bd 81 8b 4c bd
       0.11017704 0.010922343 -0.079317406 -0.04993773
000280 ac 7c 7b 3d 08 bb 71 bd 2c 79 ab bc c8 bd c5 bd
       0.061398193 -0.059016258 -0.020931803 -0.096553385
000290 a7 30 5a 3d 4e a3 ea 3d 82 66 55 bd 08 3b d2 3d
       0.053269055 0.11456929 -0.052099712 0.102651656
0002a0 49 10 83 3d ed 5f 86 bd d9 d8 f1 bd f7 35 e3 bd
       0.063995905 -0.06561265 -0.118089385 -0.11094277
0002b0 4f 76 5b 3d 92 46 88 3d 75 b8 b2 bc 23 a1 6a bd
       0.053579625 0.06654085 -0.021816472 -0.05728258
0002c0 e8 a0 83 bd ec 78 19 bc b5 b1 87 3d 0c d8 3e 3d
       -0.06427175 -0.009367209 0.06625692 0.046592757
0002d0 7a b5 82 3d c2 33 8c 3c a3 25 dd 3d 5a 68 d5 bd
       0.0638227 0.017114524 0.10798194 -0.10420294
0002e0 8a 97 a5 3c a7 1e 9d bd 04 03 f6 3d ad e9 eb bd
       0.020213861 -0.07671862 0.12012294 -0.115191795
0002f0 a1 2b aa bc 6f d1 8d 3d 26 66 99 bc 2a 0a 97 bd
       -0.020772757 0.06924712 -0.018725466 -0.073749855
000300 ba fa d4 bd 84 2d d7 3b 8c 88 a8 3d 33 bc 93 3d
       -0.10399385 0.006566705 0.08229169 0.072136305
000310 1f 52 e5 bd 61 a6 03 bd 31 54 d3 3c 8c 71 0f 3d
       -0.11197304 -0.032141093 0.025796982 0.035020396
000320 66 71 f6 3c 8f 30 f2 bd 84 b1 92 bc ca 18 c2 bd
       0.03008337 -0.11825668 -0.017906912 -0.094773844
000330 d2 45 f0 bc 2e e0 3a bd b4 1f 9b bd 83 c1 15 3d
       -0.029330168 -0.04562395 -0.07574406 0.0365615
000340 e8 7b da bd 0f da af 3d 9e 39 68 bc 0b bf d4 3b
       -0.106681645 0.08586513 -0.014173893 0.0064925007
000350 ae 09 9a bd 42 68 9a bd 8d 2b 9d bd ba d0 fe bd
       -0.075213775 -0.07539417 -0.07674322 -0.12442155
000360 38 b4 86 3d c4 1f 0a 3e f3 3a c1 3d 65 9b db bd
       0.06577343 0.1348868 0.09435072 -0.107229985
000370 da 69 70 3d 6f 88 e4 bd d1 7b ad 3c fb fa a8 bd
       0.058694698 -0.11158835 0.021177204 -0.08250996
000380 ac 9f ed 3c bd f8 27 bd 09 a7 25 3a a4 80 d5 bd
       0.029006802 -0.0410087 0.00063191407 -0.10424927
000390 f6 5a 4f 3d 87 1e b3 3d f9 a9 4b 3b ba 0d d7 3d
       0.050623856 0.08746057 0.0031076653 0.10500665
0003a0 67 da fb 3d 35 55 81 bd e9 13 db 3d 6c ae 76 3d
       0.12297516 -0.0631508 0.10697157 0.060224935
0003b0 b2 5c 0e bc 03 8d 7a bc 4a 72 64 bd a6 12 93 bd
       -0.0086890925 -0.015292409 -0.055773057 -0.07181291
0003c0 b7 4c 3e bd 1e bf 05 3d 4d 95 d7 bd ff f1 01 3e
       -0.04645988 0.032652967 -0.10526524 0.1268997
0003d0 c8 60 11 bd c5 68 c3 bb 5b a8 e7 3d c2 70 b3 3d
       -0.03549269 -0.0059634172 0.11311408 0.08761741
0003e0 4d 44 01 3e b1 53 56 3d e5 7f 38 3d a8 44 5b bc
       0.12623711 0.052325908 0.045043845 -0.013383068
0003f0 b0 f2 26 3d 23 b7 9c bd 86 2c ce 3d db 0d 7c 3d
       0.04075879 -0.07652118 0.10067086 0.06153665
